src/models/bc-with-acts.onnx (onnx, 336927 bytes, 10 tensors)

conv1.weight f4 [6, 5, 5, 5]
0	0x3cb82cc8	0.02248229
1	0x3d2edbcb	0.04269008
2	0xbd56776f	-0.052359995
3	0x3d9922c5	0.07477335
4	0x3d2865c2	0.04111267
5	0xbd72ef0c	-0.059310004
6	0x3d353c51	0.044246975
7	0x3d775ab9	0.060389254
8	0xbd617415	-0.055042345
9	0x3cec7006	0.02886201
10	0xbd1f2815	-0.038856585
11	0xbb8c10c1	-0.004274458
12	0x3ca181cc	0.019715212
13	0x3a8247ca	0.0009939608
14	0x3b8e86b4	0.004349554
15	0x3dafe8f8	0.08589357
16	0x3d8b96c9	0.06815869
17	0x3d0c96aa	0.034323372
18	0xbda3a7e7	-0.07991009
19	0xbc68f438	-0.014218383
20	0xbd1abb62	-0.03777636
21	0x3be03fcd	0.006843543
22	0x3d904650	0.07044661
23	0x3d361227	0.044450905
24	0x3d1343de	0.035953395
25	0xbce21b13	-0.0276008
26	0xbdbea232	-0.0930828
27	0x3cdb1802	0.026744846
28	0xbd33bcfc	-0.0438814
29	0xbd09d987	-0.033654716
30	0x3c14812a	0.009063998
31	0xbc1cab19	-0.009562277
32	0xbbf4d022	-0.0074711004
33	0x3c0a3639	0.008435779
34	0x3d083833	0.03325672
35	0xbdbdda5e	-0.09270166
36	0xbd4c99c6	-0.049951337
37	0xbca580fa	-0.020203102
38	0x3d9d310e	0.07675372
39	0x3cb2f94a	0.021847386
40	0xbd6ea19b	-0.058259588
41	0xbca80227	-0.020508839
42	0xbd8f4df7	-0.069972925
43	0x3c23f084	0.010006074
44	0xbd64d393	-0.055865835
45	0x3db1e97a	0.0868711
46	0x3d6c0cc3	0.057629358
47	0x3d938380	0.07202816
48	0x3cd6064c	0.02612605
49	0x3baabfe4	0.0052108634
50	0xbdc4d22c	-0.096103996
51	0x3d92c1cb	0.07165869
52	0xbdaec78b	-0.085341536
53	0xbdb32a36	-0.087482855
54	0xbcef5c85	-0.029218921
55	0xbce88b59	-0.028386759
56	0xbdb26a85	-0.08711723
57	0xbd4485f3	-0.047979306
58	0xbd3bd6fc	-0.045859322
59	0xbcd57915	-0.026058713
60	0x3d62faa2	0.055414803
61	0xbdb26795	-0.08711163
62	0xbcb4ac0c	-0.022054695
63	0xbd0895eb	-0.033346098
64	0x3d5a02f8	0.053225487
65	0x3c798d16	0.015231391
66	0x3ce56420	0.028001845
67	0x3d8b2173	0.06793489
68	0x3d60265f	0.054724094
69	0xbd324ccb	-0.043530267
70	0x3cf6b0b0	0.030113548
71	0x3d0ca80a	0.034339942
72	0x3d6e79d8	0.058221668
73	0xbc85a0c1	-0.016312005
74	0x3d3c6994	0.045999125
75	0xbd1d5f49	-0.03842095
76	0x3cabb78b	0.020961544
77	0xbdb9f6cb	-0.09080275
78	0xbc0bfc79	-0.008544081
79	0xbcb18423	-0.021669453
80	0x3c8a2606	0.016863834
81	0xbdae2a88	-0.08504206
82	0xbda514f0	-0.08060634
83	0xbbfc10a0	-0.0076924115
84	0x3d7a550a	0.061116256
85	0x3da3c8c3	0.07997277
86	0x3d86619a	0.06561585
87	0xbd83fdda	-0.06444903
88	0xbd3a51db	-0.04548822
89	0x3d31bac6	0.04339101
90	0xbdb5ac03	-0.08870699
91	0xbd835e69	-0.06414492
92	0xbdb64b13	-0.08901038
93	0x3bf2d920	0.007411137
94	0xbd0a33e7	-0.033740904
95	0xbd068c87	-0.03284886
96	0x3da97877	0.0827493
97	0x3d338d68	0.043836027
98	0xbd8cbff7	-0.06872552
99	0x3d368834	0.044563487
100	0xbd7a8dfc	-0.061170563
101	0xbd10d38a	-0.03535799
102	0xbdc10153	-0.09424081
103	0xbbc725c7	-0.0060775015
104	0xbb3df627	-0.002898583
105	0xbd4f496c	-0.05060713
106	0xbc140f35	-0.009036829
107	0x3c9bbf0f	0.019012002
108	0xbd09e031	-0.03366107
109	0xbb8440d4	-0.0040360484
110	0x3cb03dd0	0.02151385
111	0x3c78b35a	0.0151794795
112	0xbce3c7cb	-0.02780523
113	0x3c918a62	0.017766181
114	0x3da14025	0.07873563
115	0x3d5ca0be	0.053864233
116	0xbd2b0f4b	-0.04176263
117	0x3c4ec4e2	0.012620183
118	0x3d1e2070	0.038605154
119	0x3da16146	0.078798816
120	0x3d8b0098	0.067872226
121	0x3d13dead	0.036101032
122	0x3c885d00	0.016645908
123	0xbcaa59a8	-0.020794705
124	0x3dad520e	0.08462916
125	0x3c8702dd	0.016480858
126	0xbbb528fa	-0.0055285664
127	0x3d723c13	0.059139322
128	0xbd5a0ffe	-0.053237908
129	0x3d8564d1	0.0651337
130	0xbc939a40	-0.018017888
131	0x3d654e9f	0.055983182
132	0x3caa9745	0.020824084
133	0xbbe8e527	-0.007107395
134	0x3b3a3ec1	0.0028418752
135	0xbd63fbcd	-0.055660058
136	0x3d6276db	0.05528913
137	0x3d99f2e2	0.07517029
138	0x3d5c4184	0.053773418
139	0xbd259e61	-0.040434245
140	0xbd5dafa2	-0.054122575
141	0xbd847a56	-0.06468646
142	0xbd52c4b2	-0.051457115
143	0xbd1d285e	-0.038368575
144	0x3d68b7d5	0.05681594
145	0xbca63531	-0.020289036
146	0xbd41516b	-0.047196787
147	0xbc105a09	-0.008810529
148	0x3c83d48f	0.016092567
149	0xbc95b8e8	-0.018276647
150	0xbc1c986b	-0.009557824
151	0x3d0ce2ae	0.034395866
152	0x3b1429dd	0.002260796
153	0x3c660673	0.014039624
154	0x3d811912	0.0630361
155	0xbd7fabfc	-0.062419876
156	0x3d98353c	0.07432029
157	0x3d8aba41	0.06773806
158	0x3c9baaf0	0.019002408
159	0x3da66afa	0.08125873
160	0x3da03879	0.07823271
161	0xbc84d5d7	-0.016215248
162	0x3d405b9b	0.04696236
163	0x3d96833f	0.07349252
164	0x3dd53101	0.104097374
165	0x3da893cc	0.08231315
166	0x3c1fbce9	0.00974963
167	0xbcfd213e	-0.03089964
168	0x3c940518	0.018068835
169	0xbd98f4f7	-0.07468598
170	0xba506438	-0.0007949504
171	0xbd70a1a5	-0.058747906
172	0x3d8334ac	0.06406531
173	0x3d882daa	0.06649335
174	0xbd9fbcee	-0.07799707
175	0x3dbc39b1	0.09190691
176	0xbd02e957	-0.03196081
177	0x3cd2dbb6	0.025739532
178	0xbd82f03c	-0.06393477
179	0xbc57189c	-0.013128426
180	0xbd73e2cf	-0.059542473
181	0x3d948a20	0.07252908
182	0x3dccaaf4	0.09993544
183	0x3ceed858	0.029155895
184	0x3ba82b19	0.0051320908
185	0xbd8092ba	-0.06277986
186	0xbd00e705	-0.031470317
187	0x3da5c06f	0.080933444
188	0x3bbcdcf3	0.005763644
189	0xbcabe070	-0.020981044
190	0xbb200687	-0.0024417953
191	0x3dbfe488	0.09369761
192	0xbceb5062	-0.028724853
193	0x3dbd6544	0.092478305
194	0xbbb69c67	-0.005572844
195	0x3ce78a74	0.028264262
196	0x3d190fc3	0.037368547
197	0x3d828df1	0.063747294
198	0x3db52495	0.08844868
199	0x3d5dfb76	0.05419489
200	0xbc825af1	-0.015912505
201	0x3c96cf5c	0.018409424
202	0xbcd043e5	-0.025423
203	0x3db64a24	0.0890086
204	0xbcafb32e	-0.021447744
205	0xbd6b74cc	-0.057484433
206	0x3dbf35c9	0.093364306
207	0x3d934137	0.07190173
208	0xbd3d0e80	-0.046156406
209	0x3dbdad84	0.09261611
210	0x3d9b8792	0.07594217
211	0x3beeec8a	0.0072913812
212	0xbd86f321	-0.06589342
213	0xbcc1cd26	-0.023657393
214	0x3d843080	0.06454563
215	0x3d28da54	0.04122384
216	0x3cd38892	0.025821958
217	0x3c6b69e1	0.014368505
218	0xbc5478bb	-0.0129682375
219	0xbcc315b1	-0.023814054
220	0xbd84062a	-0.06446488
221	0x3dbb56c5	0.09147409
222	0xbd155079	-0.036453698
223	0x3d6f24a9	0.05838457
224	0x3cc439a9	0.023953276
225	0x3cde801d	0.027160699
226	0xbc1d58f0	-0.009603724
227	0x3d7d4a45	0.061838407
228	0xbc3758e4	-0.011190627
229	0x3c781e47	0.015143937
230	0x3da2a148	0.07940918
231	0x3c0092a7	0.007847465
232	0x3db05227	0.08609419
233	0x3d78d85e	0.06075322
234	0x3b6432d9	0.0034820347
235	0x3d9c0ace	0.07619248
236	0x3d9300b9	0.07177872
237	0x3cc15c9b	0.023603728
238	0x3c81f209	0.015862482
239	0x3d0de1e0	0.03463924
240	0xbd396032	-0.045257755
241	0x3d46b1ac	0.048509285
242	0xbd74d523	-0.059773576
243	0x3c0e74cf	0.0086948415
244	0xbd0fdd39	-0.035123084
245	0x3d89555d	0.06705735
246	0x3d743941	0.059624914
247	0x3d137362	0.03599871
248	0x3d443a3f	0.04790711
249	0x3d5427a8	0.05179563
250	0x3dbf045d	0.09327004
251	0x3d514d5e	0.051099174
252	0x393ee3bd	0.00018204651
253	0xbd73558c	-0.059407756
254	0xbd9cdde8	-0.07659513
255	0x3dab429b	0.08362313

conv1.bias f4 [6]
0	0x3daf32d3	0.08554616
1	0xbcf59df2	-0.02998254
2	0x3d533214	0.05156143
3	0xbd39c4b2	-0.0453536
4	0xbcbe450d	-0.023226285
5	0xbd1e1b32	-0.038600154

conv2.weight f4 [16, 6, 5, 5]
0	0x3c40a85f	0.011758893
1	0x3da616f0	0.08109844
2	0x3dab1187	0.083529525
3	0x3c44baa8	0.012007393
4	0x3c78dac8	0.01518888
5	0x3d223a61	0.039606456
6	0xbd0fe372	-0.035129018
7	0xbc8f3903	-0.01748324
8	0xbd675d0e	-0.05648523
9	0xbd6c3dc7	-0.057676103
10	0x3d160a74	0.036631063
11	0x3da41a56	0.08012836
12	0xbda1dfd2	-0.079040185
13	0x3c285669	0.010274508
14	0x3d89c666	0.067272946
15	0x3d4476cb	0.047964852
16	0xbcfb2fdb	-0.030662468
17	0x3d2f47d9	0.04279313
18	0x3d0e57de	0.034751765
19	0xbd82241d	-0.06354544
20	0x3d446475	0.047947366
21	0x3d6aa4ed	0.05728619
22	0x38f9b718	0.00011907349
23	0x3d7b39b0	0.061334312
24	0x3d7a0ff4	0.06105037
25	0x3b84f024	0.0040569473
26	0x3d8e3ea0	0.069455385
27	0x3d2afb30	0.041743457
28	0x3d8729e8	0.0659979
29	0x3cca60a7	0.02470429
30	0x3cb557ee	0.022136655
31	0xbd5b84e2	-0.053593524
32	0x3d5e499e	0.054269426
33	0x3c405a6a	0.011740306
34	0x3c32aed3	0.010905939
35	0x3ca2d00d	0.019874597
36	0xbd9643e8	-0.07337171
37	0x3d376995	0.044778425
38	0x3d2b2135	0.041779716
39	0xbd7d1efb	-0.061797123
40	0xbb445113	-0.002995555
41	0x3c97a3d1	0.018510731
42	0xbb520ed9	-0.0032052307
43	0xbd896126	-0.06707983
44	0xbbf03b38	-0.007331278
45	0xbda11b1e	-0.078665
46	0xbd286a9b	-0.041117292
47	0x3d97006b	0.073731266
48	0xbc70e95a	-0.014704073
49	0x3d27c375	0.040957887
50	0xbd19dcec	-0.037564203
51	0x3ceea5ff	0.029131887
52	0xbd11a0cc	-0.03555374
53	0x3d9ab11d	0.07553313
54	0xbcb5435a	-0.022126842
55	0xba131e10	-0.00056120846
56	0xbd04c391	-0.03241307
57	0x3d8ef708	0.06980711
58	0x3cd3674a	0.025806088
59	0x3cd49a47	0.025952471
60	0x3d11befa	0.03558252
61	0x3bc0c85b	0.0058832592
62	0x3c337bcd	0.010954809
63	0x3ce55703	0.027995592
64	0xbcdb830c	-0.026795886
65	0xbd9901cb	-0.07471045
66	0x3d0f61ac	0.035005257
67	0xbc0d9083	-0.008640411
68	0x3d9df49a	0.0771267
69	0xbd694cf5	-0.056958158
70	0xbd8bb6a6	-0.06821947
71	0xbd1f2ccb	-0.038861077
72	0xbd9eb4dc	-0.0774934
73	0x3c871f34	0.016494371
74	0xbcb3b989	-0.021939056
75	0x3caa982c	0.020824514
76	0xbd30e9e4	-0.043191805
77	0x3ce95004	0.028480537
78	0x3d02649e	0.031834237
79	0xbcce4722	-0.025180403
80	0xbc5b4c1d	-0.013384846
81	0xbd0c09e2	-0.034189112
82	0x3d2fd532	0.04292793
83	0x3d8f3b0d	0.06993685
84	0x3c651afa	0.0139834825
85	0x3d646fdf	0.05577075
86	0x3bcc6520	0.006237641
87	0x3c60da82	0.013723971
88	0xbd121449	-0.035663877
89	0xbc3f85e4	-0.011689637
90	0x3d2a6be6	0.041606806
91	0x3d71261a	0.058874227
92	0x3d84f4bb	0.06491991
93	0x3c513708	0.012769468
94	0x3d0cc053	0.034363102
95	0xbacf7a1c	-0.0015829238
96	0xbc9f2475	-0.019426564
97	0xbd9102cf	-0.07080614
98	0x3da2aa2a	0.079426125
99	0x3d853c74	0.06505671
100	0xbd87ae8e	-0.066250905
101	0x3d10769b	0.03526936
102	0xbd241a23	-0.04006399
103	0x3d85dbf1	0.06536091
104	0xbcd6608a	-0.02616908
105	0xbcd5eee0	-0.026114881
106	0xba1d5d33	-0.00060029625
107	0xbcf44eb2	-0.029822681
108	0xbc8f98c5	-0.0175289
109	0xbd946a5d	-0.0724685
110	0xbb3ac5c3	-0.0028499223
111	0x3d14463f	0.036199804
112	0xb99bf144	-0.0002974366
113	0x3d8e35d3	0.0694386
114	0x3d6d64f8	0.05795762
115	0xbd269b5b	-0.040675502
116	0x3d91d9e1	0.07121635
117	0x3d50af7c	0.050948605
118	0xbd440c7c	-0.04786347
119	0x3bb3616c	0.00547426
120	0xbd02acb8	-0.031903
121	0xbd849038	-0.0647282
122	0xbd3217f5	-0.04347988
123	0xbd539e29	-0.051664505
124	0x3c93caa1	0.018040957
125	0x3c986841	0.0186044
126	0xbd9aa8bb	-0.07551714
127	0x3cdf0e68	0.02722855
128	0xbd8195f6	-0.06327431
129	0x3d946f09	0.07247741
130	0x3d103dd2	0.035215206
131	0xbcae1cce	-0.02125397
132	0x3d19dae3	0.037562262
133	0x3d707bf2	0.058711953
134	0xbd05d4ba	-0.032673575
135	0x3cf8f2fa	0.030389298
136	0xbd95f674	-0.07322398
137	0xbd550e43	-0.052015554
138	0xbd3ec8d5	-0.046578247
139	0xbbb21668	-0.0054348
140	0x3d9f786f	0.07786643
141	0xbd7f44d9	-0.062321518
142	0x3c3416b5	0.010991742
143	0x3d6b08ea	0.057381548
144	0xbd3f9721	-0.046774987
145	0x3bb8e692	0.0056427205
146	0xbd1bffd7	-0.038085785
147	0x3c8fd0e9	0.01755567
148	0xbd918d50	-0.07107031
149	0x3d9c96e5	0.07645968
150	0xbd44ca91	-0.048044745
151	0xbd43db19	-0.04781637
152	0xbd5b73ea	-0.05357734
153	0x3d3f1823	0.046653878
154	0xbc957ffb	-0.018249502
155	0xbcc33101	-0.023827078
156	0xbd6b9044	-0.05751063
157	0x3d463e74	0.048399404
158	0xbcc3cba9	-0.023900824
159	0xbd300083	-0.042969238
160	0xbcd26150	-0.025681168
161	0x3d3c6903	0.045998584
162	0xbd95565f	-0.072918646
163	0x3c8701ed	0.01648041
164	0x3d345aea	0.044032015
165	0x3ce40b4c	0.027837418
166	0xbcfcecce	-0.030874636
167	0x3d89f3c7	0.0673595
168	0x3d08317a	0.03325031
169	0x3d326c49	0.0435603
170	0x3c0a6430	0.008446738
171	0xbc17dd58	-0.009269081
172	0xbd847c0e	-0.06468974
173	0x3d9f7e7f	0.07787799
174	0x3d34d81d	0.044151414
175	0x3da93484	0.0826197
176	0x3d9d0378	0.07666677
177	0x3c0ea867	0.008707142
178	0xbd60aabd	-0.05485033
179	0xbd7924b0	-0.060826004
180	0xbbd708b4	-0.006562317
181	0xbd704881	-0.058662895
182	0xb996fdd8	-0.00028799358
183	0xbb9d7d4e	-0.0048061972
184	0xbd978926	-0.07399206
185	0xbd6fbd87	-0.058530357
186	0xbd79c12e	-0.060975246
187	0xbd7971e3	-0.060899626
188	0xbd7002d7	-0.05859646
189	0xbae6aed2	-0.0017599708
190	0xbc5fac13	-0.013651866
191	0x3d074ee9	0.03303424
192	0x3d1badad	0.038007427
193	0xbce55e0f	-0.027998952
194	0xbd88d711	-0.06681646
195	0x3dab01bb	0.083499394
196	0x3d38dd48	0.045132905
197	0x3d37da5c	0.044885978
198	0x3cab5de8	0.020918801
199	0xbc0485c0	-0.008088529
200	0x3d7ac39b	0.0612217
201	0x3d91b739	0.07115025
202	0xbd7621f6	-0.06009098
203	0xbd296436	-0.041355334
204	0x3d106a41	0.03525758
205	0xbd37ed20	-0.044903874
206	0xbd9f0097	-0.077637844
207	0xbc45af05	-0.012065654
208	0x3cf2cf14	0.029639758
209	0x3da2e6e1	0.07954193
210	0xbd8f2da2	-0.06991126
211	0xbc08a1dd	-0.008339372
212	0xbd6ad001	-0.057327274
213	0xbd25f2b0	-0.040514648
214	0x3c9b519d	0.018959815
215	0x3c8ee848	0.017444745
216	0xbd7ddc17	-0.061977472
217	0xbda5b16e	-0.08090483
218	0x3c2f2ee2	0.01069233
219	0xbcfc3895	-0.0307887
220	0xbd3da90f	-0.046303805
221	0xbc1d4330	-0.009598538
222	0x3cc77d14	0.024351634
223	0xbcaaf9d0	-0.020871073
224	0xbb1dd884	-0.0024085352
225	0xbd729b39	-0.059230063
226	0xbd217509	-0.039418254
227	0x3c1b95fe	0.00949621
228	0x3d945420	0.07242608
229	0xbd46fd4c	-0.048581406
230	0xbd707264	-0.05870284
231	0x3d3ad97d	0.04561757
232	0x3d86fe3c	0.0659146
233	0x3d4d424e	0.05011206
234	0xbd6a5316	-0.057208143
235	0xbd594c4c	-0.053051278
236	0x3d0a971d	0.03383552
237	0x3d21f849	0.039543424
238	0x3bb1a383	0.0054211034
239	0x3b647203	0.0034857995
240	0x3bb7aea0	0.0056055337
241	0x3bbbd586	0.005732241
242	0x3d24f405	0.040271778
243	0x3d80514d	0.06265507
244	0xbcb7e056	-0.022445839
245	0xbc63d9bb	-0.013906891
246	0xbd8c1b7c	-0.0684118
247	0xbcba16fa	-0.022716034
248	0xbbbe8a10	-0.005814798
249	0x3d9d092e	0.076677665
250	0x3d1fd617	0.03902253
251	0x3d00361b	0.0313016
252	0x3d743f00	0.059630394
253	0x3d2e3cbb	0.042538386
254	0xbd9dad4c	-0.076990694
255	0x3d9a6d24	0.07540348

conv2.bias f4 [16]
0	0x3d0b6813	0.0340348
1	0x3da60c93	0.08107867
2	0x3d89c71e	0.06727432
3	0xbcbb34df	-0.02285236
4	0x3c9dff0f	0.01928666
5	0x3d9ad429	0.075599976
6	0x3c2665c6	0.010156101
7	0xbd9c42dd	-0.07629941
8	0x3d92d1ea	0.07168944
9	0xbd13e756	-0.03610929
10	0x3d039bd6	0.03213104
11	0x3dcaec7e	0.099083886
12	0xbc6e4f2e	-0.014545245
13	0xbd2c3e99	-0.042051885
14	0xbd9e1528	-0.07718879
15	0xbcdc8fbf	-0.026924012

fc1.weight f4 [120, 584]
0	0x3d0f4b22	0.03498376
1	0x3b8f4c71	0.004373126
2	0xbcc948ac	-0.024570785
3	0xbd1154ea	-0.03548137
4	0xbc23915d	-0.009983388
5	0x3c4ca4b5	0.012490441
6	0x3bf9982d	0.0076170177
7	0x3d024424	0.031803265
8	0xbcef596c	-0.029217444
9	0x3cbd030b	0.02307274
10	0x3c2657c1	0.010152758
11	0x3c669167	0.014072753
12	0xbcc1d555	-0.023661295
13	0xbb2617e8	-0.002534384
14	0x3cc210af	0.023689596
15	0xbd264ec2	-0.040602453
16	0x3bcbb96d	0.006217173
17	0x3ad90c1f	0.0016559399
18	0xbb33cd72	-0.0027435687
19	0xbd064737	-0.03278276
20	0xbcdb81f9	-0.026795374
21	0xbd1b1019	-0.03785715
22	0xbce23b79	-0.02761625
23	0xbb0eb340	-0.0021774322
24	0xbc380f15	-0.011234065
25	0xbc80620c	-0.015671752
26	0xbcf80f81	-0.03028083
27	0xbd075538	-0.033040255
28	0x3cf1853f	0.029482482
29	0x3d21a24d	0.039461423
30	0x3d0df701	0.03465939
31	0xbd12a3b1	-0.03580064
32	0xbc5ff3f7	-0.013669006
33	0xbc7bc101	-0.01536584
34	0xbc45563d	-0.012044487
35	0x3cb25db4	0.021773197
36	0xbb72d7a5	-0.0037054804
37	0xbd01bbe7	-0.03167334
38	0x3ce8cd92	0.028418336
39	0x3d0e7cd1	0.034787003
40	0x3cb90b80	0.022588491
41	0xbcf54b93	-0.029943263
42	0x3c7b69c8	0.015345044
43	0xba812cc2	-0.0009855258
44	0x3caf6103	0.021408563
45	0x3c37a892	0.011209624
46	0x3ab53719	0.0013825624
47	0x3d13ddf5	0.036100347
48	0xbc8e5a00	-0.0173769
49	0xbb64a23e	-0.0034886743
50	0xbce1ba0c	-0.027554534
51	0xbd13fc06	-0.03612902
52	0x3caf67b3	0.021411752
53	0x3c925e96	0.017867368
54	0xbcef1c0f	-0.029188184
55	0x3d02d430	0.03194064
56	0x3caa9cbc	0.02082669
57	0xbc98925b	-0.018624475
58	0x3c2186f9	0.00985884
59	0xbce84c0c	-0.028356574
60	0xbcc22405	-0.023698816
61	0x3c96e892	0.018421445
62	0x3d27ef99	0.040999983
63	0x3cc34b0a	0.023839492
64	0xbbe0c424	-0.0068593193
65	0x3d00d390	0.03145176
66	0x3d1a0f9f	0.037612554
67	0xbc9d54a2	-0.019205395
68	0xbc2ef667	-0.010678864
69	0x3c9e233a	0.019303907
70	0x3be3b2b4	0.0069487933
71	0x3d28489f	0.041084882
72	0x3ceaf1bf	0.028679727
73	0xbd04a7a0	-0.032386422
74	0x3c8fc63c	0.01755058
75	0x3c7c53c9	0.015400835
76	0xbd273c03	-0.040828716
77	0x3c523fb1	0.012832568
78	0x3d1e78f6	0.038689576
79	0xbc5c3a49	-0.013441631
80	0xbd01ce16	-0.03169068
81	0xbd159986	-0.036523364
82	0x3b90baa9	0.004416783
83	0x3cb5fd26	0.022215437
84	0x3ced9c8b	0.02900531
85	0xbd224730	-0.03961867
86	0x3c9cba72	0.019131873
87	0x3c755ed7	0.014976225
88	0x3d08b7ff	0.033378597
89	0x3c3bd398	0.011464022
90	0x3b9a7972	0.0047141844
91	0xbc738477	-0.014863125
92	0x3c47be29	0.012191334
93	0xbbf3bee7	-0.007438529
94	0x3c944617	0.018099828
95	0x3d021eef	0.03176778
96	0xbc4f7e23	-0.012664351
97	0xbca70b52	-0.02039114
98	0xbc5a3b4e	-0.013319803
99	0x3c96881e	0.018375453
100	0x3ca94357	0.020661993
101	0xbd236af6	-0.039896928
102	0x3c654a0d	0.013994706
103	0xbcbee022	-0.023300234
104	0xbd0d39be	-0.034478895
105	0xbc97628b	-0.018479606
106	0x3c6677cc	0.014066648
107	0xbccfa56e	-0.025347438
108	0x3a1ccf77	0.00059818424
109	0x3cfe97cf	0.031078247
110	0xbcfae186	-0.030625116
111	0x3c185ed9	0.009299957
112	0x3d019b0c	0.031642005
113	0xbd299895	-0.04140528
114	0xbd0eda28	-0.03487602
115	0x3cf7d913	0.030254876
116	0x3c1f628c	0.009728085
117	0xbc76052c	-0.0150158815
118	0x3cf02154	0.029312767
119	0x3d0e77f3	0.03478236
120	0x3c1a2deb	0.009410362
121	0xbc9f98ad	-0.019481981
122	0x3d21ac1f	0.039470788
123	0xbcdfa41b	-0.027299931
124	0xbcc1b388	-0.023645177
125	0xbd0dd4b0	-0.034626663
126	0xbd18b65c	-0.037283286
127	0x3cc3bb7d	0.023893112
128	0xbd1e921e	-0.038713567
129	0x3c6eb291	0.014568941
130	0x3c713ead	0.014724416
131	0xbcc57eb9	-0.024108278
132	0x3cf724c6	0.030168902
133	0xbd126557	-0.035741176
134	0xbc539d98	-0.012915991
135	0xbc80fd27	-0.015745712
136	0xbbef7646	-0.0073078005
137	0xbc5cb98e	-0.013471974
138	0xbbec9d25	-0.0072208815
139	0xbc8418d3	-0.016125118
140	0xbc794253	-0.015213567
141	0xbd0fe174	-0.03512712
142	0x3c75d501	0.015004397
143	0xbd0091be	-0.03138899
144	0xbc1097a5	-0.008825217
145	0x3bd5b22b	0.0065214834
146	0xbcc6ce37	-0.024268253
147	0x3c45e727	0.012079037
148	0xbc7d9121	-0.015476496
149	0x3d0a5021	0.033767823
150	0x3cd3446f	0.025789468
151	0x3adffd0f	0.0017088967
152	0x3c9fcdd1	0.01950732
153	0xbc419e31	-0.011817501
154	0xbcb36d9c	-0.021902852
155	0x3c4bf503	0.012448552
156	0x3a6c8cfb	0.0009023693
157	0xbb761be3	-0.0037553243
158	0x3a69eba9	0.0008923361
159	0xbcc9cd6a	-0.024634082
160	0x3cc723ca	0.024309058
161	0x3bd1c8f1	0.006402128
162	0x3bbfaa2f	0.005849145
163	0xbc11b86a	-0.008894065
164	0x3d00f9d7	0.031488266
165	0xbd0c8b28	-0.034312397
166	0x3c6f5542	0.014607729
167	0x3c5a5cf6	0.013327828
168	0x3d16679c	0.036719903
169	0xbd0d9f90	-0.034576
170	0xbcee5bb2	-0.029096458
171	0xbc69db7c	-0.014273521
172	0xbc5349e1	-0.012896032
173	0x3c4dccbc	0.0125610195
174	0x3d0f6fe4	0.035018817
175	0xbb0a0dcd	-0.0021065355
176	0x3ccdb364	0.025109954
177	0x3ce147ee	0.027500119
178	0x3b0a084f	0.0021062081
179	0xbcb6b910	-0.022305042
180	0x3b3a4e62	0.0028428067
181	0x3cacc791	0.021091254
182	0x3bc0fae7	0.005889285
183	0xbcd1277f	-0.025531529
184	0x3d1599f1	0.036523763
185	0xbcf1d5d0	-0.029520899
186	0xbc4cc999	-0.0124992365
187	0xb9fc2e18	-0.00048099528
188	0xbc58415f	-0.013199179
189	0x3b852c37	0.0040641087
190	0xbc4d32b7	-0.012524298
191	0xb9163b3e	-0.00014327184
192	0xbd1357a4	-0.035972252
193	0xb66b11ad	-3.5028017e-06
194	0xbd212cb2	-0.039349265
195	0x3d1bda99	0.038050268
196	0x3baa9edb	0.0052069253
197	0x3d1b83df	0.03796756
198	0x3b40f328	0.0029441807
199	0x3d277d5d	0.04089104
200	0xbd1f2580	-0.038854122
201	0x3ca222dd	0.019792015
202	0xbcf68dec	-0.03009697
203	0xbc4dace4	-0.012553427
204	0x3c9df31f	0.019280968
205	0xbc3cf919	-0.011533999
206	0x3c579a67	0.013159371
207	0x3ca845ad	0.020541037
208	0xbcf1bb1e	-0.02950817
209	0x3c842e89	0.016135471
210	0xbc236d40	-0.009974778
211	0xbc302ebc	-0.01075333
212	0xbd14897c	-0.036263928
213	0x3c8d3e1d	0.017241532
214	0xbc7ed556	-0.015553793
215	0xbc810bbd	-0.015752668
216	0x3c9e67eb	0.019336661
217	0xbcf5d9fd	-0.030011171
218	0xbceca714	-0.028888263
219	0xbcaffa33	-0.021481609
220	0x3d0ded1e	0.03464996
221	0xbc74784e	-0.014921261
222	0xbccb739e	-0.024835404
223	0x3cecda6e	0.02891275
224	0xbcda2e1f	-0.02663332
225	0x3c02dc7c	0.007987138
226	0x3d10a49c	0.035313234
227	0x3c95f7a4	0.01830656
228	0x3cf18c69	0.029485898
229	0xbc8e9ada	-0.017407823
230	0x3cd64041	0.026153686
231	0x3c962469	0.018327909
232	0xbcd6d321	-0.026223721
233	0xbbf599df	-0.0074951495
234	0x3c73222e	0.014839692
235	0x3d2834f0	0.04106611
236	0xbd0f1f13	-0.034941744
237	0xbc90ee0f	-0.01769164
238	0xbb1426d6	-0.0022606156
239	0xbd25f757	-0.040519085
240	0xbcb46c66	-0.022024345
241	0x3ca1acaa	0.019735653
242	0xbc1ecb0b	-0.009691964
243	0xbcf198c1	-0.029491784
244	0xba84e9bc	-0.0010140459
245	0xbcb6ca79	-0.022313343
246	0x3c77cb8d	0.015124214
247	0xba268ec5	-0.0006353672
248	0x3cdf9892	0.02729443
249	0x3cd4d84e	0.025982048
250	0x3d02ce52	0.031935044
251	0x3ce1a1f6	0.02754305
252	0x3cd92921	0.02650887
253	0x3c94f95a	0.018185306
254	0xbce4bee6	-0.027923059
255	0x3d196962	0.037454017

fc1.bias f4 [120]
0	0xbc8d12a7	-0.017220808
1	0xbca53629	-0.020167427
2	0x3cbaa881	0.022785427
3	0xbc9fbf73	-0.01950047
4	0xbd169a72	-0.036768384
5	0x3b569135	0.0032740359
6	0x3b3ba0d8	0.0028629806
7	0xbc32654c	-0.010888409
8	0xbc57bc11	-0.013167397
9	0xbb248892	-0.0025105816
10	0x3d31077e	0.043220036
11	0x3b2fcd51	0.002682526
12	0xbb869fa3	-0.0041083856
13	0xbceb8a98	-0.02875261
14	0xbce41616	-0.027842563
15	0xbd224383	-0.039615165
16	0x3c2a846f	0.010407551
17	0x3d166643	0.036718618
18	0x3c68c0eb	0.0142061515
19	0xbba8dd7a	-0.005153355
20	0x38925abe	6.9787246e-05
21	0xbc7564d8	-0.014977656
22	0xbd091178	-0.033463925
23	0x3cd27bbd	0.025693769
24	0x3c398fa0	0.011325747
25	0xbc5d4832	-0.013505982
26	0xb91d54cb	-0.00015004275
27	0xbcbc9463	-0.023019975
28	0xbd188424	-0.037235394
29	0x3cb087e8	0.02154918
30	0xbd1e6a36	-0.03867551
31	0x3d3b5098	0.045731157
32	0x3d2b6681	0.041845802
33	0x3c5b6642	0.013391079
34	0x3d01aed1	0.03166086
35	0x3d419022	0.047256596
36	0xbcf48bab	-0.029851755
37	0xbcced91a	-0.025250006
38	0x3cc13ca1	0.02358848
39	0x394a5537	0.00019295966
40	0x3cb6984b	0.022289416
41	0xbd041fba	-0.03225682
42	0x3d1f58ed	0.038903166
43	0x3d1d7682	0.038443096
44	0xbc638944	-0.013887707
45	0xbadbd402	-0.0016771557
46	0xbcae0608	-0.02124311
47	0x3c11880b	0.008882533
48	0x3ccf9bbd	0.025342816
49	0x3d20f3af	0.039294895
50	0xbd2403ce	-0.04004269
51	0x3d1be422	0.03805936
52	0x3c05b157	0.008159957
53	0x3d0bbcac	0.03411548
54	0xbd247d13	-0.040158343
55	0x3c60fd39	0.013732248
56	0xbb1be9f3	-0.0023790568
57	0x3b744a69	0.0037275797
58	0xbca18a36	-0.019719224
59	0xbcd4078d	-0.025882507
60	0xbcdc7d63	-0.026915258
61	0xbc290563	-0.010316226
62	0x3c8166ce	0.015796091
63	0xbd01e459	-0.03171191
64	0x3c9254a5	0.017862627
65	0x3d807b6c	0.06273541
66	0x3c60959d	0.013707546
67	0x3d331aa6	0.043726586
68	0xbd27decd	-0.040983964
69	0x3c73c677	0.014878861
70	0x3d47e69c	0.04880391
71	0x3b5effaa	0.00340269
72	0x3d315b22	0.0432998
73	0x3cbb87d9	0.022891926
74	0x3d3a5078	0.045486897
75	0xbcc6dedf	-0.024276195
76	0x3bec9c81	0.007220805
77	0x3cd286a6	0.025698971
78	0x382b71cd	4.0875562e-05
79	0xbcc97241	-0.024590613
80	0x3a3309ca	0.0006829767
81	0xbcb33345	-0.021875033
82	0x3cf6d806	0.030132305
83	0x3ce383b8	0.02777277
84	0x3cc1d9c3	0.023663407
85	0x3d208512	0.039189406
86	0xbd03459b	-0.032048803
87	0xbd1e890b	-0.038704913
88	0x3cd0c8f7	0.025486453
89	0xbcbbd16a	-0.022927005
90	0xbca58d33	-0.02020893
91	0x3ca89c0a	0.020582218
92	0x3cd50913	0.026005303
93	0x3cb22a94	0.021748818
94	0xba97f64a	-0.0011593786
95	0x3c186590	0.009301558
96	0x3d4f4e41	0.050611738
97	0x3d108c50	0.035290062
98	0x3d66af8a	0.05631975
99	0xbbb56142	-0.0055352757
100	0x3d1f0cad	0.038830448
101	0x3c932ee6	0.017966699
102	0xbcb043a0	-0.021516621
103	0xbce7eced	-0.028311217
104	0xbcdbcb8c	-0.026830457
105	0xbd15e00a	-0.036590613
106	0xbc3e57ea	-0.01161764
107	0xbcdeef1b	-0.027213624
108	0x3cc202ca	0.02368297
109	0xbd2abd9e	-0.04168474
110	0x3cd0937c	0.025460951
111	0xbd033777	-0.032035317
112	0x3c98b7a7	0.01864226
113	0x3c26d001	0.010181428
114	0x3d3e139f	0.04640543
115	0x3c5fc4c6	0.013657754
116	0xbd039dfb	-0.032133084
117	0xbc9f294f	-0.019428877
118	0x3cdcd8fe	0.026958939
119	0x3c5bb834	0.013410617

fc2.weight f4 [84, 120]
0	0xbb061e72	-0.0020464924
1	0xbd8578b9	-0.06517167
2	0x3d4e0376	0.05029627
3	0xbc8b0ade	-0.016972955
4	0x3c027ebd	0.007964787
5	0x3cffd005	0.031227121
6	0x3d9fe63d	0.07807586
7	0x3cd9938a	0.02655961
8	0xbc067f2b	-0.00820903
9	0x3c8c4563	0.01712293
10	0x3d812de0	0.06307578
11	0xbd8e5ec2	-0.06951667
12	0xbc9f53d9	-0.019449161
13	0x3da29c5c	0.079399794
14	0x3d50a171	0.050935213
15	0xba04142c	-0.0005038406
16	0xbd377970	-0.044793546
17	0xbd86a523	-0.06574466
18	0x3c32566c	0.010884862
19	0x3c36baaf	0.011152907
20	0xbd77bd59	-0.06048331
21	0xbd63f96d	-0.055657793
22	0xbda6717b	-0.081271134
23	0x3d4c5115	0.049882013
24	0x3d680bad	0.05665176
25	0xbcb796c7	-0.022410763
26	0xbb573ec9	-0.003284382
27	0xbbe512f4	-0.006990785
28	0xbcb5230c	-0.022111438
29	0x3b81fe48	0.0039670803
30	0x3d12f1d9	0.035875175
31	0x3aca5017	0.0015435246
32	0x3d8f0321	0.06983019
33	0xbd0217f8	-0.03176114
34	0xbd2e8af7	-0.042612996
35	0xbdaaacbd	-0.083337285
36	0x3cd285cb	0.025698563
37	0xbcc5f34e	-0.024163868
38	0xbc9d6bee	-0.019216504
39	0xbd8d9ce7	-0.06914692
40	0x3dd3edd0	0.103480935
41	0xbc7a7105	-0.015285735
42	0x3d29a300	0.041415215
43	0xbc8a972a	-0.016917784
44	0x3dbb2e46	0.09139685
45	0x3d7e25ac	0.062047645
46	0x3d9953fe	0.07486723
47	0x3da08657	0.07838123
48	0x3d8ba8fc	0.068193406
49	0x3d67aa9a	0.056559183
50	0xbce3916a	-0.0277793
51	0x3d3413dc	0.043964252
52	0x3c57beed	0.013168079
53	0x3c0b52de	0.008503644
54	0xbbe9e628	-0.0071380325
55	0x3dafe8b7	0.08589309
56	0xbd57e5d0	-0.0527094
57	0xbcde00d0	-0.027099997
58	0x3d5152f9	0.05110452
59	0x3d397c96	0.04528483
60	0x3cca3c5e	0.024686988
61	0xbd72bfb2	-0.059264846
62	0x3c9dead1	0.019277008
63	0xbca954c2	-0.020670298
64	0x3d437416	0.04771813
65	0xbb06598f	-0.0020500158
66	0xbdb9bead	-0.09069572
67	0x3d18f5a7	0.037343647
68	0x3cc1aa14	0.02364067
69	0x3d1b65cc	0.037938878
70	0x3c53cb37	0.012926868
71	0x3de7dcc2	0.11321403
72	0x3d367083	0.044540893
73	0x3ca9a318	0.020707652
74	0x3cefef5b	0.029288938
75	0xbd025813	-0.031822275
76	0x3b72cfbd	0.0037050091
77	0xbd94e1d0	-0.07269633
78	0x3d7b0914	0.061287954
79	0xbd8b4975	-0.0680112
80	0x3d857544	0.06516507
81	0xbd019af6	-0.031641923
82	0xbd8475ba	-0.06467767
83	0xbd88150b	-0.06644639
84	0x3cdb38d9	0.026760506
85	0xbce21b17	-0.027600808
86	0xbcbfcfab	-0.023414453
87	0x3cc0514b	0.023476264
88	0x3d500638	0.05078718
89	0x3d15f4f1	0.036610547
90	0x3d154bf1	0.036449376
91	0xbd058393	-0.032596182
92	0xbd1c1a7b	-0.03811119
93	0x3b18eb10	0.0023333468
94	0xbd810412	-0.062996045
95	0x3d45e689	0.04831556
96	0x3df11ddb	0.117732726
97	0xbd99326d	-0.07480321
98	0xbd61dd12	-0.05514247
99	0xbcafdc35	-0.021467308
100	0xbd8f9478	-0.0701074
101	0xbda3a433	-0.07990303
102	0xbdac290b	-0.08406266
103	0x3c523e39	0.012832218
104	0xbd2006c5	-0.039068956
105	0xbbb2c91d	-0.0054561035
106	0x3daedd67	0.08538323
107	0xbd94b866	-0.07261734
108	0xbcc8b46f	-0.0245001
109	0xbb9e4a0d	-0.004830605
110	0xbda11fa6	-0.078673646
111	0x3de63214	0.112400204
112	0x3c52bcc6	0.01286239
113	0xbbf04bac	-0.0073332395
114	0x3d78f759	0.060782764
115	0x3cb1136a	0.021615703
116	0x3d86cbd3	0.06581845
117	0xbd25795e	-0.040398948
118	0xbca84b08	-0.02054359
119	0xbda25270	-0.0792588
120	0xbd8e512e	-0.069490775
121	0x3d9debf5	0.07711021
122	0x3ce689d0	0.028141886
123	0xbc115efe	-0.008872746
124	0xbd9f4705	-0.07777218
125	0x3cd3d3b3	0.025857782
126	0xbd9d9080	-0.07693577
127	0x3db05748	0.086103976
128	0x3cc8a759	0.02449386
129	0xbda20751	-0.07911552
130	0x3d316129	0.04330555
131	0xbdb2c3cb	-0.08728751
132	0x3d7c2c72	0.061565824
133	0xbcd15a92	-0.025555883
134	0xbcb005e4	-0.021487184
135	0x3d40e528	0.04709354
136	0xbd564f65	-0.05232181
137	0xbda55051	-0.0807196
138	0xbd57e62c	-0.052709743
139	0x3d388843	0.045051824
140	0x3bcc6722	0.0062378803
141	0x3dd7cc21	0.105369814
142	0x3da03ee5	0.07824496
143	0x3de43be7	0.11144238
144	0xbd0c5dd8	-0.034269184
145	0x3df3e33c	0.11908576
146	0xbbd61d4a	-0.0065342532
147	0xbda6be89	-0.081418104
148	0xbd832ac3	-0.064046405
149	0x3dfd81dd	0.12378285
150	0x3ced7e42	0.028990868
151	0x3da4d68e	0.080487356
152	0xbdc24581	-0.09485913
153	0x3d4a31dc	0.049363956
154	0xbd5f31d3	-0.054490875
155	0x3cb1df36	0.02171288
156	0xbc420085	-0.011840944
157	0xbd2f8a56	-0.042856537
158	0x3d7b411f	0.0613414
159	0x3d10c97f	0.03534841
160	0xbda5b2b6	-0.08090727
161	0xbcb17b16	-0.021665137
162	0xbd1d2e7b	-0.038374405
163	0x3d3066db	0.04306684
164	0xbdaddce2	-0.08489396
165	0x3ab5b377	0.0013862689
166	0xbcafd24a	-0.021462578
167	0xbb3e0212	-0.0028992933
168	0x3d42f835	0.04759999
169	0xbdb88bc9	-0.09011037
170	0xbdb40f0b	-0.08791932
171	0x3d82ab21	0.063802965
172	0xba22cb4c	-0.0006210103
173	0xbda63365	-0.081152715
174	0x3cda7b89	0.026670234
175	0xbda6a0a5	-0.08136109
176	0x3db92a1f	0.09041237
177	0xbaf4736a	-0.0018650119
178	0xbcd1cb2e	-0.025609579
179	0xbbde4494	-0.0067830775
180	0x3b3ee8d1	0.0029130469
181	0x3ad48dbe	0.0016216559
182	0x3d662563	0.056188
183	0xbd6c078f	-0.057624396
184	0x3d881503	0.06644633
185	0xbced5e86	-0.028975736
186	0xbd4f8f97	-0.050674047
187	0xbd90c5a9	-0.07068951
188	0xbab8d38b	-0.0014101131
189	0x3bf18c21	0.007371441
190	0x3ccef119	0.025261449
191	0xbcb517df	-0.02210611
192	0xbda4cf17	-0.08047312
193	0xbd11b138	-0.0355694
194	0x3c2d045b	0.01056012
195	0x3d33d9fa	0.04390905
196	0xbd94ec14	-0.07271591
197	0x3e2badd1	0.16765524
198	0x3dadfa9f	0.08495068
199	0x3d85ec94	0.06539264
200	0xbdb6d57a	-0.08927436
201	0xbb79c6e2	-0.0038112928
202	0xbcc4b072	-0.024009917
203	0x3d572cb7	0.052532878
204	0x3bdceb63	0.0067419275
205	0x3d68a967	0.05680218
206	0x3d959b6c	0.07305035
207	0x3dbb88de	0.09156965
208	0x3dd5c8f8	0.10438722
209	0x3d39dc8f	0.045376357
210	0x3dd4ee10	0.10396969
211	0xbd8d9722	-0.06913592
212	0x3d44eaaa	0.048075356
213	0x3da85351	0.08219016
214	0x3d9348a6	0.07191591
215	0xbcc7c9bc	-0.024388187
216	0x3c8d98f4	0.017284848
217	0x3d362a20	0.044473767
218	0xbd534b55	-0.051585514
219	0x3da78975	0.08180515
220	0xbca0edd4	-0.019644655
221	0x3d8ed91c	0.06975004
222	0x3dda1ec0	0.10650396
223	0xbc5c8af5	-0.013460864
224	0x3c91ef8e	0.017814424
225	0xbbe66302	-0.0070308456
226	0xbd0588de	-0.03260123
227	0x3e106482	0.1410084
228	0x3cca644b	0.024706027
229	0xbdb3f5a5	-0.08787087
230	0xbd4e509c	-0.050369844
231	0xbd062b97	-0.032756414
232	0x3d519396	0.05116614
233	0xbce51b78	-0.0279672
234	0x3d81ceff	0.063383095
235	0xbbeb7be1	-0.0071863984
236	0x3da23ce9	0.07921774
237	0xbda54c17	-0.080711536
238	0xbcbec123	-0.023285454
239	0xbd0d4306	-0.034487747
240	0x3d745404	0.059650436
241	0xbd02f19c	-0.031968698
242	0x3da6d7ec	0.081466526
243	0xbd3a656f	-0.04550689
244	0xbd830f18	-0.06399363
245	0x3d93e6d7	0.072217636
246	0x3d96f2d4	0.073705345
247	0xbd2dd8b8	-0.042443007
248	0x3d70357b	0.058644753
249	0x3db12cc3	0.08651116
250	0x3a438d42	0.0007459709
251	0xbcb025e2	-0.021502439
252	0x3d998f02	0.0749798
253	0x3d8f3c16	0.06993882
254	0xbcaa6b7a	-0.020803202
255	0xbd222062	-0.039581664

fc2.bias f4 [84]
0	0x3dcdb249	0.10043771
1	0xbd8465ad	-0.064647056
2	0xba391f32	-0.00070618384
3	0x3da1a72a	0.07893212
4	0xbd95b672	-0.07310189
5	0xbd8f72e4	-0.070043355
6	0xbb572bcb	-0.00328325
7	0xbd56a686	-0.052404903
8	0xbd318825	-0.04334273
9	0xbd0a8453	-0.0338176
10	0x38c115e7	9.207037e-05
11	0xbd4da7ed	-0.050208975
12	0xbd54ee99	-0.051985357
13	0x3d65f5b6	0.05614253
14	0xbd8080aa	-0.06274541
15	0xbdb4093e	-0.08790825
16	0x3c1b6fee	0.009487135
17	0x3dd2a7ea	0.10285933
18	0x3c7f0078	0.015564077
19	0x3dc64401	0.096809395
20	0xbd9a7edf	-0.0754373
21	0x3dbc5cf5	0.09197418
22	0x3dac4dfd	0.084133126
23	0x3dac42d7	0.08411186
24	0x3d204c41	0.03913522
25	0xbada0d45	-0.0016636035
26	0x3d23c4b0	0.039982498
27	0xbda0cace	-0.07851182
28	0xbd940d74	-0.072291285
29	0x3c81a9ba	0.015828002
30	0xbcf2363b	-0.029566875
31	0x3c2596a8	0.01010672
32	0x3dca250c	0.098703474
33	0xbd7acc44	-0.06122996
34	0xbd8936dd	-0.066999175
35	0x3dc5b9f9	0.09654612
36	0xbc67d9a8	-0.014151014
37	0x3d3fb242	0.04680086
38	0xbd897169	-0.067110844
39	0x3dd46a58	0.10371846
40	0xbd3fc0cf	-0.046814736
41	0x3d955e75	0.07293407
42	0x3b4867c8	0.0030579437
43	0xbd88afcc	-0.066741556
44	0xbdaad920	-0.083421946
45	0xbcded881	-0.027202846
46	0x3d9c9f76	0.07647602
47	0xbccaedba	-0.02477156
48	0x3a9282e2	0.0011177922
49	0xbb755584	-0.0037435004
50	0x3d2dbc4b	0.0424159
51	0xbd7c851d	-0.061650384
52	0xbd1c1819	-0.03810892
53	0x3d181dee	0.03713792
54	0x3dcec95f	0.10097002
55	0x3c83a20d	0.016068483
56	0x3dc90811	0.09815992
57	0xbc814be8	-0.015783265
58	0x3d5d349c	0.05400525
59	0x3b32dcd1	0.0027292261
60	0x3be83054	0.0070858393
61	0x3bc112af	0.00589212
62	0x3dbb2357	0.091376
63	0x3c8567fb	0.016284933
64	0x3d881e57	0.06646412
65	0x3d9dff24	0.0771468
66	0x3d64b4e7	0.055836584
67	0x3d334c14	0.043773726
68	0xbd2c0fe5	-0.042007346
69	0xbd7e6e94	-0.062117174
70	0x3cb9e010	0.02268985
71	0xbc535011	-0.012897507
72	0xbbe78c62	-0.0070662955
73	0x3d99fab9	0.07518525
74	0xbcc84c0b	-0.024450323
75	0x3db26376	0.08710377
76	0xbd0b7ed5	-0.034056503
77	0x3da884db	0.08228465
78	0xbd7075cd	-0.058706094
79	0xbd5a5cf9	-0.053311322
80	0x3cc5b83c	0.024135701
81	0xbd94c8c9	-0.07264859
82	0x3dad32a4	0.084569246
83	0xbb97d653	-0.0046337037

fc3.weight f4 [2, 84]
0	0xbe1766bf	-0.14785288
1	0x3e74ba66	0.2389923
2	0xbcf3c81a	-0.029758502
3	0x3d1322be	0.035921805
4	0xbd48362a	-0.04887978
5	0xbe1bb69d	-0.1520638
6	0x3c8f5559	0.017496752
7	0x3b80611d	0.003917827
8	0x3e8ac4fb	0.2710341
9	0x3de8aad9	0.113607116
10	0x3df52895	0.11970631
11	0xbda1896a	-0.07887538
12	0x3e1c2473	0.1524828
13	0xbde464d5	-0.11152045
14	0x3d42e78f	0.047584113
15	0x3e07282b	0.13198917
16	0xbd4ad800	-0.0495224
17	0xbde84829	-0.113418885
18	0xbdd14f14	-0.10220161
19	0xbd097955	-0.033562977
20	0xbcc0ff6b	-0.023559293
21	0xbe006707	-0.12539302
22	0xbe84501c	-0.2584237
23	0x3c465eb4	0.01210754
24	0xbd726a86	-0.05918362
25	0xbe3e5bc5	-0.18589695
26	0xbe83fa53	-0.2577692
27	0x3ea7dd7b	0.32786164
28	0x3e247745	0.16061123
29	0x3ce05169	0.02738257
30	0x3e913fef	0.2836909
31	0xbd89cd35	-0.06728593
32	0xbdb0ac42	-0.086266056
33	0xbe17fc4e	-0.1484234
34	0x3da5f322	0.081030145
35	0x3e3f01df	0.18653058
36	0x3db4b573	0.08823671
37	0xbe374748	-0.17898285
38	0x3e29a8fb	0.16568367
39	0xbd14c5e5	-0.03632154
40	0x3dd0c7a7	0.10194331
41	0xbe3ed647	-0.18636428
42	0x3d054fea	0.032546915
43	0x3de40b10	0.111349225
44	0xbd9e6e6a	-0.077359036
45	0xbe4cc9f2	-0.19998911
46	0xbb934564	-0.004494356
47	0xbeaded4f	-0.33970115
48	0xbe14cab0	-0.14530444
49	0xbd9e3139	-0.07724232
50	0x3e3c57f4	0.18392926
51	0xbd2487e6	-0.040168665
52	0xbd740e30	-0.059583843
53	0xbe212bbd	-0.15739341
54	0x3e9e9984	0.30976498
55	0x3cbc237f	0.022966145
56	0x3e47ae93	0.19500189
57	0xbe176be3	-0.1478725
58	0x3d23e8b7	0.040016856
59	0xbe009496	-0.12556681
60	0x3d3130b6	0.043259345
61	0xbccf682a	-0.025318224
62	0xbdc02ee6	-0.09383945
63	0x3e90a0ff	0.2824783
64	0xbdc1eda5	-0.09469155
65	0xbe81e9e0	-0.25373745
66	0xbe770f74	-0.24126989
67	0xbd590193	-0.052980017
68	0x3e4cb8fd	0.19992442
69	0x3e2ab5fa	0.16670981
70	0xbde627e9	-0.11238081
71	0x3e895d41	0.2682896
72	0x3d489b73	0.048976373
73	0xbe85457e	-0.2602958
74	0x3d0c137b	0.034198266
75	0x3d365796	0.044517122
76	0x3d359979	0.044335816
77	0x3e4dfc28	0.20115721
78	0xbe6ae766	-0.22939834
79	0x3e213f95	0.15746911
80	0xbd70d156	-0.05879339
81	0xbbb8e8bc	-0.0056429785
82	0xbda0d57c	-0.07853219
83	0x3d51937e	0.05116605
84	0x3dbae6d6	0.0912606
85	0xbe75d5ba	-0.24007311
86	0xbc2cc31f	-0.010544567
87	0xbd4ab6b9	-0.049490664
88	0x3dab9730	0.08378446
89	0xbe429053	-0.19000368
90	0xbe466a27	-0.19376431
91	0x3de2e8f4	0.110795885
92	0x3e941be5	0.28927532
93	0xbd77e69d	-0.060522664
94	0x3e28991a	0.16464654
95	0xbcc4c093	-0.024017608
96	0xbd1320b2	-0.035919853
97	0x3d90863c	0.07056853
98	0x3df882ef	0.121343486
99	0x3e47dcc3	0.19517808
100	0xbda1b33a	-0.07895513
101	0xbe7de598	-0.24794614
102	0x3d98d7d7	0.07463043
103	0x3e9c21a4	0.30494416
104	0x3d53c2c7	0.051699426
105	0xbd9c9e4a	-0.07647379
106	0x3d890b14	0.06691566
107	0x3dfeb1d4	0.12436262
108	0xbc59b0db	-0.013286795
109	0xbc67fbf2	-0.01415919
110	0x3e833a7d	0.2563056
111	0xbdf09dfe	-0.117488846
112	0x3de8b743	0.113630794
113	0xbe8268f5	-0.254707
114	0x3e2144c0	0.15748882
115	0xbd8e5f92	-0.06951822
116	0x3ea09284	0.31361783
117	0x3da44286	0.08020501
118	0x3e189697	0.14901195
119	0xbdb3389d	-0.087510325
120	0xbeabb1db	-0.3353413
121	0xbe26bb20	-0.1628232
122	0x3e075daa	0.13219324
123	0x3e8fb908	0.28070855
124	0x3b5676fe	0.0032724733
125	0x3cdc1d93	0.02686957
126	0xbd896f57	-0.067106895
127	0x3dc57dd2	0.09643139
128	0xbcb2e240	-0.0218364
129	0xbccdd7b7	-0.025127275
130	0xbe2e3f88	-0.17016423
131	0xbdb81768	-0.089888394
132	0xbd504d47	-0.050854947
133	0x3e5a0c34	0.21293718
134	0xbe869a40	-0.26289558
135	0x3dd2b049	0.1028753
136	0x3d379d88	0.044827968
137	0x3ce0c83c	0.02743923
138	0xbe93e272	-0.28883702
139	0xbd624083	-0.055237304
140	0x3d418af3	0.047251653
141	0xbca14d00	-0.019690037
142	0x3d80f647	0.06296974
143	0x3df192b4	0.117955595
144	0xbdbc5bf1	-0.09197224
145	0x3d1916b3	0.037375163
146	0xbe324726	-0.17409953
147	0x3d2b3187	0.04179528
148	0x3caa1e0a	0.020766277
149	0xbde61657	-0.1123473
150	0x3daf55f6	0.085613176
151	0xbd2c612b	-0.042084854
152	0x3cfb5f6a	0.030685145
153	0xbe35b30d	-0.17744084
154	0xbdecd55e	-0.11564134
155	0x3df58179	0.119875856
156	0xbb9f9bcb	-0.004870867
157	0x3e81d803	0.25360116
158	0xbe450046	-0.19238386
159	0xbe2d9f0a	-0.169552
160	0xbd9efd9e	-0.077632174
161	0x3ebbc5f7	0.36674473
162	0xbe2f585a	-0.17123547
163	0xbe5d7cca	-0.21629634
164	0x3c131800	0.00897789
165	0x3ce60213	0.028077161
166	0x3da46e2b	0.08028825
167	0xbd9480c5	-0.07251123

fc3.bias f4 [2]
0	0xbd8aa256	-0.067692444
1	0x3e0873fe	0.13325498
