src/models/bc-with-noise-2.onnx (onnx, 336927 bytes, 10 tensors)

conv1.weight f4 [6, 5, 5, 5]
000000 30 38 a2 3d 3e db c0 3c cb c3 d9 3d 7f 11 3c bd
       0.07920873 0.023542043 0.10633048 -0.045915123
000010 75 e2 24 bd 9f 6c 93 3d aa 27 55 3d c2 57 cd 3c
       -0.04025503 0.07198452 0.05203978 0.02506626
000020 24 07 b5 3d 61 73 58 3d 15 21 7a 3d 7e ba d2 bc
       0.088392526 0.05284441 0.061066706 -0.025723692
000030 84 f1 50 3d 90 28 37 bc b6 aa 26 3d d2 9f 65 bd
       0.051011577 -0.011179104 0.040690146 -0.05606062
000040 d8 14 e1 3c 40 f2 e0 3d 0c e5 54 bd d2 15 2d bb
       0.02747576 0.109837055 -0.05197625 -0.002641071
000050 a0 16 30 bc c5 a1 5f 3c 9b 9c bd bb d0 6c 0a bd
       -0.010747582 0.013649409 -0.005786491 -0.033795178
000060 19 11 ed 3c 23 09 0d 3c b2 0d 11 bc 23 19 0e 3c
       0.028938817 0.008608135 -0.008853363 0.008672985
000070 09 8b d1 3d 62 f9 09 3d 7f 29 bd 3d 96 1b 9a 3d
       0.10231597 0.033685096 0.092364304 0.07524793
000080 f9 c5 25 3d 1f cf 92 3d 1c 85 5e bc c6 ab e4 bc
       0.040472005 0.071684115 -0.01358154 -0.02791394
000090 dd 74 08 3e fb 4c 25 3d f6 cf 9d 3d f0 19 17 3d
       0.1332583 0.040356617 0.07705681 0.03688997
0000a0 f9 a9 6a 3d 63 27 98 3c f0 3b 10 3d 8e 06 7f bc
       0.057291005 0.018573469 0.03521341 -0.015565528
0000b0 f4 08 b1 bb 6a 06 d4 3d b8 0c be 3d 64 4e f2 bc
       -0.0054026786 0.10352786 0.0927977 -0.029578395
0000c0 c4 00 8e 3a da 17 26 3d 03 91 98 3d 85 af d2 bc
       0.0010833968 0.04055009 0.07449534 -0.02571846
0000d0 ad 74 43 3d 8b a3 ac 3c 90 49 87 3d 49 41 87 3d
       0.047718693 0.021074077 0.06605828 0.06604249
0000e0 07 bf 4e 3c 5b b4 df 3d 0b 40 59 3d 4d 32 de 3d
       0.012618787 0.10923072 0.05303959 0.10849438
0000f0 51 55 f8 3c c0 ec 45 3d 69 eb c3 3d 5d 03 31 bb
       0.03031412 0.048321486 0.09566385 -0.0027010061
000100 88 85 8b 3c 27 f5 d9 3d 52 60 12 bd f7 86 9f 3d
       0.017031446 0.10642462 -0.03573639 0.077894144
000110 c2 f9 99 3d e0 d2 36 3b c0 2a 44 bd 72 c7 43 bd
       0.07518341 0.0027896687 -0.047892332 -0.047797628
000120 d8 f3 ee 3c 90 a0 3c bd 0d de a8 3d fd cd 37 3d
       0.029169008 -0.04605156 0.08245478 0.04487418
000130 29 03 c9 3d 09 68 89 3d 2b 97 b9 3d d3 9c fe 3d
       0.09815056 0.06709296 0.09062036 0.124322556
000140 fb ec 22 3d b3 ac f2 3d 56 7c 10 3e ef c5 08 3e
       0.039776783 0.11849346 0.1410993 0.13356756
000150 fe 67 a5 3d 08 38 c9 3a ee 19 02 3e c5 45 0c 3e
       0.080764756 0.0015351782 0.12705204 0.1369849
000160 a9 b5 f1 bb 13 9a 16 bc e5 cc a4 3b 42 a0 e7 bb
       -0.007376392 -0.009192008 0.005029308 -0.0070686648
000170 27 20 44 3d 19 0f f3 bc d1 cf 6b bc 19 11 a9 3d
       0.047882225 -0.029670285 -0.014392809 0.08255214
000180 47 b8 a9 3c 6f 15 b6 3d 88 0b 35 bc b8 73 40 bd
       0.020717753 0.08890807 -0.011050113 -0.046985358
000190 16 a4 80 3d 44 91 eb bc 1f 4d 2f 3d 09 b1 42 3c
       0.06281297 -0.028755791 0.042798158 0.011883029
0001a0 2e 6b 87 3c 95 6d 1f 3d d1 93 ea 3d 5f cf 06 3e
       0.0165306 0.038922865 0.11453975 0.13165043
0001b0 af 36 99 3d 9c 0a 85 3d a5 e9 f6 3d 18 c0 e9 3d
       0.07481133 0.06496164 0.12056283 0.11413592
0001c0 b4 8a 00 3e a7 be 8f 3d dc 64 82 3d 8a 26 3e bd
       0.12552911 0.07018786 0.06366894 -0.046423472
0001d0 46 f6 ab 3d 2b 01 0a 3e 30 6c 78 3d 5e 2d 91 3d
       0.08396582 0.13477008 0.06065005 0.07088731
0001e0 11 23 8f 3c 48 e9 9e 3d 1c ef db bc 25 9f 00 bc
       0.017472776 0.077593386 -0.026847415 -0.007850443
0001f0 97 02 b3 3d 47 2c a8 3d 58 81 a7 3d 08 e4 00 3d
       0.08740728 0.0821157 0.08178967 0.031467468
000200 5a 28 4f 39 fb b5 7d bd ec e3 16 3c c5 a7 c9 3c
       0.0001975609 -0.06194113 0.009209614 0.024616132
000210 47 f5 01 3d e0 09 18 bd 2d e3 5c bd 06 eb 9f bd
       0.031728055 -0.037118793 -0.05392759 -0.07808499
000220 fa 79 b6 3d 33 c7 e4 3c ba 6a ad bc e9 1e 8c 3d
       0.08909984 0.027927017 -0.021169055 0.06841833
000230 4e 4c cf bc c7 3c 1d 3d 80 74 bc 3d 73 92 91 3a
       -0.02530494 0.03838804 0.09201908 0.0011106267
000240 df cc bc 3d cd 34 5e bc 6e 7c 7c 3d 5d 26 99 3d
       0.092187636 -0.013562393 0.061642103 0.0747802
000250 af 73 93 bd 5f 29 96 bd 54 75 79 3d f1 1b 3f 3d
       -0.07199799 -0.0733211 0.06090291 0.046657506
000260 59 a2 84 3d 79 b3 a7 bd 93 22 55 bd 25 58 48 3d
       0.06476278 -0.081885286 -0.052034926 0.048912186
000270 e3 e2 9c bd 67 ac 02 3d 99 30 aa 3d e5 45 fd bc
       -0.07660463 0.031902697 0.083100505 -0.030917117
000280 f6 f0 23 3d 80 3f 17 bd 18 59 8a bd 48 f8 b8 3d
       0.04002472 -0.036925793 -0.067552745 0.09031731
000290 e8 f8 15 bb cc 8a bf 3c 8f f1 15 3c c6 d6 a9 bc
       -0.0022883955 0.023381613 0.00915183 -0.020732295
0002a0 5d fa 93 bc 6e db 8a 3d 5a f9 aa 3d c8 42 ad 3d
       -0.018063718 0.06780134 0.08348341 0.08460003
0002b0 5c 58 5a 3d b3 96 28 bc c2 52 b5 3d 25 44 63 3d
       0.053306922 -0.010289836 0.088536754 0.05548491
0002c0 75 0b 02 bd 3a 4f fe bc 0d d6 ef bc 03 49 37 3c
       -0.031749208 -0.031043638 -0.029276872 0.011186841
0002d0 9b d6 af 3d 32 f8 70 bd a0 fe 16 3d 27 f8 c7 3c
       0.085858546 -0.058830447 0.036863923 0.02441032
0002e0 11 57 87 3c 95 56 03 bc 01 20 df 3b 76 be a2 bc
       0.016521009 -0.008016248 0.006809235 -0.01986621
0002f0 32 06 aa 3c 1a 2d 7d 3d 40 a7 06 3d f1 08 ad 3d
       0.020754907 0.06181059 0.032874346 0.08448971
000300 8e 63 c2 bc 5c 03 4b 3d f3 da 2a 3b f3 a3 51 bc
       -0.023729112 0.04956375 0.0026070445 -0.012795436
000310 d3 dc f5 bc 4f 44 79 bd 30 ae c9 3d af 29 91 bc
       -0.030012524 -0.06085616 0.09847677 -0.017720072
000320 68 9d 58 3d ec 2d 11 3d ac 70 83 bc 89 7f b2 3d
       0.05288449 0.035444185 -0.016044937 0.08715732
000330 ba ab cb ba e4 3c 27 bb 0f aa a5 bd 9a 0b f3 bc
       -0.0015538849 -0.0025518471 -0.08089077 -0.029668618
000340 27 00 78 3c d6 92 3d bd e7 84 41 3c 76 b0 38 bc
       0.015136755 -0.04628261 0.011811472 -0.01127254
000350 b5 1b 2b 3a 2a ba 33 3d 16 ce fe 3c 14 31 30 3b
       0.0006527261 0.04387871 0.031104129 0.0026884722
000360 07 0d 82 3d 2b a8 47 3d 01 54 19 bd f3 d1 6b 3b
       0.06350141 0.04874436 -0.037433628 0.0035983294
000370 22 22 42 3c 08 9c f0 3c 77 80 da 3c 1b 37 9e 3d
       0.011848958 0.029371276 0.026672585 0.07725354
000380 98 1d 9e 3d 4c d8 c0 bc 97 90 13 bd f4 95 00 3d
       0.07720488 -0.023540638 -0.036026563 0.031393006
000390 b1 a9 c0 3c 7e c7 36 bc 04 8e a9 bd b0 ca cc bc
       0.023518415 -0.011155961 -0.082790405 -0.024998993
0003a0 48 e6 e1 bc 02 7a 66 bb a3 85 40 bd c5 f1 94 3d
       -0.027575627 -0.0035167937 -0.047002446 0.072726764
0003b0 a5 c2 69 bc d4 74 af 3b 36 09 0a 3c 29 6a 59 3c
       -0.014267598 0.005354503 0.008425048 0.013269939
0003c0 46 8f 04 bd 74 9d ad 3c b0 f9 07 bd 8f 88 ab 3c
       -0.0323632 0.021193244 -0.033197105 0.02093914
0003d0 79 ee 6a 3d e4 71 0a 3d 4e 2e 91 3c 5e c9 52 bd
       0.05735633 0.03380002 0.017722275 -0.05146157
0003e0 35 ce 57 3d 9c 08 a4 3d a4 48 7a 3c 8f 1c 97 3d
       0.05268689 0.080094546 0.015276108 0.07378494
0003f0 71 f5 29 3e 22 56 f7 3d 53 76 e3 3d 2d 01 6c 3d
       0.16597535 0.120769754 0.11106553 0.05761831

conv1.bias f4 [6]
000000 d5 ad de bd 0a 9f da bd 98 5f 0e be 26 49 e5 bc
       -0.108729996 -0.106748655 -0.13903654 -0.027988981
000010 ab fb 50 3c a3 4f 25 bd
       0.012755315 -0.04035915

conv2.weight f4 [16, 6, 5, 5]
000000 18 74 e4 3c 8d fa a6 3d ec e2 b5 3d 15 7c 96 3d
       0.027887389 0.081532575 0.088811725 0.073478855
000010 75 69 a5 bd 58 86 84 3d 42 52 73 3d 54 20 ac 3d
       -0.08076755 0.064709365 0.05940462 0.084046036
000020 d4 a1 84 bd 63 87 a6 bd 39 9f e6 3c fe e4 52 3d
       -0.06476179 -0.08131292 0.028152095 0.051487915
000030 d3 c2 2e 3d 6a 75 75 bd e6 75 d8 bd 07 d3 60 3d
       0.042666268 -0.059926428 -0.10569362 0.05488875
000040 78 dc ed 3d b0 ab 59 3d a1 20 58 bd ca 11 96 bd
       0.11614317 0.05314225 -0.052765492 -0.07327612
000050 fb b1 f8 bc 0c f9 58 bd 61 24 2a bd 20 fc da bd
       -0.030358305 -0.052971885 -0.0415386 -0.1069262
000060 78 5c 95 ba c8 ad 54 bd e1 1d 43 bd 20 05 21 bc
       -0.0011395356 -0.051923543 -0.047635917 -0.009827882
000070 f1 6f 39 3d ee d5 12 bd 0c 04 0c bd ce 9f 25 3d
       0.04527277 -0.03584855 -0.034183547 0.040435605
000080 72 d3 e5 3c 2a 42 c6 bc 18 96 8b bd 16 2a 97 bc
       0.028054927 -0.024201471 -0.068157375 -0.018452685
000090 c0 3f 82 3d bc 48 92 3d a1 0a 7f bd 2a 89 b4 bd
       0.063598156 0.07142779 -0.062265996 -0.088152245
0000a0 f6 32 0d 3c 03 02 95 3d 92 00 81 bd ac a0 76 bd
       0.008618107 0.07275774 -0.06298937 -0.060211822
0000b0 f6 f4 6c 3d 75 2e 84 bd 80 45 52 3d 95 27 3e 3c
       0.0578508 -0.064541735 0.05133581 0.011606117
0000c0 dc c6 88 bd 25 93 de bc 86 5d 97 3d 88 9a e8 3d
       -0.066785544 -0.027169773 0.07390885 0.113575995
0000d0 35 40 a9 bc a2 49 c0 3c 61 36 84 3a c7 a4 11 3e
       -0.0206605 0.02347261 0.0010087007 0.14223014
0000e0 24 da 34 3e e6 12 0c 3e ee ae 89 bc 45 cf 34 bd
       0.17661339 0.13679084 -0.016807046 -0.04414298
0000f0 db 90 41 3d 8d f4 04 3e 9f be 80 3d 5e 8f 93 bd
       0.047257286 0.12983914 0.06286358 -0.072050795
000100 9b c6 44 bd 87 c6 dd 3d 26 4b 7d 3c b9 44 2e 3c
       -0.048040967 0.10828882 0.015459811 0.010636502
000110 1d 08 7f bd 2f 7b 11 be 31 b5 16 bd fa c2 21 3c
       -0.062263597 -0.14207147 -0.03679389 0.009873146
000120 a0 48 53 3c 31 2b 1a be 8e 83 8b bd 7c 4d c7 bb
       0.012895733 -0.15055539 -0.068122014 -0.006082235
000130 28 97 a3 bd cb 5d a0 3d 9b 78 0e bd 22 7c 19 bd
       -0.07987815 0.078303896 -0.034782987 -0.037471898
000140 54 82 8e 3c 94 5b 38 bd 2d cd 95 bd 7b 49 a0 bd
       0.01739613 -0.04500921 -0.07314525 -0.07826515
000150 49 b2 fa 3c f1 7f bc bc 6a 51 64 bd ed 60 8d 3d
       0.030602591 -0.023010226 -0.055741705 0.06903253
000160 ef c9 6f 3c 60 85 8f bd 23 33 86 bd 96 91 b8 3b
       0.014635547 -0.07007861 -0.06552722 0.0056325896
000170 d4 a0 f9 bc a7 6d ec bc 60 44 83 bd 35 22 dc bb
       -0.030472197 -0.02886088 -0.06409526 -0.006717945
000180 56 a3 26 bd 43 3d 3d 3b ab 36 b9 bc a7 ae 75 3b
       -0.040683113 0.0028875626 -0.022609076 0.0037488134
000190 15 09 94 3d 67 c3 c6 bc 81 98 80 3d 78 82 c4 bb
       0.07228295 -0.024263097 0.06279088 -0.0059969984
0001a0 21 77 06 3b b4 17 1d bd 34 55 99 3d 2a f6 a3 3d
       0.0020517784 -0.038352683 0.07486954 0.080059364
0001b0 76 7d 30 3d 2e a4 ec bc 3a e4 fc 3c 43 fc 91 bd
       0.0430884 -0.02888688 0.030870546 -0.07128193
0001c0 be ea 81 bd c7 6f 23 bd ef c9 17 bd d4 6b 94 3c
       -0.06343602 -0.03990152 -0.037057813 0.018117823
0001d0 94 7f b5 3c 8f f2 91 bd 97 11 3c bd 18 ab 7c 3c
       0.02215556 -0.071263425 -0.045915212 0.015421651
0001e0 1d 37 96 3d 16 e1 90 3c ec ef 17 3b cb c0 dd bc
       0.07334731 0.017685454 0.0023183776 -0.02706947
0001f0 28 96 c3 bc 36 79 e0 3d a2 d2 b5 3d 96 52 c5 3d
       -0.023875311 0.10960619 0.08878066 0.09634893
000200 79 7e 9c bd cb 15 71 bd c4 3e c0 bc 2f 95 b6 3d
       -0.0764131 -0.058858674 -0.023467429 0.08915173
000210 30 a6 af 3d 24 da bd bc 42 6f 31 bc b8 8e e9 3d
       0.085766196 -0.023175307 -0.010829749 0.114041746
000220 fa 6b cd 3c a6 9b f3 3d 8f ca 6e 3d e6 2e 5a bc
       0.025075901 0.11894922 0.058298644 -0.0133168455
000230 25 f9 58 3d 69 aa d6 3d d2 88 12 bd 55 0d da ba
       0.052971978 0.10481722 -0.035775013 -0.0016636053
000240 48 4f 19 be 7e 62 52 3d e3 89 a0 bd 03 fd 8f bb
       -0.1497165 0.05136346 -0.078388 -0.004394175
000250 14 dc 3b bd 22 3b 01 be 73 8f 91 3d 79 30 12 bd
       -0.04586418 -0.12620214 0.07107439 -0.03569076
000260 2e 3f d6 3d 5d 33 46 bc b4 79 b6 3c 8c 83 67 3c
       0.10461269 -0.012097207 0.02227483 0.014130484
000270 f6 b0 23 bc 87 0e e1 3d cb 77 5e 3d d0 5e 8d bd
       -0.009990921 0.10989099 0.054313462 -0.0690285
000280 32 e8 ac bc 78 af 22 3d 2e ac da 3c fe 94 81 3c
       -0.021106813 0.03971812 0.02669343 0.015818115
000290 37 8b 8b bd 43 0e ad 3d 09 c3 59 3d 45 3c 9f bd
       -0.068136625 0.08449986 0.053164516 -0.077751674
0002a0 0f 3e fe bb 45 22 44 bc 4c 10 94 bd 62 02 8b bc
       -0.007758863 -0.011971061 -0.07229671 -0.01696891
0002b0 b8 dc b8 bd 36 2e 80 bb 47 61 69 3d df 30 98 3d
       -0.09026474 -0.003911759 0.056977537 0.074311964
0002c0 c6 77 76 bd 24 04 54 3b 4a 4b 66 bc c3 a1 99 bd
       -0.06017282 0.00323511 -0.014056036 -0.07501557
0002d0 1a 79 41 bc cf f9 62 ba c6 de 5d bd 22 41 34 3d
       -0.011808658 -0.000865844 -0.05416753 0.044007428
0002e0 9b 1f 82 3d 10 49 9b 3d c9 e2 fa 39 fb 4d 93 bd
       0.063536845 0.07582295 0.00047852684 -0.07192608
0002f0 cf 86 8c bd ee 9a b8 3b 27 42 21 3d 96 f1 94 bd
       -0.0686165 0.0056337034 0.03936973 -0.07272641
000300 b5 99 9d bd 1e 45 f9 3c 2b 1c 6e 3d e7 6e 8f 3d
       -0.07695333 0.030428465 0.05813233 0.07003575
000310 64 62 8c bd e0 34 81 3c 41 5c 22 bd fd 02 56 3d
       -0.06854704 0.015772283 -0.03963876 0.052248944
000320 29 18 ae 3d 46 9c 71 3d 01 39 e6 3d cd d3 35 3d
       0.08500702 0.058986925 0.112413414 0.044391442
000330 5b f6 e4 bd f6 a1 94 bb 8e d0 e4 3d 27 65 f6 3d
       -0.11179801 -0.004535909 0.11172591 0.12031012
000340 30 73 f6 3c ed 2c ea bd f6 8e 02 bd 68 9d 18 3d
       0.030084223 -0.1143435 -0.03187462 0.03725949
000350 e2 c8 8f 3d 52 de 97 bc e6 74 a4 bd 73 37 6b bc
       0.07020737 -0.018538628 -0.08030109 -0.014356482
000360 2d 94 47 bd cc b4 06 3d 5f e7 bf bd 7d af 89 bd
       -0.048725296 0.032887265 -0.093703024 -0.06722925
000370 97 e7 87 3d 48 e1 65 3c 52 c4 c5 bd e6 ce e8 bc
       0.06635969 0.014030762 -0.09656586 -0.02841897
000380 85 07 b0 bd 9e d0 8b 3d b6 4a 6d 3c 14 dd 2a 3d
       -0.08595184 0.068269 0.0144831445 0.041714743
000390 50 e1 ac bc 28 eb 8b 3d 5e 46 0c 3c 6c fa d5 bc
       -0.021103531 0.06831962 0.008561699 -0.026120387
0003a0 5d 97 a3 bd f6 42 7b bd ff 92 10 bc cb 51 5d 3d
       -0.07987855 -0.061343156 -0.008824109 0.054033082
0003b0 c1 26 f4 bc a1 dc 91 3d 4e 14 01 3d 9f 38 37 3d
       -0.029803636 0.0712216 0.031513505 0.044731732
0003c0 f4 99 70 bd 89 2f 45 bd d2 99 2b 3d 88 e7 8c bc
       -0.05874057 -0.048141036 0.04189474 -0.017200246
0003d0 db a8 06 3c 3f bc b4 bc d1 fb 9f bd 3d 2b b1 3c
       0.008218969 -0.022062419 -0.07811702 0.021627063
0003e0 aa c0 92 bd 0f 00 50 3d 74 a6 81 3d 0f 21 83 bc
       -0.07165654 0.050781306 0.063305765 -0.016006975
0003f0 84 19 1d bd 4a 50 e5 3b 99 ca 24 3d 37 16 8d 3d
       -0.03835441 0.0069980966 0.040232275 0.06889003

conv2.bias f4 [16]
000000 4b 43 c6 bd 63 20 84 3d ef 45 b9 3c 9b e4 8d bc
       -0.09680804 0.0645149 0.022616355 -0.017320922
000010 22 f3 f5 bc 4c 34 a0 3d 5c 09 40 3b 01 3b 3e bd
       -0.030023161 0.07822475 0.0029302454 -0.04644299
000020 cc bc bc 3c ec 3f 8c bd c8 6d b9 3d 0d 6e 46 3d
       0.023039244 -0.0684813 0.09054142 0.048444796
000030 c4 03 5f bb 55 39 8d 3d ea 8d a1 bd 31 2e b2 bc
       -0.0034029344 0.06895701 -0.07888396 -0.021750541

fc1.weight f4 [120, 584]
000000 96 aa 33 bd f2 a9 e7 3c 2d 74 14 3c 18 1f a5 3c
       -0.043863855 0.028279278 0.009060902 0.020156428
000010 90 00 2b 3d 4c ba 1e 3d a1 09 80 3b b0 c1 24 3d
       0.041748583 0.038751885 0.003907398 0.040223777
000020 39 99 ec 39 ec df 77 3c 49 00 7a bc 8e 1e 21 bd
       0.00045127588 0.015129071 -0.015258857 -0.03933578
000030 b2 a2 22 3d 83 37 08 3d 9c 52 2f 3c 8e 32 45 3d
       0.03970594 0.033256065 0.010700848 0.048143916
000040 49 c2 48 3c 39 96 25 bd bb 2b 02 3d 61 cb 40 3c
       0.012253352 -0.040426467 0.031779986 0.011767239
000050 67 0a db bc 29 d1 51 3d 3e 5d 2d bd 92 fa d0 bc
       -0.026738359 0.05122486 -0.04232525 -0.025510106
000060 09 bf 8f bc 3e e6 33 bc 1f 83 63 bc fe 4f ba 3b
       -0.017547147 -0.010980187 -0.013886242 0.0056858053
000070 19 db fc bb 44 6b 67 bc 82 eb 0d bd 06 33 44 3c
       -0.007716548 -0.014124695 -0.034648426 0.011975056
000080 bc 68 e1 bc 7f 13 a4 3c c5 59 b6 3c 2b 6a 61 bc
       -0.027515762 0.020028828 0.022259602 -0.013758223
000090 c8 67 17 3c 00 38 8e 3c 2b 6e ff 3b 11 3a 8a 3c
       0.009241052 0.017360687 0.0077951155 0.016873391
0000a0 74 9e d7 3b f2 a3 cd 3b 14 75 1c 3c a3 c7 09 bc
       0.0065801684 0.0062756473 0.009549398 -0.0084094135
0000b0 f9 f3 3b bc cd 2c 55 3d 2d 8d 01 bd 72 5a 0a 3d
       -0.011471742 0.05204468 -0.031628776 0.03377766
0000c0 c9 46 0d bd 8c 8c f3 bc 6e dd dd 3c 12 6f 08 3d
       -0.034491334 -0.029730104 0.027083125 0.03330905
0000d0 5e a0 c5 bc 92 e3 32 bd e4 a1 01 3c 9f ba 15 bd
       -0.02412432 -0.04367406 0.007912133 -0.03655493
0000e0 8c 47 4a 3d bc 04 02 bd 01 99 15 bc 08 22 1a bd
       0.04938464 -0.031742796 -0.009130717 -0.03763011
0000f0 f8 06 03 3d 3e aa 06 bd 58 3d 35 3c af 6c 14 bd
       0.031989068 -0.0328772 0.011061989 -0.03623646
000100 e2 18 c2 3c eb b6 c6 bc 2d a9 c5 ba f8 89 53 3c
       0.023693506 -0.024257144 -0.0015080326 0.012911312
000110 d0 03 03 3d 4c ee 0c bc 8c 69 2b bd 56 16 30 bb
       0.031986058 -0.008601736 -0.041848704 -0.0026868782
000120 a6 7b a7 bc 5f 03 85 3c 20 25 32 bd 4d f3 44 3c
       -0.020444702 0.016236959 -0.043492436 0.012020898
000130 9b ea 19 3d e1 69 0c 3d d8 54 d6 ba 54 2d fc ba
       0.037577253 0.03428066 -0.001635219 -0.0019239583
000140 78 be 2d 3c ee 5f 1d bd 47 ce 1d bd 20 44 a8 bc
       0.010604493 -0.038421564 -0.0385268 -0.020540297
000150 3a ee 8c bc 0b 9e 20 bc 69 fc bd 3c 42 3f 17 3d
       -0.017203439 -0.009803305 0.023191648 0.03692556
000160 b0 b5 b1 bc 8e 67 ee ba 79 1e 1d bd e7 46 f5 bc
       -0.02169308 -0.0018188821 -0.03835914 -0.029941035
000170 67 83 ce 3b ca 37 27 3b 1b b2 f3 bb f0 b7 fa 3c
       0.0063022855 0.002551543 -0.0074370033 0.030605286
000180 9d 22 d7 bc 3f 22 8b 3c c1 3a 0c 3d 1a 68 9b 3a
       -0.026261622 0.016984103 0.03423572 0.0011856586
000190 ee a1 fb 3c 7a 4a 0a 3b 22 7f c8 3c 45 d6 f1 bc
       0.030716863 0.002110152 0.024474684 -0.029521117
0001a0 9f ca 21 3d 10 f2 26 3c 0b ef 80 3c 22 3c 76 bb
       0.039499875 0.010189548 0.015738985 -0.0037572463
0001b0 8e 7a 07 3d 66 e3 c6 bc 9f 5c f4 ba 9a 49 d4 39
       0.03307586 -0.024278354 -0.0018643326 0.00040490628
0001c0 88 40 ea bb 2f dc d6 39 c2 fe 89 3c f1 43 32 3a
       -0.007148806 0.0004098131 0.01684511 0.0006800285
0001d0 c3 30 58 3d 3a 2f ee bc 51 46 2e bd 28 46 97 3c
       0.052780878 -0.029075254 -0.042547528 0.01846607
0001e0 43 b8 a3 bc 0c b6 7e bb b0 19 2e 3d bd 46 94 3c
       -0.019985324 -0.0038865833 0.042504966 0.018100137
0001f0 0e 79 ed bc 06 1d 13 bd 94 2c 73 3c 6a 5b ca bc
       -0.028988387 -0.03591635 0.014842171 -0.024701793
000200 d6 eb f1 bc 55 f3 07 bd c4 48 0a 3d 7e bd 37 3d
       -0.0295314 -0.033191044 0.0337608 0.04485845
000210 cf 22 e6 bc 48 e2 98 bc 29 40 2b bc a9 c6 47 3c
       -0.02809277 -0.018662587 -0.010452309 0.01219336
000220 d5 1c e6 bb 43 1f b5 bc 22 79 0b 3d 5a 8c 1d 3d
       -0.00702248 -0.022109633 0.034051068 0.038463928
000230 c0 44 e7 3c 93 1b 82 3c aa 8a 28 bd 27 f5 9e 3c
       0.028231025 0.015882289 -0.041147865 0.019404007
000240 46 90 d9 bc 54 49 bb bb a1 b2 49 3c 07 2e e2 bc
       -0.026558053 -0.0057155285 0.012310655 -0.027609838
000250 88 dd 2d 3d 10 ea eb 3a e6 49 fa 3c e5 0e c3 bc
       0.042447597 0.0017998833 0.030552816 -0.023810813
000260 98 3f ea bc dc ed d6 3c 49 22 15 3c 1c 2b 65 bc
       -0.028594777 0.026236467 0.0091024125 -0.013987329
000270 3e 07 78 3c 7a 03 06 3d 4c 0b 31 3d 71 27 b7 bc
       0.015138445 0.03271816 0.043223664 -0.022357674
000280 d5 51 3a bc bd 53 4a 3c 93 58 6d bc e2 c2 9e 3b
       -0.011372049 0.012349066 -0.01448645 0.004845009
000290 93 c0 15 bd 77 b5 1b 3c 5e bc 78 3c e1 5b 2b bd
       -0.036560606 0.009503714 0.015181629 -0.04183567
0002a0 65 77 4f 3b a1 55 f2 bb c1 ba 00 3d 21 54 50 3c
       0.0031656858 -0.0073954617 0.031428102 0.01271537
0002b0 9d a5 b5 bc 38 70 90 3c 2c f4 12 bd 94 46 bd 3c
       -0.022173697 0.017631635 -0.03587739 0.023104943
0002c0 3d 54 29 3d c2 0b 8e 3c 3d 14 2b 3c 90 bb b3 3c
       0.0413401 0.017339591 0.010441837 0.021940023
0002d0 3e bb 1c bc dd 21 16 3c 66 04 22 bd 18 f5 b6 bc
       -0.009566126 0.009163347 -0.039554976 -0.022333667
0002e0 27 cc da bc bc 5c 0e 3d 3a a9 22 3c c0 b5 31 bb
       -0.026708676 0.034756407 0.009928042 -0.0027116388
0002f0 90 be 21 3d 11 e9 86 3c 01 0b 32 3c 84 e7 63 3c
       0.039488375 0.016468557 0.010866881 0.013910178
000300 b1 53 02 bd 96 d7 f0 bc 9b 29 18 3d c6 e5 01 bd
       -0.031818096 -0.029399674 0.037149053 -0.03171327
000310 08 c5 bd 3b f1 02 d5 3c ea aa ec bb 6d 53 c2 3c
       0.00579131 0.02600238 -0.007222523 0.023721421
000320 73 6c b4 bc bc 27 27 3d 09 23 e9 3c 54 a8 5d bc
       -0.022024369 0.040809378 0.028459089 -0.013528902
000330 25 20 f5 3c 3d a9 cf 3c 27 8a d2 bc 48 b8 7f 3c
       0.029922554 0.025349254 -0.025700642 0.015607901
000340 3c 16 1b 3d 69 23 e5 ba ef 64 a1 bc 75 b7 26 3d
       0.037863 -0.0017481867 -0.01970145 0.040702302
000350 50 00 f8 bb 78 23 85 bc 4c a7 2f 3c 9a 40 a0 3c
       -0.0075683966 -0.016252264 0.010721039 0.019562054
000360 09 65 35 3d f2 58 99 3b 47 51 c0 3c 3c 95 9b 3c
       0.044285808 0.0046797926 0.023476256 0.018992059
000370 82 59 5e bc a7 ed 06 bd ef b4 44 3c 5b ed d5 bc
       -0.013571145 -0.032941487 0.012006029 -0.026114156
000380 be 4a d0 ba 9d 05 48 3d 36 f8 fd bc c2 79 b8 bc
       -0.0015891416 0.04883348 -0.031002145 -0.022518996
000390 c6 5e 7c bb 09 d9 e5 bc d0 fd ff bb 70 41 11 bd
       -0.0038508638 -0.028057592 -0.007812239 -0.035462797
0003a0 c4 64 5e bd 9f 72 2b bd d7 7b f5 3c b1 be 2a 3d
       -0.054295316 -0.041857358 0.029966278 0.041685764
0003b0 83 8e 8b bc 2f 4b 95 bc 59 e4 a2 bc ef 9d 94 bc
       -0.017035728 -0.018224327 -0.019884275 -0.018141715
0003c0 23 43 16 3c 8a c6 7f 3c 76 3e 8a bc 87 d0 07 bd
       0.00917128 0.0156113 -0.016875487 -0.03315785
0003d0 89 b9 bf 3c 56 10 79 3c 55 b8 78 bb 37 2a 98 3c
       0.0234039 0.015201649 -0.0037951667 0.018574817
0003e0 43 a8 8e bc 01 fa 0f 3d 9a 44 8f bb 46 bb 1e bd
       -0.017414218 0.03515053 -0.0043721916 -0.038752817
0003f0 d4 8b e3 bc 61 e5 2b bc 2e 86 27 3d a9 39 e1 3c
       -0.027776636 -0.0104917 0.040899448 0.027493315

fc1.bias f4 [120]
000000 8a fb a0 bc 91 07 3e 3d 22 bd 95 bc e9 e9 2b 3d
       -0.019651193 0.046393935 -0.018278662 0.04197112
000010 00 97 a3 3c 59 52 01 bd b4 72 f8 3b ce a3 3b 3d
       0.019969463 -0.031572673 0.007582033 0.045810513
000020 91 8c e3 3c 21 26 e2 bc 00 5a 10 bc 43 57 c1 bc
       0.027776988 -0.027606072 -0.00881052 -0.02360118
000030 07 17 59 3d 5d 31 3c 3d 31 ad 22 bb 9a 78 07 3d
       0.053000476 0.045945514 -0.0024822468 0.033074
000040 1d 34 06 bd ef 7e 09 3d af d4 1c 3c 90 99 e6 3a
       -0.032764543 0.03356832 0.009572192 0.0017593373
000050 ec 3c ec 3c aa 23 e5 3b 71 b2 c4 3c d1 f1 b2 3b
       0.028837644 0.006992777 0.024010869 0.0054609557
000060 bf 14 1c bc a2 8e a9 3c 01 7b cc bc fa 56 32 ba
       -0.009526431 0.020697895 -0.024960997 -0.00068031217
000070 dc e3 a5 38 e8 d7 e6 ba 48 3f b8 ba ac 7b 87 bc
       7.910255e-05 -0.0017611952 -0.0014056945 -0.016538464
000080 0e d2 d1 3b 11 fa 08 3d 7a e6 08 bd c3 26 b5 bc
       0.0064032143 0.033441607 -0.033422925 -0.02211321
000090 59 d7 d9 bc 2f da ca 3b 0b 1a b6 3c 25 a6 c7 ba
       -0.026591944 0.0061905603 0.022229215 -0.001523201
0000a0 c6 61 e9 bc 5b b5 d7 3c 6f d9 07 3d 96 e6 e2 bc
       -0.028489005 0.026331594 0.033166345 -0.027697843
0000b0 fa 38 24 3d 72 e0 3a 3d 3c f9 3e 3d 54 b7 9f 3c
       0.0400934 0.045624204 0.046624407 0.019496597
0000c0 14 62 f0 3b e1 02 fa 3c 76 1b c2 3c d1 8b a3 3c
       0.0073359106 0.03051895 0.023694735 0.01996413
0000d0 04 69 13 3d 35 17 29 bc bc bf f4 3c 94 3f 8c bc
       0.035988823 -0.010320474 0.029876582 -0.01712016
0000e0 31 65 9f bb 12 11 b2 bc 01 7a 07 bd 25 b0 b3 3c
       -0.004864358 -0.021736655 -0.033075336 0.021934578
0000f0 3d 72 d7 3c 79 7f 94 3c 23 1c 2d bc 00 05 0b 3d
       0.02629959 0.01812719 -0.01056579 0.033940315
000100 c4 1f 6e 3c fa aa 5e 3c 1e a8 47 3c 5c 5a a7 3b
       0.014533941 0.013590569 0.012186078 0.005107207
000110 22 69 db 3c 19 d5 44 3c fb 4f ac bc c7 db aa 39
       0.02678353 0.012013697 -0.021034231 0.00032588674
000120 91 f0 eb bb f3 96 72 3c 29 a8 06 bd 00 f7 0f bd
       -0.0072003086 0.014806497 -0.032875214 -0.035147667
000130 22 89 10 3d e9 a8 fd bc 65 93 46 3c 38 d9 fa 3b
       0.03528703 -0.030964332 0.0121201025 0.007655289
000140 61 c1 d8 3c 29 13 22 bd 31 97 b1 bc 60 c3 1f 3d
       0.026459398 -0.039569054 -0.021678539 0.039004683
000150 89 0d 64 bc 06 dc d2 bc 8d e4 f4 bb 4c 4f 35 3d
       -0.013919243 -0.025739681 -0.0074735344 0.044265077
000160 19 2c f9 bb 53 27 7b 3c 5d 34 1d 3d 9b bb 10 bb
       -0.007604134 0.0153292 0.038380016 -0.0022084478
000170 b7 18 38 bc 3b c3 29 3d e4 68 21 bc 86 ab 1d 3d
       -0.011236361 0.041445952 -0.009851668 0.038493656
000180 e0 ed 0a bc b5 92 10 3d f9 ad 2d 3d c0 f1 50 3d
       -0.008479565 0.03529616 0.04240224 0.0510118
000190 a1 11 af bc df b1 99 3c 09 d4 bd 3c 52 d6 ed 3c
       -0.02137071 0.018761573 0.023172395 0.02903286
0001a0 fd 80 3b 3d ee 8f 1c bd af c6 67 3c a5 d6 6b 3c
       0.04577731 -0.0382232 0.014146491 0.014394437
0001b0 c2 53 20 bd bb 48 a8 3c a1 54 dd 3c 08 ad 25 bc
       -0.039142378 0.020542493 0.027017893 -0.010112055
0001c0 51 a1 00 bd b9 9b 43 3d e6 af 73 3c e0 6d 9e bc
       -0.031403843 0.04775593 0.01487348 -0.019339502
0001d0 ec 08 1a 3c 1c c4 90 3c 05 08 ff 3c 48 91 35 3d
       0.009401541 0.017671637 0.031131754 0.044328004

fc2.weight f4 [84, 120]
000000 0e fa 46 3d df fc 98 bd 46 34 1d 3b e4 99 e5 3d
       0.048578314 -0.07470106 0.0023987456 0.11210993
000010 d5 09 c4 bb 5d d3 d9 3c 0d a9 0b 3c 10 ab 6f 3d
       -0.0059826174 0.026590044 0.008524192 0.058512747
000020 db 01 75 bd 5a c6 3e 3c 50 f9 a2 bd fd 6a 9b 3c
       -0.059816223 0.01164397 -0.07957709 0.018971914
000030 20 b4 d9 3d 0a e4 42 bd e0 b2 e7 bc 72 30 13 bd
       0.10630059 -0.047580756 -0.028283536 -0.035934873
000040 06 a2 8a 3d e3 bb 8d bd 5e ae 9c 3c 21 7e 37 bc
       0.06769185 -0.06920602 0.019126114 -0.011199505
000050 e9 3f 65 bd f6 15 70 3d ee c3 c3 bc 5a 21 71 bd
       -0.055969153 0.058614694 -0.023897137 -0.058869697
000060 1d 73 a2 3d 8f e9 30 3d 70 36 f4 bb 45 3b 5c 3d
       0.07932112 0.04319149 -0.0074527785 0.05376746
000070 62 bd 82 bd f2 a0 83 bd 67 ad 5d 3d 9f 2b fe bc
       -0.06383778 -0.06427182 0.054120447 -0.03102666
000080 e2 bc 7c 3d 6f b9 4f bd 87 52 eb bc c7 60 11 3d
       0.06170357 -0.050713953 -0.028725876 0.035492685
000090 b8 4e 74 bd 0a 7b b3 bb 1d 50 70 bd 2d 89 1a bd
       -0.059645385 -0.005477314 -0.058670152 -0.037728477
0000a0 4d 3a b6 3d 06 c2 bc bd cb 4d 9f 3d 84 6e d2 3d
       0.08897839 -0.092166945 0.0777851 0.102749854
0000b0 35 ff 82 3d 62 67 cd 3d 01 6c ae 3d 1f a2 c2 3d
       0.06396333 0.10029484 0.08516694 0.095035784
0000c0 5a e9 7f 3d ba 29 7b bd fd 02 12 3d 62 ad b7 bd
       0.0624784 -0.06131909 0.03564738 -0.08968617
0000d0 9b 74 21 bd 7d 7d a9 3d 6e ac 75 bd 6f 4f 8b bd
       -0.039417844 0.08275888 -0.059978895 -0.0680226
0000e0 7e 5c 2d 3c 8c a3 3e bd 3b b3 91 3d ea 25 4b bd
       0.010581134 -0.04654269 0.071142636 -0.049596705
0000f0 62 30 b9 3d c9 25 0c be d1 dd 73 bc 78 e9 e7 bc
       0.090424314 -0.13686289 -0.014884428 -0.028309569
000100 56 e3 60 3d a7 f0 20 3d 32 27 1f bd 9f d1 83 bd
       0.054904304 0.039292004 -0.03885574 -0.064364664
000110 67 98 5c ba da 85 7d 3d af 69 9b bc 06 fd a1 3d
       -0.00084150437 0.06189523 -0.018971292 0.079095885
000120 50 0c 4c 3c 0c 69 c6 bd 7a f5 12 be 26 0c 15 bd
       0.012454107 -0.09688005 -0.14351454 -0.03638854
000130 fa e8 1c 3d ba 7b 68 bd 97 a3 5d bd 5c a8 59 3d
       0.03830812 -0.05675862 -0.05411109 0.053139076
000140 92 87 07 3d 1f e3 be bd 65 52 61 3d f2 29 bc 3c
       0.033088274 -0.09320664 0.05501022 0.02296922
000150 b6 d1 56 bd bb d2 8f 3d 66 98 c8 3c 5f 93 34 bd
       -0.05244609 0.070226155 0.024486732 -0.044085857
000160 37 e0 a7 3c 9b b2 4c 3d d1 7d bf 3b ce 4a 01 bd
       0.020492656 0.04997502 0.005843856 -0.03156548
000170 0e fc a5 3d 31 49 04 3d ef 4b 56 3d 0e 10 9b 3d
       0.08104716 0.032296363 0.05231851 0.075714216
000180 e3 3f be bd 88 d6 b9 bd 3d ee 8e bd 79 42 8d bc
       -0.09289529 -0.09074122 -0.06979034 -0.01724361
000190 b8 7e a0 3d 57 55 52 3d 01 eb 67 bd 6b 4a 93 bd
       0.0783667 0.051350918 -0.0566206 -0.071919285
0001a0 e1 0d 39 3d 2b 41 57 3d fd e2 a4 bd 06 05 5c 3d
       0.04517925 0.052552383 -0.08051107 0.05371573
0001b0 6a 1f ac 3a 4e b2 dd bd 4f d0 75 bd 14 61 cb 3c
       0.0013131921 -0.108250245 -0.06001311 0.024826564
0001c0 56 89 e0 bc 6b d8 8e bd d3 e2 47 bc e9 27 8f 3d
       -0.027409237 -0.06974872 -0.012200075 0.06990034
0001d0 40 a4 66 bc 3f 90 56 bd d5 ea 3d 3d 72 c2 8d bc
       -0.014077246 -0.052383658 0.04636653 -0.017304633
0001e0 95 d1 20 3d 4e ea 81 3d f7 c0 5f 3d 63 ea 2d 3d
       0.039262373 0.06343518 0.054627385 0.042459857
0001f0 de f9 94 3d 6b 17 33 bd ed 17 cc 3d 8f 10 17 bd
       0.07274221 -0.043723505 0.09965501 -0.036881026
000200 53 f6 4c bd 76 5b 44 bd 42 49 91 bd 1f f9 b2 3c
       -0.0500396 -0.047938786 -0.07094051 0.021847306
000210 4d 9a 0f 3d 53 3e 90 bd d7 82 40 3d 0f 0c 68 bd
       0.035059262 -0.070431374 0.04699978 -0.056652125
000220 47 e9 3c 3d 6e 59 43 3d f4 5b 14 3d 75 f6 c7 3c
       0.046120908 0.04769271 0.036220506 0.024409512
000230 9c 63 bc 3c a3 58 d4 bc 23 f6 b6 3d ae 74 d2 3d
       0.022996716 -0.025921172 0.089336656 0.10276161
000240 ae 05 63 bc 46 5b 06 3d 97 39 b4 3d fb 22 d4 3d
       -0.013856335 0.03280189 0.08800047 0.103582345
000250 14 2a 1c bd 19 39 0b bc f1 8b 7a 3c 2c 7d da 3a
       -0.038126066 -0.0084975 0.015292154 0.0016669384
000260 e3 f9 ff 3c 56 4d 82 bd 4b 4d 3d 3d 40 c8 ae bc
       0.031247085 -0.06362407 0.04621629 -0.021335721
000270 25 06 79 3d ad 05 8f 3d f3 c4 19 bd 5f 29 8d bd
       0.060796876 0.069835044 -0.03754134 -0.068926565
000280 92 d5 7b 3c 6a 3d 53 bd ac 92 1b 3c 0b b5 a1 bc
       0.015370743 -0.05157224 0.0094954185 -0.019739648
000290 01 eb 50 3c dd 36 65 3d 5a f2 1e bc 4e cb 35 bd
       0.012751342 0.055960525 -0.009701336 -0.04438334
0002a0 b7 ca 85 3d 85 bb e3 bc 6a ed 3b bb e7 87 a2 3c
       0.065328054 -0.027799377 -0.0028675445 0.019840194
0002b0 56 a5 8c bd 89 d0 3e bd 84 51 2c bd 4e 79 2c bd
       -0.06867473 -0.046585593 -0.042069927 -0.042107873
0002c0 ca 4f 8f 3c e0 e4 ef bc 60 d8 75 3d 09 84 17 bd
       0.017494101 -0.02928394 0.060020804 -0.036991153
0002d0 57 29 98 bd c3 f7 86 bd b9 b7 cc 3d ee e4 51 3d
       -0.0742976 -0.065902255 0.0999598 0.051243715
0002e0 5c dc d0 3b 5c 89 cc 3d 6f 96 7b bc 2f dd 80 3d
       0.006373925 0.09987137 -0.01535569 0.062921874
0002f0 d2 d5 27 bd 8d 4a 34 3d 14 07 9c 3d 53 82 fd bc
       -0.0409754 0.04401641 0.076185375 -0.030945932
000300 69 f7 9e bd 9c 76 c5 3b 89 ed 12 3d fa 70 82 bd
       -0.077620335 0.006026102 0.035871062 -0.06369205
000310 dc 7f 87 3d c7 a7 40 bd b7 0f c9 3c ce 23 56 3d
       0.06616184 -0.047035005 0.024543626 0.05228024
000320 48 8b bd bc d6 1e 2f bc a9 14 92 bd f7 68 5a b9
       -0.023137704 -0.010688504 -0.07132847 -0.00020829203
000330 1d c8 43 3c 38 37 cf bc c3 65 c7 3c 32 88 4c 3d
       0.011949566 -0.025294885 0.024340516 0.049934573
000340 96 f4 ec 3c 49 c0 9d 3d 77 a3 bf bc 0b 6e 90 3d
       0.028925221 0.07702691 -0.023393376 0.07052239
000350 e7 40 86 3d 5f 67 41 3d 7b 9a 2f 3c 89 63 94 3d
       0.06555348 0.047217723 0.010717983 0.07245547
000360 64 47 d3 3c e2 92 12 bd c2 49 16 3d 11 fd 6e 3d
       0.025790878 -0.03578461 0.036691435 0.05834681
000370 dd 37 31 bc 69 91 5e bb dd 7d 3b 3d b0 9b b6 3d
       -0.0108165415 -0.0033961183 0.04577433 0.08916414
000380 e6 2f be 3d 5b d2 81 bd 23 3d a2 3c 08 29 4c 3d
       0.0928648 -0.0633895 0.019804543 0.049843818
000390 84 39 9f 3d 95 b1 8c bd 56 bb f5 bb cc fb 9a bd
       0.07774642 -0.068698086 -0.007499139 -0.07567558
0003a0 8a 29 b7 3d 15 7c af 3d 1a e5 83 bd 80 dc 1e bd
       0.0894347 0.08568589 -0.06440182 -0.038784504
0003b0 44 10 5e 3d fa d4 00 3d 2c 88 9f bd 50 e6 91 3b
       0.05421473 0.03145311 -0.077896446 0.004452504
0003c0 f2 8f ec 3c 06 0f 89 3d c2 49 85 bd 2e a8 b8 3d
       0.028877232 0.066923186 -0.06508209 0.09016453
0003d0 25 f9 bc bc f6 d4 91 bb f8 23 8b bd cf 4c bf 3c
       -0.02306802 -0.0044504358 -0.0679397 0.023352055
0003e0 09 d1 2f 3d 0f a0 0b bc 52 79 2e bd 44 1b 9c 3d
       0.04292396 -0.008522048 -0.04259617 0.07622388
0003f0 ba 42 54 3c 17 b4 04 bd 9e 05 03 bd 85 6c 03 3d
       0.012955362 -0.03239831 -0.03198778 0.032085914

fc2.bias f4 [84]
000000 40 86 c1 3d d0 dd 73 3d f2 62 81 3d 2b 09 1a bd
       0.09449434 0.05953771 0.063177004 -0.0376064
000010 dd 9c ad 3d c8 21 ad 3d b5 03 d3 3d e1 60 99 3d
       0.08477185 0.08453709 0.103034414 0.07489181
000020 3c 62 71 bd c5 8e 5c 3d a4 b9 e2 3b d8 e5 c7 3c
       -0.058931574 0.053847093 0.0069191027 0.02440159
000030 ba 3c 16 bd 36 9a d7 bb 21 9e bc 3d 5b f0 78 bd
       -0.036679007 -0.0065796627 0.09209848 -0.060776096
000040 db 03 80 bd 29 15 b4 3d d4 ad 82 bc 22 be 43 bd
       -0.06250735 0.087930985 -0.015952028 -0.047788747
000050 43 3c 62 3d 99 4f 82 bc 70 5a 83 3d aa 8d 15 bd
       0.05523325 -0.015907096 0.06413734 -0.036512055
000060 b4 eb a5 3d 22 d6 f9 3c 27 ec 60 3c d7 dc be 3d
       0.081015974 0.030497614 0.013728178 0.093194656
000070 56 92 cd 3b e4 4e 2d bd 9a 40 bd 3d 52 3b 59 3d
       0.006273548 -0.042311564 0.092408374 0.053035088
000080 bf 7c 8c 3d 9a 25 8f bc 79 81 a9 bc cd 94 9d 3d
       0.06859731 -0.017473985 -0.02069162 0.07694397
000090 ff 0b 68 bd 96 a4 61 bd 8d 2d 76 3d 33 51 d0 3d
       -0.056652065 -0.055088602 0.060102034 0.101717375
0000a0 fd 98 02 3d ea 59 49 3c bd 83 90 bd 24 3b 42 3d
       0.031884182 0.012289504 -0.07056377 0.047419682
0000b0 e2 b9 1c bd 5b d5 98 3c 53 3e 12 39 42 78 86 bd
       -0.03826321 0.018656423 0.00013946863 -0.06565906
0000c0 bd 91 96 3d 2f d7 42 3d 46 89 c4 3d a2 86 9e 3d
       0.07352016 0.047568496 0.09596495 0.07740523
0000d0 8a 3d 31 bd c8 c1 d5 3d 43 ed 98 3d 82 9b 43 bc
       -0.04327158 0.104373515 0.07467129 -0.011938931
0000e0 f1 57 03 3d 94 5f 0c 3d ac 9d ad bd c2 12 b4 3c
       0.03206629 0.034270838 -0.08477339 0.0219816
0000f0 c3 e3 b1 3d b2 37 9d 3d 3f cd 1a 3d 7c ae f2 bc
       0.0868602 0.07676639 0.037793394 -0.029624216
000100 91 5c c9 3d c0 2a 4a bd a4 13 37 3d 06 6a 55 3d
       0.09832109 -0.049357176 0.044696465 0.052103065
000110 99 fb ff 3c a9 fc 4c bd 11 3e 08 bd 21 b3 8e bd
       0.0312479 -0.050045643 -0.033262316 -0.0696776
000120 b7 a8 e2 3d fd 03 8c bd b2 54 29 bd 8c c1 59 bd
       0.11067336 -0.06836698 -0.041340537 -0.053163096
000130 7c 73 cf 3c c2 3a 93 3d ab 4a 81 3d ed f8 ac bd
       0.025323622 0.071889415 0.0631307 -0.08445916
000140 db f8 b6 bd 9a 6f 17 3d 72 c1 a2 3d 5c 9d b0 3d
       -0.08934184 0.036971666 0.07947053 0.08623764

fc3.weight f4 [2, 84]
000000 72 3e 84 3e 2d 22 dc bd 19 aa 2d 3d cd 84 b2 3e
       0.25828892 -0.10748706 0.042398546 0.34866944
000010 d3 fa 27 3d fe e6 3a 3e 2d d4 6d be 4e 58 0f be
       0.04101069 0.18252179 -0.2322547 -0.1399853
000020 b1 3f af 3c ed 01 63 bc ae bd 12 be dd 0a 52 be
       0.021392675 -0.01385544 -0.1433017 -0.20511957
000030 1c fc 09 be 61 95 bf bd 77 27 ba 3d 7a 1a 90 be
       -0.13475078 -0.09354664 0.090895586 -0.281452
000040 31 c2 8a bd 0c 7b a6 3e bd b8 9f 3d 7c 54 74 bc
       -0.0677532 0.32515752 0.07798908 -0.014912721
000050 f6 09 22 3e ae 4b b5 be f8 95 26 be 95 85 ae bc
       0.15824112 -0.35409302 -0.16268146 -0.021303931
000060 42 38 5e bd ac f4 87 3e f2 a8 17 be 2a 93 19 be
       -0.05425287 0.26553857 -0.14810541 -0.14997545
000070 01 18 84 be 24 82 99 3e 9a f0 15 3e ab 2d b4 bd
       -0.25799564 0.29982102 0.14642563 -0.08797773
000080 0d 1f 04 bc 27 c2 ac 3d 23 f6 53 3e a7 ab 2b be
       -0.008064044 0.08435469 0.20699362 -0.16764699
000090 d1 16 63 bd a6 ce 00 3e 6b 84 a4 bd cc 8f 33 3e
       -0.05544168 0.1257883 -0.08033069 0.17535323
0000a0 80 26 17 be 9f 9c 18 be 08 58 0f be f4 18 59 3d
       -0.1476078 -0.14903496 -0.13998425 0.053002313
0000b0 31 cc b8 3d f4 cd c1 3d 4f d0 a4 bd 3d 16 28 3d
       0.090233214 0.094631106 -0.08047544 0.041036833
0000c0 63 da dd be 99 ac 8e be 33 0b de bc 87 55 a3 3d
       -0.43330678 -0.27866057 -0.02710495 0.079752974
0000d0 94 b2 02 3e 4d 2f 7c be 77 c9 b6 3d da d5 ef 3d
       0.12763435 -0.24627419 0.08925145 0.11710711
0000e0 cc 72 c9 3d 78 1d cb 3c 4c 8f a5 bd 60 d0 3e bd
       0.09836349 0.024794325 -0.08083972 -0.04658544
0000f0 eb a6 09 3c d8 51 24 bd 2e c6 03 be fb e3 81 3e
       0.008401613 -0.040117115 -0.12868568 0.25369248
000100 27 36 eb 3d 74 cd 84 be 47 c0 c0 bc e6 f2 08 3e
       0.11484938 -0.25937998 -0.023529185 0.13373908
000110 fc b2 9b bc b2 ee 58 be a9 9d b2 bd 66 c2 20 bd
       -0.019006245 -0.21184805 -0.087214775 -0.039247893
000120 69 e0 be bd 8e ae c4 3d dd 84 02 3e d8 49 f0 3d
       -0.093201466 0.09603606 0.12745996 0.117328346
000130 bb 10 68 3c 1c 2f 60 3e 0e 48 9b bc fb 58 16 be
       0.014164145 0.21892971 -0.018955257 -0.14682381
000140 1d 10 b3 bd ff d5 0d be 66 da 82 3d 2a c1 26 3e
       -0.08743308 -0.13851164 0.063893124 0.16284624
000150 1b 07 4f be f2 61 46 3e 19 0b a2 3d 8c 57 98 3e
       -0.20217554 0.193733 0.07912273 0.29754293
000160 6e 2f 32 be 53 3b 74 3e 3d fe 0c be f1 ca fb 3c
       -0.17400905 0.23850755 -0.13768859 0.030736418
000170 8c 28 b1 bd 0b 08 ff 3d 13 6e d9 3d f0 6a 0b 3e
       -0.08650312 0.12452706 0.10616698 0.13615012
000180 b5 fd 95 3d f0 4c 33 3e 39 07 01 3e 5a 56 80 be
       0.073237814 0.17509818 0.12600411 -0.2506588
000190 46 bb e6 bd 8f f1 9b 3e ea 20 8a bd 9b 83 f6 3c
       -0.11266188 0.30457732 -0.06744559 0.030092051
0001a0 43 b4 18 be 84 db 3c bb d0 6b 64 3e 0d 33 07 be
       -0.14912514 -0.0028817365 0.22306752 -0.13203068
0001b0 f9 4c cb 3d 68 c5 49 bd 9c 19 0c 3e c3 0c 7f 3e
       0.09926791 -0.049260527 0.13681644 0.24907212
0001c0 21 23 7c 3d 2a 44 70 bd 7b 28 62 3e fd 23 71 bd
       0.06155694 -0.058658756 0.22085755 -0.05887221
0001d0 23 8a 5e be 20 d6 dc 3c cb 65 0a 3e 8e cb 3a 3e
       -0.21732382 0.026957572 0.13515393 0.18241712
0001e0 d3 2f 39 bc 5d 17 71 bd 95 fc 1f 3b c2 2f 50 3e
       -0.011302906 -0.05886017 0.0024412025 0.20330718
0001f0 a5 96 3a bc 2c 57 90 bd b1 d6 3e 3e f1 3a 24 bd
       -0.0113884555 -0.07047877 0.18636586 -0.040095273
000200 61 4f 29 be cb 40 46 be 24 c2 63 be 5b b3 fa 3d
       -0.16534187 -0.19360654 -0.22242028 0.122412406
000210 dd 0a 4a bd ce df 48 3e 66 2b 2b be c5 71 4c be
       -0.049326766 0.19616625 -0.16715774 -0.19965275
000220 1a 66 84 bd ef ee d5 bd 14 a8 84 3d e3 18 e8 3d
       -0.06464787 -0.104459636 0.06477371 0.11332872
000230 70 9f 98 be ed 6c 5f 3e aa 65 b8 bb 6f 45 00 3e
       -0.2980914 0.21818896 -0.0056273537 0.12526487
000240 75 3a 32 3e e4 3f 6c be a2 77 85 3d f0 24 58 3e
       0.17405112 -0.23071247 0.06516959 0.2110784
000250 fa a9 0c 3e fd 21 45 be 75 f7 59 be 12 34 9a be
       0.13736716 -0.19251247 -0.21285804 -0.30117851
000260 3b 2e 7e be bc dc a6 3d 34 86 2d 3e 9f 64 b1 3a
       -0.24822323 0.081475705 0.16945726 0.0013534016
000270 a9 a3 88 3e b3 ae 68 be e9 29 20 be e7 7e 71 be
       0.26687363 -0.22722892 -0.15640987 -0.23583566
000280 04 71 7a bd 9b 78 14 3e 80 30 0f be 75 e6 2f 3c
       -0.061142936 0.14499132 -0.13983345 0.010736098
000290 b5 64 de 3d 2b 6c ab bd 33 68 15 be 48 5c 44 3d
       0.10859052 -0.08370241 -0.1459053 0.04793957

fc3.bias f4 [2]
000000 0f e6 02 3d c9 38 19 bd
       0.031957682 -0.03740767
