src/models/bc-with-noise.onnx (onnx, 336927 bytes, 10 tensors)

conv1.weight f4 [6, 5, 5, 5]
0	0x3d9234c0	0.071389675
1	0x3dad96ea	0.0847605
2	0xbd670838	-0.056404322
3	0x3c735fe3	0.014854404
4	0x3d552214	0.052034453
5	0x3d1a61ed	0.037691046
6	0x3c7edaac	0.015555065
7	0x3cafc158	0.021454498
8	0xbd77225b	-0.0603355
9	0xbd731e5e	-0.059355132
10	0x3c3b73e2	0.011441203
11	0xbd0b3737	-0.033988204
12	0x3ba5fb03	0.0050653233
13	0x3db88895	0.09010426
14	0xbd7dec1e	-0.061992757
15	0x3da9be86	0.082882926
16	0x3dd06456	0.101753876
17	0x3da0dc51	0.07854522
18	0x3da2170c	0.07914552
19	0x3c2a415b	0.0103915585
20	0x3da78928	0.08180457
21	0x3db9513f	0.090486996
22	0x3d0c134e	0.034198098
23	0xbd318610	-0.043340743
24	0x3dab2af5	0.08357803
25	0x3dd5d972	0.10441865
26	0xbccd2c81	-0.025045635
27	0x3da93e15	0.08263794
28	0x3db5441a	0.0885088
29	0x3dc9f7b3	0.09861698
30	0x3ddb0259	0.10693807
31	0x3dfb26e4	0.12263277
32	0xbc9f1b52	-0.019422207
33	0x3d5672f5	0.052355725
34	0xbd86b1d3	-0.06576886
35	0x3c30787a	0.010770911
36	0xbcdbbc49	-0.02682318
37	0xbc59900f	-0.013278975
38	0x3d3d4e7c	0.046217427
39	0x3cf2fe63	0.029662317
40	0x3da57f3f	0.08080911
41	0x3d2e7fc5	0.04260232
42	0x3da05ecd	0.07830582
43	0x3d3d3a32	0.046198077
44	0xbd323e41	-0.0435164
45	0x3d99fd82	0.07519056
46	0x3d4e2370	0.050326765
47	0x3ddad0f5	0.10684387
48	0x3d95d21a	0.07315464
49	0x3d3451e5	0.044023413
50	0x3dc33678	0.095318735
51	0x3c61e418	0.013787292
52	0x3d051be2	0.032497294
53	0xbd897f19	-0.06713695
54	0x3d1ae5ae	0.037816696
55	0x3db81aad	0.08989463
56	0x3d5d6662	0.054052718
57	0x3c3b076c	0.011415344
58	0x3cc6193e	0.024181958
59	0xbd158fbe	-0.036514036
60	0x3bf331ea	0.0074217217
61	0x3df4871a	0.11939831
62	0x3dfe6e73	0.1242341
63	0xbc26dad6	-0.0101840105
64	0x3d81c892	0.06337084
65	0x3d63a2cf	0.05557519
66	0x3d6e7f35	0.058226783
67	0x3d8c2117	0.06842249
68	0x3d89d890	0.06730759
69	0x3d3f4934	0.04670067
70	0x3d9179f8	0.07103342
71	0x3cbf8df6	0.023383122
72	0xbcc83001	-0.024436953
73	0x3d93b8be	0.07212971
74	0xbd8def70	-0.06930435
75	0x3b03a8a6	0.0020089536
76	0x3de47455	0.11155001
77	0x3d9a05dd	0.075206496
78	0xbd648780	-0.055793285
79	0x3d9d0370	0.07666671
80	0x3dbd3e71	0.092404254
81	0xbc081698	-0.008306168
82	0xbbadf0e4	-0.0053082574
83	0x3d612fa5	0.054977078
84	0xbd7f3cde	-0.062313907
85	0xbcdb89d1	-0.026799114
86	0x3ccd2391	0.025041373
87	0x3d8053e8	0.06266004
88	0xbd0c05cc	-0.034185216
89	0x3dc65af6	0.09685318
90	0x3cf7b978	0.030239806
91	0xbcf18eda	-0.029487062
92	0x3d87caec	0.06630501
93	0x3da372c7	0.079808764
94	0x3d9ff730	0.07810819
95	0x3dbbc56f	0.09168517
96	0xbd42a763	-0.047522914
97	0x3da590a5	0.080842294
98	0x3da79ec3	0.08184578
99	0xbd567bd5	-0.05236419
100	0xbad3b686	-0.0016152419
101	0x3d46e8fb	0.04856203
102	0xbd3bfca5	-0.045895237
103	0x3d2a1185	0.041520614
104	0x3c861661	0.016368093
105	0x3cd89fd3	0.026443398
106	0x3db73c32	0.08947028
107	0x3db5bc04	0.08873752
108	0x3d7876ef	0.0606603
109	0x3db8ab2d	0.09017024
110	0x3d5b27bc	0.05350469
111	0x3dcfe583	0.10151198
112	0x3e013fd3	0.12622003
113	0x3cb52ae6	0.022115182
114	0x3db09af7	0.08623307
115	0x3ce29c5e	0.027662452
116	0x3d80705d	0.062714316
117	0xbc4e495f	-0.012590735
118	0xbbaa1731	-0.005190753
119	0xbd42abfa	-0.04752729
120	0xbd36b78c	-0.044608638
121	0x3da4fcef	0.08056056
122	0xbd13f839	-0.036125395
123	0xbd256f0d	-0.04038911
124	0x3da3d3fa	0.07999416
125	0x3d1efa23	0.038812768
126	0xbcbd4665	-0.023104856
127	0xbca248d0	-0.01981011
128	0x3bb66302	0.005566002
129	0x3ac67b61	0.0015142971
130	0xbd2f7706	-0.04283812
131	0x3d91d44a	0.07120569
132	0xbd3f3328	-0.046679646
133	0x3cd596c0	0.02607286
134	0x3db71487	0.08939462
135	0x3d4a2885	0.04935505
136	0x3de4dcae	0.11174904
137	0xbc114d3c	-0.008868512
138	0x3cd48816	0.025943797
139	0xbd7ed857	-0.062218037
140	0x3d6e9e2a	0.058256306
141	0x3d99ccb9	0.07509751
142	0x3b1d65ef	0.0024017056
143	0x3cd81e84	0.026381738
144	0x3dca6a1c	0.0988352
145	0xba80a63e	-0.0009815169
146	0x3cd3ad0d	0.025839353
147	0xbcc43d09	-0.023954885
148	0x3dc72574	0.097239405
149	0x3d853690	0.065045476
150	0xbc76b626	-0.015058076
151	0x3d3bd195	0.04585417
152	0x3c8a4ae7	0.01688142
153	0x3d6a1eac	0.057158157
154	0x3d6b5c17	0.05746087
155	0xbc231f8b	-0.009956251
156	0xbd1ba7f3	-0.038001966
157	0x3d21f43c	0.03953956
158	0x3dcdd149	0.100496836
159	0x3dcf506c	0.10122761
160	0x3d94f353	0.07272973
161	0x3c3d17e8	0.011541344
162	0x3d8af9c0	0.06785917
163	0x3d52a7e4	0.051429644
164	0xbd6bc443	-0.057560217
165	0x3d84420c	0.0645791
166	0x3da3530f	0.079748265
167	0x3bdad8ae	0.0066786623
168	0x3ce0ab9a	0.027425576
169	0xbd3a3e3a	-0.0454695
170	0x3dcd5458	0.10025853
171	0xbd877be3	-0.066154264
172	0xbce5b1a1	-0.028038802
173	0xbd92c951	-0.07167304
174	0x39b223e7	0.00033977555
175	0x3dc7fa38	0.09764522
176	0x3caba1c1	0.020951154
177	0x3dd5e3f4	0.10443869
178	0xbcffdf9b	-0.031234553
179	0x3d30de10	0.043180525
180	0xbceae5a0	-0.028673947
181	0xbd3646b4	-0.04450102
182	0x3d107926	0.035271786
183	0x3dd06d60	0.101771116
184	0x3d9797d6	0.07402007
185	0xbd1849ab	-0.03717963
186	0x3bb58014	0.0055389497
187	0x3d8823c4	0.06647447
188	0x3b5305a2	0.0032199402
189	0x3d15207e	0.03640794
190	0x3d8cf971	0.06883515
191	0xbb919887	-0.0044432315
192	0x3d149129	0.036271248
193	0x3da7c7e1	0.08192421
194	0xbd4dd5ad	-0.050252605
195	0x3da36c5d	0.07979653
196	0xbc258ca6	-0.010104334
197	0x3d267e3b	0.040647727
198	0x3ca80aa4	0.020512886
199	0x3c56cbb7	0.013110093
200	0xbca542cd	-0.020173455
201	0x3d510a08	0.051034957
202	0x3cdb35de	0.026759084
203	0x3ddb1cd3	0.10698857
204	0x3debb159	0.11508436
205	0x3c5e014f	0.013550117
206	0xbcf4d262	-0.029885475
207	0xbbeddc0c	-0.0072588976
208	0x3d939c2b	0.07207521
209	0x3def6d69	0.1169079
210	0xbc9b12cb	-0.01892986
211	0xbd538026	-0.051635884
212	0x3d90fba2	0.07079245
213	0x3d8c2ad3	0.068441056
214	0x3db164d7	0.08661812
215	0xbc857c06	-0.01629449
216	0xbd8026eb	-0.06257423
217	0x3d5a41c0	0.05328536
218	0x3d9586b7	0.073010854
219	0xbd3c581f	-0.045982476
220	0xbd3e264b	-0.046423238
221	0xbd4ad44d	-0.049518872
222	0x3da55019	0.08071918
223	0x3d693939	0.056939337
224	0xbd3c5810	-0.04598242
225	0x3d5453f2	0.05183787
226	0x3d9d5e23	0.07683971
227	0xbd441996	-0.047875963
228	0x3d5f98c4	0.054589048
229	0x3dca935b	0.09891387
230	0x3ca6765d	0.020320112
231	0x3da31939	0.07963795
232	0x3db0358e	0.08603965
233	0xbc84b198	-0.016197965
234	0x3c3bb7e0	0.011457413
235	0xbce0cd9c	-0.027441792
236	0xbd672dc4	-0.05644013
237	0x3df8ed4b	0.12154635
238	0x3da903c6	0.08252673
239	0xbb45e9aa	-0.003019909
240	0xbc9e36ae	-0.019313183
241	0x3a1e5dd5	0.0006041204
242	0x3cf74c2e	0.030187692
243	0xbbb8f8f4	-0.005644912
244	0x3daa71b6	0.0832247
245	0xbb00736f	-0.0019600054
246	0x3c090cdf	0.008364885
247	0x3dc0c048	0.09411675
248	0xbd63caee	-0.05561345
249	0x3c902c2a	0.017599184
250	0xbda75143	-0.08169796
251	0xbcaec333	-0.021333313
252	0xbd0bb145	-0.034104604
253	0xbcbbad8b	-0.0229099
254	0xbd5d11da	-0.053972103
255	0xbd736703	-0.05942441

conv1.bias f4 [6]
0	0xbd3e5c49	-0.04647473
1	0xbdf25002	-0.118316665
2	0xbd8188d0	-0.06324923
3	0xbd865edf	-0.06561064
4	0xbe51332d	-0.20429678
5	0xbdabef53	-0.08395257

conv2.weight f4 [16, 6, 5, 5]
0	0xbd180fbf	-0.03712439
1	0xbbce7f6a	-0.00630181
2	0x3d1efc3d	0.038814772
3	0xbd1cfe4d	-0.038328458
4	0x3c3a6fe1	0.011379213
5	0x3db1ff0c	0.086912245
6	0x3d8590ee	0.06521784
7	0x3d832032	0.06402625
8	0xbd4e88fd	-0.05042361
9	0xbcbbfee2	-0.022948686
10	0xbd09a88a	-0.033607997
11	0x3c9b5a51	0.018963965
12	0x3d90bc43	0.07067158
13	0x3d811468	0.0630272
14	0xbde08036	-0.10961954
15	0x3ca6557a	0.02030443
16	0x3d58387f	0.052788254
17	0x3dc97ab1	0.09837855
18	0x3d87e7c4	0.06636003
19	0x3c0e2601	0.008676053
20	0x3cf5de82	0.030013327
21	0x39a92fa6	0.00032269693
22	0xbcbfd4c0	-0.023416877
23	0x3d8735af	0.06602036
24	0xbd9430a2	-0.072358385
25	0xbb3e47b5	-0.002903444
26	0x3d935c45	0.071953334
27	0x3cf11e79	0.029433476
28	0x3d33e74f	0.043921765
29	0x39748ce6	0.00023322142
30	0x3d988fc1	0.07449294
31	0x3dc236b5	0.09483091
32	0x3b682cca	0.0035427087
33	0xbd970371	-0.07373703
34	0xbd7327be	-0.059364073
35	0xbc468bba	-0.012118274
36	0xbc6761f7	-0.014122478
37	0x3d09611d	0.03353988
38	0xbd66a786	-0.056312107
39	0xbd4a870f	-0.04944521
40	0x3d863f8d	0.0655509
41	0xbcdd3698	-0.027003571
42	0x3dbba836	0.09162943
43	0x3d0e5bd9	0.03475556
44	0xbd1ddb97	-0.038539495
45	0x39e1ea1d	0.00043089772
46	0x3d927861	0.07151867
47	0x3c74ae37	0.014934114
48	0x3daaaee2	0.083341375
49	0xbce6ac1f	-0.028158246
50	0xbd3c1235	-0.0459158
51	0xbd64497b	-0.05573414
52	0x3b17761d	0.0023111172
53	0xbd84ccd8	-0.06484383
54	0xbd4d0b80	-0.050059795
55	0xbcd89888	-0.02643992
56	0xbd9a7c77	-0.07543271
57	0x3d2f9e71	0.04287571
58	0x3d2cfb0e	0.042231612
59	0xbd82a8de	-0.06379865
60	0x3d100526	0.03516116
61	0x3d451283	0.048113357
62	0xbd150fae	-0.036391906
63	0xbd014734	-0.031562045
64	0xbd60ad9e	-0.054853074
65	0xbda3292a	-0.07966836
66	0x3bd083eb	0.006363382
67	0x3be59b08	0.0070070066
68	0x3c1fb477	0.009747616
69	0x3d954a39	0.072895475
70	0xbd8d8088	-0.06909281
71	0xbc415183	-0.011799219
72	0xbb35959c	-0.0027707582
73	0xbd26c7c9	-0.040717874
74	0xbd4aa250	-0.0494712
75	0x3d2c5000	0.04206848
76	0x3ce878f3	0.028377986
77	0x3d296de1	0.041364554
78	0x3d5a127e	0.05324029
79	0xbdc5fd42	-0.09667446
80	0xbcd561ad	-0.026047552
81	0x3db3be9e	0.08776592
82	0xbd294530	-0.041325748
83	0xbc8e9ced	-0.017408812
84	0xbd26a962	-0.04068888
85	0x3cb43082	0.021995787
86	0xbc118703	-0.008882287
87	0xbba0c8dd	-0.0049067573
88	0xbdbc326a	-0.09189303
89	0xbdccfd4a	-0.100092486
90	0x3d2fee29	0.042951737
91	0x3da96489	0.08271129
92	0x3c78135d	0.015141335
93	0xbd9280ce	-0.07153474
94	0xbd9a3ada	-0.07530756
95	0x3debcfc2	0.11514236
96	0x3d82b078	0.06381315
97	0x3e05e47c	0.13075441
98	0x3dcde348	0.10053116
99	0xbd57357a	-0.052541234
100	0xbcccd90e	-0.025005843
101	0x3dd4b110	0.103853345
102	0xbc47f0a1	-0.0122033665
103	0x39b9f9d4	0.00035472086
104	0xbde4e2bb	-0.11176058
105	0x3d6ed654	0.058309868
106	0x3d396bdf	0.04526889
107	0xbcd471da	-0.025933195
108	0xbdc64bbc	-0.09682414
109	0xbd8cb7b4	-0.06870976
110	0xbc9a7161	-0.018852891
111	0x3d922899	0.0713665
112	0xbd34a283	-0.044100296
113	0xbd9d6253	-0.076847695
114	0xbde59ec3	-0.11211922
115	0x3d161cc4	0.036648527
116	0x3d1c3e8a	0.03814558
117	0x3dfb706c	0.12277302
118	0x3c3c6765	0.011499261
119	0x3baba37b	0.0052379942
120	0x3df26ede	0.118375525
121	0x3e070d64	0.13188702
122	0x3e0b70f6	0.1361731
123	0x3d6cb52b	0.057789963
124	0x3c57220e	0.013130678
125	0xbd853a85	-0.06505302
126	0x3d039c34	0.03213139
127	0xbd11a791	-0.035560194
128	0xbda1a728	-0.07893211
129	0xbce2352b	-0.027613243
130	0xbcef04f9	-0.029177176
131	0x3d3dd42c	0.04634492
132	0xbd8165e5	-0.06318263
133	0xbd390132	-0.045167156
134	0x3d1c0107	0.038086917
135	0x3cd433f7	0.025903685
136	0xbd93c000	-0.072143555
137	0x3b74aeeb	0.0037335705
138	0xbcb90839	-0.022586929
139	0x3d98e218	0.07464999
140	0xbd707d3f	-0.058713194
141	0xbd891f9d	-0.06695483
142	0x3d3e753d	0.046498526
143	0xbab92f65	-0.0014128505
144	0xbb96c07c	-0.0046005826
145	0x3c89d878	0.016826853
146	0x3c502563	0.012704226
147	0x3c43d582	0.01195276
148	0x3d2791d6	0.040910564
149	0xbda696e0	-0.08134246
150	0xbbf483ad	-0.007461986
151	0xbaae05f2	-0.0013276918
152	0x3d54c40c	0.051944777
153	0xbcb53013	-0.02211765
154	0x3d680338	0.056643695
155	0xbd893bee	-0.06700884
156	0x3ca294e6	0.019846391
157	0x3da146ba	0.07874818
158	0xbbdc7e8d	-0.006728953
159	0x3de6d792	0.112715855
160	0xbd01d37c	-0.031695828
161	0xbdab3187	-0.08359056
162	0x3d57f158	0.052720398
163	0xbd17fca6	-0.03710618
164	0x3d9eb38c	0.077490896
165	0xbcd3e400	-0.025865555
166	0x3d683c14	0.05669792
167	0xbc859621	-0.016306939
168	0xbcba283a	-0.02272426
169	0x3dddcbf8	0.108299196
170	0x3d2df5f0	0.042470872
171	0x3d0f801f	0.035034295
172	0xbc0a1b60	-0.008429378
173	0xbd28b667	-0.041189577
174	0xbbd6e63b	-0.0065582073
175	0xbd1347ee	-0.03595727
176	0xbdaa04c0	-0.08301687
177	0xbd1bbae9	-0.03802005
178	0xbc5b673b	-0.013391311
179	0x3ca38367	0.019960118
180	0xbd81a0a5	-0.06329469
181	0x3d28fe54	0.04125817
182	0x3d92edb0	0.071742415
183	0xbd41f69d	-0.04735433
184	0xbc5d7c04	-0.013518337
185	0xbda7e4ae	-0.08197914
186	0x3d614939	0.05500147
187	0x3dc53915	0.09630028
188	0x3d9c9878	0.076462686
189	0x3c71e254	0.0147634335
190	0xbd931e1a	-0.07183476
191	0xbd239e0b	-0.039945643
192	0xbd73c6ad	-0.059515644
193	0x3dc9a58a	0.09846027
194	0x3aaae802	0.0013039114
195	0xbc5cef3f	-0.013484775
196	0x3d6bc9e6	0.057565592
197	0xbc6f3185	-0.014599209
198	0x3c9c5a7b	0.019086113
199	0x3d0ba5d7	0.034093704
200	0x3d81f97a	0.06346412
201	0xbd590d39	-0.052991126
202	0xbd44a3f2	-0.048007913
203	0x3d749622	0.05971349
204	0xbd041c46	-0.032253526
205	0xbd1b1cfd	-0.037869442
206	0xbcc335c1	-0.023829343
207	0xbd98fd3f	-0.07470178
208	0x3d68aa78	0.056803197
209	0x3b76a13e	0.003763273
210	0x3bcc04ae	0.006226144
211	0xbc28b59c	-0.010297205
212	0xbcc7918d	-0.024361396
213	0x3ce90c33	0.0284482
214	0xbd55195d	-0.05202614
215	0xbd49e421	-0.049289826
216	0x3c806a94	0.01567582
217	0x3d272a0f	0.040811595
218	0xbd94be02	-0.072628036
219	0x3da470b3	0.08029308
220	0x3cd12d9b	0.025534442
221	0xbd596995	-0.053079206
222	0xbd58bf02	-0.052916534
223	0x3cf5ab99	0.02998905
224	0x3d8a54dc	0.06754467
225	0xbc97f983	-0.018551594
226	0xbcd25f00	-0.025680065
227	0xbd989ecf	-0.07452165
228	0x3db359bd	0.087573506
229	0x3d2b4998	0.04181823
230	0x3c21f4f6	0.009885063
231	0x3b504e4d	0.0031784952
232	0x3db4d2c2	0.08829261
233	0x3dfe57b0	0.12419069
234	0x3c296475	0.010338892
235	0xbd7539b0	-0.05986947
236	0xbc269241	-0.010166706
237	0x3d8247da	0.06361361
238	0x3d8eb68b	0.06968411
239	0x3d810445	0.062996425
240	0xbd40f7aa	-0.04711119
241	0xbcbdb1a5	-0.023155997
242	0xbd42ada8	-0.047528893
243	0x3d44e747	0.048072126
244	0x3dd7c12d	0.10534892
245	0x3d81a6fd	0.063306786
246	0x3c6057d2	0.013692813
247	0xbd8e19da	-0.069385245
248	0xbc10b3cd	-0.00883193
249	0x3cc274e0	0.023737371
250	0x3c5ad77a	0.013357038
251	0xbb8ed220	-0.004358545
252	0xbc30fd39	-0.0108025605
253	0x3de6c77d	0.11268518
254	0x3dcd7756	0.10032527
255	0xbd51d438	-0.05122778

conv2.bias f4 [16]
0	0x3dc591fd	0.09646986
1	0xbd95fa43	-0.07323124
2	0x3d8e98a9	0.06962711
3	0xba0a1a1c	-0.0005268173
4	0x3c20e7b0	0.009820864
5	0xbcf4d733	-0.029887771
6	0xbd7950a0	-0.060867906
7	0xbb056b1b	-0.002035803
8	0x3bedbbd9	0.007255059
9	0x3d961b18	0.073293865
10	0x3cf7f772	0.030269358
11	0x3d21ce71	0.03950352
12	0x3b8d0be0	0.004304394
13	0x3c123a7b	0.008925076
14	0x3d6a36df	0.057181235
15	0x3c7bc22f	0.015366121

fc1.weight f4 [120, 584]
0	0x3d23c13b	0.0399792
1	0xbc58bb24	-0.013228212
2	0xbcc765aa	-0.02434047
3	0x3cd610ef	0.026131121
4	0x3c39ad61	0.011332841
5	0x3cdd7ddf	0.02703756
6	0xbce95717	-0.02848391
7	0x3c71af92	0.014751332
8	0xbba5a29a	-0.005054784
9	0xbbfe78ba	-0.0077658566
10	0xbd07d4ce	-0.03316193
11	0xbcd3faec	-0.025876485
12	0x3cb01da6	0.021498512
13	0x3b9d797e	0.0048057428
14	0x3b7cb71f	0.0038561297
15	0x3cb5dd53	0.022200262
16	0xb9501f6b	-0.0001984813
17	0x3caf56bc	0.021403663
18	0x3cd6f258	0.026238605
19	0xbd2430c3	-0.040085565
20	0x3d04b799	0.032401655
21	0xbd0d82ae	-0.034548454
22	0xbc984e55	-0.01859204
23	0xbcb9d79a	-0.022685815
24	0x39abdd20	0.00032780413
25	0xbd231b22	-0.039820798
26	0x3ab4abb4	0.0013784082
27	0x39c53984	0.0003761762
28	0x3d0a2e63	0.033735644
29	0xbcaeb480	-0.021326303
30	0x3b5e88c3	0.0033956028
31	0x3d135bec	0.035976335
32	0xbcb4d60c	-0.022074722
33	0x3b749a4a	0.0037323409
34	0x3d24dee9	0.040251646
35	0xbca446eb	-0.020053348
36	0xbd164b70	-0.036693037
37	0x3d13fdb9	0.03613064
38	0x3c0e119b	0.00867119
39	0x3d158d70	0.03651184
40	0x3af1c49a	0.0018445433
41	0xbbc902e9	-0.00613438
42	0x3c31b409	0.010846146
43	0x3c93ea6d	0.018056119
44	0x3d2b37f2	0.0418014
45	0xbd12a6b9	-0.03580353
46	0x3bc49551	0.005999245
47	0xbd27fd68	-0.04101315
48	0xbd068034	-0.032837108
49	0x3c3613b0	0.011113092
50	0xbc509013	-0.0127296625
51	0x3c81a3c0	0.015825152
52	0x3cccace2	0.02498478
53	0x3d23a588	0.039952785
54	0xbcac7480	-0.021051645
55	0x3d1917bf	0.03737616
56	0x3c47b818	0.012189887
57	0x3d28c6e8	0.041205317
58	0x3cb50e19	0.022101449
59	0x3d2e9187	0.042619254
60	0x3cb7e5ac	0.022448383
61	0xbd10f181	-0.035386566
62	0xbd0876db	-0.033316474
63	0xbaa76448	-0.0012770975
64	0x3bbc1bec	0.0057406332
65	0x3c0a656d	0.008447033
66	0x3cc6f623	0.024287289
67	0x3c943cf2	0.018095467
68	0xbd1aa9af	-0.03775948
69	0xbbe77425	-0.007063406
70	0xbd2b279b	-0.041785818
71	0xbc2888fa	-0.010286564
72	0x3d0225f5	0.03177448
73	0xbb7846a7	-0.003788391
74	0xbc9aa777	-0.018878682
75	0xbb7f9c20	-0.003900297
76	0x3b0cb340	0.0021469146
77	0x3d1282da	0.03576932
78	0xbd10a961	-0.035317782
79	0x3ca5125c	0.020150356
80	0xbc68063f	-0.014161645
81	0x3d23cd50	0.039990723
82	0x3c9d93a2	0.019235436
83	0xbb48ee40	-0.0030659586
84	0x3cefe52f	0.029284088
85	0x3b2eeabe	0.002669021
86	0xbd0f5e08	-0.035001785
87	0xbca62caa	-0.02028497
88	0x3ca6ea40	0.020375371
89	0xbc9b94da	-0.018991876
90	0x3d164008	0.03668216
91	0xb923df00	-0.00015627965
92	0x3be2eca1	0.006925181
93	0x3c8f0523	0.017458504
94	0x3c24506b	0.010028939
95	0x3ce3bc11	0.027799638
96	0x3cace113	0.021103418
97	0x3c1c8ae4	0.0095545985
98	0xbbe1b020	-0.006887451
99	0x3cbbf189	0.022942321
100	0xbce5bb15	-0.02804331
101	0x3d0e9aa4	0.034815446
102	0xbc33a0e7	-0.010963655
103	0xbcbad187	-0.022804989
104	0xbd0ad03b	-0.03388999
105	0xba94c32e	-0.0011349672
106	0x3c9ff626	0.019526552
107	0x3c0dcd62	0.008654924
108	0xbc5eab0c	-0.013590585
109	0xbc50f755	-0.012754281
110	0x3c6016c4	0.013677303
111	0x3b9379fd	0.004500626
112	0xbc40f5c9	-0.01177735
113	0x3b874fa0	0.004129365
114	0x3a797efe	0.00095175195
115	0xbcabcc15	-0.020971337
116	0x3d16bb86	0.03679993
117	0x3ca37d93	0.01995734
118	0x3cb2d073	0.021827912
119	0xbcd3509c	-0.025795273
120	0x3c7177f6	0.014738074
121	0xbc8031fa	-0.01564883
122	0xbb7c8b37	-0.0038535127
123	0xbcf262a5	-0.029588053
124	0xbd195c1f	-0.03744137
125	0x3d0192f3	0.031634282
126	0x3d05bf3b	0.032653075
127	0x3c125b0e	0.008932842
128	0xbce1698f	-0.027516155
129	0xba96078f	-0.0011446344
130	0x3d0b06f4	0.033942178
131	0xbce9fe10	-0.02856353
132	0xbcf06d27	-0.029348923
133	0xbd1e2e1b	-0.03861819
134	0x3d1bd408	0.038044006
135	0x3b58b26c	0.0033065332
136	0xbc6f1b6d	-0.014593941
137	0xb9bd0f2d	-0.00036060196
138	0xbd256309	-0.04037765
139	0xbcf8bb99	-0.030362891
140	0xbcba431c	-0.022737078
141	0xbb29bf71	-0.0025901461
142	0xbb49c78d	-0.0030789108
143	0x3c80ba36	0.015713792
144	0x3d116918	0.035500616
145	0x3b980623	0.0046394034
146	0xbd02275e	-0.031775825
147	0x3c25a10b	0.010109196
148	0xbcb96c47	-0.022634638
149	0x3c5f93f4	0.013646115
150	0xbc37092e	-0.011171622
151	0x3ce44d68	0.027868941
152	0x3d25a8ab	0.040444057
153	0x3cd31238	0.025765523
154	0xbc6f43a5	-0.01460353
155	0x3d061d73	0.03274293
156	0x3b9b5591	0.004740425
157	0xbc87002b	-0.016479572
158	0x3ca6715a	0.020317722
159	0x3c32f5c2	0.010922851
160	0x3c63219f	0.013862996
161	0x3d11eaac	0.03562419
162	0xbca8e127	-0.020615174
163	0xbca65e59	-0.02030866
164	0x3d27250f	0.040806826
165	0xbbd1e8e4	-0.0064059366
166	0x3d223ee3	0.039610755
167	0x3c786210	0.015160099
168	0x3d0bbf7d	0.034118164
169	0xbccf2831	-0.02528772
170	0x3d120f3e	0.035659067
171	0x3c640afc	0.0139186345
172	0x3ccd2667	0.025042726
173	0xbca6d638	-0.02036582
174	0x3d0518a9	0.03249422
175	0x3cdc18d4	0.026867308
176	0x3bd566df	0.0065125073
177	0x3d0a937e	0.033832066
178	0xb970ecf2	-0.00022976453
179	0x3c94276c	0.018085204
180	0x3c576567	0.013146735
181	0x3c15902b	0.009128611
182	0x3d4ab5b5	0.049489696
183	0x3d1324fd	0.035923947
184	0xbc0cd4da	-0.00859567
185	0xbcef80f9	-0.029236304
186	0xbd13c5a9	-0.036077175
187	0xbcc353fe	-0.023843762
188	0x3ca6c393	0.020356929
189	0x3cf1df9d	0.029525572
190	0xbce3963e	-0.027781602
191	0xbb7b5f91	-0.0038356523
192	0xbca560f0	-0.020187825
193	0x3d35226f	0.04422229
194	0x3d1100cb	0.035401147
195	0x3d00e26e	0.03146594
196	0x3d19ccb0	0.03754872
197	0x3bb001a4	0.0053712893
198	0xbcbb01f7	-0.022828085
199	0xbbe8c4b8	-0.007103529
200	0xbd1b1c0e	-0.037868552
201	0x3b484c67	0.0030563117
202	0xbb24d8a4	-0.0025153542
203	0xbd1d46ba	-0.03839753
204	0xbc542945	-0.012949293
205	0xbb5fd44a	-0.0034153634
206	0xbcd0c345	-0.025483737
207	0x3d03e1c5	0.032197732
208	0x3c836152	0.016037617
209	0x3b8d3663	0.004309462
210	0xbba828c7	-0.005131814
211	0xbc1cef79	-0.009578579
212	0xbb3bf04b	-0.0028677161
213	0x3bc494db	0.0059991903
214	0xbc7d1b9f	-0.01544848
215	0xbc490e2d	-0.012271446
216	0x3d065af3	0.03280158
217	0x3ccce2f9	0.025010573
218	0x3caa9099	0.020820903
219	0x3d2aba5f	0.041681644
220	0xbd034af9	-0.03205392
221	0xbcaeae02	-0.021323208
222	0xbc8d04a2	-0.017214123
223	0xbc137556	-0.009000143
224	0xbcbacb23	-0.022801941
225	0x3d06ab69	0.032878313
226	0x3c5e788a	0.013578543
227	0x3c9fcf6d	0.019508088
228	0xbce73704	-0.028224476
229	0xbad5d765	-0.0016314803
230	0xbd06b37c	-0.032886013
231	0x39ed6cb9	0.00045285167
232	0xbc99324c	-0.018700741
233	0x3c458ae7	0.012057043
234	0x3c8ebdfd	0.017424578
235	0x3cf51670	0.029917926
236	0x3c61a062	0.013771148
237	0x3c5eb57b	0.013593073
238	0x3d0f681d	0.0350114
239	0xbc902a30	-0.017598242
240	0xbcf9924d	-0.03046527
241	0xbd07177e	-0.03298139
242	0x3c8cfb29	0.017209606
243	0xbc78136f	-0.015141352
244	0xbcaec4f4	-0.021334149
245	0x3c8d3081	0.017235043
246	0x3cbfd3b8	0.023416385
247	0x3c9265bc	0.017870776
248	0x3cb32369	0.02186747
249	0x3a2d5b0c	0.00066129933
250	0x3d292c83	0.041302215
251	0x3c0dfd6f	0.00866638
252	0xbbb8ea4b	-0.0056431643
253	0x3c82fd12	0.015989814
254	0x3b885b5f	0.004161283
255	0x3cc227ec	0.023700677

fc1.bias f4 [120]
0	0xbca182a6	-0.019715618
1	0x3a84f6ef	0.0010144393
2	0xbc665d5b	-0.014060344
3	0x3d2961eb	0.041353147
4	0xbcf484b1	-0.029848428
5	0x3c414d86	0.011798268
6	0xbc2b678f	-0.010461702
7	0xbbdf74aa	-0.0068193274
8	0x3c207aa8	0.0097948685
9	0xbcbe59cd	-0.02323618
10	0xbcb09f53	-0.021560347
11	0x3c2b4061	0.010452361
12	0xbc13d74d	-0.0090235
13	0xbc4d3ac2	-0.012526216
14	0xbc6e0198	-0.014526747
15	0xbccb914f	-0.024849562
16	0x3d1b8667	0.037969973
17	0x3c65c6e0	0.014024466
18	0x3d16b0c8	0.036789685
19	0xbc97bd6c	-0.01852294
20	0x3c26ee17	0.010188601
21	0x3cc32f92	0.023826394
22	0xbbccdbf9	-0.0062518087
23	0x3cce7390	0.025201589
24	0xbaf1d97e	-0.0018451659
25	0xba1fc3be	-0.00060945365
26	0xbc06833e	-0.0082100015
27	0x3aec9eb3	0.0018052667
28	0x3cab4300	0.020905972
29	0xbb9f3f0c	-0.0048598107
30	0x39883355	0.00025978187
31	0xbce607dd	-0.028079921
32	0xbcf31899	-0.029674815
33	0x3cd204ff	0.025637148
34	0xbca8d465	-0.02060909
35	0x3cabc7a8	0.020969227
36	0x3d124413	0.035709452
37	0xba81578a	-0.0009868008
38	0x3d5f9196	0.0545822
39	0x3d278f85	0.040908355
40	0xbd002585	-0.03128578
41	0xbb28eba7	-0.0025775225
42	0x3ceb28fd	0.028706068
43	0xbca709ee	-0.020390477
44	0x3cbc1f05	0.02296401
45	0x3d14a1f5	0.036287267
46	0x3d265bff	0.040615078
47	0x3d1d8f87	0.038466956
48	0x3d2090fa	0.03920076
49	0xbcb7cb47	-0.022435797
50	0xbc90f16e	-0.017693248
51	0xbcd47303	-0.025933748
52	0x3c6d479e	0.014482407
53	0x3c90c971	0.01767418
54	0x3c57f385	0.013180618
55	0xbcf69fbb	-0.030105462
56	0x3d0c46d2	0.034247227
57	0x3d3467a3	0.04404415
58	0xbcbd192c	-0.023083292
59	0x3c8f4b5f	0.017491994
60	0x3cd007c2	0.025394324
61	0x3d64ce03	0.05586053
62	0xbc47ebf1	-0.012202249
63	0xbcd97eb5	-0.026549676
64	0xbb911ba8	-0.0044283457
65	0xbc9008b1	-0.01758227
66	0x3b035c1a	0.002004391
67	0xbaec62b1	-0.0018034783
68	0xbbe32528	-0.0069319196
69	0x3d07b35a	0.033130027
70	0x3d239c97	0.039944258
71	0x3b549327	0.0032436342
72	0xbc51a319	-0.012795233
73	0x3d17f716	0.037100874
74	0x3d28de83	0.04122783
75	0x3d3e5ec3	0.04647709
76	0xbbcad775	-0.0061902353
77	0xbcd54000	-0.026031494
78	0x3bbe29ad	0.005803308
79	0xbc2d98f8	-0.010595553
80	0xbc78ff5d	-0.015197602
81	0x3d40b32c	0.04704587
82	0x3d751f97	0.05984458
83	0x3afc306a	0.0019240503
84	0x3caca245	0.02107347
85	0x39bcab21	0.00035985655
86	0x385913bb	5.1755207e-05
87	0xbbc1cc19	-0.005914223
88	0xbb47e571	-0.0030501748
89	0x3d2cb828	0.042167813
90	0xbc6f59f4	-0.014608849
91	0x3d280ae6	0.04102602
92	0xbcf74ac6	-0.030187022
93	0x3cee5ffc	0.029098503
94	0x3c58c0b4	0.013229538
95	0x3d411a75	0.047144372
96	0x3cf5904f	0.029976038
97	0x3b9d464a	0.004799639
98	0xbca18a94	-0.0197194
99	0xbb07ec86	-0.0020740344
100	0x3cf8171f	0.030284462
101	0x3d150a00	0.03638649
102	0xbc2c11c8	-0.010502286
103	0x3cfb0bbe	0.030645248
104	0x3cea2a1c	0.028584532
105	0xbcc6caeb	-0.02426668
106	0xbbe2a4c6	-0.006916615
107	0xbd0395ed	-0.032125402
108	0xbccc029c	-0.024903588
109	0xbcae7f97	-0.021301074
110	0x3d0f3840	0.034965754
111	0x3d2a67e7	0.041602995
112	0x3c8433b3	0.016137933
113	0x3c8dbb97	0.017301364
114	0xbd098fe8	-0.033584505
115	0x3c4e42b2	0.012589144
116	0xbd090ce7	-0.03345957
117	0xbc402307	-0.011727101
118	0x3c33b2b3	0.010967898
119	0x3d0c7d19	0.03429899

fc2.weight f4 [84, 120]
0	0x3da1a4b0	0.0789274
1	0x3c7d0194	0.015442271
2	0xbd17fec6	-0.037108205
3	0x3cb74272	0.02237055
4	0xbc0a1ace	-0.008429242
5	0xbcd9e792	-0.02659968
6	0x3dd0c3db	0.101936065
7	0xba54b168	-0.0008113594
8	0x3da8b477	0.08237546
9	0x3d824b8c	0.06362066
10	0x3c7c19bf	0.015386998
11	0xbd997b47	-0.074942164
12	0x3d9fb598	0.07798308
13	0x3d734649	0.0593932
14	0xbca0dca1	-0.019636454
15	0xbda93f36	-0.0826401
16	0x3d48680a	0.048927344
17	0x3cc64947	0.024204863
18	0xbdb1e7ce	-0.08686791
19	0x3db2ccdd	0.08730481
20	0xbd9799fe	-0.074024186
21	0x3b6a2ac2	0.0035731052
22	0xbd86be40	-0.06579256
23	0xbc4190ee	-0.011814339
24	0x3cd5013e	0.026001569
25	0x3c77c97a	0.015123719
26	0x3be78f4f	0.0070666443
27	0x3c88b7ed	0.016689265
28	0xbca37cc9	-0.019956963
29	0x3c9811df	0.01856321
30	0x3c9ea5f5	0.019366244
31	0xbc71081f	-0.014711409
32	0xbbfd9fad	-0.007739982
33	0xbd777c97	-0.060421553
34	0x3d2cb938	0.042168826
35	0xbd221235	-0.039568145
36	0x3cf3e9c8	0.029774562
37	0x3d5ffc65	0.05468406
38	0xbc528863	-0.0128499
39	0xbcc947c2	-0.02457035
40	0xbd7dc3aa	-0.061954178
41	0x3db6f9c6	0.08934359
42	0xbdb057af	-0.08610474
43	0xbd00a169	-0.031403933
44	0x3c455370	0.012043819
45	0xbd35edfa	-0.044416405
46	0x3d42174c	0.0473855
47	0x3cd5f83b	0.026119342
48	0x3dd41c6c	0.103569835
49	0x3d8e2eb0	0.06942499
50	0xbd50ee69	-0.051008616
51	0xbc19617f	-0.009361624
52	0x3dc00a72	0.09376992
53	0x3dad216c	0.0845364
54	0x3c27ba43	0.010237279
55	0xbd580ff4	-0.05274959
56	0xbc3bfea1	-0.0114742825
57	0x3df13c2f	0.11779057
58	0x3da9f043	0.082977794
59	0xbb6aa0bf	-0.0035801379
60	0xbd7a2cce	-0.061077885
61	0xbd1461ce	-0.036226086
62	0x39150f04	0.00014215341
63	0xbd3a2488	-0.045444995
64	0x3cbd65fe	0.023119923
65	0xbc913b64	-0.017728515
66	0x3d3fd325	0.046832222
67	0x3cb1b534	0.02169285
68	0x3d926fa4	0.071502
69	0xbd8627f3	-0.065505885
70	0x3cc1882f	0.023624508
71	0xbd1a793a	-0.037713267
72	0x3da9e79e	0.082961306
73	0x3daa8956	0.08326976
74	0x3badf120	0.0053082854
75	0x3d4d8045	0.050171155
76	0xbd7cde0b	-0.061735194
77	0xbdb794bd	-0.089639165
78	0xbcaff9d6	-0.021481436
79	0xbd3c6226	-0.04599204
80	0xbc803af0	-0.015653104
81	0xbd5e3e77	-0.05425879
82	0xbdbc3248	-0.09189278
83	0x3dbc562c	0.091961235
84	0x3cab9de3	0.02094931
85	0xbcac5f28	-0.021041468
86	0xbc893b84	-0.016752012
87	0xbc7c1fdd	-0.015388456
88	0x3cb61bc1	0.022230031
89	0x3d81fcdd	0.06347058
90	0x3ca13704	0.019679554
91	0xbce93096	-0.02846555
92	0x3c719155	0.0147441225
93	0x3d36b3d6	0.0446051
94	0xbd9a33b1	-0.075293906
95	0xbd9b8f42	-0.07595684
96	0xbd973739	-0.0738358
97	0x3d25b31f	0.040454026
98	0xbd85de46	-0.06536536
99	0xbd5b2afd	-0.053507794
100	0x3d84d985	0.06486801
101	0xbd4296ff	-0.047507282
102	0xbd880ce7	-0.06643086
103	0x3d8796c0	0.0662055
104	0xbc77c922	-0.015123637
105	0xbdaa9045	-0.083282985
106	0xbc71e7a3	-0.014764699
107	0x3da2978f	0.07939064
108	0xbd8cee4f	-0.06881391
109	0xbda500c5	-0.080567874
110	0x3c680f44	0.014163796
111	0x3d8a9eb8	0.067685544
112	0xbc7f95d3	-0.015599686
113	0xbd652a7b	-0.055948716
114	0x3d07a1ad	0.03311317
115	0xbd0b1daf	-0.033963855
116	0x3d6f37f2	0.058402963
117	0x3d45b480	0.04826784
118	0xbd21e0cc	-0.039521024
119	0x3dc8dffa	0.09808345
120	0xbd772f3d	-0.060347784
121	0xbd4d15cb	-0.05006961
122	0x3d226fde	0.039657466
123	0xbd2e49a6	-0.042550705
124	0xb9f7c041	-0.00047254752
125	0xbd8b187e	-0.06791781
126	0xbd8a42cd	-0.067510225
127	0xbc2b2c47	-0.010447568
128	0x3ca30b7d	0.019902939
129	0x3d9d1abf	0.07671117
130	0xbd4a70c2	-0.04942394
131	0xbc71a279	-0.014748209
132	0xbd865fee	-0.06561266
133	0xbc4dfcd1	-0.012572483
134	0xbd9e5346	-0.07730727
135	0xbda4a102	-0.08038522
136	0x3d73565c	0.05940853
137	0x3d9d8df5	0.07693092
138	0xbd921bfa	-0.07134242
139	0x3d8ddafe	0.06926535
140	0x3d65a176	0.056062184
141	0x3d711327	0.058856156
142	0xbc1a81a3	-0.009430322
143	0xbc79a6ca	-0.0152375195
144	0x3d9e9712	0.07743658
145	0xbda9ea75	-0.08296672
146	0xbcf08149	-0.029358523
147	0x3cbf3d59	0.023344683
148	0xbcf0aff3	-0.029380774
149	0xbd6e7100	-0.058213234
150	0x3cc82318	0.024430797
151	0xbda04074	-0.078247935
152	0x3d88df74	0.06683245
153	0x3cfc38c2	0.030788783
154	0x3d30282b	0.043007057
155	0x3d108ad0	0.035288632
156	0x3d8b439d	0.068000056
157	0x3d3ab28d	0.045580436
158	0x3d9089b3	0.07057514
159	0xba1c50e8	-0.00059629837
160	0xbd9b958a	-0.07596882
161	0x3b7bf2a3	0.0038444183
162	0xbda4f850	-0.08055174
163	0xbc83ed3d	-0.016104335
164	0xbba1899b	-0.004929734
165	0xbdb1e303	-0.08685877
166	0x3cf2e839	0.029651748
167	0x3da51480	0.08060551
168	0x3d096776	0.033545934
169	0x3d32950b	0.04359917
170	0xbd4de9d3	-0.05027182
171	0x3ddf6882	0.10908605
172	0x3d8e0d46	0.069361255
173	0xbac1e769	-0.0014793697
174	0xbdaf798d	-0.08568106
175	0xbc6931ea	-0.014233092
176	0x3d63782d	0.05553453
177	0x3c813ca6	0.01577599
178	0xbdaafa9e	-0.08348583
179	0x3d3ef294	0.04661806
180	0xbdbe4330	-0.09290159
181	0xbd13d747	-0.036093976
182	0x3d48f07c	0.04905747
183	0x3d2a9a69	0.041651163
184	0xbda6378a	-0.08116062
185	0xbd536478	-0.051609486
186	0x3da2a446	0.07941489
187	0x3d47122e	0.048601322
188	0x3dbeec6b	0.09322437
189	0xbd9198a6	-0.071091935
190	0xbc53cc14	-0.012927074
191	0x3c1e3bcd	0.009657812
192	0xbd31f491	-0.043446127
193	0x3daf9021	0.08572412
194	0x3d92879b	0.07154771
195	0xbd4c9d63	-0.049954783
196	0x3cc57183	0.024101978
197	0x3cfae709	0.030627744
198	0xbd57ef8e	-0.05271869
199	0xbc4c4a97	-0.0124689555
200	0xbdc1569e	-0.09440349
201	0xbd2856b4	-0.04109831
202	0xbd910429	-0.070808716
203	0x3db6f5ed	0.08933625
204	0xbd4f407f	-0.050598618
205	0x3b32ea88	0.0027300436
206	0x3cf720b2	0.030166958
207	0xbd53b149	-0.051682744
208	0x3d20e250	0.03927833
209	0x3dd349c3	0.10316803
210	0x3d010138	0.031495303
211	0x3d6ccda4	0.0578133
212	0x3bb7e42a	0.005611916
213	0x3d8d562d	0.06901202
214	0x3ced8dd9	0.028998302
215	0xbc2a7a64	-0.010405157
216	0xbd9374c5	-0.072000064
217	0xbc56f865	-0.013120745
218	0xbcf37c31	-0.029722305
219	0xbcc3d292	-0.023904119
220	0xbcfaec84	-0.030630358
221	0x3d709ad9	0.058741424
222	0xbac26b77	-0.0014833052
223	0x3d31b13d	0.04338192
224	0x3dafb2f9	0.08579058
225	0x3dab6b7f	0.08370113
226	0x3dcc3cbb	0.09972521
227	0xbd7ea9e0	-0.062173724
228	0x3db11fc0	0.08648634
229	0xbc881c41	-0.016615035
230	0x3dce86fd	0.10084341
231	0x3d975270	0.073887706
232	0xbab6f47b	-0.0013958359
233	0x3d2d41be	0.042299025
234	0xbbf0b55c	-0.0073458385
235	0x3d2d8687	0.042364623
236	0xbb8a3f0d	-0.004218942
237	0x3c9c7703	0.019099718
238	0xbd216144	-0.0393994
239	0x3a75421c	0.00093558594
240	0xbdb25793	-0.0870811
241	0x3d8540af	0.06506478
242	0x3d25c52b	0.040471237
243	0xbcee5861	-0.029094877
244	0xbcbd0656	-0.02307431
245	0xbd51f4fe	-0.051259033
246	0xbd703683	-0.058645736
247	0xbdb2e737	-0.08735507
248	0x3c1bf9e0	0.009520024
249	0x3d9c2d2a	0.07625802
250	0x3d64526c	0.055742666
251	0x3cad5955	0.02116076
252	0x3d85b54a	0.06528719
253	0x3da0c25d	0.07849572
254	0xbd59f173	-0.05320878
255	0x3c071fd5	0.008247335

fc2.bias f4 [84]
0	0x3dbc2a62	0.091877714
1	0xbd463b60	-0.04839647
2	0xbd17ceca	-0.037062444
3	0xbdb2fc7f	-0.08739566
4	0x3cfeacaa	0.031088192
5	0xbb804c65	-0.003915357
6	0xbbeb9048	-0.0071888305
7	0x3ceb1b80	0.028699636
8	0xbd93347a	-0.071877435
9	0x3db4d963	0.08830526
10	0x3ddaa62d	0.10676227
11	0xbce99c34	-0.028516866
12	0x3e0ae6d3	0.13564615
13	0x3d2c449f	0.04205763
14	0xbc7b2d56	-0.015330633
15	0xbd68acf7	-0.056805577
16	0xbd9e0cda	-0.07717295
17	0xbd93d3f5	-0.07218162
18	0xbd97b1cf	-0.07406961
19	0xbd757746	-0.0599282
20	0x3d2bdfaa	0.04196135
21	0x3c9582cf	0.018250851
22	0x3dbca5ef	0.09211337
23	0xbcba82df	-0.022767482
24	0x3d8a52d1	0.06754077
25	0xbdc201fd	-0.094730355
26	0x3d816dcf	0.063197725
27	0x3d336b34	0.04380341
28	0xbc2403ec	-0.010010701
29	0x3dc7bb14	0.09752479
30	0x3dad6abc	0.084676236
31	0x3cd678e6	0.026180696
32	0x3ccdddc1	0.025130155
33	0x3cf6c804	0.030124672
34	0xbd8477b6	-0.064681455
35	0x3cdd21f2	0.026993725
36	0xbd9d842e	-0.07691227
37	0x3c490e26	0.01227144
38	0x3d8c0f93	0.06838908
39	0xbd0a8b36	-0.03382417
40	0xbcb0cdcc	-0.021582507
41	0x3c69b412	0.0142641235
42	0x3cd39e6c	0.025832377
43	0x3c0d77fc	0.008634564
44	0xbcd5ec5e	-0.026113685
45	0x3d5659fc	0.05233191
46	0xbd016de0	-0.031598926
47	0xbd1df4cb	-0.03856353
48	0x3dd3ebb5	0.10347692
49	0xbcef5c98	-0.029218957
50	0xbd44ef0d	-0.04807954
51	0xbc8751dc	-0.016518526
52	0xbd31bb01	-0.04339123
53	0xbc607bb9	-0.013701373
54	0xbd91db2a	-0.0712188
55	0x3c0c4ed1	0.008563713
56	0x3dbf68b6	0.09346144
57	0xbcf9e66d	-0.030505383
58	0x3da2c95a	0.07948561
59	0x3dc9bb90	0.09850228
60	0x3d8f4c82	0.069970146
61	0x3da2c3f0	0.07947528
62	0x3db38fef	0.087676875
63	0x3dfe1976	0.124072
64	0xbd21aeac	-0.03947322
65	0xbbc6642b	-0.0060544214
66	0xbcc78695	-0.024356166
67	0x3dd09ad4	0.10185781
68	0xbd41a2a3	-0.047274243
69	0x3c3ced9b	0.011531259
70	0x3b8a5010	0.00422097
71	0x3db17a42	0.08665897
72	0xbd954ef0	-0.07290447
73	0xbd5f23ae	-0.054477386
74	0xbd1d3294	-0.038378313
75	0xbd1d8332	-0.038455196
76	0xbd334910	-0.04377085
77	0xbcc13fbd	-0.023589963
78	0xbd1c4953	-0.038155865
79	0x3d9a0e73	0.07522287
80	0xbd6c2bac	-0.057658836
81	0xbd768f41	-0.06019521
82	0xbd25de37	-0.040495124
83	0x3d228466	0.039677046

fc3.weight f4 [2, 84]
0	0x3dbeabf0	0.09310138
1	0x3dfd0ad8	0.12355584
2	0x3d028290	0.031862795
3	0xbda01e31	-0.078182586
4	0xbca065a0	-0.019579709
5	0x3da89d7d	0.082331635
6	0xbe006194	-0.12537223
7	0xbe35233d	-0.17689224
8	0xbe1674cc	-0.14692992
9	0xbe34ae19	-0.17644538
10	0x3e144f06	0.1448327
11	0xbe4f795e	-0.20261142
12	0x3eae1653	0.34001407
13	0xbdec3b52	-0.11534752
14	0xbda1e2c8	-0.07904583
15	0xbd21b6e3	-0.039481055
16	0xbd88dcb3	-0.0668272
17	0xbe10b88f	-0.14132904
18	0xbc4340df	-0.011917322
19	0xbc4ab468	-0.012372114
20	0xbdc5d12e	-0.096590385
21	0x3e59eb59	0.21281184
22	0x3d777588	0.06041482
23	0x3e5b4dab	0.21416347
24	0xbe59ef14	-0.21282607
25	0x3dcac2da	0.09900446
26	0x3db25a31	0.08708609
27	0x3d77f3fc	0.060535416
28	0xbe125a04	-0.1429215
29	0xbc22b8d3	-0.009931761
30	0x3e668436	0.22511372
31	0xbe144128	-0.1447798
32	0xbdd08bb1	-0.10182894
33	0x3d9f6306	0.07782559
34	0xbe195531	-0.14973904
35	0xbe091449	-0.13386644
36	0xbd772b6c	-0.060344145
37	0x3e14c8e2	0.14529756
38	0xbdf89ce9	-0.12139303
39	0x3d7860f5	0.06063934
40	0xbe0001c3	-0.12500672
41	0x3e67a9be	0.22623345
42	0x3d913d04	0.07091716
43	0xbd9b9a62	-0.075978056
44	0xbe07fb57	-0.13279472
45	0xbdc39baf	-0.09551179
46	0xbdb843a4	-0.089972764
47	0x3dbab1f5	0.09115974
48	0xbdb29c35	-0.087212004
49	0x3d675c33	0.056484412
50	0xbdf33ab9	-0.11876435
51	0x3ca2b04c	0.019859456
52	0x3e94b5a5	0.29044834
53	0xbdac1fc8	-0.08404499
54	0xbdb1b4bf	-0.08677053
55	0xbdbe6cd3	-0.092981
56	0xbc6cb3f2	-0.014447199
57	0xbe39d9ac	-0.18149441
58	0xbe82a985	-0.25519958
59	0xbe2a2d19	-0.16618766
60	0xbe0f1cd8	-0.13975847
61	0xbe22c169	-0.15894093
62	0x3d5d4993	0.054025244
63	0x3ea17692	0.31535774
64	0x3da032de	0.07822202
65	0xbc8546ec	-0.01626917
66	0x3dbbadde	0.09164022
67	0x3e9bcec8	0.304312
68	0x3dc18e1c	0.09450933
69	0x3c428da1	0.011874587
70	0x3e0d2a12	0.1378558
71	0xbe1709f8	-0.14749897
72	0xbd26140e	-0.04054647
73	0xbe651d74	-0.22374517
74	0xbddaa96f	-0.10676848
75	0x3e07b6ee	0.13253376
76	0x3db23008	0.087005675
77	0x3d87eb9e	0.06636737
78	0xbe5146eb	-0.2043721
79	0xbe36c9ad	-0.1785037
80	0x3da9a9e2	0.08284356
81	0xbd4db1fa	-0.05021856
82	0x3e1170aa	0.14203134
83	0x3e059f2d	0.13049002
84	0xbe23b707	-0.15987788
85	0xbe32aa34	-0.1744774
86	0x3daa062c	0.083019584
87	0x3dd0d12d	0.10196147
88	0x3de0fcd4	0.10985723
89	0x3d3d42cd	0.046206284
90	0x3e8f10d9	0.2794254
91	0x3c2a59e0	0.010397404
92	0x3e2ae56c	0.1668908
93	0x3e016f8b	0.12640207
94	0x3df79cc8	0.120904505
95	0xbd2a57d7	-0.041587677
96	0x3e62adc0	0.22136593
97	0xbdcf3451	-0.101174004
98	0x3d5df79f	0.054191228
99	0x3c2d3f38	0.010574155
100	0x3d84fdf2	0.06493749
101	0xbd524ca9	-0.05134264
102	0x3d955b89	0.072928496
103	0x3c8c793b	0.017147651
104	0x3de3f0d1	0.111299165
105	0xbe4c6aa3	-0.19962554
106	0xbea16a20	-0.3152628
107	0x3e40e68f	0.18837951
108	0xbe6f3e35	-0.23363574
109	0x3d26e42e	0.040744953
110	0x3e4f235f	0.20228337
111	0x3ded2fb1	0.11581362
112	0xbde51e16	-0.11187379
113	0x3df754f8	0.120767534
114	0x3e7af97e	0.24509236
115	0xbd746c55	-0.059673626
116	0xbd35c1e1	-0.04437435
117	0x3ddb5374	0.10709277
118	0xbe2aa583	-0.166647
119	0xbde82aa6	-0.113362595
120	0xb930a05a	-0.00016844404
121	0xbdcc4750	-0.09974539
122	0xbd383aad	-0.044977833
123	0x3dd96be2	0.1061628
124	0xba00d69f	-0.00049147935
125	0xbe812f04	-0.25231183
126	0xbdff4867	-0.124649815
127	0x3d99431b	0.074835025
128	0x3e6bfd74	0.23045903
129	0xbdb2ced1	-0.08730853
130	0x3c82d820	0.015972197
131	0x3d89e0f1	0.06732357
132	0x3e224957	0.1584829
133	0xbe839dc8	-0.25706315
134	0x3e4de099	0.20105208
135	0xbccf8c81	-0.025335552
136	0x3d08c9e4	0.033395663
137	0xbe548d87	-0.20757113
138	0xbd4a493b	-0.049386244
139	0xbe47e57c	-0.19521135
140	0xbd9aa259	-0.075504966
141	0x3e6fe29a	0.23426285
142	0xbdb2db57	-0.08733242
143	0xbe8dab3d	-0.27669707
144	0x3e46a212	0.19397762
145	0x3b518301	0.0031968954
146	0x3e1550c1	0.14581586
147	0x3e706e23	0.23479514
148	0xbdb2ee87	-0.08736902
149	0x3e6e56dd	0.23275323
150	0x3d47e070	0.048798025
151	0x3de5e8dd	0.11226056
152	0xbe231586	-0.1592618
153	0xbd78d02a	-0.060745396
154	0x3dce4b8b	0.100730024
155	0xbe262ef3	-0.16228847
156	0x3e3a7c2d	0.18211432
157	0x3d9875f3	0.07444372
158	0x3db80d5b	0.08986922
159	0xbcc0a1e3	-0.023514694
160	0x3e3555c1	0.17708494
161	0x3e589dd3	0.21153955
162	0xbdafdc56	-0.085869476
163	0x3e3d6c13	0.18498258
164	0xbe66e5ac	-0.2254855
165	0xbd4f3cce	-0.050595097
166	0xbd42e9fd	-0.04758643
167	0xbe1de572	-0.15419558

fc3.bias f4 [2]
0	0x3c0529d6	0.00812765
1	0x3dd0a1c0	0.10187101
