src/models/bc-with-lag-acts.onnx (onnx, 336927 bytes, 10 tensors)

conv1.weight f4 [6, 5, 5, 5]
0	0xbd04d11c	-0.032425985
1	0x3dd281a1	0.10278631
2	0x3d288607	0.041143443
3	0x3da02c8d	0.078209974
4	0x3cd2eb9a	0.02574711
5	0x3d7b33a6	0.061328553
6	0xbd7c4489	-0.061588798
7	0x3dbffa29	0.09373886
8	0xbd6734ef	-0.056446966
9	0x3daf7287	0.08566766
10	0x3d3c7840	0.046013117
11	0xba43bf52	-0.00074671686
12	0xbd12c232	-0.03582973
13	0x3c0e7931	0.0086958865
14	0x3d23891a	0.039925672
15	0x3d9823ca	0.07428701
16	0x3d91d84e	0.07121335
17	0xbc1e2b49	-0.009653875
18	0xbd41cb24	-0.04731287
19	0xbd67fba2	-0.05663646
20	0xbbb30b06	-0.0054639606
21	0xbd9781ed	-0.07397828
22	0xbd241d9d	-0.040067304
23	0xbbd63bde	-0.0065378984
24	0x3dbe36aa	0.0928777
25	0x3b9106e7	0.0044258717
26	0x3c8642fa	0.016389359
27	0xbd768df2	-0.060193963
28	0xba92f358	-0.0011211438
29	0xbc73f73c	-0.014890488
30	0x3ccbf6b1	0.024897905
31	0xbc19972e	-0.009374423
32	0x3de1499a	0.110003665
33	0x3d692ed7	0.056929436
34	0x3d8b0a7a	0.067891076
35	0xbd29d03b	-0.04145835
36	0xbc2fdb16	-0.0107333865
37	0xbbb1e256	-0.0054285927
38	0x3dde6c2a	0.108604744
39	0xbb065509	-0.0020497462
40	0x3be238c4	0.0069037396
41	0x3dcbfb77	0.099600725
42	0x3d24c379	0.04022548
43	0xbd032fef	-0.032028135
44	0x3dcd8edf	0.10037016
45	0xbd1d324c	-0.038378045
46	0xbb6de0cb	-0.0036297317
47	0x3dccbd4d	0.09997044
48	0xbd2587ae	-0.040412597
49	0x3d4570a7	0.048203137
50	0x3db91f35	0.090391554
51	0xbd663c06	-0.056209587
52	0x3d6641a2	0.056214936
53	0x3c4c6c00	0.012476921
54	0xbd477af4	-0.04870124
55	0x3d526d90	0.05137402
56	0x3d9a60cb	0.07537993
57	0xbd4a22c4	-0.04934956
58	0x3ddf1453	0.108925484
59	0x3da2f469	0.07956774
60	0x3d8f9ed8	0.07012719
61	0x3d090a0b	0.033456843
62	0xbc17fc21	-0.009276421
63	0x3da3311b	0.079683505
64	0xbd541085	-0.051773567
65	0x3db32989	0.087481566
66	0x3c125af0	0.008932814
67	0x3d2fd2a6	0.0429255
68	0x3b3c1fa2	0.0028705378
69	0x3d596145	0.05307128
70	0xbd4ff03e	-0.050766222
71	0xbcb6fd94	-0.022337712
72	0x3dc87f42	0.097898975
73	0xbd81ff0a	-0.06347473
74	0x3d6c0dfb	0.05763052
75	0x3d8fb9db	0.07017871
76	0xbd8cfcf4	-0.068841845
77	0x3d2895a4	0.041158333
78	0xbd61e661	-0.055151347
79	0x3b960639	0.0045783785
80	0xbc0ca041	-0.008583129
81	0x3da9f701	0.082990654
82	0xbc88a87d	-0.016681904
83	0xbcd133e6	-0.025537442
84	0x3d95e306	0.07318692
85	0x3c931ef5	0.017959097
86	0x3b85450a	0.004067068
87	0x3dd85a7c	0.105641335
88	0x3c228555	0.009919484
89	0x3dbc2baa	0.09188016
90	0x3d98f898	0.074692905
91	0xbd62e693	-0.055395674
92	0x3d6ffc8f	0.058590468
93	0x3da00c10	0.07814801
94	0xbc1eb64d	-0.009687019
95	0x3d5dc6ec	0.054144785
96	0xbd81a7ba	-0.063308194
97	0xbd7b85ae	-0.061406784
98	0x3d9563a9	0.07294399
99	0x3d20d688	0.039267093
100	0xbd91eb3c	-0.071249455
101	0xbd50d41a	-0.050983526
102	0x3c2690e7	0.010166383
103	0xbbc94245	-0.006141933
104	0xbd2c6807	-0.042091396
105	0x3db19021	0.086700685
106	0x3d198802	0.037483223
107	0x3dcc3018	0.09970111
108	0x3dde5f32	0.10858001
109	0xbcd1f0cc	-0.025627516
110	0xbc26f855	-0.010191043
111	0x3d9acd3f	0.07558679
112	0x3dd48eed	0.103788234
113	0xbd89224d	-0.066959955
114	0xbd7fab59	-0.06241927
115	0x3c6a8bcd	0.014315558
116	0x3d35425f	0.04425275
117	0xbcd0fe73	-0.025511956
118	0x3c243613	0.010022658
119	0x3d538d5c	0.051648483
120	0x3d582e0e	0.052778296
121	0xbc90b27f	-0.017663239
122	0xbd52e416	-0.05148705
123	0xbd018dc2	-0.03162933
124	0xbd3bc806	-0.045845054
125	0xbd678fc0	-0.056533575
126	0x3db2ff1c	0.087400645
127	0xbd4e5115	-0.050370295
128	0x3dc0104f	0.093781106
129	0x3dad6db3	0.08468189
130	0x3ccc2fd0	0.024925143
131	0x3ddf33df	0.108985655
132	0x3dd80c49	0.10549218
133	0x3b84b5e5	0.004050004
134	0x3ae0c1d1	0.0017147606
135	0x3dc5f02b	0.09664949
136	0x3da8d1a5	0.082431115
137	0x3bf4a90e	0.007466442
138	0x3a2d63e0	0.0006614309
139	0x3d279ca1	0.040920857
140	0x3cd4e636	0.02598868
141	0x3ddc7fe3	0.1076658
142	0x3dd61f7d	0.10455225
143	0x3dd2dd1a	0.10296078
144	0xbd539baa	-0.051662125
145	0x3d5d0611	0.053960864
146	0x3d05578d	0.032554198
147	0x3d624309	0.05523971
148	0x3cd4fe80	0.026000261
149	0x3d6791a0	0.056535363
150	0x3d4e40e7	0.050354864
151	0x3c8449d4	0.016148485
152	0x3db3d128	0.08780128
153	0x3ce7b975	0.028286675
154	0x3d8f3917	0.06993311
155	0xbca4ce25	-0.020117829
156	0x3d8a53a0	0.067542315
157	0x3d9efd76	0.077631876
158	0x3de24b05	0.11049465
159	0x3da14f91	0.07876504
160	0x3d393f32	0.045226283
161	0x3ca25637	0.019816501
162	0x3dd4ff4f	0.10400259
163	0x3d219f7f	0.039458748
164	0xbbebb6ed	-0.0071934373
165	0xbd4714ee	-0.048603944
166	0x3e0294c1	0.12752058
167	0xbce22464	-0.027605243
168	0x3d453816	0.04814919
169	0x3cc05913	0.023479974
170	0x3d23549e	0.03987562
171	0x3d24affb	0.04020689
172	0x3dc63cf3	0.09679594
173	0x3d472543	0.04861952
174	0x3bec5408	0.0072121657
175	0xbd1beb42	-0.038066156
176	0xbd0a4128	-0.033753544
177	0x392722cb	0.00015939322
178	0x3b255f2f	0.0025233736
179	0x3dc5fd35	0.09667436
180	0x3dc96a93	0.098347805
181	0xbc135b83	-0.008993986
182	0x3dc12e16	0.09432618
183	0x3a100fd5	0.0005495523
184	0xbd72200e	-0.0591126
185	0x3d046000	0.032318115
186	0xbd2a2814	-0.041542128
187	0x3ce0e629	0.027453499
188	0x3def2457	0.11676853
189	0x3dcab4d2	0.0989777
190	0x3d7d690d	0.061867762
191	0xbd1ad704	-0.03780271
192	0x3ca035b4	0.019556858
193	0xbca9f0b2	-0.020744655
194	0x3c2bd77f	0.01048839
195	0x3d5b0dce	0.053479962
196	0x3d6b1dd7	0.057401504
197	0x3df2df1a	0.118589595
198	0x3d51bb78	0.051204175
199	0xbd678285	-0.056520957
200	0x3dbe35c4	0.09287599
201	0xbc43e73e	-0.011956988
202	0xbbef8e1c	-0.007310642
203	0xbd47ce7b	-0.0487809
204	0xbd10a270	-0.035311162
205	0x3d744069	0.05963174
206	0x3dee8f76	0.11648457
207	0xbbcebb4f	-0.00630895
208	0x3cded491	0.027200969
209	0xbd6fd143	-0.058549177
210	0x3dd79a70	0.105275035
211	0x3d5f56b5	0.05452605
212	0x3db54258	0.08850545
213	0x3d7519b4	0.059838966
214	0x3a63a18c	0.0008683435
215	0x3d9020ba	0.07037492
216	0x3c879b6f	0.016553609
217	0x3d1e7ba8	0.038692147
218	0xbc85c0c0	-0.016327262
219	0xbd6ce6ce	-0.0578373
220	0xbd45e931	-0.04831809
221	0x3d4e5b7b	0.05038021
222	0x3d04347d	0.03227662
223	0xbc5e46b4	-0.013566662
224	0xbd54a95c	-0.051919326
225	0x3d3e2472	0.046421476
226	0x3daf29b4	0.08552876
227	0xbc68fda3	-0.014220628
228	0xbc806c7b	-0.015676728
229	0x3c97670e	0.018481757
230	0x3d22c6a9	0.03974024
231	0x3ddc57bd	0.10758922
232	0x3dfb6446	0.12274985
233	0x3df7c6c7	0.12098461
234	0x3dbde3f7	0.092719965
235	0xbd1adc38	-0.037807673
236	0xbc8b9e5c	-0.017043285
237	0x3d1f7f7f	0.03893995
238	0xbcb4e6e9	-0.022082763
239	0x3c24e681	0.010064722
240	0x3ddaf696	0.10691564
241	0x3c93b4b5	0.018030504
242	0x3dbe105e	0.092804655
243	0x3c9edd65	0.019392679
244	0x3d6a6165	0.05722179
245	0x3dbd9482	0.09256841
246	0x3d3c5e01	0.045988087
247	0x3d8217ab	0.063521706
248	0x3ca60d51	0.020270022
249	0x3db5eddf	0.08883261
250	0xbd0f4bfe	-0.03498458
251	0x3cefabfd	0.029256815
252	0xbc9debad	-0.019277418
253	0x3df26951	0.11836494
254	0x3d82f068	0.0639351
255	0x3d248a04	0.040170684

conv1.bias f4 [6]
0	0x3ba711b5	0.0050985464
1	0xbd37d19f	-0.044877645
2	0xbd065d4d	-0.032803822
3	0xbd56b9d7	-0.052423324
4	0xbe3d7153	-0.18500261
5	0xbdd92234	-0.10602227

conv2.weight f4 [16, 6, 5, 5]
0	0x3d67c86d	0.056587625
1	0x3d0c73c9	0.03429011
2	0x3d22b1fc	0.03972052
3	0xbbfd1e56	-0.0077245636
4	0xbd8978d4	-0.06712499
5	0xbb9b75bf	-0.004744261
6	0xbc95c2ac	-0.018281303
7	0xbc0d2c39	-0.0086165005
8	0x3cf42afd	0.029805655
9	0xbd4f149b	-0.05055676
10	0xbad55df3	-0.0016278609
11	0xbc1408f8	-0.009035341
12	0xbcd25b0c	-0.02567818
13	0xbd0ae381	-0.03390837
14	0x3a8a55b5	0.0010554107
15	0xbd064ce8	-0.032788187
16	0x3b485fd5	0.0030574698
17	0xbcc2039f	-0.023683367
18	0xbd820cf3	-0.06350126
19	0x3d6367a1	0.05551875
20	0xbc963a9f	-0.0183385
21	0xbd2e9015	-0.042617876
22	0x3c0019e2	0.007818671
23	0xbd6a1500	-0.057148933
24	0xbb201a81	-0.002442986
25	0xbd6b3b08	-0.057429343
26	0x3ca5fe4a	0.020262856
27	0x3d85a0bd	0.06524799
28	0xbc4f5a73	-0.012655842
29	0x3d402414	0.046909407
30	0xbca73816	-0.020412486
31	0x3d78dae2	0.060755618
32	0xbc583a39	-0.013197475
33	0xbd4c058e	-0.049809985
34	0xbd1d9bf6	-0.038478814
35	0xbd2f5d14	-0.042813376
36	0x3d1953ff	0.03743362
37	0x3da1b243	0.07895329
38	0xbd5f8677	-0.054571595
39	0x3c8ff91a	0.017574836
40	0xbd8c5eeb	-0.06854042
41	0x3c330e8a	0.010928759
42	0x3d87ac0b	0.066246115
43	0xbd09e19b	-0.03366242
44	0xbccbb61c	-0.02486711
45	0xbc2fa406	-0.010720259
46	0xbd1361ad	-0.035981823
47	0x3d5b0147	0.053468015
48	0xbc8910a3	-0.016731566
49	0x3d10f366	0.035388373
50	0x3b698742	0.0035633598
51	0x3d8e3368	0.06943399
52	0xbd30aef8	-0.043135613
53	0x3d284d84	0.04108955
54	0x3da7591c	0.08171293
55	0xbcf66421	-0.030077042
56	0x3cfbd74e	0.030742314
57	0xbced50bb	-0.02896916
58	0x3c291060	0.0103188455
59	0xbd28cbed	-0.041210104
60	0x3b9351ed	0.0044958503
61	0x3d1d9be2	0.03847874
62	0x3cacbf01	0.021087172
63	0xbb82f330	-0.0039962754
64	0x3cc71c35	0.024305442
65	0xbc02d004	-0.007984165
66	0xbd95f2ec	-0.07321724
67	0x3c139557	0.009007773
68	0x3d9dd1ae	0.07706009
69	0x3d540b7b	0.05176876
70	0xbd96526e	-0.07339941
71	0xbd9eed24	-0.07760075
72	0xbd8878a8	-0.06663638
73	0xbc8e7828	-0.01739128
74	0xbcf81378	-0.03028272
75	0xbc1b743d	-0.009488163
76	0xbc8d6c25	-0.017263481
77	0x3c410a17	0.011782191
78	0xbce4ce2f	-0.027930347
79	0x3dc4a424	0.0960162
80	0x3c3ea85c	0.01163682
81	0x3daab0a5	0.083344735
82	0xbc4e6ae0	-0.012598723
83	0x3cb4eb95	0.02208499
84	0x3da31bb6	0.0796427
85	0xbd990d42	-0.07473232
86	0xbd1fde0f	-0.03903013
87	0x3d5a5d44	0.0533116
88	0xbcee9c25	-0.02912719
89	0x3dccc0dd	0.09997723
90	0xbcda3464	-0.02663631
91	0xbcf23c5c	-0.029569797
92	0xbcbc3b20	-0.022977412
93	0xbd457d24	-0.048215047
94	0xbb7ee001	-0.003889084
95	0x3d474bc5	0.048656244
96	0x3cda0ddd	0.026617939
97	0xbd9fbafc	-0.07799336
98	0x3d8a80cc	0.06762847
99	0xbb08a865	-0.0020852324
100	0x3d9698c4	0.073533565
101	0x3dab3a16	0.083606884
102	0xbd45b464	-0.048267737
103	0xbd0d288b	-0.034462493
104	0x3db6a966	0.08919029
105	0xbd84ca6e	-0.06483923
106	0xbd2ebad2	-0.042658634
107	0x3d466874	0.048439458
108	0xbcf3227b	-0.029679528
109	0x3d90126b	0.07034763
110	0xbd1acf98	-0.037795633
111	0xbcd92396	-0.026506227
112	0xbcc67d34	-0.024229623
113	0x3d2e8a02	0.042612083
114	0x3ce53bd9	0.02798264
115	0x3cf1d2b0	0.029519409
116	0x3d6e5df0	0.058195055
117	0xbb876efc	-0.0041331034
118	0xbd99d273	-0.07510843
119	0x3d96326c	0.07333836
120	0xbdb7712d	-0.089571334
121	0xbca5605c	-0.02018755
122	0x3d2eb866	0.042656325
123	0x3d47574c	0.048667237
124	0xbd1ca509	-0.038243327
125	0xbd540fa4	-0.05177273
126	0xbba9e183	-0.005184354
127	0xbbab9700	-0.0052365065
128	0xbd671d16	-0.056424223
129	0xbd07c4ae	-0.033146553
130	0x3c9ded27	0.019278122
131	0xbd7f6547	-0.062352445
132	0xbd453b1e	-0.04815208
133	0x3da47a4f	0.08031141
134	0xbb2dd358	-0.0026523676
135	0xbd8680f4	-0.065675646
136	0x3c7d9424	0.015477214
137	0x3bd7c8b6	0.006585206
138	0x3d967829	0.073471375
139	0x3d83d6f9	0.06437487
140	0x3ad09edf	0.0015916488
141	0xbcc85e63	-0.02445907
142	0xbda8f32c	-0.08249506
143	0x3d31a6ee	0.043372087
144	0xbb839429	-0.004015465
145	0xbd5280ee	-0.05139249
146	0xbd9a6507	-0.07538801
147	0xbd19dd09	-0.03756431
148	0x3d92a15b	0.07159682
149	0x3ca07ad2	0.019589815
150	0x3d6a5953	0.057214092
151	0x3c6ef7df	0.014585464
152	0xbd12b538	-0.035817355
153	0xbce31e7e	-0.0277245
154	0x3c03b320	0.008038312
155	0xbd6a752d	-0.057240654
156	0x3da31b47	0.07964187
157	0x3d8dece8	0.06929952
158	0xbcb9b3c1	-0.022668721
159	0x3d886b0e	0.06661044
160	0x3cb0f4a9	0.021601038
161	0xbda6ba75	-0.081410326
162	0x3c85bc29	0.016325073
163	0xbcc156ee	-0.023601022
164	0x3dbadfea	0.091247395
165	0x3d807d04	0.06273845
166	0xbd045e15	-0.032316286
167	0xbdafd235	-0.08585016
168	0x3d82e226	0.06390791
169	0x3db8b2c2	0.0901847
170	0x3cc4cd51	0.024023684
171	0xbd60d8c0	-0.05489421
172	0xbd5c692e	-0.053811245
173	0xbd5f9bad	-0.054591823
174	0xbc2df70a	-0.010617981
175	0x3d885ba1	0.06658102
176	0x3c130d5b	0.008975352
177	0xbd10c9a8	-0.035348564
178	0x3d38223c	0.044954523
179	0x3ba48ca1	0.005021647
180	0x3d15c252	0.03656227
181	0xbc80f0e3	-0.015739864
182	0x3daba7dc	0.08381626
183	0x3d20feed	0.039305616
184	0x3dbb96d7	0.0915963
185	0x3d00dfb3	0.031463336
186	0x3d81e98f	0.06343376
187	0x3d359389	0.044330154
188	0x3d21a709	0.039465938
189	0x3d988475	0.07447139
190	0xbd1a9a2a	-0.03774468
191	0xbd3a7717	-0.04552373
192	0xbd4e169f	-0.050314542
193	0xbbd5e45d	-0.006527467
194	0x3dd6b3b9	0.10483498
195	0xbcbb0824	-0.02283103
196	0x3ca2cc4b	0.019872805
197	0x3d27ec6d	0.040996958
198	0xbcecc6ed	-0.028903449
199	0x3d5b3ede	0.05352675
200	0x3c352eb0	0.011058494
201	0x3cfd1b9b	0.030896952
202	0xbb4cca54	-0.0031248527
203	0x3dc4cb34	0.096090704
204	0x3dcbb365	0.09946326
205	0x3d271b41	0.040797476
206	0x3d929d55	0.07158915
207	0x3d0f3e6e	0.034971647
208	0x3c8a1d8d	0.016859794
209	0x3d77a027	0.060455468
210	0xbc1f9018	-0.0097389445
211	0xbdafbb29	-0.0858062
212	0xbd186714	-0.037207678
213	0xbc1f7741	-0.009733022
214	0x3c89ba88	0.016812578
215	0xbdceed29	-0.101038285
216	0xbcf4ac09	-0.029867189
217	0x3c2d3a77	0.010573021
218	0xbaf68bea	-0.0018810008
219	0x3daa360e	0.08311091
220	0xbdd5b5e4	-0.104350835
221	0xbd8e2158	-0.069399536
222	0x3c8093dd	0.015695507
223	0x3d684696	0.05670794
224	0x3c7c1f75	0.015388359
225	0xbcb1975b	-0.021678617
226	0xbbcaceca	-0.006189202
227	0x3d59c5a5	0.053167004
228	0x3db78779	0.08961386
229	0xbc3edafd	-0.011648891
230	0xbc8bd359	-0.017068552
231	0x3ca33c6a	0.019926269
232	0x3dae7856	0.08519046
233	0x3d96d5f7	0.07365029
234	0x3df1d504	0.11808208
235	0xbd4f601a	-0.05062876
236	0x3d4d629a	0.050142862
237	0x3c29bfa9	0.010360637
238	0xbbe50fca	-0.0069904076
239	0x3dd784d2	0.1052338
240	0xbd2a4c33	-0.041576575
241	0xbda92134	-0.08258286
242	0xbc2879c2	-0.010282936
243	0x3dc2f264	0.095188886
244	0x3b5ba223	0.003351339
245	0xbdf5d701	-0.12003899
246	0xbdab1650	-0.08353865
247	0xbd09b880	-0.03362322
248	0x3db27dbe	0.0871539
249	0xbd22b6db	-0.039725166
250	0x3d5403b6	0.05176135
251	0xbd3f8c79	-0.046764825
252	0xbd41b1e6	-0.047288798
253	0xbd6718ac	-0.056420013
254	0x3d41e6f3	0.04733939
255	0xbd20c96a	-0.039254583

conv2.bias f4 [16]
0	0x3d68cb28	0.05683437
1	0xbd667bd0	-0.05627042
2	0x3d0c80f1	0.034302656
3	0x3cb60309	0.022218244
4	0x3da903b8	0.082526624
5	0xbb9db29e	-0.0048125526
6	0xbb2e78f9	-0.0026622398
7	0x3d7ffbc2	0.062495954
8	0xbd479ac3	-0.048731577
9	0xbce6c988	-0.02817227
10	0xbd50f5dd	-0.051015723
11	0x3d89b55f	0.06724047
12	0xbd975984	-0.073901206
13	0x3c96a4f8	0.01838921
14	0x3b2b76aa	0.0026163259
15	0x3c9c9dc9	0.019118207

fc1.weight f4 [120, 584]
0	0xbcae61ae	-0.021286812
1	0xbaed574a	-0.0018107679
2	0x3c8f2c32	0.017477129
3	0x3cb8c0e6	0.022552919
4	0x3cb93a7f	0.0226109
5	0x3d08ce94	0.033400133
6	0xbc62e3c2	-0.013848247
7	0xbc60deb9	-0.013724976
8	0xbd31e568	-0.04343167
9	0xbce3c0d7	-0.027801914
10	0xbc33e4e7	-0.010979868
11	0x3d1cfb7e	0.03832578
12	0x3c8d5910	0.017254382
13	0xbc888575	-0.0166652
14	0x3c5a97f9	0.013341897
15	0xbcfb2074	-0.030655123
16	0x3b97e355	0.0046352544
17	0x3b1e5b18	0.0024163183
18	0x3d09e090	0.033661425
19	0xbd0d1394	-0.0344425
20	0xbcebd50f	-0.028788118
21	0x3cb26914	0.02177862
22	0x3cd158c1	0.025555016
23	0xbbdbe4ce	-0.0067106253
24	0xbd1a963f	-0.037740942
25	0x3d12ee88	0.035872012
26	0x3c809c2b	0.015699467
27	0x3c06fbf3	0.00823878
28	0xbd0b7dcb	-0.034055512
29	0x3b233b5e	0.0024907212
30	0x3d140a27	0.036142495
31	0xbc7ece4d	-0.015552116
32	0x3cfd9b4e	0.030957844
33	0xbce97538	-0.028498277
34	0xbd16f728	-0.0368568
35	0x3d2b8c26	0.041881703
36	0x3d0c10f4	0.034195855
37	0xbb210778	-0.0024571102
38	0xbb2f247c	-0.0026724627
39	0x3cf5ddd0	0.030012995
40	0x3cea0729	0.028567867
41	0x3b6dbbb0	0.00362752
42	0x3d0f3e40	0.034971476
43	0x3cf8ab8a	0.030355234
44	0x3c56ffe8	0.013122536
45	0xbca20c8e	-0.019781377
46	0xbd089435	-0.033344466
47	0x3ce4d9f6	0.027935963
48	0xbca8ae4b	-0.020590922
49	0xbd1e99b0	-0.038720787
50	0x3d190ed0	0.037367642
51	0xbbeb465e	-0.0071800193
52	0xbce27352	-0.02764288
53	0xba92631f	-0.0011168456
54	0xbcd3d075	-0.025856236
55	0xbc3bbcb2	-0.011458563
56	0x3d021e85	0.031767387
57	0xbc9909ce	-0.018681433
58	0x3cc96328	0.024583414
59	0x3bae727f	0.0053237076
60	0xbb2cab16	-0.0026347092
61	0x3c367b79	0.011137837
62	0xbb2e648a	-0.002661022
63	0xbcd4ec82	-0.025991682
64	0x3bbf22db	0.0058330125
65	0x3c7aecbe	0.015315233
66	0xbc2522d2	-0.010079103
67	0xbc1777be	-0.009244857
68	0xbc993c0e	-0.018705394
69	0xbd0e8940	-0.03479886
70	0x3d0db9e9	0.034601126
71	0xbcdfdad3	-0.027326023
72	0xbc96c396	-0.01840381
73	0xbd283ed4	-0.041075543
74	0x3ba0b3c8	0.004904244
75	0x3c817016	0.015800517
76	0x3c971338	0.018441781
77	0xbc5cf652	-0.013486462
78	0xbd2694be	-0.040669195
79	0x3ce520a8	0.027969673
80	0xbd00bb08	-0.031428367
81	0x3aafa5a0	0.00134008
82	0x3c9f052a	0.019411642
83	0xbcc04b03	-0.023473268
84	0xba8270c0	-0.0009951815
85	0xbd1af6a4	-0.03783287
86	0xbbdb2650	-0.006687917
87	0xbce2a0f9	-0.027664648
88	0x3c9ef114	0.019402064
89	0x3bef24f0	0.0072981045
90	0x3bc2f5f8	0.005949732
91	0xbc153534	-0.009106923
92	0xbd08c612	-0.03339202
93	0xbd19abe6	-0.03751745
94	0xbc7a9be2	-0.015295954
95	0xbc87586c	-0.016521655
96	0x3c3b5c44	0.011435572
97	0x3ceb150c	0.02869656
98	0xbd0adad3	-0.033900093
99	0x3c5141f4	0.012772072
100	0xbd0b3e72	-0.0339951
101	0x39fb8e80	0.00047980621
102	0xbbf0a6f5	-0.0073441216
103	0x3cea0964	0.02856893
104	0x3ccc9fd4	0.024978556
105	0xbc471442	-0.012150826
106	0xbce23225	-0.027611801
107	0x3c478b84	0.012179259
108	0x3d275dbd	0.04086088
109	0x3c5c27d4	0.01343723
110	0x3c9c7a69	0.019101338
111	0x3c6e50b8	0.014545612
112	0xbc40c730	-0.01176624
113	0xbbbcbf42	-0.0057601044
114	0xba224f1e	-0.0006191599
115	0xbd04d968	-0.032433897
116	0x3c492daf	0.012278958
117	0xbce0aece	-0.027427103
118	0xbbbba505	-0.005726459
119	0xbd06c685	-0.032904167
120	0xbb3c5cc1	-0.002874181
121	0x3c2b860b	0.01046897
122	0xb96bcff7	-0.0002248882
123	0xbcad2296	-0.021134656
124	0xbb12c642	-0.0022396003
125	0x3cbc3c97	0.02297811
126	0xbc225f3d	-0.009910402
127	0xbcf505a4	-0.029909916
128	0xbd1305c1	-0.03589416
129	0x3c8c27fe	0.017108914
130	0xbcedc680	-0.029025316
131	0x3c30826d	0.010773283
132	0xbcbfa4cf	-0.023394017
133	0xbb3b55e8	-0.002858514
134	0x3d22e272	0.039766736
135	0x3c8a4deb	0.016882857
136	0x3c51821b	0.012787367
137	0x3a8f3341	0.0010925309
138	0x3d1ce71c	0.03830634
139	0x3abb3d75	0.0014285283
140	0x3c54b6da	0.012983048
141	0xbcfaac53	-0.030599749
142	0xbc5bd0f2	-0.013416516
143	0xbbc75424	-0.0060830284
144	0x3c2f6856	0.010706028
145	0xbc70f9e4	-0.014708016
146	0xbc163bc9	-0.009169527
147	0xbc9dfe23	-0.01928622
148	0xbd157888	-0.0364919
149	0xbc854c50	-0.01627174
150	0xbd1782c2	-0.036989935
151	0x3c3faca5	0.0116988765
152	0x3cacc94a	0.021092076
153	0x3b577560	0.0032876357
154	0x3c708ee9	0.01468251
155	0xbb17053d	-0.0023043894
156	0x3cfdf8e7	0.031002475
157	0x3c3a684e	0.011377407
158	0xbcd7532d	-0.026284778
159	0x3c809552	0.015696201
160	0xbcec12b2	-0.028817508
161	0xbd0f0caa	-0.034924187
162	0x3c5c0698	0.013429306
163	0xbd23f347	-0.04002693
164	0x3c840f6a	0.016120631
165	0xbbf3c253	-0.0074389367
166	0x3cc2ce0b	0.02377989
167	0x3cf73c93	0.030180251
168	0x3cb48288	0.022034898
169	0x3ca03865	0.019558141
170	0xbbf5c4e3	-0.0075002774
171	0xbbc13992	-0.0058967555
172	0x3c1547b3	0.009111333
173	0x3ca3a3eb	0.019975623
174	0xbab846f4	-0.0014059232
175	0x3cf48bf5	0.029851893
176	0x3bfbee16	0.007688294
177	0x3bf2796f	0.00739973
178	0x3ca31378	0.019906744
179	0x3ce798a8	0.028271034
180	0x3c9cf394	0.019159116
181	0x3d15dee8	0.036589533
182	0xbd174d23	-0.036938798
183	0x3cb38dfc	0.02191829
184	0xbd02317b	-0.03178547
185	0x3d0fcf90	0.035110056
186	0xbcc6ac61	-0.024252119
187	0xbbc4e6f8	-0.006008979
188	0xbbd4ffcf	-0.0065002213
189	0x3d0c3559	0.034230564
190	0x3ced584a	0.028972764
191	0x3c966037	0.018356426
192	0x3c0e8765	0.008699273
193	0xbca7cdb7	-0.020483835
194	0x3cf4ac82	0.029867414
195	0xbc9e60d5	-0.019333282
196	0xbc85e3f1	-0.016344042
197	0xbcf2e5b8	-0.029650554
198	0x3c3167b9	0.010827952
199	0xbc458fd0	-0.012058213
200	0x3c880a96	0.01660661
201	0xbca92302	-0.020646576
202	0x3c0fe1bd	0.008781848
203	0x3d14a3c3	0.036288988
204	0x3b76ed93	0.0037678226
205	0xbd259b6b	-0.04043142
206	0x3d06eebf	0.03294253
207	0xbcb97b93	-0.022641933
208	0xbd236016	-0.039886557
209	0xbcf75579	-0.030192124
210	0xbc833716	-0.016017478
211	0x3cedf8c2	0.029049281
212	0xbac39604	-0.0014922027
213	0x3d068e3a	0.03285048
214	0xbc915af0	-0.017743558
215	0x3d1661c4	0.03671433
216	0x3d2218c4	0.0395744
217	0xbc7bc3dd	-0.015366522
218	0xbce2fbe9	-0.02770801
219	0xbcaa7dc4	-0.020811923
220	0x3b959cfd	0.0045658336
221	0x3b024ab0	0.0019880943
222	0xbbd60b43	-0.006532104
223	0x3d446b08	0.047953635
224	0x3c656cc5	0.014002983
225	0xbd079b5b	-0.033107143
226	0xbcd67155	-0.026177088
227	0xbc1b6f10	-0.009486929
228	0x3d3a4c9d	0.04548322
229	0x3d44c3d3	0.048038315
230	0x3d01f7d7	0.0317305
231	0x3b2a1594	0.0025952803
232	0xbcb0c649	-0.021578925
233	0xbc899c61	-0.0167982
234	0x3ba63faf	0.0050735096
235	0xbc4a4939	-0.012346559
236	0xbd01b685	-0.031668205
237	0xbba75e98	-0.005107712
238	0xbd38127c	-0.044939503
239	0x3c3e5e30	0.011619136
240	0x3c704bcf	0.014666512
241	0xbb7e55f9	-0.0038808568
242	0xbd1d60a9	-0.03842226
243	0xbd1ac904	-0.03778936
244	0xbbd1a619	-0.006397974
245	0x3b1d17fd	0.0023970597
246	0xbca9c505	-0.020723829
247	0xbd296ff0	-0.041366518
248	0x3c7a199d	0.015264896
249	0xb98bd99d	-0.0002667428
250	0xbc06a7ee	-0.0082187485
251	0x3b82e706	0.0039948253
252	0x3c9442fd	0.018098349
253	0x3c6ac48e	0.014329089
254	0xbd02ad6c	-0.03190367
255	0x3a17704d	0.0005776927

fc1.bias f4 [120]
0	0xbbc3dda4	-0.0059773494
1	0x3cb606f1	0.022220107
2	0x3d53971f	0.051657792
3	0x3ce44881	0.027866604
4	0x3cdcd6a5	0.02695782
5	0x3b48c184	0.0030632922
6	0xbc7d9f7f	-0.015479921
7	0xbc7ab886	-0.015302783
8	0x3d09a314	0.03360279
9	0x3d00079b	0.031257253
10	0x3c9c08a5	0.01904709
11	0xbad2bee8	-0.0016078623
12	0x3c34e75a	0.011041487
13	0x3c974aea	0.018468339
14	0xbd24dbb5	-0.04024859
15	0x3cff3620	0.031153738
16	0x3cf137cb	0.02944555
17	0xbce313db	-0.027719429
18	0xbcc3cfdc	-0.023902826
19	0x3ba88f92	0.005144068
20	0xbd0d0377	-0.034427132
21	0x3b5c5da2	0.0033625145
22	0x3bf12682	0.007359327
23	0x3c8e7c7c	0.017393343
24	0xbc9f181d	-0.019420678
25	0x3ce585ef	0.028017966
26	0x3ae8d885	0.0017764723
27	0xbd264e90	-0.040602267
28	0x3d33c4df	0.043888923
29	0x398473d4	0.000252633
30	0x3cd04720	0.02542454
31	0xbc349658	-0.011022173
32	0x3c2aa8b5	0.010416199
33	0xbc6717fc	-0.014104839
34	0xbc8869ad	-0.016651953
35	0xbcb67c42	-0.022276048
36	0xbcf0beb4	-0.02938781
37	0xbca1ade9	-0.019736247
38	0x3c9c23d2	0.01906005
39	0x3c5cdf11	0.013480918
40	0x3d001817	0.031272974
41	0xbcb3451e	-0.021883544
42	0xbc512e34	-0.012767363
43	0x3c202bc0	0.009776056
44	0xbc988085	-0.01861597
45	0xbd121a68	-0.035669714
46	0x3c16b02d	0.009197277
47	0xbb35d0b1	-0.0027742798
48	0xbb60d675	-0.0034307514
49	0x3d1510b3	0.03639288
50	0x3d0f2531	0.034947578
51	0x3cdcfcea	0.026976068
52	0xbb62aba7	-0.0034587176
53	0xbd18c2c2	-0.03729511
54	0xbc4f20c1	-0.0126420865
55	0x3d1d930f	0.038470324
56	0x3bba8fe4	0.0056934226
57	0xbc333096	-0.010936877
58	0x3d27d8d0	0.040978253
59	0x3cf6b16a	0.030113894
60	0xbcd21d2f	-0.025648681
61	0xbcc26a7f	-0.023732422
62	0x3c8c71f8	0.017144188
63	0x3b45e5d0	0.0030196793
64	0x3c9cf1c4	0.019158252
65	0x3d1438dd	0.03618704
66	0xbc7035d1	-0.014661268
67	0x3cd5e191	0.026108535
68	0x3cb6d342	0.022317532
69	0x3cab61cb	0.020920655
70	0x3cdec243	0.02719224
71	0xbcc3d6c1	-0.023906114
72	0xbc56c1ae	-0.0131077
73	0x3d10463b	0.035223227
74	0xbc3eba21	-0.011641056
75	0xbbf4323c	-0.0074522775
76	0xbae78a68	-0.001766515
77	0x3ceb97e7	0.028758956
78	0xbd1f8f0b	-0.038954776
79	0xbc82080c	-0.015872978
80	0xbb6f4465	-0.0036509272
81	0x3ce5a4af	0.028032629
82	0x3c76d97e	0.015066503
83	0xbc9e422e	-0.019318666
84	0x3c3f9805	0.011693959
85	0x3c40214a	0.011726687
86	0xbbc91cc5	-0.006137463
87	0x3d27ec47	0.040996816
88	0x3cba5436	0.022745233
89	0x3a4a429b	0.00077156135
90	0xbc8a15c8	-0.01685609
91	0xbc68d5c0	-0.014211118
92	0xbc690b62	-0.014223905
93	0xbc936ebb	-0.017997136
94	0xbcf47c9b	-0.029844573
95	0x3d350bd7	0.044200744
96	0x3b166f8a	0.0022954666
97	0xbcf7fd75	-0.030272225
98	0xbd12c5ea	-0.035833277
99	0x3d062115	0.032746393
100	0x3c3e6370	0.011620387
101	0xbc2704d9	-0.010194027
102	0x3d49120d	0.04908948
103	0xbcd0140e	-0.025400188
104	0xbcb6bac0	-0.022305846
105	0x3bcfb6d9	0.006338936
106	0xbd2f5206	-0.042802833
107	0x3d2010a1	0.03907836
108	0x3d2a2833	0.041542243
109	0xbca533e9	-0.020166354
110	0xbcc8b828	-0.024501875
111	0x3cdffe43	0.027342921
112	0xbcce9bab	-0.025220713
113	0x3d168b72	0.03675408
114	0xbcf0d3a2	-0.02939779
115	0x3c15e81b	0.009149577
116	0x3d38c78b	0.045112174
117	0xbcf0fbba	-0.029416908
118	0x3d0e629e	0.034762017
119	0xbae228d6	-0.0017254602

fc2.weight f4 [84, 120]
0	0xbd575730	-0.052573383
1	0xbd9e1f91	-0.077208646
2	0xbd9d82ab	-0.076909386
3	0x3c19ba08	0.009382732
4	0xbc8b768f	-0.017024307
5	0x3cc61987	0.024182094
6	0xbd641d2c	-0.055691883
7	0x3d946305	0.07245449
8	0xbcaae147	-0.020859374
9	0x3d461ecd	0.048369218
10	0xbcfa561a	-0.030558635
11	0xbc154db4	-0.009112764
12	0x3d443a17	0.04790696
13	0xbc270792	-0.010194676
14	0x3c8c5595	0.017130652
15	0x3d2a34d1	0.041554276
16	0x3da181c8	0.07886082
17	0xbcde6a22	-0.027150217
18	0x3d12e217	0.035860147
19	0xbdb668ca	-0.08906706
20	0x3ced956a	0.02900191
21	0x3d724ecc	0.059157178
22	0x3cd1eb06	0.025624763
23	0x3d34bfa3	0.04412807
24	0xbd29987a	-0.04140518
25	0x3d8f1a25	0.069874085
26	0x3d8d1b8c	0.0689002
27	0x3d56e219	0.052461717
28	0x3d878933	0.066179655
29	0x3d2133aa	0.03935591
30	0x3c6a84e7	0.014313913
31	0xbd09fb36	-0.03368684
32	0xbdb8cced	-0.090234615
33	0xbdb35c98	-0.08757895
34	0x3d51f216	0.05125626
35	0x3ca4b89b	0.020107558
36	0x3cb38a40	0.021916509
37	0xbd482ecc	-0.048872754
38	0xbd2b5198	-0.04182586
39	0x3d05ddad	0.03268211
40	0x3d675677	0.056478944
41	0x3dbf29c3	0.09334137
42	0xbd83be4e	-0.06432782
43	0x3d6e4eae	0.058180504
44	0xbcca9c86	-0.02473284
45	0xbc1d7af1	-0.009611831
46	0xbd2089bc	-0.039193854
47	0x3d070c30	0.032970607
48	0xbd3ec067	-0.046570208
49	0x3d8e004a	0.06933649
50	0xbd5fe725	-0.054663796
51	0x3d88bbf7	0.066764764
52	0x3d7994bf	0.06093287
53	0x3db97daf	0.09057175
54	0x3d8cee74	0.06881419
55	0x3da69e45	0.08135656
56	0xbcf24751	-0.029575022
57	0x3c1efece	0.009704305
58	0xbd3850c6	-0.044998907
59	0xbd8820df	-0.06646895
60	0xbb618b70	-0.0034415387
61	0x3d838780	0.06422329
62	0x3ca25641	0.01981652
63	0xbcaac4a3	-0.020845717
64	0xbc47dfb2	-0.012199329
65	0xbd51ec31	-0.05125064
66	0x3d3e59e8	0.04647246
67	0x3d488a13	0.048959803
68	0x3d4b5782	0.049644
69	0xbcab0928	-0.02087839
70	0x3d85eac3	0.06538918
71	0xbd16f924	-0.036858693
72	0x3dcad3e1	0.09903694
73	0xbd02d779	-0.031943772
74	0x3d777a67	0.060419466
75	0x3a4a18e9	0.00077094004
76	0x3cb88543	0.022524482
77	0x3d32f60c	0.04369168
78	0x3cf0ccac	0.02939447
79	0x3b6a0923	0.0035711012
80	0x3c88c20b	0.01669409
81	0x3d13a943	0.036050092
82	0xbd91c203	-0.07117083
83	0x3d5360c8	0.05160597
84	0x3cd54f5f	0.026038824
85	0x3d5377a3	0.051627766
86	0xbc7bfd01	-0.015380145
87	0xbd9156d9	-0.07096643
88	0x3d5cef22	0.053938992
89	0x3d18281b	0.037147623
90	0xbda8ba6d	-0.08238683
91	0x3d88eb03	0.0668545
92	0x3d9c4503	0.076303504
93	0xbdb5c824	-0.088760644
94	0x3d31aa41	0.043375257
95	0xbd844d0b	-0.06460007
96	0xbd28cb88	-0.041209728
97	0x3da40f98	0.08010787
98	0xbd6f1409	-0.058368716
99	0xbced19d3	-0.028942978
100	0x3da68b85	0.0813208
101	0x3d42505f	0.04743993
102	0x3d8fb366	0.070166394
103	0xbc9a63dd	-0.018846447
104	0x3c0c9179	0.008579605
105	0x3d544c38	0.0518305
106	0xbd8754f9	-0.06608004
107	0x3d50dbd0	0.05099088
108	0x3d70f993	0.058831763
109	0x3d0a3a43	0.03374697
110	0x3d275f4c	0.040862367
111	0x3d9f4cc2	0.07778312
112	0x3db7b9bc	0.08970973
113	0xbcbb8872	-0.02289221
114	0x3d862258	0.06549519
115	0xbd8042aa	-0.06262715
116	0x3cca0a83	0.024663216
117	0x3c6e225c	0.014534559
118	0xbd7d88fd	-0.06189822
119	0x3d8bdcff	0.06829261
120	0xbce24009	-0.027618425
121	0xbdb212af	-0.0869497
122	0xbd6e3e49	-0.05816487
123	0xbdb77d76	-0.08959477
124	0x3d9280f6	0.071535036
125	0x3d332b9b	0.043742757
126	0x3db5da0e	0.08879481
127	0xbd94c740	-0.072645664
128	0x3c823ad5	0.015897194
129	0x3cf8c8bf	0.03036916
130	0xbd5abe7e	-0.053404324
131	0x3d165cdc	0.03670965
132	0x3d46f876	0.048576795
133	0xbda8bf09	-0.08239562
134	0x3b40c9e9	0.0029417223
135	0x3c996dc5	0.0187291
136	0x3d93ef42	0.07223369
137	0x3d491fc2	0.049102552
138	0x3d84b263	0.06479337
139	0x3d2275a1	0.03966296
140	0xbbc33e77	-0.005958374
141	0x3db1c464	0.08680037
142	0xbb5f9183	-0.0034113831
143	0xbd056fba	-0.032577254
144	0x3d62f571	0.055409852
145	0x3d2c11cc	0.04200916
146	0xbbdfbfe5	-0.0068282955
147	0xbcf18bb6	-0.029485565
148	0x3dab064b	0.0835081
149	0x3d9885d5	0.074474014
150	0x3d6bfdf4	0.057615235
151	0xbd338090	-0.04382378
152	0xbbd8e938	-0.0066195987
153	0xbcf6c85c	-0.030124836
154	0xbbb5e961	-0.0055515026
155	0xbcc1dd29	-0.023665028
156	0xbd86357f	-0.06553172
157	0x3d5ceea1	0.05393851
158	0xbcbccac8	-0.023045912
159	0x3db10db7	0.08645194
160	0xbd9d14ae	-0.0766996
161	0xbb1d33ec	-0.0023987247
162	0xbca2e616	-0.019885104
163	0xbdb20e93	-0.08694186
164	0x3d136e26	0.035993718
165	0x3d67422f	0.056459602
166	0xbba66613	-0.005078086
167	0xbc658156	-0.014007887
168	0x3cf1b454	0.029504932
169	0xbd1cd87b	-0.03829239
170	0xbc9584ff	-0.018251894
171	0xbd472248	-0.048616678
172	0x3da799d0	0.08183634
173	0x3d23589f	0.039879438
174	0x3d707332	0.05870361
175	0xbd896d5d	-0.067103125
176	0x3d713ab6	0.05889388
177	0x3ce0f9ec	0.027462922
178	0x3da6ae1f	0.0813868
179	0xbd1b5cac	-0.037930176
180	0x3d3525e9	0.044225607
181	0xbd1d7bf6	-0.038448296
182	0xbd14a8af	-0.03629368
183	0x3c89d319	0.016824292
184	0xbd35be72	-0.044371076
185	0x3da5810c	0.08081254
186	0xb998d503	-0.00029150405
187	0xbcf6a629	-0.030108528
188	0xbbf07341	-0.007337958
189	0x3d1832f3	0.037157964
190	0x3c52711c	0.01284435
191	0xbd94ecc7	-0.07271724
192	0xbccdabef	-0.025106398
193	0x3da03af4	0.078237444
194	0xbd272929	-0.040810738
195	0x3d666cc9	0.05625609
196	0x3cca94f6	0.024729233
197	0xbd9a150b	-0.07523545
198	0xbdb7b388	-0.0896979
199	0xbd36fd91	-0.044675414
200	0xbd2073c9	-0.03917292
201	0x3d8af061	0.0678413
202	0x3d9bacf5	0.07601348
203	0x3bb9ee9d	0.005674197
204	0xbbb19557	-0.005419414
205	0xbd8eb3a6	-0.06967859
206	0xbb0e0de9	-0.0021675772
207	0xbd2b3f1f	-0.041808244
208	0xbd6d373b	-0.057914
209	0xbd39b1d6	-0.045335613
210	0xbdafb82e	-0.08580051
211	0xbd496a55	-0.04917367
212	0x3d804eb7	0.06265014
213	0xbd2d8699	-0.04236469
214	0xbd80c8b2	-0.062882796
215	0x3d30a656	0.04312738
216	0xbd06b777	-0.03288981
217	0x3bd1408b	0.006385868
218	0xbd380e99	-0.044935796
219	0xbd953f7d	-0.072875
220	0xbda2217a	-0.079165414
221	0x3c5421be	0.012947498
222	0xbd61d3ec	-0.055133745
223	0x3d23692e	0.03989523
224	0x39891024	0.00026142702
225	0x3dae8a52	0.08522476
226	0xbda27c58	-0.07933873
227	0xbd4389bf	-0.047738787
228	0x3d11b5e5	0.03557386
229	0x3ced6f6d	0.028983796
230	0xbd989451	-0.07450164
231	0xbc969324	-0.018380709
232	0xbda5c771	-0.08094681
233	0x3dad77b1	0.08470095
234	0xbd71db77	-0.05904719
235	0xbc503410	-0.012707725
236	0xbcac31c7	-0.02101983
237	0x3db9145d	0.09037087
238	0x3d91c627	0.07117873
239	0x3da4ee60	0.08053279
240	0x3bd0d38b	0.006372874
241	0x3d75e825	0.060035843
242	0xbd95267c	-0.07282731
243	0xbdb39a63	-0.08769681
244	0x3d0b688a	0.034035243
245	0x3ca78956	0.020451229
246	0xbc2c61f5	-0.010521402
247	0xbd03b4a3	-0.03215469
248	0xbd3b7e53	-0.04577477
249	0xbbac9c49	-0.005267654
250	0xbd95e628	-0.073192894
251	0x3d62298b	0.0552154
252	0xbd7376f5	-0.05943962
253	0xbd30bb8c	-0.04314761
254	0x3d613b4e	0.054988198
255	0x3db8d3e2	0.090247884

fc2.bias f4 [84]
0	0x3d8d6e9c	0.06905863
1	0x3d8bdd16	0.06829278
2	0x3c76f561	0.015073151
3	0xbce36216	-0.027756732
4	0xbc239f5b	-0.009986724
5	0xbccfddd0	-0.025374323
6	0x3b10322b	0.0022002559
7	0x3da77da4	0.08178261
8	0xbbdf691c	-0.00681795
9	0xbd8a2c74	-0.0674676
10	0xbd277ef5	-0.04089256
11	0xbd1f46d5	-0.03888591
12	0x3d02e82a	0.03195969
13	0xbdae8a02	-0.08522417
14	0xbd4c0abe	-0.049814932
15	0xbd821dab	-0.06353315
16	0x3a241c2d	0.0006260302
17	0xbdb4c682	-0.08826925
18	0x3cdb2a66	0.026753616
19	0x3ccf2eba	0.025290836
20	0x3d532eae	0.05155819
21	0x3d859754	0.06523004
22	0xbaf2556f	-0.0018488596
23	0x3d4e9425	0.05043425
24	0x3cc443cb	0.023958107
25	0xbd5f7e4f	-0.054563817
26	0xbdb45d3e	-0.08806847
27	0x3d1ecec4	0.038771406
28	0x3d55bf8a	0.05218462
29	0x3d3ef545	0.046620626
30	0x3d822e56	0.06356494
31	0x3dc60763	0.09669378
32	0x3d5d43c0	0.05401969
33	0x3d9ba047	0.0759893
34	0xbd651dc1	-0.05593658
35	0x3d82c7dd	0.06385777
36	0xbc343db6	-0.011001041
37	0x3d95f618	0.07322329
38	0x3c10485e	0.008806316
39	0x3d4af820	0.049553037
40	0x3d92af8b	0.071623884
41	0x3d917101	0.07101632
42	0x3d94b55c	0.07261154
43	0xbd9a315f	-0.07528948
44	0x3c3520cb	0.011055182
45	0x3d7eeafa	0.06223581
46	0x3dae6560	0.085154295
47	0x3d02ad57	0.03190359
48	0x3c9f9334	0.019479372
49	0x3d400443	0.046879064
50	0x3c78e51b	0.015191342
51	0x3b1c4aea	0.0023848363
52	0xb88d4b11	-6.737386e-05
53	0xbd837b79	-0.06420035
54	0xbce00633	-0.027346706
55	0x3d92bf4c	0.07165393
56	0x3d83fbc7	0.06444507
57	0xbd62dabb	-0.05538438
58	0xbc4850d8	-0.012226306
59	0xbd4cab9f	-0.049968358
60	0x3d9c2bdc	0.07625553
61	0x3d022c64	0.031780615
62	0xbc988dcc	-0.018622302
63	0x3d51de78	0.051237553
64	0xbd4f268d	-0.050573874
65	0xbda33096	-0.079682514
66	0x3cf1e4d9	0.029528068
67	0x3dca6226	0.098820016
68	0xbd7873c3	-0.060657274
69	0xbd943a8c	-0.072377294
70	0xbc311efa	-0.010810608
71	0x3d7025fd	0.05862998
72	0xbd894358	-0.06702298
73	0x3bbded0c	0.0057960805
74	0x3d9a68a7	0.07539492
75	0xbd770779	-0.06030986
76	0xbd854e23	-0.06509044
77	0x3c61b8a8	0.013776936
78	0xbd99ed37	-0.07515948
79	0x3c677f6d	0.014129502
80	0x3cc31d6f	0.023817746
81	0xbaa25e39	-0.00123877
82	0xb821ebd6	-3.860503e-05
83	0xbc9a2fd2	-0.01882163

fc3.weight f4 [2, 84]
0	0xbd1be792	-0.03806264
1	0xbca80c08	-0.02051355
2	0x3e6bbcd5	0.23021252
3	0xbe5e263e	-0.21694276
4	0x3d1d6ce6	0.03843393
5	0x3e2eceea	0.17071119
6	0xbe2a7aaf	-0.16648363
7	0xbeb7b509	-0.35880306
8	0xbe8b5cbd	-0.2721919
9	0x3db5c547	0.08875518
10	0xbdabf294	-0.083958775
11	0x3e12f01d	0.14349408
12	0x3e05913f	0.13043688
13	0xbe33dcf2	-0.17564753
14	0x3e77a3cb	0.24183576
15	0x3daab15c	0.0833461
16	0x3e0599ee	0.13047001
17	0xbca3856a	-0.019961078
18	0x3d1e0d9f	0.03858721
19	0x3e0e14a4	0.13875061
20	0x3d47a40d	0.048740435
21	0x3e43455c	0.19069427
22	0x3e011d6b	0.12608878
23	0x3e9fe919	0.31232527
24	0x3e145067	0.14483796
25	0x3ccc87e7	0.024967147
26	0x3dae7ea8	0.085202515
27	0x3eba52db	0.3639134
28	0x3e643a0e	0.22287771
29	0x3c864da1	0.016394438
30	0x3dd31db7	0.10308402
31	0xbe2a34e9	-0.16621746
32	0xbd5af0cc	-0.053452298
33	0x3e554697	0.20827709
34	0xbd4d0b42	-0.050059564
35	0xbe810712	-0.25200707
36	0x3d102a44	0.035196558
37	0xbe4da9b7	-0.20084272
38	0x3e4133a6	0.18867359
39	0x3e38b02f	0.18035959
40	0xbe1d617d	-0.1536922
41	0xbd3abe1c	-0.04559146
42	0xbd148cc7	-0.03626707
43	0x3e14f927	0.14548169
44	0xbdb8d24c	-0.09024486
45	0xbde9bad4	-0.11412588
46	0xbdf20314	-0.11816993
47	0xbe4c4709	-0.19948973
48	0x3dec6d68	0.11544305
49	0x3c7b27b4	0.01532929
50	0x3e3517d0	0.17684865
51	0x3defafab	0.11703428
52	0xbce64cd8	-0.028112814
53	0x3d2a519c	0.041581735
54	0x3d8a6580	0.06757641
55	0x3dcc1077	0.09964078
56	0x3ea8e146	0.3298437
57	0x3d50aec2	0.050947912
58	0xbe3e733b	-0.18598644
59	0x3e8ebbb0	0.2787757
60	0x3d28fc26	0.041256092
61	0xbe716fcc	-0.23577803
62	0xbdc2d3e5	-0.09513072
63	0xbdbddbca	-0.09270437
64	0xbe5c1e26	-0.21495876
65	0xbdf22568	-0.11823541
66	0xbe464ead	-0.1936595
67	0xbe5dc275	-0.2165621
68	0x3e5e7524	0.21724373
69	0xb945bc00	-0.0001885742
70	0xbcc602ac	-0.024171196
71	0x3e094391	0.13404681
72	0x3d709f0e	0.058745436
73	0xbdbbfb2e	-0.09178768
74	0xbe43e151	-0.1912892
75	0x3bf0259e	0.007328703
76	0xbd8b6bdb	-0.06807681
77	0xbe94eca9	-0.29086807
78	0xbd97ebe1	-0.07418037
79	0xbd957262	-0.072972074
80	0xbeba3e8b	-0.36375841
81	0x3def3523	0.11680057
82	0xbe121ebb	-0.14269535
83	0x3d3fb3fc	0.046802506
84	0xbdba814f	-0.09106695
85	0xbdf9b7d7	-0.12193268
86	0xbe325c04	-0.17417914
87	0xbe21ff40	-0.15820026
88	0x3e135d22	0.14390996
89	0x3bdb9d53	0.006702104
90	0xbd6fd293	-0.05855043
91	0xbeb3070d	-0.34966317
92	0xbd465e9c	-0.04843007
93	0xbd14d997	-0.036340322
94	0xbe90e5c3	-0.28300294
95	0x3df1a95e	0.11799882
96	0xbea9ff63	-0.33202657
97	0x3c71f91f	0.014768868
98	0x3e7d767d	0.24752231
99	0x3d1f3aa9	0.038874302
100	0x3e671d6d	0.22569819
101	0xbdc3bcd8	-0.095575035
102	0x3df5cd9d	0.12002108
103	0x3e877458	0.2645595
104	0xbd3ab79c	-0.04558526
105	0x3cd13f59	0.025542902
106	0xbd669045	-0.05628993
107	0x3e941a97	0.28926536
108	0xbe3f084c	-0.18655509
109	0x3e208853	0.15677004
110	0xbcc0fa16	-0.02355675
111	0x3e91437b	0.28371796
112	0xbe63a155	-0.22229512
113	0x3d094155	0.03350957
114	0x3d893c3f	0.06700944
115	0xbea9da9e	-0.33174604
116	0x3e0cdcb5	0.13756068
117	0xbe3cab52	-0.18424729
118	0xbde9aa25	-0.114094056
119	0x3db768e1	0.08955551
120	0xbe8a446b	-0.27005324
121	0x3e521dd9	0.20519198
122	0x3e1894ef	0.14900564
123	0xbe2c5897	-0.1683067
124	0xbcc62f7c	-0.024192564
125	0xbd37d6c2	-0.044882543
126	0x3d8fffe8	0.07031232
127	0x3d42d7c7	0.047569063
128	0xbe0d6648	-0.13808548
129	0x3b9cd7ee	0.004786483
130	0x3db90fb1	0.09036196
131	0xbd2345d1	-0.039861504
132	0xbe15871a	-0.14602318
133	0xbe4ec827	-0.2019354
134	0x3e70feee	0.23534748
135	0x3e80c0ff	0.25147244
136	0xbd8d1fde	-0.06890844
137	0x3dbef7f7	0.09324639
138	0xbd21888d	-0.039436866
139	0x3e4bb672	0.19893816
140	0xbd062e3f	-0.032758947
141	0xbcdb3488	-0.026758447
142	0x3de715f4	0.11283484
143	0x3e1e8016	0.15478548
144	0x3c585282	0.013203265
145	0x3dd3d17c	0.1034269
146	0x3d0de29e	0.034639947
147	0x3e9d6c84	0.30746853
148	0x3d466921	0.048440102
149	0x3d15f60f	0.036611613
150	0x3d80e838	0.06294292
151	0xbd0f0e63	-0.03492583
152	0x3e331541	0.17488576
153	0x3dab7a41	0.083729275
154	0xbdb8da47	-0.09026008
155	0xbe413364	-0.1886726
156	0x3d0f5d03	0.035000812
157	0x3d617950	0.055047333
158	0xbe261e38	-0.16222465
159	0x3ce6dfb5	0.028182844
160	0xbe18dfc9	-0.14929117
161	0x3df12433	0.117744826
162	0xbd9efdf8	-0.077632844
163	0x3e77c137	0.241948
164	0x3d7bf44d	0.06151228
165	0xbd56ae50	-0.05241233
166	0x3e687345	0.22700222
167	0xbe64ec61	-0.22355796

fc3.bias f4 [2]
0	0xbd28e56b	-0.041234415
1	0x3d529ae8	0.05141726
