src/models/bc-with-lag.onnx (onnx, 332859 bytes, 10 tensors)

conv1.weight f4 [6, 5, 5, 5]
00000000: 77cd 65bd b735 c33d d795 003e 926c be3d
00000010: 0709 513d 53f2 fdbc 23b1 9c3d 43da d43d
00000020: 80f1 333e 949a 8d3d bbc7 e33d e21f 763c
00000030: e10c a93d f2fc 0e3e 4e5f aa3d 7e88 993d
00000040: 7d4a a73d 6e7b e33d 7018 413e 9aba 2a3d
00000050: e049 3c3d 66a8 ad3d 5557 8c3d 81e4 c23d
00000060: 6ba1 a93d c13b 9dbb a79b e43d 1e5a 703d
00000070: 2fe6 183d eaf5 093e df5a d63d 2a44 063c
00000080: 9094 d63d 7f1c cc3d a778 e13c 3940 3a3d
00000090: 98c0 133e c09b 7d3d 5a30 cd3d a449 9a3d
000000a0: bbd8 8c3b 75ae cc3d 8552 b13d cb52 ee3d
000000b0: 598b 093e 442a b93d 3122 023e e702 d73d
000000c0: 22fa 0d3d 050e 913c 9814 843c 748d 3ebd
000000d0: 1285 ea3c 7c77 263e 3aba 82bc 94fc 1a3d
000000e0: c39d fd3d c5a5 1f3e 5f4e 163e 83f5 b63d
000000f0: ed0d 1fbd 91c6 753d 29cb 093e 2f51 e93d
00000100: 0a7f d0bb db7a 95bd 4508 e53d 609c b83d
00000110: 6685 113e 145e 69bb 4c4d c83b c3b0 a9bc
00000120: fdaf 023d bc64 453c c733 ef3d c9f4 43bc
00000130: 186e 1d3c c9de 16bb abcc 1f3d 7d8a 85bc
00000140: b748 bbbc 87f2 3d3c fb36 be3d 0e83 153e
00000150: 5564 f3bb 0ee5 82bd 6741 8b3d 56be ff3b
00000160: 8a29 343e 2db3 a53d 0a93 5e3d ed10 8a3d
00000170: c794 e53d 740b ae3d 9c62 583d 28a7 6bbd
00000180: ee11 cd3b 70af 133e 048e d13d 584d 80bc
00000190: 3a64 35bd eeba 31bd 5835 df3d adcd 073e
000001a0: 72f2 4e3d 6296 2bbd 8025 c33d c5b4 083e
000001b0: 629f d73d 69e2 133d 9ad6 4ebd 3afd 33bc
000001c0: 6cd2 003e 511e 0b3e 0c1a 9b3d 994b 31bc
000001d0: 7c0d 5ebd 1505 b83d 682e ee3d c084 ae3d
000001e0: 923b 133d 64b4 9dbb b898 ca3d 07cf 0c3e
000001f0: 0cf6 763d 4a82 753c 80fd 9fbc d015 2c3e
00000200: 6e08 c23d 9424 a83d 2c7c 083e eabf 4d3d
00000210: e765 213e 9d1c 0b3e 3d2f 0f3d 34bc 713b
00000220: 289a 673d d5c6 533e a3fb eb3d c331 c23d
00000230: c866 af3d 04fd 003e d2bf 733d 78b4 413e
00000240: e3f7 203e 3831 7c3d 51df 1e3c 67bc 223c
00000250: f950 283c c135 ca3d e422 543d 1691 253d
00000260: ed93 9a3d 83dd 2a3d 0c27 8f3d b063 bf3c
00000270: 2cef ea3c 3602 983d aa5a 703d 5c91 113d
00000280: dc03 063e 468a f83d 6b7c 8e3d 9175 173e
00000290: b7e7 ac3d 783e 6b3d 10f8 183d de99 c23c
000002a0: 2a16 fb3d 151b 013e 00c1 0b3c bf20 183e
000002b0: 0fcd d13d 3866 fb3c 37e1 f33d 4a22 803a
000002c0: 05f9 433d 9b69 a13d a7c9 233e c7d5 fa3d
000002d0: c0c0 1abd a9d4 783d b114 af3c b3d4 8e3d
000002e0: 2b9b 66bc 9789 c23c 74f5 d03c ea04 c23d
000002f0: c50e 763d bdc5 6f3d d330 013e 5ddd 083d
00000300: 3caf 3f3b 7722 d23d 4fd2 16bd db3c 173d
00000310: d6a0 083e 94ab e73d 3d76 7b3d 6232 82bc
00000320: bef3 813d d046 ba3d ca1e 42bc 12b0 f43c
00000330: 5a52 25bc 22b8 2dbd e132 3b3d a124 863d
00000340: 362a 1abc 74a1 943d 62bd 24bd 5148 cb3c
00000350: ba12 1b3e 3365 003e 272f 983d 88cd 473d
00000360: 7fec 203d 8b37 063e f47e 083d 8679 f43d
00000370: 6bce cabc eca2 a6bc 3e46 0b3e f10d 07bb
00000380: c58a 86bd 5123 b53d bdf0 5f3d be36 433d
00000390: e5e2 d73d 6ce7 9c3d 66d3 a33c d194 00bd
000003a0: a421 043e b024 d33d 8e61 223d 2959 523d
000003b0: 8baf e23d 08de 163e ddba e13d d2bf ec3d
000003c0: 56dd cf3d 6d53 cabc a4fb 853d eb26 093e
000003d0: 9e42 bc3c 2f50 2e3d a560 2e3c e14d db3d
000003e0: a0ab da3d 3735 fcbc 779b a1bd ec2d 5e3d
000003f0: fe64 eebc 4f8e 2abd c00f 9d3a edab a73d
-0.05610415 0.0953173 0.1255716 0.09298052 0.051034 -0.030999338 0.07650974 0.103931926
0.17572594 0.06914249 0.1112208 0.01502225 0.082544096 0.13963678 0.08318959 0.07496737
0.081685044 0.11107527 0.18856978 0.041681863 0.04596889 0.08479385 0.06852595 0.0951624
0.08282741 -0.004798383 0.11162501 0.058679692 0.037328895 0.13472715 0.10466551 0.0081949625
0.10477555 0.09966373 0.027523352 0.045471404 0.14428937 0.061916113 0.10018988 0.07533577
0.004298297 0.099942125 0.086583175 0.11636885 0.13432063 0.09041265 0.12708355 0.104986005
0.034662373 0.01770688 0.016123101 -0.04652162 0.028627906 0.16256517 -0.01595794 0.037838534
0.12383606 0.1559058 0.14678334 0.089335464 -0.03883164 0.06000382 0.13456406 0.11392438
-0.0063628005 -0.072988234 0.11183218 0.09014201 0.14211044 -0.0035609053 0.00611273 -0.02071417
0.031906117 0.012047943 0.116797976 -0.011960217 0.009608768 -0.0023020974 0.039013546 -0.016301388
-0.022861822 0.011593468 0.092878304 0.14600775 -0.007427732 -0.06391345 0.06799584 0.0078046722
0.17593971 0.08090816 0.054339446 0.067415096 0.11210018 0.08498278 0.052828416 -0.05753246
0.006258241 0.14422393 0.102321655 -0.01566188 -0.044285037 -0.04339116 0.108988464 0.13262053
0.050524183 -0.041891463 0.09528637 0.13350208 0.10528447 0.036104593 -0.05049763 -0.010985667
0.1258027 0.13585784 0.075733274 -0.010821247 -0.05421208 0.08985344 0.11629945 0.08521414
0.035945483 -0.004812764 0.0989241 0.1375085 0.060293242 0.014984677 -0.019530058 0.16805196
0.09474264 0.08210102 0.13328618 0.05023185 0.15761529 0.13585134 0.03495716 0.003688586
0.0565435 0.20681317 0.11522605 0.094821475 0.08564526 0.12596518 0.059509106 0.189165
0.15719561 0.061570376 0.0096967975 0.009932614 0.010273212 0.09873534 0.051791087 0.040421568
0.07547746 0.041715156 0.069898695 0.023362964 0.0286785 0.07422297 0.058680214 0.035539016
0.1308741 0.121357486 0.069573246 0.14790942 0.084426336 0.05743262 0.037345946 0.02375501
0.12260087 0.12607987 0.0085299015 0.14856242 0.1024419 0.03068839 0.11908191 0.0009775844
0.047844905 0.07881471 0.15994893 0.12247806 -0.037781477 0.060749684 0.021372171 0.06974163
-0.014075081 0.023747249 0.025507666 0.094735935 0.06007268 0.058538187 0.12616281 0.033414233
0.0029248735 0.1026048 -0.03682166 0.03692327 0.13342604 0.11312023 0.061392058 -0.015893165
0.06345318 0.09095538 -0.011848161 0.029869113 -0.010090435 -0.04241193 0.04570282 0.06549955
-0.009409478 0.07257357 -0.040219672 0.024814757 0.15143862 0.12538604 0.074308686 0.048779994
0.03928804 0.13107125 0.033324197 0.11937241 -0.02475663 -0.02034136 0.13601014 -0.0020607675
-0.06569437 0.08844627 0.054672945 0.047659628 0.105413236 0.07661328 0.019998264 -0.031391922
0.12903458 0.10309732 0.039643817 0.05135456 0.110686384 0.14733136 0.110219695 0.11560024
0.10149638 -0.024697984 0.06542137 0.13393752 0.022980984 0.042556938 0.010643159 0.107082136
0.10677266 -0.030787094 -0.07890981 0.054243013 -0.029100891 -0.041639622 0.0011982843 0.08187089

conv1.bias f4 [6]
00000000: 8e1d afbe 5119 c1be e584 4ebd 7f33 f93a
00000010: 46bb dfbe 9396 833e
-0.34202236 -0.37714627 -0.050419707 0.0019012539 -0.43697566 0.25700817

conv2.weight f4 [16, 6, 5, 5]
00000000: 8f96 b6bd 4247 6dbe 1bb6 90bc cf21 dc3d
00000010: 6cd6 133e eaa2 0f3d 469e 25be cf2a bbbd
00000020: 8509 b93d ed87 3c3e e7a1 bfbd 592d 3dbe
00000030: 75f7 c8bd fb7e f63d 3475 223d a8e2 5e3d
00000040: f3d6 e1bd 569c f4bd b75a 9f3d d20d 403d
00000050: cdce ffbb 9d3c 35be 1afa b2bd b4b0 d73d
00000060: 15fc 1a3e 8389 b73a db0b 98bd 0d55 1bbe
00000070: b96d d73c e376 c43d 96d5 66bd 8f38 dfbd
00000080: cfb6 b3bd c383 653d a786 b33d 2e63 6f3d
00000090: 2207 38be 6301 fcbb e48f fbbb e5de 1d3e
000000a0: 4a86 38bd c949 61bd 8613 21bd a9a5 f33d
000000b0: 63ab e63d feab b13d acf2 0dbe 2ab2 f3bd
000000c0: 67f3 4f3d 65e8 343d 3557 f1bc 10fc a63d
000000d0: bccb 5f3c 388a bebc ff0d 783d 08f2 673b
000000e0: 7b38 2c3d 9322 8f3d 8563 9b3d 3d70 203d
000000f0: b49a a9bc 0b9d 9dbc 7e2a 283d e4f3 99bd
00000100: f2b1 54bd b78d c33c 560a 703d 8886 9b3d
00000110: 887c 053d 9284 42bc fed0 77bc b223 e8bc
00000120: 1f90 ab3c a010 453d f5a2 173b a1ee 01be
00000130: 3ca8 a6bd 67a1 87bc 7081 4a3e 3e85 873d
00000140: 0df1 15be ed91 0cbe 4e45 2d3d 7fe7 4f3e
00000150: d480 353c 7915 dfbb 0bdf 29be 3fad 41bd
00000160: 7e10 313e 0e9f 593d 62eb 62bd af49 8abd
00000170: a60d 9a3c ff8d fd3d 70dd a83d dfa6 c6bd
00000180: 924a 07be 62ba 733d 1260 f23d 9d08 e8bc
00000190: e05f 88bd d130 87be 58b2 cfbd 8e94 1a3e
000001a0: a74f 7a3e 53e7 3abc c7aa 4fbe aa1c 2b3c
000001b0: 6197 603e 6dc6 863e abbc bebd b5e2 25be
000001c0: 3719 90bb 9905 2b3e bd41 163e 6bbc 293d
000001d0: 6817 f9bd 1712 1fbd 1855 fa3d 7a78 d83d
000001e0: 7b21 963d 38f6 45be bf44 31be 64b4 fb3d
000001f0: a787 0e3e 0525 e13c eed8 363d 5104 213e
00000200: 9c93 b73d 4bfc 8cbb 1c0f 7abd 867b 633d
00000210: a9d3 073e a60a 0f3e e4a5 ab3d 931a b9bd
00000220: 0dbb e63c 3149 9d3d 2b1c ed3d c56a e7ba
00000230: aec3 203d cd86 cebc 12bb 063e f789 643d
00000240: 0157 82bd 98ed bdbc 0255 263c 20ad 97bc
00000250: 3570 773d 2db4 673d ff0e 243d 3593 cf3d
00000260: e277 b33d 38ed a8bb 28f2 d2bd 6af8 e13d
00000270: 67e8 f93d 0265 623c 746e 8fbd 652d 14bc
00000280: 6343 c93c 2409 493d 5649 833d e01b 67bd
00000290: 896e 97bd 31db 2ebd 0b50 f73d 86b9 b03d
000002a0: 05e2 193d dfef e2bd 0004 88bd d509 8fbd
000002b0: 889e 4e3b 4247 b3bb 1248 1fbe e259 af3d
000002c0: 79fd 0c3e f5d8 b53d f756 08bd 2e5a 383d
000002d0: b7ea d93d a177 40bb 97d3 c93c 992c 72bd
000002e0: c264 ffbc 1f0f 0c3d be95 0e3e ee77 163d
000002f0: 1030 113d b961 94bc bafc 753d 6227 fd3d
00000300: bd23 cb3c a0fe 9c3c dc66 0bbd 092a 06be
00000310: 30f2 97bd 9a2b 4dbd 142e 16be 0910 b9bd
00000320: b698 1bbd 3872 69bd 2e85 4a3d eead 663d
00000330: 0c5e 393b ff61 0b3d 0c0e 803c f163 5dbc
00000340: 0d9b 9dbd a756 e43c 1430 17bd 47c1 973d
00000350: cf59 9dbc ce18 a43c 60ea 57bd bc75 a63d
00000360: b609 fc3c a93c 923d 85be 1fbd f90d 8bbd
00000370: 75a3 8c3b c850 f2bc d37d a8bc e21e 9ebd
00000380: 1acc 563d 93d1 d73c 70eb c83d 4d17 933d
00000390: 3e65 27bd 5349 cfbb 907c 08bd b41e 233d
000003a0: 5c32 84bd 9d1f 72ba c76e 4dbd cc6c 8f3c
000003b0: b42d b63d 0145 70bd 6d39 54bd 54e5 edbd
000003c0: 377a a6bd 9003 e3b7 e8fa 7a3d 9a8b 6abd
000003d0: 1b0f 9bbd 6a52 aa3b f0ff 683d 47e7 58bd
000003e0: 6d0e eabc 7f90 35bb 5025 c13d 195e 763d
000003f0: b45e 6ebc e075 143d b072 99bd 2ddb d83d
-0.089154355 -0.23171714 -0.01766496 0.10748636 0.14437264 0.035067476 -0.16173658 -0.091390245
0.09035019 0.18411227 -0.09357052 -0.1847433 -0.09812824 0.12035938 0.039662555 0.054415375
-0.110273264 -0.11943881 0.07780974 0.04688818 -0.007806635 -0.17698903 -0.08739109 0.1053175
0.15135224 0.0014002774 -0.07424136 -0.15169163 0.026297437 0.09592988 -0.056356035 -0.108994596
-0.08775102 0.05603386 0.08765917 0.058444194 -0.17971471 -0.007690595 -0.007677065 0.15417059
-0.045049943 -0.055002008 -0.03932526 0.118968315 0.11263158 0.08675383 -0.13862103 -0.118992165
0.050769236 0.04416694 -0.029460529 0.08153546 0.013659414 -0.023259267 0.060560223 0.0035392065
0.04204605 0.069890164 0.07587341 0.03916954 -0.020703651 -0.019239923 0.04105615 -0.075172216
-0.051927514 0.023871286 0.058603607 0.07594019 0.032589465 -0.011872428 -0.015125511 -0.028337333
0.020942746 0.048111558 0.0023137901 -0.12688686 -0.08137557 -0.016556455 0.19775939 0.06617211
-0.14642735 -0.13727541 0.042302422 0.20303153 0.011078078 -0.0068079797 -0.1658899 -0.04728436
0.17291448 0.053130202 -0.05540026 -0.06752335 0.018805336 0.12380599 0.08245361 -0.09699797
-0.1321204 0.05950392 0.1183473 -0.02832442 -0.06658912 -0.2640443 -0.10141438 0.15095732
0.24444447 -0.011407691 -0.2027999 0.010443846 0.21932746 0.26323262 -0.09313329 -0.16199763
-0.004397537 0.16701354 0.14673515 0.041439455 -0.121626675 -0.03883561 0.122232616 0.10569854
0.07330605 -0.19332206 -0.17311381 0.12290266 0.13918935 0.027483473 0.044640474 0.15724303
0.08963701 -0.0043025366 -0.061049566 0.055537723 0.13264336 0.13968906 0.083812505 -0.09038272
0.028165365 0.07679976 0.11577638 -0.0017655721 0.039249115 -0.025210762 0.13157299 0.055795636
-0.06364251 -0.023184583 0.010152103 -0.01851517 0.060409743 0.056568313 0.040053364 0.101354994
0.087631 -0.005155232 -0.10300094 0.11033709 0.1220253 0.013818027 -0.07003489 -0.009044026
0.024568265 0.049080983 0.06410472 -0.056423068 -0.0739413 -0.042689506 0.12075814 0.08629136
0.037569065 -0.11080908 -0.06641388 -0.06984297 0.0031527597 -0.005471141 -0.15554836 0.08562066
0.13768567 0.08879272 -0.03328606 0.045007877 0.106404714 -0.002936818 0.024637027 -0.059124563
-0.031175975 0.034194108 0.1392431 0.036735468 0.035446227 -0.018113004 0.060055472 0.12361027
0.024797315 0.019164383 -0.03403364 -0.13101973 -0.074192405 -0.05009041 -0.14666015 -0.090362616
-0.037987433 -0.056993693 0.049443416 0.056318216 0.0028284816 0.034029003 0.015631698 -0.013512597
-0.07695589 0.02787335 -0.036911085 0.074099116 -0.019207863 0.020031359 -0.05271375 0.08127925
0.03076635 0.07140476 -0.039000053 -0.067897744 0.0042919465 -0.029579535 -0.02056781 -0.07720734
0.05244074 0.02634505 0.09810531 0.07182179 -0.040868036 -0.0063258796 -0.033321917 0.039824203
-0.06454918 -0.0009236278 -0.050154474 0.017507933 0.08895436 -0.058659557 -0.051812578 -0.116160065
-0.081287794 -2.7062168e-05 0.06127444 -0.05726204 -0.075712405 0.005197813 0.056884706 -0.05295494
-0.028571332 -0.0027704535 0.09430945 0.060148332 -0.014548946 0.036245227 -0.07492578 0.105886795

conv2.bias f4 [16]
00000000: ca3f 613d 2f9a 3dbe 40e4 8c3d 68c9 643d
00000010: 8f1f 2dbe 5bd5 6abc d00f d8bb 2c8b f83c
00000020: 65dd c63d 96f6 643d f696 ffbd 9d8f 83bd
00000030: 6496 96bd 1c33 91bd 0426 36be fd6c a33d
0.054992475 -0.18515848 0.06879473 0.05585614 -0.1690657 -0.0143330945 -0.006593682 0.0303398
0.097101964 0.055899225 -0.124799654 -0.064238764 -0.073529035 -0.070898265 -0.1778794 0.07979772

fc1.weight f4 [120, 576]
00000000: a346 a23c fc70 123c 7668 b1bb 6b35 8d3b
00000010: 27b9 023c 0177 803d 80c3 413d 6022 8bbc
00000020: b5ae 0d3c d08a f3bc c121 013e ea74 ecbc
00000030: f0b0 e93c 6311 a8ba c671 283d 4239 c03b
00000040: e473 af3c c1dc 47bd 149b f33c 2ef2 ccbc
00000050: 4ebf 3f3c 970c b53d dd69 bbbd 580e 193b
00000060: 5ae6 873d b791 9e3b 07b8 973d 07ce a43d
00000070: 6dbf b7bc 94fa 7ebd a301 aa3d 4537 a9bd
00000080: 39eb 233c 6c08 473c 09cd 893c 939b 12bd
00000090: d27a a8bd 2dba c2bc 8e90 30ba ffee 07bc
000000a0: 8201 edbd e247 c7bd d023 d4bc f4df 1ebb
000000b0: b537 f73c 5511 b5bc 2bcf f1bd b06e b1bd
000000c0: 1e3a c53c 02bb 8f3d 074f 6f3a 4f9e 343c
000000d0: b3af 83bd 8936 333d 8689 ddbb 2e05 a93d
000000e0: a9a9 66bd 0026 843d 9481 4f3d 6331 823d
000000f0: e4f0 b7bd 0142 2a3d fc11 36bd d9c2 783c
00000100: e09e 9c3d 870f ab3d 9a01 edbc d98d fc3c
00000110: cc65 4d3d 9c46 313c fc09 5a3d 551e 953d
00000120: f82b 7f3d 1a51 ab3c b929 5b3c 5b4c 02bd
00000130: 9a32 2b3d 32c3 d33c ca37 d83c 2e23 11bc
00000140: 3482 56bc b92e 4d3d 2fdb 483d f95b 5fbd
00000150: 9680 3ebc 3c0b c23c 89af cf3c f8e3 873d
00000160: 0a1a 29bc b063 c4bc 1574 933c 0487 663c
00000170: b506 963c 0c47 d83b 4a59 7fbd 0add a43c
00000180: 6901 203d 79f0 7f3c 6937 1c3b 7431 3abb
00000190: 71cc a63c 1c20 e33b 0805 a03c 2105 8ebb
000001a0: 35b3 363c 170d ffba 51d3 6fbc 726d f43c
000001b0: ae9e 80bd 831d e4bc 2ce3 89bd 72df 813c
000001c0: a748 21bd b661 debd ae08 60bd 89b2 4abd
000001d0: 170b 3b3d 095a e23c 55ce 50bd 6d6d 1abc
000001e0: 205c abbc e098 6b3d c78c 673d ca06 81bc
000001f0: 45ff 2e3d 2d4e 613c b310 2f3b c83f 4e3d
00000200: d067 e2ba 1104 313d 818d a03c de31 473d
00000210: d5a5 ffbc d73e c43d bf16 84bb bfd3 363d
00000220: a2c4 323c a86e c33c 0242 1abb a96a 923d
00000230: f55f fc3b a455 4f3d 9d25 d83b 5668 593d
00000240: 4509 85bd 1c97 84bc 6e92 bebb b526 02be
00000250: 9e76 6cbd 97da 32bc 3a28 55bc 49f3 623c
00000260: 3abf 19bc 259c 84bd b2b0 52bc 2e71 d6bc
00000270: 42db 553d 5d23 1abc 6d5a 27bd b6d9 a03d
00000280: 9d00 a43c 06cb 773d 14d2 3e3a 2f6e ca3c
00000290: 638a 6abd c3b3 a63d d4d2 023d 567e debc
000002a0: 8940 e33c 27c8 833c 67c8 503c 4f2d 443c
000002b0: e407 153b 3144 bbbc c05f 7dbc 777e 34bc
000002c0: 2f47 a73c 1fe5 763d af57 1b3d f909 59bd
000002d0: 90a1 9a3c b515 ebbb 607c 0bbd d4db 34bd
000002e0: 809f 3abc dd43 ccbd b7b5 693c 9df5 96bc
000002f0: 1413 49bc 9446 903d 3c3f 3cbd 2a21 1bbd
00000300: afc8 6aba 030b 2d3d 3ce7 3a3d fa27 bc3c
00000310: b335 6a3c 9a9f 093c 6b0d 80bc 9706 663c
00000320: 7645 1dbd 846e b0bc 8442 ec3c 3152 9f3c
00000330: 7361 b33b 6731 f2bc 6e2c 1f3d 316e b0bc
00000340: d2ba 31bc 7eab 743c 7314 5cbd c673 71bc
00000350: ef85 57bc bb23 8c3c af88 ef3c 2197 5f3c
00000360: d281 8f3c 501f 07bd 6185 7cba f950 cabb
00000370: 6ff8 c2bc d56d e0bc 5aeb 063d 4377 db3b
00000380: 5338 17bd 720d 1d3c db5f ffbb 13cd f23c
00000390: 3bd3 29bd 25d3 d8bc 9922 8abb be8f 283b
000003a0: eea7 32bc 57c5 3a3d 955b 233d 9565 6cbb
000003b0: 18e2 b63b ab12 083c 163e 8ebb a2cc 243d
000003c0: 5fab 17bd 35d0 1abd 990a 83bc cb85 bebb
000003d0: 6252 c73b d1d5 da39 fbb4 b5bc d314 9dbc
000003e0: 1c72 50bc 2db0 f73c dc81 cf3c 9f52 613c
000003f0: 963e c53c 2701 00bd aa2f bbbc f247 22bd
0.019809073 0.00893807 -0.005414064 0.0043093464 0.007978714 0.06272698 0.047305584 -0.016984165
0.00864761 -0.029729277 0.12610532 -0.028864343 0.028526753 -0.0012822564 0.041124128 0.0058662007
0.021417566 -0.04879451 0.029737033 -0.025017824 0.011703325 0.08840292 -0.09151051 0.0023354497
0.06635733 0.004839148 0.07408147 0.08047109 -0.022430146 -0.06225069 0.083010934 -0.08262495
0.010004812 0.012148004 0.016821401 -0.0357929 -0.08226551 -0.023770416 -0.00067354075 -0.008296727
-0.11572553 -0.097305074 -0.025895983 -0.0024242373 0.03017793 -0.022102991 -0.11807092 -0.0866369
0.024075564 0.07018091 0.00091289025 0.011024072 -0.06429996 0.04375318 -0.006760779 0.08252941
-0.056314144 0.064525604 0.050660685 0.06357076 -0.08981493 0.041566852 -0.044450745 0.015183174
0.076474905 0.08352571 -0.028931428 0.030829357 0.05014591 0.010820057 0.053232178 0.07281176
0.06229779 0.020912696 0.013376647 -0.0318111 0.041796304 0.025849912 0.02639379 -0.008858485
-0.013092566 0.050093386 0.049037155 -0.05453107 -0.011627337 0.023686998 0.025352256 0.066352785
-0.01032115 -0.023973316 0.017999688 0.014070276 0.018313745 0.0066002663 -0.062341012 0.02012493
0.039063845 0.015621298 0.0023836738 -0.0028410824 0.020361157 0.006931318 0.01953365 -0.0043341075
0.011151125 -0.0019458857 -0.014637784 0.029837344 -0.06280266 -0.027846104 -0.06732783 0.015853617
-0.039375927 -0.10858481 -0.054695778 -0.04948667 0.045664873 0.027630823 -0.050978024 -0.009425503
-0.020917952 0.05751884 0.05653074 -0.015750308 0.042723913 0.013751549 0.0026712834 0.050353795
-0.001727337 0.04321677 0.019598724 0.04863154 -0.031207005 0.09582298 -0.004031032 0.04463553
0.010911139 0.023856476 -0.002353788 0.0714925 0.0077018687 0.050618783 0.0065962807 0.053078018
-0.06495909 -0.016185336 -0.0058157956 -0.12710078 -0.05773031 -0.010916374 -0.013010079 0.013851949
-0.009383971 -0.06475095 -0.01285951 -0.026177015 0.052211054 -0.009407845 -0.04085772 0.07854025
0.020019824 0.060496353 0.0007279229 0.024710743 -0.057260882 0.081397556 0.031939343 -0.027159851
0.027740734 0.016086651 0.012743092 0.011973693 0.00227403 -0.022859665 -0.015464723 -0.01101648
0.020419685 0.0602771 0.03792542 -0.052988026 0.018875867 -0.0071742185 -0.03405416 -0.044154957
-0.011390567 -0.099738814 0.014264516 -0.018427664 -0.012272615 0.07044712 -0.045958742 -0.037873425
-0.0008956296 0.04224683 0.04563068 0.022968281 0.014295029 0.008399868 -0.015631398 0.014039657
-0.03839632 -0.021537073 0.02884031 0.019448372 0.0054742633 -0.029564572 0.03886073 -0.021536918
-0.010847764 0.014933465 -0.05373044 -0.014737075 -0.013154491 0.017106881 0.02923998 0.013646872
0.017517958 -0.032988846 -0.0009632912 -0.0061742035 -0.023800103 -0.027396122 0.032939292 0.0066975667
-0.03691895 0.009585725 -0.0077934093 0.029638803 -0.04146121 -0.026467869 -0.00421555 0.0025720443
-0.010904295 0.045598354 0.03988226 -0.003607129 0.0055811517 0.008305232 -0.0043408973 0.040234216
-0.037028667 -0.037796218 -0.015996264 -0.005814289 0.006082819 0.00041739506 -0.022181025 -0.019174969
-0.012722518 0.030235374 0.025330476 0.013752609 0.024077695 -0.0312511 -0.022849876 -0.039619394

fc1.bias f4 [120]
00000000: 97cb bb3b 98df 093d c70d 793c 0130 363d
00000010: 8c81 76bb 567c c3bc 36f8 d8bc d89a 243d
00000020: 45ec 1c3c 841a 65bd 0e82 243d 21b2 c83c
00000030: 0dae b1bc 5230 063c c844 3fbc f14d 773c
00000040: 892b 8dbc f9d3 95bc 0731 cb3c af05 cc3b
00000050: 7305 703c d8a9 debc 95c6 d93c ffc1 0c3b
00000060: 4f12 8b3c 89cb abbc d734 d83c d0c8 29bd
00000070: 6228 a5bc ac8d b83c 697e 8a3c cb44 9d3c
00000080: 8c92 f43c b22e 443c 6a90 91bc 6ab1 01bc
00000090: c58e b03c ef31 3d3d 8c79 c8bc 5fae 46bd
000000a0: 798b 3ebc fc43 ee3c ab80 fa3c 2ffd 2f3c
000000b0: 4fb0 c3bc c902 ecbb 9abe 903c a694 18bc
000000c0: b882 1ebd b568 4f3d ab3c f93c 36ff 343a
000000d0: df02 693c adc9 353c 8dbe 08bc 7d9f b5bc
000000e0: 523e 1bbd ab85 033d 975d a73c aa33 2f3c
000000f0: 531f cebc 1ad5 e73c c0ac a63c 60a8 303c
00000100: fea2 823c 63c6 d33c 57eb 11bd 8c8a d43c
00000110: f14a 09bd 0971 afbc 7182 7e3d 540f 0a3d
00000120: e133 2d3d e661 91bc 93a7 083d 5289 7f3c
00000130: 0bdb b9bc 7d54 50bb a083 7cbb fb3d 3a3d
00000140: 89b8 3a3d 7e63 6fbc 9293 32bc 2b31 bb3b
00000150: d903 09bc b5c0 213d b129 e93b 0b7d e7bc
00000160: ae0e 64bc dad3 7d3d 1c48 f0bc 90c1 56bc
00000170: 79d6 fd3a 1918 0d3d b355 11bd 982f 04bd
00000180: c25d 04bd c6e8 a6bc ba3e 203d 9bdb eebc
00000190: 8ab6 723d 499c 37bd b7d0 a4bc f26c 543c
000001a0: f562 22bb 22e7 5b3c d843 f93c bf84 ce3c
000001b0: c56c b2bc 6dd3 2f3d e2bf 40ba 780e b6bc
000001c0: e95f f1bc 6dd4 79bb 300f 4dbb 0c23 c3bc
000001d0: f2d6 ce3c 8031 f13c 9d79 893c 8545 f63c
0.005731057 0.0336605 0.015201039 0.044479374 -0.0037613837 -0.023862999 -0.026485544 0.040186733
0.009577815 -0.05593349 0.040163092 0.024499001 -0.02168944 0.008190231 -0.011674114 0.015094266
-0.017232673 -0.018289553 0.024803651 0.0062262635 0.014649737 -0.027180597 0.02658395 0.0021477935
0.016976504 -0.020971077 0.026392384 -0.041451275 -0.020160858 0.022528492 0.01690598 0.019197842
0.029855035 0.011974024 -0.017769057 -0.007915834 0.021552453 0.0461902 -0.02447202 -0.048506137
-0.011629933 0.029085152 0.030578932 0.010741516 -0.023887781 -0.0072024805 0.01766901 -0.009312784
-0.038698882 0.050636966 0.030424437 0.00069044845 0.014221876 0.011095447 -0.008346212 -0.022170777
-0.03790123 0.032109898 0.02043037 0.01069347 -0.02516142 0.028299857 0.020346045 0.010782331
0.015946861 0.025851434 -0.03562483 0.02594497 -0.033518735 -0.021416204 0.062136117 0.033706024
0.042285804 -0.017746877 0.033362936 0.015596705 -0.022687456 -0.003178864 -0.0038530603 0.045469265
0.045586143 -0.014611123 -0.010899441 0.0057126484 -0.008362734 0.03949042 0.0071155657 -0.028257867
-0.013919516 0.061969616 -0.02933126 -0.013107672 0.0019366286 0.03444681 -0.03548212 -0.03227195
-0.032315977 -0.020374667 0.03912232 -0.02915745 0.059256114 -0.04482678 -0.020119054 0.012965428
-0.0024778221 0.013421806 0.030427858 0.025209783 -0.021780381 0.04292624 -0.00073528115 -0.022223696
-0.029464679 -0.0038121 -0.003128957 -0.023820423 0.025248978 0.029442549 0.016781623 0.030062446

fc2.weight f4 [84, 120]
00000000: def7 d53c b535 77bd e0a9 8abc 7a89 93bd
00000010: 0031 a53c 4b67 c23c 2780 30bd 0a48 2b3d
00000020: 7bf7 c3bc 588f 9fbd 5887 4a3d d447 833d
00000030: 8f91 883c 4a39 863c 1f90 7bbb aa00 bc3c
00000040: ce1d 1c3d 214b 13bd 0d45 023d 9435 48bd
00000050: 63cc a93d eb43 813d 4e7d cfbc 432e d53a
00000060: 7116 143d 3292 6d3d dccc 0a3d 6c61 14bd
00000070: 3c62 b1bd fdf4 50bd 95b1 a0bd 503d 05bc
00000080: 9054 5abd 7e61 b03d 9f20 973d f607 89bb
00000090: 0162 8cbd bffd 9d3c b071 903b 4fec 193d
000000a0: 9002 953d cc3a 6e3d 3244 633c f311 96bd
000000b0: f680 70bc a958 59bd 4b8e 613c 4822 9fbd
000000c0: 3c96 0dbd d091 2bbd 35e0 613d d48b 82bd
000000d0: bb84 c63d 1c1a 48bd a105 23b9 2526 4e3d
000000e0: a020 2ebb 8f71 673d 6c56 803c 0ddf abbc
000000f0: 6273 aabc 294e b6bd 10c4 9fbd 8d40 253b
00000100: 5066 9ebd 51dd 833d 8133 9f3d ebae 993d
00000110: b9cb ad3d fdda 6bbd 5080 80bd 24fa 883d
00000120: e24d a3bd e18c 4bbd d8ee a3ba b1b9 48bc
00000130: a902 33bd 63f7 b9bd dc7a 1bbd d33f cb3c
00000140: 6db7 7abd 435f 833d 3bcd 56bd d6ae a03d
00000150: 033a 9dbd fe38 bc3b ecba 583d 2b3c 07bd
00000160: d4cb ef3b 25fd a4bd 5a85 e53c 2017 84bd
00000170: d713 b0bd c3e7 933c 1876 99bd 643a 9b3d
00000180: 3860 31bd 8295 2b3d bbab f33c 8af6 243d
00000190: a441 b93c 6ddb 9d3a 77f8 3d3c 6ec2 233d
000001a0: 7d75 3e3c 18dc 9cbc d2e4 c53c 988b 16bc
000001b0: 15c1 a53c 3ddf 54bd 5d69 8a3b 107f 6a3d
000001c0: 6bd8 07bd b9ec 443c 5984 423d 1df5 553b
000001d0: 012c 413d c889 2ebd 7fe5 283d 9094 62bd
000001e0: d8f5 013e e386 d13d b797 f33d c802 9a3d
000001f0: 7b7b 12bd 0cde 0b3d c02a 033d dce5 d53d
00000200: 6b84 23bc 7d4b 89bc d23c cdbb 40aa cfbd
00000210: 2b1e f4bd 7b7c ccbd c3ce 9abd edf0 b83c
00000220: 143c 4d3c 7727 4e3d 7060 353d 016e 2dbd
00000230: 8a66 61bd 9082 7c3d 945e 28bd 8688 303d
00000240: ee67 7f3d faa5 483d 5d0f 553c 8f1f 1ebd
00000250: 4737 86bd 67c9 793d a018 283d 5530 703d
00000260: e5f1 4abd 1828 cfbc 2ae3 b7bb b432 dd3d
00000270: a8c6 af3d 46e4 edbc 567d a2bd 0112 0abd
00000280: 7fa8 963d 440e 81bd be7c e93d 1aa5 de3b
00000290: f717 80bd 8319 76bd 3f9e 413d 9852 d6bd
000002a0: 96b9 c3bc 1a51 0a3d bb68 0b3e e852 5d3d
000002b0: 7c47 1abd 78db 613d 79d3 ae3d 36aa df3d
000002c0: df79 bfbc cc0d 8dbb ce9b e9bd 2b2a 133e
000002d0: be93 aebd a5f0 993d ead9 e33c ee1d 21be
000002e0: c887 46bd e163 aa3c 921e 853c b07f d5bd
000002f0: c857 2b3d 6cef 63bd 28c1 a73b 516c c7bd
00000300: 7adf 48bc d999 f13b 0fb5 87bc c005 7abc
00000310: e26a f0bc e98a 1b3d 6c44 eabd 5398 fc3d
00000320: 09b1 bdba f43b 55bd bbb0 ac3d 558d fc3c
00000330: 3611 12be 2b5e 2dbd 0802 a03c cce7 b4bd
00000340: 1a07 f5bc 6e48 e43d d369 d23c 8293 933d
00000350: 43ba 123e d4a2 5ebd ce20 9d3d de94 2ebd
00000360: e27c 703d 8c31 9fbd 69d7 0cbd 93ad bcbc
00000370: f995 3fbd 534e 823d 5579 7d3d b409 853d
00000380: bca6 f33b b1c9 6c3d f734 cbbd bf23 27bd
00000390: 4be8 283d 9a29 0fbd 29f1 d73d dd5d f03c
000003a0: 1717 a13c c32a bdbd 84b1 a0bd 9463 44bd
000003b0: 9d94 fdbd ea7b b4bd 2f41 a0bd 4d8f 82bc
000003c0: 720a eabb b441 33bd dc8e 5c3d 54fb 783d
000003d0: 3879 b33d 5db8 b03c 0a85 8d3c 485f 64bd
000003e0: 387c 803d 22cc 6cbc 7fbd 0ebc 1fb5 123d
000003f0: 0b17 a73d 2f5e b13c 2e02 ab3d 2b1b f83c
0.026119169 -0.060353953 -0.016926706 -0.07203956 0.020164967 0.023730895 -0.043090966 0.04181675
-0.023921719 -0.077910125 0.04944548 0.064101845 0.01667097 0.01638474 -0.0038385463 0.022949535
0.03811436 -0.03596032 0.031804133 -0.04887922 0.08290937 0.063117824 -0.025328305 0.0016264397
0.036154214 0.05800075 0.033886775 -0.03622572 -0.08661315 -0.05101489 -0.07846371 -0.008132294
-0.0533033 0.08612345 0.07379269 -0.004181857 -0.0685463 0.019286035 0.004408084 0.037578877
0.072758794 0.05816154 0.0138712395 -0.07327642 -0.014679184 -0.05306307 0.013766835 -0.077702105
-0.034567103 -0.041887105 0.05514546 -0.06374326 0.09693285 -0.048853025 -0.00015546988 0.050329346
-0.002656974 0.056504782 0.01566621 -0.020980382 -0.020806972 -0.089016266 -0.07801068 0.0025215477
-0.07734358 0.06438697 0.077734955 0.07504066 0.08486123 -0.05758189 -0.06274474 0.066883355
-0.07973839 -0.0496949 -0.0012507094 -0.0122513035 -0.04370371 -0.090803884 -0.037958965 0.024810707
-0.061210085 0.06414654 -0.052441817 0.07845847 -0.076770805 0.0057440987 0.052912638 -0.033016365
0.0073179994 -0.08056096 0.028017689 -0.06449723 -0.08597534 0.018054849 -0.07493228 0.075794965
-0.043304652 0.04189063 0.029744973 0.04027418 0.022614308 0.0012043543 0.011594883 0.039980344
0.011624691 -0.019147918 0.024156962 -0.009188555 0.02023367 -0.05197071 0.004223986 0.057250082
-0.033165377 0.01201933 0.047489498 0.003264732 0.047161106 -0.042611867 0.04123449 -0.05531746
0.12691438 0.10230806 0.11894172 0.07520062 -0.03576229 0.034147307 0.03202319 0.10444233
-0.009980301 -0.016759628 -0.006263354 -0.101398945 -0.119198166 -0.0998468 -0.07558968 0.02257582
0.012526531 0.050330605 0.044281423 -0.042341236 -0.05502943 0.06164795 -0.04110582 0.04309895
0.062354974 0.048986413 0.013004151 -0.038604315 -0.06553512 0.060983088 0.04103911 0.058639843
-0.049547095 -0.025287673 -0.005611797 0.108006865 0.085828125 -0.029039513 -0.07934062 -0.033708576
0.07356357 -0.06301549 0.11400746 0.006794584 -0.06254571 -0.060082924 0.047270056 -0.10464972
-0.023892205 0.03376875 0.1361417 0.054034144 -0.03766583 0.055140942 0.08536429 0.10921137
-0.023373542 -0.004304623 -0.114066705 0.14371555 -0.08524273 0.075166024 0.02781387 -0.15734074
-0.048469335 0.02079958 0.016249929 -0.10424745 0.04183176 -0.055648252 0.0051194616 -0.097374566
-0.012260312 0.0073730764 -0.016565828 -0.01526016 -0.02934784 0.037974272 -0.11438832 0.12333741
-0.0014472316 -0.05205913 0.08432146 0.030829111 -0.14264378 -0.042326134 0.019532219 -0.08833274
-0.029910613 0.11146627 0.025685227 0.07205869 0.14328866 -0.054354504 0.076722726 -0.04262244
0.058712848 -0.07773122 -0.03438512 -0.023031985 -0.046773884 0.063625954 0.06188329 0.06495991
0.007435648 0.057809535 -0.099222116 -0.040805575 0.041237157 -0.034951784 0.105440445 0.029341633
0.01966433 -0.09236672 -0.078463584 -0.047946528 -0.12381861 -0.08812697 -0.07824933 -0.015937472
-0.0071423585 -0.04376383 0.05384718 0.06078656 0.08763355 0.021572286 0.017275352 -0.05575493
0.06273693 -0.014452966 -0.008712172 0.03581726 0.08158692 0.021651356 0.08350025 0.030286392

fc2.bias f4 [84]
00000000: 175f 8bbd 9574 cd3d 79d1 8e3c b649 493d
00000010: fde7 183d 313e 67bd f6c5 afbd b18b 6cbb
00000020: c58e 8abd d1e1 9cbd 565c 263c 897f f83d
00000030: fe75 f6bc fabb ce3d 5eae bc3d d51f 7e3d
00000040: a3c8 143e e1b6 e23c b4b4 653d 5f3a 5abd
00000050: a143 3d3e 97f3 0c3e 400d 9abd 457d 343c
00000060: abf2 8e3c 748a 74bd eb69 babc 1df9 90bd
00000070: ac55 213d d6e4 86bd 7763 033e ebbf 583c
00000080: 180e f93d 50f3 bcbd a100 7e3b 9701 eebc
00000090: 82f6 d33c 1650 f63c 4592 853d 47d5 4abd
000000a0: 8388 cc3c c6cc 093e d519 fa3d cd3c bc3d
000000b0: 1f95 79bd 634e 0abd dff3 ecbc c84a b33d
000000c0: 440c d4bc 0b14 273d f596 90bd ad75 19bc
000000d0: e112 bbbc 4832 56bd 26b4 a8bd 3c3b 66bd
000000e0: fa0d 2f3d 95a2 5dbd 43db 4abc b6e6 0b3c
000000f0: 7430 7bbd 791b 093d 80b0 bf3d 917b 993d
00000100: 0322 68bd 4315 513d e16d bebc 045f ae3d
00000110: 0f61 e8bc 78f3 e3bb 1f02 363d c60c 7cbd
00000120: ccb9 c4bd 8519 65bd 5f3b a73d f502 74bd
00000130: 2f16 4d3c 31d7 86bc 7cba 73bd 51cd b13b
00000140: f500 51bd 8366 293d 5223 a3bd 1e34 b33c
-0.06805246 0.10032002 0.017433869 0.04914256 0.037330616 -0.056455795 -0.0858268 -0.0036094005
-0.067655124 -0.076602586 0.010153851 0.121337004 -0.03008556 0.100944474 0.092129454 0.062042076
0.14529662 0.027675094 0.056080535 -0.053278323 0.1848283 0.13764797 -0.075220585 0.011016195
0.017449697 -0.05970235 -0.022755584 -0.070787646 0.039388344 -0.06586616 0.12830912 0.013229351
0.12160891 -0.09226096 0.00387577 -0.029053492 0.02587438 0.030067485 0.06522039 -0.049519803
0.024967438 0.13457021 0.12211958 0.09191284 -0.06093323 -0.03376616 -0.02892488 0.08754498
-0.025884755 0.0407906 -0.07060043 -0.009366435 -0.02283615 -0.052294046 -0.082374856 -0.056208834
0.04273794 -0.05411013 -0.012381378 0.0085388925 -0.061325505 0.033473466 0.093598366 0.074942715
-0.05667306 0.051045667 -0.023245754 0.085142165 -0.028366594 -0.006956514 0.044435617 -0.06153562
-0.096057504 -0.05593254 0.08165621 -0.059573133 0.012517496 -0.016460033 -0.059504017 0.005426087
-0.051026303 0.04135753 -0.07965721 0.021875437

fc3.weight f4 [2, 84]
00000000: 2ffc cebd 7e73 ca3e a476 8abe 13d4 a4be
00000010: 4268 1e3d 3321 94bc 2382 7bbd 5e03 07be
00000020: 6cf8 acbd 9aa2 f6bc c5d5 88be de74 0bbd
00000030: e2fb 833c 317f 803e e427 c8bc cd37 72be
00000040: a2cb a73e d0ba aa3d b521 ea3d ed76 423d
00000050: 9057 f0bb 3963 903e 5125 15be f933 16be
00000060: d5e2 013e 181b d23d 1121 e83d 4e54 063d
00000070: 8774 003e 8497 89bd 0337 963e 0f91 1bbe
00000080: 9040 df3e f558 27be 2f74 36be 9785 52bc
00000090: ae77 62be 8d70 c7bd 16f7 233d 81f9 76be
000000a0: 082d d53b eb63 263e 8807 d03e 590e 853e
000000b0: 8fd5 843d f988 5ebe 63a8 bd3b 0241 debd
000000c0: 9cc8 343e c22b d1be cd59 b83d 28f3 92ba
000000d0: b6be 2fbe 2776 40be b6e3 c5bc 9624 e13d
000000e0: b862 6abc 0794 6c3c c577 363d 65e7 2f3e
000000f0: b575 003e 402c 3c3e ce13 403e 8317 55be
00000100: 0ae8 f3bc f59d 8ebe 486d ab3d 3678 363b
00000110: ce72 93bd 5db3 aebc 3c3f 073e 3c0c 293d
00000120: f8c9 27bd acc2 993d 597c c33d 8e7b 47bd
00000130: 5d01 803e ab25 1bbe d15e d03d 65fc a63d
00000140: 46aa 0e3e 650a c9be 8fa7 b5bd d26d f53c
00000150: 07ff 02bc 7056 903e 7e6b 39b9 9f73 d73d
00000160: d1d1 95bc d940 053e a02b 1ebc f1d4 ee3d
00000170: 1d31 833c 819c 2f3d 5469 a4bd 24c7 b4be
00000180: 668f c9bd 7a50 e8bd f873 983e b350 19bf
00000190: c0c0 ab3e 2fcb 93bd 7b7f a8bd 9b2a bcbd
000001a0: 7174 0dbf 3570 34be 2bc6 613e 50cd 5c3e
000001b0: b91b 613e 3661 01bd 3dbc 04bd b074 443b
000001c0: 6949 95be 0e73 86be 94e4 e33d 029a df3d
000001d0: 282f 83bd 9be1 37bd 7984 5b3e 7c83 82be
000001e0: 54ae fabd 034c d23d d62d f23a ff6c b4bd
000001f0: 475e cc3d f828 7fbe 4049 8ebd 7d3d 2d3e
00000200: 0b24 c83d a9b6 a6bd c9df 473e da99 5abe
00000210: 48a9 763d cd42 9e3d 6247 b63d c131 7f3d
00000220: 7ded 1cbd 6562 cf3c a4de bc3d f120 9d3d
00000230: dfa6 d8bd 5f4f 193e 8d79 d33d 4ccb 093e
00000240: 7ed8 2cbe 138a fb3d 049e e23d 6c8e fa3a
00000250: eb56 d7bd 08ec b4bd 6690 84bd 523c 0e3f
00000260: d6fd cbbc 796d 9e3d 79c5 aa3d 4a23 363d
00000270: 4490 91bd 32b6 b9bd 5b22 bcbd d7e2 093e
00000280: 861d d73d 0553 d1bd dc78 963d 2eed a0bd
00000290: ca29 9cbd 8dd9 b23d 1e33 f0bd f007 7bbd
-0.10106694 0.3954124 -0.2704364 -0.3219305 0.038673647 -0.018082237 -0.061403405 -0.13184878
-0.0844582 -0.030106831 -0.26725593 -0.034047 0.016111318 0.2509704 -0.024433084 -0.23654099
0.32772547 0.08336413 0.1143221 0.047476698 -0.007334657 0.282007 -0.14565016 -0.14668263
0.12684186 0.10259074 0.11334432 0.032795243 0.12544452 -0.067183524 0.29338846 -0.15192054
0.43603945 -0.16342528 -0.17817758 -0.012849233 -0.22115967 -0.09738264 0.04003056 -0.24118616
0.0065056123 0.16249053 0.40630746 0.2598751 0.064860456 -0.21731938 0.0057878955 -0.10852243
0.17654651 -0.40853697 0.09001503 -0.0011211382 -0.17162594 -0.18795072 -0.024156433 0.10993306
-0.014305763 0.014439589 0.044547815 0.17178114 0.12544902 0.18376255 0.18757555 -0.2080975
-0.02977373 -0.27854887 0.08370453 0.0027842647 -0.07199632 -0.021325761 0.13207716 0.041271433
-0.040964097 0.07507834 0.09545202 -0.048701815 0.2500104 -0.15151088 0.10174335 0.08153609
0.13932142 -0.39265743 -0.0886985 0.029959593 -0.007995374 0.28190947 -0.00017683019 0.105201
-0.018288525 0.13013019 -0.009653956 0.11661709 0.01601463 0.042873863 -0.08027902 -0.35308182
-0.09841804 -0.11343475 0.29775977 -0.5988876 0.33545494 -0.072164886 -0.0822744 -0.09187814
-0.552558 -0.17620929 0.22048251 0.21562696 0.21983232 -0.03158685 -0.03240608 0.0029976778
-0.2915757 -0.26259655 0.11127582 0.109180465 -0.06405479 -0.04489289 0.21437253 -0.2549094
-0.12240282 0.10268404 0.0018476795 -0.08809852 0.099789195 -0.24917972 -0.06947565 0.16917987
0.097725 -0.081403084 0.19518961 -0.21347752 0.060220033 0.07727585 0.08900334 0.06230331
-0.038312424 0.025315473 0.09222153 0.07672299 -0.10578703 0.14971684 0.10325918 0.13456458
-0.1687946 0.12282195 0.11065295 0.0019115931 -0.10514625 -0.08834082 -0.06472854 0.5556079
-0.024901312 0.07735724 0.08338446 0.044467248 -0.071075946 -0.09067954 -0.0918624 0.13465439
0.10503678 -0.10220913 0.07347271 -0.078577384 -0.07625158 0.08732901 -0.117285 -0.061286867

fc3.bias f4 [2]
00000000: 3247 d23e a850 813e
0.41069943 0.25256848
