src/models/bc.onnx (onnx, 332859 bytes, 10 tensors)

conv1.weight f4 [6, 5, 5, 5]
0	0xbd1af10e	-0.037827544
1	0xbd714d6b	-0.058911722
2	0xbd8479fc	-0.06468579
3	0xbd8b9bd5	-0.06816832
4	0xbd48d9e6	-0.04903593
5	0x3d73cedf	0.05952346
6	0x3b4852bd	0.0030566894
7	0xbd96187e	-0.0732889
8	0xbcbf5143	-0.023354178
9	0x3d84c9e0	0.06483817
10	0xbdb32f24	-0.08749226
11	0xbd086ea7	-0.03330865
12	0xbd4de5ea	-0.05026809
13	0xbcb787da	-0.022403646
14	0x3d2237bc	0.039603934
15	0x3c3e5218	0.011616252
16	0xbc764e60	-0.0150333345
17	0xbdb5d723	-0.08878925
18	0x3daaacf2	0.08333768
19	0x3c2c1fec	0.010505658
20	0xbda12190	-0.0786773
21	0x3da61a72	0.08110513
22	0x3c30478c	0.010759246
23	0x3d9493a3	0.07254722
24	0x3d8e1328	0.069372475
25	0xbd9f5cc7	-0.07781368
26	0xbce39451	-0.027780684
27	0xbd30fe8a	-0.043211497
28	0x3d5e76ac	0.054312393
29	0xbd9c614c	-0.076357454
30	0x3cfb678d	0.030689025
31	0xbd2a848a	-0.041630305
32	0x3da6eefe	0.08151053
33	0xbc4b2a1d	-0.012400177
34	0xbd9453c9	-0.07242543
35	0x3d31cf8f	0.043410834
36	0xbc455771	-0.012044773
37	0xbd205766	-0.03914585
38	0x3d21ce4f	0.03950339
39	0xbd23f747	-0.040030744
40	0x3d54c3a4	0.05194439
41	0x3c953224	0.018212385
42	0x3d10ac12	0.03532035
43	0x3b131afd	0.0022446506
44	0xbce51f25	-0.027968952
45	0xbd8778c1	-0.06614829
46	0xbc9629ca	-0.018330473
47	0xbcb63af9	-0.022244917
48	0xbd58a5ed	-0.052892614
49	0xbd2a3a4f	-0.041559514
50	0xbce9d85a	-0.028545547
51	0x3c9adee6	0.018905114
52	0xbd6f7903	-0.058465015
53	0xbd487df6	-0.04894825
54	0xbc9470b3	-0.018120145
55	0x3d8f3e13	0.069942616
56	0x3ce8c48e	0.028414037
57	0xbb3fdfbe	-0.0029277648
58	0x3d1acb94	0.037791803
59	0xbd91a0ec	-0.071107715
60	0x3c343d39	0.011000925
61	0x3c23197e	0.009954808
62	0xbdaffbee	-0.08592974
63	0xbc83b43b	-0.016077152
64	0x3cfd4974	0.030918814
65	0x3d497c65	0.049190897
66	0xbd91acbf	-0.07113027
67	0xbc0172e9	-0.007900932
68	0x3d944227	0.0723918
69	0x3bbeb440	0.0058198273
70	0xbd13d889	-0.036095176
71	0xbd464ff1	-0.04841608
72	0x3d469465	0.048481364
73	0x3d1099ad	0.035302807
74	0xbd98d26a	-0.07462008
75	0xbcbc6848	-0.022998944
76	0xbc857186	-0.016289484
77	0x3d15b9b8	0.03655407
78	0x3d3ec4ae	0.046574287
79	0xbceb6698	-0.028735444
80	0x3be90bdd	0.00711201
81	0x3cdd543a	0.027017701
82	0x3d18ab35	0.03727265
83	0xbc3c6ab7	-0.011500052
84	0x3ce8d3bc	0.028421275
85	0x3d2be723	0.041968476
86	0xbd09af20	-0.033614278
87	0xbcea1fef	-0.02857968
88	0x3d34bb20	0.04412377
89	0xba37af3e	-0.0007007009
90	0xbd494eb2	-0.049147315
91	0x3cd4e8de	0.025989946
92	0x3c161be4	0.009161923
93	0xbb9ce198	-0.004787635
94	0xbcdcbcd6	-0.026945513
95	0xbdaad3ed	-0.08341203
96	0x3d7a3c9d	0.06109296
97	0x3ce14834	0.02750025
98	0x3d1a6169	0.037690554
99	0x3db2bebb	0.08727785
100	0x3d4e8524	0.05041994
101	0xbdaaeeef	-0.08346354
102	0xbc8b9ba8	-0.017041996
103	0xbd525306	-0.05134871
104	0xbd011906	-0.031518005
105	0x3ca4e3fa	0.020128239
106	0x3bdbe83c	0.006711034
107	0xbdad135e	-0.084509596
108	0x3d5a7fdf	0.053344604
109	0x3c8e4ad7	0.01736967
110	0x3d3e6473	0.046482515
111	0x3cf8be4f	0.030364184
112	0x3d108a3e	0.035288088
113	0xbda2660b	-0.079296194
114	0x3da8fc0d	0.082512
115	0xbdb4471b	-0.08802625
116	0xbd4333c2	-0.047656782
117	0xbd38ae9f	-0.045088407
118	0x3d8abfce	0.06774865
119	0xbc828bc1	-0.01593578
120	0x3b4f17a6	0.003159979
121	0x3d766045	0.060150404
122	0x3d34f2ef	0.044176992
123	0xbdb89b3d	-0.09013984
124	0xbd422a88	-0.047403842
125	0x3db52725	0.08845357
126	0x3cba57f6	0.022747021
127	0x3c9a888a	0.018863935
128	0xbd81ba2c	-0.063343376
129	0xbd8d44a0	-0.06897855
130	0xbd9fdebd	-0.07806156
131	0x3d388866	0.045051955
132	0xbd28fe3b	-0.041258078
133	0xbd6580c9	-0.056031022
134	0xbd62a588	-0.055333644
135	0xbd858887	-0.06520181
136	0x3d411a24	0.04714407
137	0xbcf74c12	-0.03018764
138	0x3ca4c5a3	0.020113772
139	0x3d9339a1	0.07188726
140	0x3da0560e	0.07828914
141	0xbb8614bd	-0.0040918277
142	0xbd9a65ed	-0.07538972
143	0xbd23b122	-0.03996385
144	0xbd3378d1	-0.04381639
145	0xbcae070d	-0.021243596
146	0xbdb01c39	-0.08599133
147	0xbdae54d3	-0.08512273
148	0xbd9e072a	-0.0771621
149	0xbdaea0b6	-0.08526747
150	0x3d06face	0.03295403
151	0x3dbd5360	0.09244418
152	0x3d133c86	0.03594639
153	0xbc5687c4	-0.0130938925
154	0xbd8d724f	-0.06906568
155	0x3d304bd6	0.043041073
156	0x3d36c6f5	0.044623334
157	0xbcc0af8e	-0.023521211
158	0x3d9c8e0f	0.07644283
159	0xbc942a38	-0.018086538
160	0xbc5d4ac6	-0.013506597
161	0xbd668f7e	-0.05628919
162	0xbb49a925	-0.0030770984
163	0xbdaba25e	-0.083805785
164	0x3c927535	0.017878154
165	0xbbe8948c	-0.0070977863
166	0x3d9c372e	0.07627712
167	0xbd0ab739	-0.03386614
168	0xbd7668ae	-0.060158424
169	0x3d8e573e	0.06950234
170	0xbd461790	-0.048362315
171	0x3d8bebf7	0.06832116
172	0xbd139e73	-0.03603978
173	0x3cb64881	0.02225137
174	0x3d70fc8f	0.05883461
175	0xbb91f3bd	-0.0044541047
176	0x3c013819	0.00788691
177	0xbd04fa74	-0.032465413
178	0xbd84f808	-0.06492621
179	0x3d6cba86	0.05779507
180	0x3d0a4e51	0.033766095
181	0xbc82da32	-0.015973184
182	0xbd59ccb6	-0.053173743
183	0xbd6946aa	-0.056952156
184	0xbd6d365c	-0.05791317
185	0x3da7537e	0.08170222
186	0x3c4eff5e	0.0126341265
187	0x3a01636f	0.0004935776
188	0x3d8c905e	0.06863473
189	0x3d3404d7	0.043949928
190	0x3c7c3438	0.015393309
191	0xbd24b5b4	-0.040212348
192	0xbda2912c	-0.079378456
193	0x3d940d34	0.07229081
194	0xbd284c7b	-0.041088562
195	0xbc50bb02	-0.012739899
196	0x3c91ba57	0.01778905
197	0x3d1625c3	0.036657106
198	0x3d19fdcc	0.037595555
199	0xbd77091e	-0.06031143
200	0x3dbce9c2	0.09224273
201	0xbd8f7445	-0.070045985
202	0x3d98263b	0.07429167
203	0xba85fd5e	-0.0010222604
204	0x3d518535	0.051152427
205	0x3c67dca2	0.014151724
206	0x3ca4d5b3	0.020121431
207	0x3b69fd7f	0.0035704074
208	0x3d49fda1	0.049314145
209	0x3cc16200	0.0236063
210	0xbd815b57	-0.0631625
211	0xbd20c9cc	-0.03925495
212	0x3d0b819c	0.034059152
213	0x3cd5fbbc	0.026121013
214	0xbdae9f24	-0.085264474
215	0x3d18f955	0.037347157
216	0xbd491792	-0.049094744
217	0xba91b4ac	-0.0011116466
218	0xbc694f3e	-0.014240084
219	0xbd85935d	-0.06522248
220	0x3d65eb8d	0.05613284
221	0xbbb265d1	-0.0054442664
222	0x3becb376	0.007223542
223	0xbda94954	-0.08265939
224	0xbd8d87b6	-0.069106504
225	0xbd924a42	-0.0714307
226	0xbd962a60	-0.07332301
227	0xbc611213	-0.013737219
228	0xbd927510	-0.07151234
229	0x3c7f809c	0.015594628
230	0x3d284190	0.04107815
231	0x3d8b0662	0.06788327
232	0x3ba918d7	0.005160432
233	0xbc77efff	-0.015132903
234	0x3cb2a37b	0.02180647
235	0xbd9e255e	-0.07721971
236	0x3b066169	0.0020504838
237	0x3d747e1b	0.059690576
238	0x3d52c986	0.05146172
239	0x3cd5497c	0.026036017
240	0xbd02f82f	-0.031974968
241	0xbd5545a8	-0.052068383
242	0xbd5456fd	-0.05184077
243	0x3ce536cd	0.027980233
244	0x3c7bc214	0.015366096
245	0xbdad2614	-0.084545285
246	0xbcedb27e	-0.029015776
247	0xbd7243d0	-0.059146702
248	0x3d31bfe3	0.043395888
249	0xbd8afde3	-0.06786706
250	0x3dbd4bc5	0.092429675
251	0x3e35cf01	0.17754747
252	0x3d355b01	0.04427624
253	0x3b48604a	0.003057497
254	0xbd0bf407	-0.03416827
255	0x3d86a624	0.065746576

conv1.bias f4 [6]
0	0xbd73d151	-0.05952579
1	0x3db023c2	0.0860057
2	0x3e523dab	0.20531337
3	0x3c91be62	0.017790977
4	0xbe978564	-0.29593956
5	0xbd8d7207	-0.069065146

conv2.weight f4 [16, 6, 5, 5]
0	0xbc06f1d5	-0.008236368
1	0xbc87e91c	-0.016590647
2	0xbd142467	-0.03616753
3	0x3d78e88f	0.06076866
4	0xbd406f6e	-0.046981268
5	0xbc2a078b	-0.010377775
6	0x3d88157e	0.06644724
7	0x3d26771a	0.040640928
8	0x3d143622	0.036184438
9	0xbd9ec028	-0.07751495
10	0xbd0b5785	-0.034019012
11	0xbd7e7a34	-0.06212826
12	0x3d5dbfd4	0.05413802
13	0xbd91e079	-0.07122893
14	0x3ceb348d	0.028711582
15	0xbd815399	-0.06314773
16	0x3cf52bf6	0.029928189
17	0xbd6d1999	-0.05788574
18	0x3d4bd958	0.049767822
19	0xbb8dd940	-0.0043288767
20	0xbc23be65	-0.009994124
21	0xbd094b1f	-0.033518907
22	0x3d51eb3c	0.051249728
23	0xbd13e28b	-0.03610472
24	0x3cea76ce	0.028621104
25	0xbc67d144	-0.014149014
26	0x3cb9c64c	0.022677563
27	0x3bb65479	0.005564269
28	0xbd71c4a7	-0.059025433
29	0xbc8b3a30	-0.01699552
30	0x3c0c82f9	0.008576148
31	0xb983d4d5	-0.0002514484
32	0x3d1331a8	0.035936028
33	0xbd7151b7	-0.05891582
34	0xbd7d765e	-0.061880462
35	0x3d0318a5	0.032005925
36	0xbd03249f	-0.032017346
37	0xbd154e21	-0.036451463
38	0x3d41fd47	0.047360685
39	0xbd504766	-0.05084934
40	0x3bead032	0.007165932
41	0xbd878622	-0.06617381
42	0xbd11cc61	-0.0355953
43	0xbd48f424	-0.049060956
44	0xbd407692	-0.046988077
45	0x3d3883fb	0.04504774
46	0xbd6da15f	-0.058015224
47	0xbd9a35a0	-0.075297594
48	0xbba3ddeb	-0.00500082
49	0xbd4cb19c	-0.04997407
50	0xbd8e0d0d	-0.06936083
51	0xbcbae4a5	-0.022814104
52	0xbc857e19	-0.01629548
53	0xbd36a2fc	-0.044589028
54	0xbd34d51a	-0.044148542
55	0x3d71376f	0.058890756
56	0xbd96ca51	-0.073628075
57	0x3d466b56	0.048442207
58	0x3d504273	0.05084462
59	0xbb24cbfb	-0.0025145996
60	0xbc815c3c	-0.015791051
61	0xbd774539	-0.06036875
62	0x3d7fe24c	0.062471673
63	0x3d9d68ed	0.07686029
64	0x3d96b948	0.07359558
65	0x3d5e138f	0.05421787
66	0xbd21da92	-0.039515086
67	0xbcfd782d	-0.030941093
68	0xbd43ee53	-0.047834706
69	0xbd5c29dc	-0.053750858
70	0x3d996f80	0.0749197
71	0x3d6d81f8	0.057985276
72	0x3d16c1e5	0.036806006
73	0xbda0888f	-0.078385465
74	0x3d5f879f	0.054572698
75	0xbd2b3b3f	-0.04180455
76	0x3c23112c	0.009952825
77	0xbbdecb40	-0.0067991316
78	0xbcde0ab1	-0.027104707
79	0x3d5d4926	0.054024838
80	0x3bb4a10a	0.0055123614
81	0x3c218daa	0.0098604355
82	0x3c89a94c	0.01680436
83	0x3da5f92c	0.081041664
84	0x3d18bcb4	0.037289336
85	0x3d16c6f2	0.036810823
86	0xbd870afc	-0.06593892
87	0xbd926867	-0.071488194
88	0xbd52b9ee	-0.051446848
89	0x3d4038bd	0.04692911
90	0xbc1f2e21	-0.009715588
91	0xbd4bf251	-0.049791638
92	0xbd6c32ad	-0.057665516
93	0xbd9fc883	-0.078019165
94	0x3c23e27b	0.010002728
95	0xbc9f396c	-0.01943656
96	0xbcdf13ea	-0.027231175
97	0xbd7a7ae9	-0.061152373
98	0xbd1b82e7	-0.037966635
99	0x3dab8418	0.08374804
100	0x3d27df85	0.04098465
101	0x3c30a79e	0.010782151
102	0xbbb4a2f0	-0.0055125877
103	0xbd804b82	-0.06264402
104	0xbd8402f1	-0.064458735
105	0x3d672b70	0.05643791
106	0x3c10298c	0.008798968
107	0xbd50fe68	-0.05102387
108	0x3d7da37c	0.06192349
109	0x3d104aed	0.035227705
110	0x3c893520	0.016748965
111	0xbcd2ac55	-0.02571694
112	0xbd9c3120	-0.07626557
113	0xbb48ae8c	-0.0030621616
114	0x3d18c360	0.0372957
115	0x3ce28544	0.027651437
116	0x3c9569fe	0.018239018
117	0x3b72674f	0.0036987846
118	0xbd95698f	-0.07295524
119	0xbd430008	-0.04760745
120	0x3d642a4d	0.055704404
121	0x3ceba3a4	0.028764553
122	0x3d1d694d	0.0384305
123	0xbd94de1d	-0.07268927
124	0x3cf771e2	0.03020567
125	0x3d60596a	0.054772772
126	0xbd7f383e	-0.062309496
127	0xbd45eb64	-0.04832019
128	0xbcde4f57	-0.027137442
129	0x3d9265e8	0.07148343
130	0x3da517bd	0.08061168
131	0xbd21c113	-0.03949077
132	0xbd2c4457	-0.04205736
133	0x3d88820d	0.0666543
134	0xbd963358	-0.07334012
135	0xbc231e8f	-0.009956016
136	0x3c85563c	0.016276471
137	0x3bf95851	0.007609405
138	0x3c274dc3	0.010211411
139	0x3da15f5d	0.07879517
140	0xbd07438e	-0.03302341
141	0xbd3e2fbd	-0.046432246
142	0xbbf0d19e	-0.007349207
143	0xbd8cfde2	-0.06884362
144	0xbd216725	-0.039405007
145	0xbadd06f2	-0.0016863032
146	0xbcaaa8b0	-0.02083239
147	0xbcd98785	-0.026553879
148	0x3d2407b5	0.040046412
149	0xbcfd6825	-0.030933449
150	0xbd94e4c4	-0.07270196
151	0x3d23839b	0.03992043
152	0x3d919e2d	0.07110248
153	0xbd8ea30a	-0.06964691
154	0xbc872b26	-0.016500067
155	0x3d2aefd5	0.041732628
156	0xbc98d5fa	-0.01865672
157	0xbbe7b47a	-0.007071075
158	0x3c348949	0.011019059
159	0x3d530e7f	0.051527496
160	0x3d04ded3	0.032439064
161	0x3d6c60dd	0.057709564
162	0xbcd362f2	-0.025804017
163	0x3d88b818	0.06675738
164	0x3c4fcce8	0.012683131
165	0xbd359ec2	-0.044340856
166	0xbd0b2ed9	-0.033980224
167	0xbd21426d	-0.03936999
168	0x3d0b8d91	0.034070555
169	0xbda6f386	-0.08151917
170	0x3d804c1e	0.06264518
171	0x3d267118	0.0406352
172	0xbd7f927b	-0.062395554
173	0x3d8397d7	0.064254455
174	0x3cedebb6	0.02904306
175	0x3cc4ff4c	0.024047516
176	0x3c569cc4	0.013098899
177	0x3db5072e	0.0883926
178	0xbd6baf9d	-0.057540525
179	0x3d679477	0.05653807
180	0x3d7f0ad0	0.06226617
181	0x3db20f9d	0.08694384
182	0x3d2db3f6	0.042407952
183	0xbb426758	-0.0029663648
184	0xbd9bd65b	-0.076092444
185	0x3ae064cb	0.0017119882
186	0x3dbd78db	0.09251567
187	0x3d7350c0	0.05940318
188	0x3d91c0ae	0.07116829
189	0xbd68c658	-0.05682978
190	0x3d2864d8	0.041111797
191	0xbd497900	-0.04918766
192	0xbd9ef94c	-0.07762393
193	0x3cf1a781	0.029498817
194	0xbd807b15	-0.06273476
195	0xbd5cf565	-0.053944964
196	0xbd951108	-0.07278639
197	0xbbf69a85	-0.0075257444
198	0x3d802935	0.062578596
199	0x3d27eb21	0.04099572
200	0x3df4de2c	0.119564384
201	0x3e0077ba	0.12545672
202	0xbdf65656	-0.12028186
203	0xbdf62d63	-0.120203756
204	0xbd2dcf69	-0.04243413
205	0x3e043175	0.12909491
206	0x3e3e933e	0.18610856
207	0xbc97d466	-0.018533897
208	0xbe02da2f	-0.12778543
209	0xbda10a21	-0.0786326
210	0x3db0ea1d	0.086384036
211	0x3db6c6dd	0.08924649
212	0xbd931e71	-0.071835406
213	0xbe20c5f4	-0.15700513
214	0x3d09cf66	0.033645056
215	0x3cd2705e	0.025688346
216	0x3da7cce5	0.081933774
217	0xbd7b3f02	-0.061339386
218	0xbc29d715	-0.010366221
219	0x3c7d4f90	0.015460864
220	0x3def8589	0.11695392
221	0x3d77ae74	0.060469106
222	0xbdc866da	-0.097852424
223	0x3d1226ef	0.03568166
224	0x3dae3a35	0.08507196
225	0x3de937dd	0.11387608
226	0x3d8a3aa1	0.06749464
227	0xbdde565f	-0.10856318
228	0x3cb8724c	0.022515438
229	0x3d987cb2	0.07445659
230	0xbc34017a	-0.01098668
231	0x3b48b657	0.003062626
232	0xbdd32dfc	-0.10311505
233	0xbda3ae03	-0.079921745
234	0x3dac005c	0.08398506
235	0x3dfd68e9	0.12373526
236	0x3d366f04	0.044539467
237	0xbd9878d4	-0.07444921
238	0x3cde69d0	0.027150065
239	0x3dab9900	0.08378792
240	0xbb34d0c1	-0.0027590247
241	0xbd852241	-0.06500674
242	0xbd9bf0d8	-0.07614297
243	0x3ddd93ed	0.1081923
244	0x3e020adf	0.1269946
245	0xbd111e4e	-0.03542929
246	0x3dbe8797	0.093032055
247	0x3c078fc8	0.008274026
248	0x3d5be3e0	0.053684115
249	0x3d6eab32	0.058268733
250	0x3e3bce63	0.18340449
251	0xbd388c3e	-0.04505562
252	0xbeaa398d	-0.33247033
253	0xbeba8b1b	-0.36434254
254	0xbdbe605e	-0.09295724
255	0x3e7e0411	0.24806239

conv2.bias f4 [16]
0	0xbd640a6a	-0.055673994
1	0x3e089832	0.13339308
2	0x3935c0fd	0.00017333399
3	0xbd513159	-0.051072452
4	0xbda13c6c	-0.07872853
5	0xbd9c36a2	-0.07627608
6	0xbd9fc547	-0.078012995
7	0xbd000017	-0.031250086
8	0x3c868069	0.016418653
9	0x3c7bc3cd	0.015366507
10	0x3d020b55	0.03174909
11	0xbd8dfc2e	-0.06932865
12	0x3d5adff0	0.05343622
13	0x3ddcfd45	0.10790495
14	0x3c6adb72	0.014334546
15	0xbd83e09b	-0.064393245

fc1.weight f4 [120, 576]
0	0x3cb403e8	0.021974519
1	0x3ce5e196	0.02806167
2	0xbcec410e	-0.028839614
3	0xbd0c1f89	-0.03420976
4	0xbcb65cc8	-0.022261038
5	0xbccf3849	-0.025295394
6	0x3cb74121	0.022369923
7	0x3ca8590c	0.020550273
8	0x3ced81f2	0.028992627
9	0x3bbf93fd	0.005846499
10	0x3d116086	0.035492443
11	0x3bec0448	0.007202659
12	0xbd0358f9	-0.032067273
13	0xbd2618ce	-0.040551
14	0xbd15a69b	-0.03653584
15	0xbd033b0e	-0.03203874
16	0xbcca4ae6	-0.024693917
17	0x3cd44de7	0.025916053
18	0xbd0b9088	-0.034073383
19	0xbbf61806	-0.007510188
20	0xbc50e63a	-0.012750203
21	0xbd01fbff	-0.031734463
22	0x3cf1e98b	0.029530307
23	0x3d0e0310	0.03467089
24	0x3bac9d66	0.005267787
25	0x3990415d	0.0002751452
26	0x3c93c7bb	0.018039575
27	0xbc065e24	-0.008201156
28	0x3c5cea40	0.013483584
29	0x3d041b01	0.032252315
30	0x3c269c85	0.010169153
31	0xbcde6e82	-0.027152304
32	0x3d1a6751	0.037696186
33	0xbd1c48dc	-0.03815542
34	0x3c89fd5f	0.01684445
35	0x3d0e9eb1	0.03481931
36	0x3b7ac4ef	0.0038264354
37	0xbc96faf8	-0.018430218
38	0xbd186bf1	-0.037212316
39	0xbd050c88	-0.032482654
40	0x3cf5f2e6	0.03002305
41	0xbd304e10	-0.043043196
42	0x3b022ec4	0.00198643
43	0x3cb56d80	0.02214694
44	0xbc392f1d	-0.011302737
45	0x3ceaf0e0	0.028679311
46	0x3ca4c70f	0.02011445
47	0x3c705eed	0.01467107
48	0x3aadcf97	0.0013260719
49	0xbc620173	-0.013794291
50	0x3c8665eb	0.01640602
51	0x3ce30f96	0.027717393
52	0x3cf73cbf	0.030180333
53	0x3cc66da2	0.024222199
54	0xbce555bc	-0.027994983
55	0xbccff4b7	-0.025385244
56	0x3d0d54ad	0.03450458
57	0xbc9d08c0	-0.019169211
58	0x3cf0e691	0.029406818
59	0xbd084613	-0.033269953
60	0xbc4d1f64	-0.012519691
61	0xbba4669a	-0.005017114
62	0xbc87f028	-0.016594008
63	0xbd3a120f	-0.04542738
64	0xbca3426d	-0.019929135
65	0x3d1db72b	0.03850476
66	0xbcb81d80	-0.022475004
67	0xbc5e3ea0	-0.013564736
68	0x3cb729ac	0.022358738
69	0x3be212bc	0.006899206
70	0x3d08f264	0.033434287
71	0xbb3c0565	-0.0028689739
72	0x3c16ecc4	0.009211723
73	0xbbfd5bd8	-0.007731896
74	0xbcd035ee	-0.02541634
75	0xbd2743d8	-0.040836185
76	0x3c902680	0.017596483
77	0x3bfa6d41	0.0076424186
78	0xbd275a92	-0.04085786
79	0x3d01ef09	0.031722102
80	0x3cbb4f86	0.022865068
81	0xbc98c02c	-0.018646322
82	0xbcac2b05	-0.021016607
83	0xbd069313	-0.032855105
84	0xba979635	-0.0011565151
85	0xbd00c74e	-0.03144007
86	0xbc67e075	-0.014152636
87	0x3d0b578a	0.03401903
88	0x3b9b0c7f	0.0047317143
89	0xbc9c0812	-0.019046817
90	0xbc69b856	-0.0142651405
91	0x3c456773	0.01204859
92	0x3cfc0b07	0.030766977
93	0xbd207a48	-0.039179116
94	0x3d03ea45	0.03220584
95	0xbcd1b98e	-0.025601175
96	0xbcc6cd0c	-0.024267696
97	0x3cf31220	0.029671729
98	0x3d104d59	0.035230014
99	0x3c0378ac	0.008024376
100	0x3ca12580	0.019671202
101	0xbd0d7b3a	-0.034541346
102	0xbb93b2f2	-0.004507416
103	0xbbb6bdb0	-0.0055768117
104	0x3c99d02a	0.018776018
105	0x3d0345ab	0.032048862
106	0x3aadc5fb	0.0013257855
107	0x3ccc5747	0.02494396
108	0xba069acc	-0.0005134761
109	0x3d2a9d5c	0.041653976
110	0x3cbdb41a	0.023157168
111	0xbce716bd	-0.028209085
112	0x3cf78813	0.030216252
113	0xbd2ffada	-0.04296384
114	0xbc92187b	-0.017833939
115	0xbc8ae0ac	-0.016952835
116	0x3ad9fd00	0.0016631186
117	0xbd38cff7	-0.045120206
118	0xbd04613a	-0.032319285
119	0xbce95b31	-0.028485866
120	0xbb091eea	-0.0020922967
121	0x3ca795d7	0.020457191
122	0x3cdb39b3	0.026760912
123	0xbcf0592b	-0.029339394
124	0xbcca323e	-0.02468216
125	0x3d02625e	0.03183209
126	0xbd2d7eb5	-0.042357165
127	0xbd02b608	-0.03191188
128	0xbca46da6	-0.020071816
129	0x3cb55bfc	0.022138588
130	0x3c28c0c9	0.01029987
131	0xbc83c00b	-0.016082784
132	0xbcfa5a1c	-0.030560546
133	0xbcfa0f0f	-0.030524759
134	0x3bac8a58	0.0052655153
135	0x3c690c91	0.0142241875
136	0x3d09818e	0.03357082
137	0x3b9bebf5	0.004758353
138	0xbcaf9542	-0.021433476
139	0xbca47693	-0.020076072
140	0x3ad5e738	0.0016319519
141	0xbb492eb7	-0.003069801
142	0xbc391944	-0.011297528
143	0xbcfef116	-0.031120818
144	0x3cd7edfa	0.026358593
145	0x3d1ef68f	0.038809355
146	0xbbdeec40	-0.0068030655
147	0xbcaa68e3	-0.020801967
148	0x3cddabb2	0.02705941
149	0xbd180034	-0.03710957
150	0x3cea07ca	0.028568167
151	0xbcd7c3b8	-0.026338443
152	0x3cda4136	0.026642423
153	0xbcd2e873	-0.025745606
154	0x3d0b37d9	0.033988807
155	0xba4d4f40	-0.00078319386
156	0xbcb4cfc6	-0.02207173
157	0xbc9e3bb8	-0.019315585
158	0xbd0a819b	-0.033815008
159	0x3cf3e3f2	0.029771779
160	0x3c360af0	0.011111006
161	0x3c17900c	0.009250652
162	0xbbf211c0	-0.00738737
163	0x3caf0346	0.021363866
164	0x3c446fac	0.011989515
165	0x3c1d9964	0.009619091
166	0xbd0fc728	-0.03510204
167	0x3cd14336	0.025544744
168	0xbce33b08	-0.02773811
169	0x3c3305bc	0.01092666
170	0x3d286a59	0.041117046
171	0x3cfa25fa	0.030535687
172	0x3c7d249c	0.015450623
173	0xbbc8f048	-0.0061321594
174	0xbc8aa5e7	-0.016924812
175	0xbbdceae1	-0.006741867
176	0x3ca1a9b3	0.01973424
177	0xba2e9410	-0.0006659636
178	0xbc9cb2dd	-0.019128257
179	0xbc60283b	-0.013681467
180	0x3c78dd72	0.015189515
181	0xbc9f4c82	-0.019445661
182	0x3cb53e7b	0.02212452
183	0xbd1665dc	-0.036718234
184	0x3bae9941	0.005328328
185	0xbd23f2e7	-0.04002657
186	0xbd24ee41	-0.04026628
187	0xbc8f6e4f	-0.017508654
188	0x3cd4b3d6	0.025964659
189	0xbd18aa5e	-0.03727185
190	0x3c8194df	0.015818058
191	0x3c9a7f6a	0.018859584
192	0xbd22a642	-0.039709337
193	0xbcb91afb	-0.022595873
194	0x3b8631b8	0.0040952824
195	0xbd037f19	-0.03210363
196	0xbd12269b	-0.03568135
197	0xbd22b189	-0.039720092
198	0x3cb05f66	0.021529865
199	0x3ca58bbe	0.020208236
200	0x3b92b264	0.004476832
201	0x3cb38d62	0.021918003
202	0x3d161421	0.03664029
203	0xbc74b394	-0.014935393
204	0xbcdc94b2	-0.026926372
205	0x3d0cdee0	0.034392238
206	0xbd10c022	-0.035339482
207	0xbd0546b3	-0.032538127
208	0xbb970204	-0.0046083946
209	0x3d1bd455	0.038044292
210	0x3d224bd5	0.0396231
211	0x3c6ca9f7	0.01444482
212	0x3ce21de6	0.027602147
213	0x3c5ec01d	0.013595608
214	0x3cd6a790	0.026202947
215	0xbc62a27d	-0.013832686
216	0xbab4b59e	-0.0013787036
217	0xbd094b76	-0.03351923
218	0x3ccfa786	0.025348436
219	0xbc996956	-0.018726986
220	0x3cb7cb9a	0.022435952
221	0x3d2263d9	0.039646003
222	0xbcf48ac3	-0.029851323
223	0xbcaf18b6	-0.021374088
224	0xbca4f77e	-0.020137545
225	0x3ca011f2	0.019539807
226	0xbd13ef80	-0.036117077
227	0xbd12ca77	-0.035837617
228	0x3ce7cc25	0.028295586
229	0x3bc72a80	0.0060780644
230	0xbd2780f8	-0.04089448
231	0x3c2a6bf0	0.010401711
232	0xbd08d4c3	-0.03340603
233	0x3ce70222	0.02819926
234	0xbbb22a60	-0.0054371804
235	0x3cb04bda	0.021520544
236	0xbd17e586	-0.037084125
237	0xbcd95b56	-0.02653281
238	0xbd18e152	-0.037324257
239	0xb9884b80	-0.00025996193
240	0x3d1749c7	0.036935594
241	0xbc914d66	-0.017737102
242	0xbca7a6cb	-0.020465275
243	0x3d0b1c6a	0.033962645
244	0x3cac50bd	0.021034593
245	0xbc769c66	-0.015051937
246	0x3a671a40	0.0008815862
247	0x3a9a7000	0.0011782646
248	0xbcafd5c3	-0.021464234
249	0x3b47b6fc	0.0030474057
250	0x3d13403a	0.035949923
251	0xbce04f73	-0.027381634
252	0x3cbceea2	0.023063008
253	0x39bff36d	0.00036611725
254	0x3b9e0665	0.0048225396
255	0xbc9d4c60	-0.019201458

fc1.bias f4 [120]
0	0xbc0515cd	-0.0081228735
1	0xbcc3dcaa	-0.023908932
2	0xbcdb8241	-0.026795508
3	0xbd055668	-0.032553107
4	0x3c9bd1ae	0.019020882
5	0xbd034770	-0.03205055
6	0x3d102040	0.035187006
7	0x3c30630c	0.010765802
8	0xbb3a8685	-0.0028461528
9	0xbcfdec4e	-0.030996468
10	0x3cf22eea	0.029563386
11	0xbd0e9d00	-0.034817696
12	0xbc8256ee	-0.015910592
13	0xbc3acccd	-0.011401367
14	0x3c3c11ba	0.011478836
15	0xbd05cf17	-0.0326682
16	0xbcaeecb4	-0.021353103
17	0x3d12b8c9	0.035820756
18	0xbd35ba2b	-0.044366997
19	0xbb23a14f	-0.0024967974
20	0x3d8cef71	0.06881607
21	0xbc65343c	-0.013989504
22	0x3c203b66	0.009779787
23	0x3ca586f7	0.020205958
24	0xbd01ba8c	-0.031672046
25	0xbc8c9a98	-0.01716356
26	0xbcb4c561	-0.022066774
27	0x3b466de7	0.003027791
28	0x3c5d2f38	0.013500027
29	0xbc5c88ee	-0.013460381
30	0x3ccf8bc5	0.025335202
31	0x3da307a4	0.07960442
32	0xbcd7e602	-0.026354793
33	0x3cb5f45f	0.022211252
34	0x3c3684b0	0.011140034
35	0x3d223eb1	0.03961057
36	0xbb946517	-0.0045286524
37	0x3d11a672	0.035559125
38	0x3d537920	0.051629186
39	0x3d01bb10	0.031672537
40	0xbce6a300	-0.028153896
41	0xbbeb35c0	-0.0071780384
42	0x3d636940	0.055520296
43	0xbb790dcc	-0.0038002608
44	0xbcbfb751	-0.023402842
45	0xbd2bbaf8	-0.041926354
46	0xbd2beef1	-0.04197592
47	0x3c39f772	0.0113504995
48	0x3d48e7dd	0.049049247
49	0xbc9a3ac7	-0.018826855
50	0x3daf02f2	0.08545484
51	0xbc9f8876	-0.01947425
52	0x3d9ca4b9	0.07648606
53	0xbbb52774	-0.005528385
54	0xbca8175e	-0.020518955
55	0x3c8cda76	0.017194014
56	0x3d3a91a6	0.045549057
57	0x3ccffb2e	0.025388326
58	0x3d44a70c	0.04801087
59	0xbc8c543b	-0.017130008
60	0xbd2f51e6	-0.042802714
61	0x3d6cd060	0.05781591
62	0x3c8234d2	0.015894327
63	0x3d877399	0.066138454
64	0x3cfc5ec2	0.030806903
65	0xbd170639	-0.03687117
66	0xbd38d5ac	-0.04512565
67	0x3b61c751	0.0034451077
68	0x3ceefb6d	0.029172624
69	0xbd18a562	-0.037267096
70	0x3ce6350b	0.028101465
71	0x3bd27dfb	0.0064237094
72	0x3d5bb149	0.05363587
73	0xbcc853f4	-0.024454094
74	0x3da60b02	0.08107568
75	0x3d00556f	0.031331476
76	0x3c63fc76	0.013915172
77	0x3bc985f9	0.006150004
78	0xbc61bcb5	-0.013777901
79	0x3a1c3a18	0.00059595844
80	0x3cd2594b	0.025677344
81	0xbcf8006c	-0.030273639
82	0xbd1580f5	-0.036499936
83	0xbd06cc70	-0.03290981
84	0x3d0ba76b	0.03409521
85	0xbce4fe64	-0.027953334
86	0xbc796992	-0.015222924
87	0x3baf71b4	0.0053541306
88	0x3c8a081b	0.016849568
89	0x3d0a9308	0.033831626
90	0xbd2f6d81	-0.04282904
91	0x3c2df27e	0.010616897
92	0xbd121c42	-0.03567148
93	0xbd34808e	-0.04406791
94	0xbd0f94b1	-0.035053913
95	0x3d176e9d	0.036970723
96	0x3be1ca60	0.00689058
97	0x3d0506b0	0.03247708
98	0xbd1e06c7	-0.038580682
99	0x3b0f076b	0.002182449
100	0xbd228d0b	-0.03968529
101	0x3c0ddd09	0.008658656
102	0x3d4838d8	0.048882335
103	0xbc9ba360	-0.018998802
104	0xbb7325e8	-0.0037101451
105	0xbc516b75	-0.012781967
106	0xbcbfaa39	-0.023396598
107	0x3c43ba1a	0.011946226
108	0xbc615601	-0.013753415
109	0xbd5c7a97	-0.05382785
110	0x3d80dd27	0.062921815
111	0xbb8d3ea2	-0.004310445
112	0x3d09f9b9	0.03368542
113	0x3d0b8c05	0.03406908
114	0xbcea31a3	-0.028588122
115	0xbcd3d5df	-0.025858818
116	0xbca0b2b7	-0.019616468
117	0x3d1b520b	0.03792004
118	0x3dd87081	0.105683334
119	0x3d0269ba	0.03183911

fc2.weight f4 [84, 120]
0	0xbdb2e383	-0.08734801
1	0xbd458e67	-0.04823151
2	0xbc8e1a23	-0.017346447
3	0xbadd1d25	-0.0016869648
4	0xbd1eb7d5	-0.038749535
5	0xbd3a6b3a	-0.045512415
6	0xbd611031	-0.054947082
7	0xbbf44ef0	-0.007455699
8	0x3d358bcb	0.04432277
9	0xbcb0d41d	-0.021585518
10	0x3d15904f	0.036514577
11	0xbd8f3408	-0.06992346
12	0x3d74baea	0.059748568
13	0x3d2f8a1a	0.042856313
14	0xbdd2adfa	-0.1028709
15	0xbce19a92	-0.027539525
16	0xbc9d1093	-0.019172942
17	0x3d745c9d	0.059658635
18	0xbda76128	-0.08172828
19	0x3d629d23	0.05532564
20	0xbda5cbc0	-0.08095503
21	0xbbf2aeb0	-0.0074060783
22	0x3bfa3255	0.0076353946
23	0x3d01c0b2	0.03167791
24	0xbcbf1ef3	-0.023330187
25	0xbd2ce8a0	-0.042214036
26	0xbd681e42	-0.05666948
27	0x3daa6d43	0.08321621
28	0xbd3f0037	-0.046631064
29	0xbcb27661	-0.021784963
30	0xbd5d93cf	-0.05409604
31	0x3c1fb5f2	0.009747969
32	0x3d68a9db	0.05680261
33	0xbd5302cc	-0.05151634
34	0xbdb4fc51	-0.08837188
35	0xbcad0f3b	-0.021125427
36	0x3d153a36	0.036432467
37	0x3d92cdb6	0.071681425
38	0x3d259f30	0.040435016
39	0x3da663b1	0.081244834
40	0x3dceefe6	0.10104351
41	0xbda810b0	-0.08206308
42	0xbda02ffc	-0.07821652
43	0x3c960466	0.018312644
44	0x3c6458ec	0.013937216
45	0xbddb6a45	-0.10713629
46	0x3d06628c	0.032808825
47	0x3dab8154	0.08374277
48	0x3a6e80e1	0.0009098184
49	0x3c6ad472	0.0143328775
50	0x3cece31c	0.028916888
51	0xbe06e27d	-0.13172336
52	0x3d3a994d	0.045556355
53	0xbd98764b	-0.074444376
54	0xbc4bb0cb	-0.012432287
55	0x3d13374e	0.035941415
56	0xbd7641e5	-0.060121436
57	0xbd8a9e38	-0.06768459
58	0x3dd76673	0.105175875
59	0xbd82dbe0	-0.06389594
60	0x3dd59ac2	0.10429908
61	0xbd824d85	-0.06362442
62	0xbd09af03	-0.03361417
63	0xbd11817a	-0.03552387
64	0x3dee4dc7	0.116359286
65	0x3c6452a5	0.01393572
66	0x3d74ed51	0.059796635
67	0x3dce4a48	0.10072762
68	0xbdd5eced	-0.10445581
69	0x3d3b2e4d	0.045698453
70	0x3da8cbe1	0.08242012
71	0xbd6cbcbc	-0.05779718
72	0x3cb2ac92	0.021810804
73	0xbd86bd25	-0.06579045
74	0xbd9f2a30	-0.077717185
75	0xbcdd4249	-0.027009146
76	0x3d4b4a82	0.049631603
77	0x3d1f9025	0.038955826
78	0xbccb8a26	-0.024846148
79	0xbd7e69f8	-0.06211278
80	0x3da5d8b2	0.08097972
81	0x3bc6360a	0.0060489224
82	0xbdb75f9a	-0.089537814
83	0xbcca4b5a	-0.024694134
84	0x3db3d365	0.08780555
85	0x3d696e29	0.056989823
86	0x3caf1154	0.021370567
87	0x3dca6994	0.09883419
88	0x3aeb6c7a	0.0017961406
89	0xbd7fd87b	-0.06246231
90	0xbcf30189	-0.029663818
91	0x3dba592c	0.090990394
92	0xbd882509	-0.06647689
93	0x3dc85e38	0.09783596
94	0x3da8c006	0.082397506
95	0x3d8a0949	0.06740052
96	0xbcd6883c	-0.026188008
97	0xbddd7c5d	-0.10814736
98	0x3d76b43b	0.060230475
99	0x3c9e9659	0.0193588
100	0xbd987896	-0.07444875
101	0x3d026d0a	0.03184227
102	0xbd92af3d	-0.0716233
103	0xba1087a0	-0.0005513374
104	0x3c97381c	0.018459372
105	0x3db70b41	0.089376934
106	0xbceb8a10	-0.028752357
107	0x3c1505bb	0.0090956045
108	0xbd81d4dc	-0.06339428
109	0xbd3b4afc	-0.045725808
110	0x3d65701c	0.05601512
111	0xbde43be2	-0.11144234
112	0x3c0b628b	0.008507381
113	0x3d0783f9	0.033084843
114	0x3d8f24d9	0.0698945
115	0xbc2b11fb	-0.010441299
116	0xbc476ffd	-0.012172696
117	0x3db0586c	0.08610615
118	0x3d44c3e2	0.04803837
119	0x3d65c85d	0.056099284
120	0xbd8c4c15	-0.06850449
121	0x3d22ad53	0.039716076
122	0x3d0ba422	0.034092076
123	0xbdad6105	-0.08465771
124	0xbd6e5860	-0.05818975
125	0x3d96a378	0.07355398
126	0x3daa28b9	0.083085485
127	0x3ddea2a0	0.10870862
128	0xbc2e2c8f	-0.010630741
129	0xbd518d74	-0.05116029
130	0x3c9258fa	0.017864693
131	0x3b2dde64	0.002653026
132	0x3d590a81	0.052988533
133	0xbd43c996	-0.04779967
134	0xbd0e6cb8	-0.03477165
135	0x3db361e2	0.08758904
136	0xbc104807	-0.008806235
137	0x3db5301e	0.08847068
138	0x3da0277f	0.07820033
139	0x3d23409b	0.039856534
140	0xbd0cf2cc	-0.034411237
141	0x3cb45a02	0.022015575
142	0xbcdb62a4	-0.026780434
143	0x3d30c1bb	0.043153506
144	0xbd633d1d	-0.055478204
145	0xbc9d4bef	-0.019201247
146	0x3de56c58	0.112023056
147	0x3dce2281	0.10065175
148	0xbc27f2a2	-0.010250719
149	0xbd272f2c	-0.04081647
150	0x3b389792	0.0028166515
151	0xbdd5ac51	-0.10433257
152	0xbde8a077	-0.11358731
153	0x3d307596	0.04308089
154	0x3c668b56	0.014071306
155	0x3d802c9d	0.06258509
156	0xbd48d236	-0.049028598
157	0x3cd79685	0.02631689
158	0x3cd781b6	0.026306968
159	0x3d5b2ea8	0.05351129
160	0x3b193e80	0.00233832
161	0xbc61ce3e	-0.013782082
162	0x3ca2b111	0.019859822
163	0x3d00517a	0.031327702
164	0xbd76d9f7	-0.06026646
165	0x3d6e90bf	0.05824351
166	0xbc5da808	-0.013528831
167	0x3dc94604	0.098278075
168	0xbdd7ea14	-0.10542694
169	0x3d70bb40	0.058772326
170	0x3cab2b22	0.02089459
171	0xbdd5cadb	-0.10439082
172	0x3ce2fc59	0.02770822
173	0xbbb1be23	-0.0054242774
174	0x3d8a1a4f	0.06743299
175	0xbd43c7dc	-0.047798023
176	0x3c2583b1	0.010102198
177	0xbd161134	-0.0366375
178	0x3db29524	0.087198526
179	0x3d68bd1d	0.056820977
180	0x3b8049bf	0.003915041
181	0xbc03013b	-0.007995899
182	0xbd1fbcbd	-0.038998354
183	0x3dc23fe6	0.09484844
184	0x3e01144a	0.12605396
185	0xbd844a20	-0.06459451
186	0x3c06e426	0.008233106
187	0x3c0c16bc	0.008550342
188	0xbdafc327	-0.08582144
189	0x3cbbe058	0.022934124
190	0x3c87be26	0.016570162
191	0xbd474b9c	-0.04865609
192	0xbd832548	-0.06403595
193	0x3d4acfb4	0.049514487
194	0x3cc5612a	0.024094183
195	0xbd58894a	-0.052865304
196	0xbd782978	-0.060586423
197	0xbda2218e	-0.07916556
198	0x3d565c38	0.05233404
199	0x3d8ba327	0.06818228
200	0x3df271a9	0.11838085
201	0xbc8e7fb1	-0.017394872
202	0xbd058c82	-0.0326047
203	0xbdc73093	-0.09726062
204	0x3d7d6cde	0.061871402
205	0x3ddb060b	0.10694512
206	0xbca6bd75	-0.020354012
207	0x3d3eddc1	0.0465982
208	0x3c2f8c3f	0.01071459
209	0xbd29d1b0	-0.04145974
210	0x3d38de76	0.04513403
211	0x3cd13207	0.02553655
212	0x3d39ddad	0.045377422
213	0xbc64bc72	-0.0139609445
214	0x3da334dd	0.07969067
215	0x3c6fb48b	0.014630447
216	0xbcb74295	-0.022370616
217	0xbd5f583d	-0.05452751
218	0xbb8b60dd	-0.0042534904
219	0xbdb3616c	-0.08758816
220	0x3b39f48f	0.0028374528
221	0x3d2eff2f	0.04272383
222	0x3cb63993	0.02224425
223	0xbc4a5de6	-0.012351489
224	0x3db1dbb0	0.0868448
225	0xbd8bc13f	-0.06823968
226	0xbda3824d	-0.07983837
227	0x3dc260f3	0.09491148
228	0xbcee2b80	-0.029073477
229	0xbd1517df	-0.03639972
230	0xbd646e22	-0.055769093
231	0xbd087344	-0.03331305
232	0x3dc7d0be	0.09756611
233	0xbc9b0902	-0.018925194
234	0x3da94bbe	0.082664
235	0xbd200e19	-0.039075945
236	0xbd499ed0	-0.04922372
237	0xbbd8e7f4	-0.006619448
238	0x3cda3f67	0.02664156
239	0xbd88d675	-0.066815294
240	0x3b168e53	0.0022973015
241	0x3db396df	0.08769011
242	0xbc3fdb48	-0.011709996
243	0xbd8aeec6	-0.06783824
244	0xbd650c91	-0.055920187
245	0x3d1fd060	0.03901708
246	0x3d555b77	0.05208918
247	0xbcf40fab	-0.029792627
248	0x3d17f232	0.03709621
249	0x3d3f7b17	0.046748247
250	0xbd1bff58	-0.03808531
251	0xbd0c6f4f	-0.03428584
252	0x3d9b2c0c	0.07576761
253	0xbd528218	-0.0513936
254	0x3d610378	0.05493495
255	0x3d718403	0.058963787

fc2.bias f4 [84]
0	0xbd6988d1	-0.057015244
1	0x3d44467c	0.04791878
2	0xbd496ac1	-0.049174074
3	0xbce36331	-0.02775726
4	0xbc363fad	-0.01112358
5	0x3e086c6a	0.13322607
6	0xbcbcdb88	-0.0230539
7	0xbc14dd90	-0.009086028
8	0xbda0941b	-0.07840749
9	0xbdd53740	-0.10410929
10	0x3dd0f84d	0.102036096
11	0x3d1a4978	0.03766772
12	0xbd0c96b0	-0.034323394
13	0x3d2c8480	0.04211855
14	0xbd773cd4	-0.060360745
15	0x3cdb3c62	0.026762191
16	0xbd063d9e	-0.032773606
17	0xbbedac17	-0.0072531807
18	0x3d9cec04	0.07662204
19	0x3d8bc651	0.06824935
20	0x3de163d2	0.11005367
21	0xbd6e0bc1	-0.05811668
22	0xbd1b86c7	-0.03797033
23	0x3c1a09db	0.009401764
24	0x3ddefd41	0.10888148
25	0x3db3ee50	0.08785689
26	0xbd8f4e5d	-0.069973685
27	0xbc4f7d13	-0.012664097
28	0x3d91ca7c	0.07118699
29	0x3e09f00f	0.13470481
30	0xbd98dd5c	-0.07464096
31	0x3ca676b9	0.020320283
32	0x3da77f29	0.08178551
33	0xbd8d857d	-0.069102265
34	0xbc8a2a59	-0.016865896
35	0xbd1ba029	-0.037994538
36	0x3d041ba1	0.03225291
37	0x3ab37602	0.0013691785
38	0xbca67546	-0.020319592
39	0xbd0f3eaf	-0.03497189
40	0xbd024508	-0.031804115
41	0xbd2c7666	-0.0421051
42	0xbd97fef9	-0.07421679
43	0xbc0d5e10	-0.008628383
44	0x3db2cc24	0.08730343
45	0xbd372e01	-0.044721607
46	0x3cb2a60c	0.021807693
47	0xbd041692	-0.032248087
48	0x3e3f96d0	0.18709874
49	0x3dc311e8	0.095249
50	0xbccc5d25	-0.024946759
51	0x3d99144d	0.07474575
52	0x3dac7758	0.084212005
53	0x3d6e1318	0.058123678
54	0x3e1237d9	0.14279117
55	0xbcafd3f9	-0.021463381
56	0x3db599b2	0.08867206
57	0xbda95ff4	-0.08270255
58	0xbd27e32f	-0.040988144
59	0x3c1076b6	0.008817365
60	0x3d3e100a	0.046402015
61	0xbd827e3a	-0.06371732
62	0xbd877f39	-0.06616063
63	0x3d70cc94	0.05878885
64	0xbd18b0ee	-0.03727811
65	0x3e19465e	0.14968249
66	0x3da061ba	0.0783114
67	0xbdaaa642	-0.083324924
68	0x3d340e4c	0.043958947
69	0xbc88dae4	-0.016705938
70	0x3d6898d7	0.056786384
71	0x3d3d9307	0.046282794
72	0xbd889a4e	-0.06670056
73	0x3e2f61ab	0.17127101
74	0xbd8c5924	-0.0685294
75	0xbd01ce2e	-0.03169077
76	0x3d9d33fd	0.076759316
77	0xbcd95a3c	-0.026532285
78	0xbc03ab72	-0.008036481
79	0xbd731c6e	-0.059353285
80	0xbad6f678	-0.0016400358
81	0x3dabadfe	0.08382796
82	0xbd10b39d	-0.035327543
83	0xbb317874	-0.0027079852

fc3.weight f4 [2, 84]
0	0xbe943cef	-0.2895274
1	0xbea0566a	-0.3131593
2	0xbc1f9702	-0.009740593
3	0xbd61ffab	-0.055175465
4	0x3e65d817	0.22445713
5	0x3e2b4e76	0.16729149
6	0x3bb174e6	0.0054155467
7	0x3e981193	0.29700908
8	0x3e12c670	0.1433351
9	0x3da5d859	0.08097906
10	0xbe913ade	-0.28365225
11	0xbd9d1e5f	-0.076718085
12	0x3d5bb69b	0.053640943
13	0xbd6da7f6	-0.05802151
14	0x3d785aaa	0.06063334
15	0x3cf34cd1	0.029699715
16	0x3d21aee5	0.039473433
17	0xbdedcbd1	-0.116111405
18	0xbee2b36f	-0.44277522
19	0xbdd3dfbe	-0.1034541
20	0x3e9832d0	0.29726267
21	0xbdf7423e	-0.120731816
22	0x3d98d2c0	0.07462072
23	0xbafb26bf	-0.0019161328
24	0xbe91c20e	-0.28468364
25	0xbe9354f4	-0.28775752
26	0xbea60f46	-0.32433528
27	0xbe793cba	-0.24339572
28	0xbdbc5807	-0.091964774
29	0xbeb2539e	-0.3482942
30	0xbd9f80f3	-0.07788267
31	0x3e945092	0.2896772
32	0xbcd4f561	-0.025995912
33	0xbe5840e3	-0.21118502
34	0xbe0c4331	-0.13697506
35	0xbd8331a8	-0.064059556
36	0x3ea6def4	0.32591975
37	0xbd93d270	-0.07217872
38	0x3d96f0b1	0.07370127
39	0x3d49f8fc	0.049309716
40	0x3d369df6	0.044584237
41	0xbbe0fdd3	-0.0068661957
42	0xbe2b25d3	-0.16713648
43	0x3e27b6cd	0.16378327
44	0x3ebe1976	0.371288
45	0xbcf8dfa7	-0.030380083
46	0xbe0d9562	-0.13826516
47	0x3d461eb6	0.048369132
48	0xbe523a65	-0.20530088
49	0xbe4535d7	-0.1925882
50	0xbbc33577	-0.0059573012
51	0x3d9c3338	0.07626957
52	0x3ded29c4	0.11580232
53	0xbd98cdc8	-0.07461125
54	0xbe3e58d2	-0.1858857
55	0x3e53795c	0.20651764
56	0x3eb3967d	0.3507575
57	0xbd9e2ce6	-0.077234074
58	0xbc8055c5	-0.015665898
59	0xbe8c85af	-0.27445742
60	0xbcd2c3cd	-0.02572813
61	0xbc46e977	-0.012140623
62	0xbe09f58f	-0.1347258
63	0x3d82a431	0.06378973
64	0x3d118cee	0.03553479
65	0x3e562466	0.20912322
66	0x3efc254b	0.49247202
67	0x3d8bf3ca	0.068336084
68	0xbe079f62	-0.13244393
69	0x3b51d040	0.0032014996
70	0xbec3e8c5	-0.38263527
71	0xbe0016c0	-0.12508678
72	0xbd5d2cb5	-0.053997714
73	0x3e351e2c	0.17687291
74	0xbe43ce36	-0.19121632
75	0xbaf8d187	-0.0018983342
76	0x3e1f2df2	0.1554487
77	0x3d9ef038	0.07760662
78	0xbd892984	-0.066973716
79	0xbd931b16	-0.071829006
80	0xbc8df6e1	-0.017329635
81	0xbe63339a	-0.22187653
82	0xbdf905b6	-0.121592924
83	0x3e6025cf	0.21889423
84	0xbd6e131d	-0.058123697
85	0xbe0c6315	-0.13709672
86	0xbe160be5	-0.14652975
87	0x3dd73354	0.10507837
88	0xbd740d84	-0.059583202
89	0x3e8e27d9	0.27764776
90	0x3d8eaa02	0.0696602
91	0xbeafe402	-0.34353644
92	0x3d1911ce	0.037370495
93	0xbe1788f6	-0.1479834
94	0x3dc14c58	0.094383895
95	0x3cf9e6e7	0.03050561
96	0x3cc9488e	0.02457073
97	0x3e946bc9	0.28988484
98	0xbd1a62f5	-0.03769203
99	0x3c188d2d	0.009311003
100	0x3bc5286a	0.0060167806
101	0x3e1b4f68	0.1516701
102	0x3cee4251	0.029084357
103	0xbebb9363	-0.36635885
104	0xbcd3d5d1	-0.025858792
105	0xbe0a0896	-0.13479838
106	0xbda4b8ee	-0.08043085
107	0x3e18ac69	0.1490952
108	0x3d353842	0.044243105
109	0x3d4df468	0.050281912
110	0xbde4af34	-0.1116623
111	0x3eaf2c05	0.34213272
112	0x3d44db23	0.048060548
113	0xbe294c0b	-0.16532914
114	0xbddc7401	-0.107643135
115	0xbeb68978	-0.35651755
116	0xbeb3b359	-0.3509777
117	0xbe02f022	-0.12786916
118	0xbce42729	-0.027850704
119	0x3e63bd41	0.22240163
120	0xbe8ce3d2	-0.27517563
121	0x3e1c99c1	0.15293027
122	0xbc955d98	-0.018233106
123	0x3e00fa21	0.12595417
124	0xbd9f7f0c	-0.07787904
125	0xbe12ae8f	-0.14324401
126	0x3d63a039	0.055572722
127	0xbe01f877	-0.12692438
128	0x3e3544cd	0.17702027
129	0xbdae1169	-0.084994145
130	0xbd9d2926	-0.07673864
131	0xbdc8178b	-0.097701155
132	0x3ed6943b	0.41909966
133	0xbeccbb7c	-0.3998679
134	0xbdb60821	-0.08888269
135	0xbe7389cf	-0.23783039
136	0xbe3cc2b1	-0.18433644
137	0xbe3c94ab	-0.18416087
138	0x3ed837ab	0.4222997
139	0xbd89f3e3	-0.06735971
140	0x3d8497f4	0.06474295
141	0xbc566170	-0.013084754
142	0xbcb971f2	-0.022637341
143	0x3d70e71c	0.058814153
144	0xbe1a905a	-0.15094128
145	0xbdbd6f16	-0.092497036
146	0xbd039af2	-0.03213019
147	0x3dd092d0	0.10184252
148	0xbdf4e1e5	-0.119571485
149	0x3e920f51	0.2852731
150	0x3d912bda	0.07088442
151	0xbc02e1d0	-0.007988408
152	0x3e7f3b98	0.24925077
153	0xbd07e9a0	-0.033181787
154	0x3e245133	0.160466
155	0xbdffc513	-0.12488761
156	0x3e11fa93	0.14255743
157	0x3edf743b	0.43643364
158	0xbcf2d625	-0.029643128
159	0xbc1ded08	-0.009639032
160	0xbe24351e	-0.16035888
161	0xbdd5be69	-0.104367085
162	0x3e124c0e	0.14286825
163	0xbd9018f3	-0.07036009
164	0xbc84cedd	-0.016211921
165	0x3e531e1c	0.20616955
166	0x3d9e714a	0.07736452
167	0x3daef829	0.085434265

fc3.bias f4 [2]
0	0xbd660d8e	-0.05616527
1	0x3b37eed0	0.0028065927
