src/models/dagger-2.onnx (onnx, 336927 bytes, 10 tensors)

conv1.weight f4 [6, 5, 5, 5]
0.0034751152 -0.0882594 -0.05780803 0.053569276 0.05166933 -0.07064789 0.042591464 0.069132775
-0.0039518606 0.085814275 -0.07956396 0.0018410295 -0.0852739 0.061838202 0.047166653 0.0034832226
-0.061807476 0.047351956 -0.034918185 0.03821651 -0.0017043317 -0.0041867965 -0.062755525 -0.06859412
-0.0357718 -0.057640605 0.013197132 0.031716906 -0.08652546 -0.025658447 0.0658367 -0.021260215
0.06701449 -0.07275632 0.01675777 0.014938116 0.07538952 0.024074204 -0.022094587 0.012914548
-0.0752208 0.0383328 -0.0043878434 -0.0766471 -0.087679274 0.08410869 0.08304362 0.075539395
-0.0794911 0.021975262 -0.004364341 0.05730287 -0.0884499 -0.07446744 0.06786429 0.06682174
0.007017152 0.012232612 -0.018618552 0.025626242 -0.07855401 0.0022952547 0.03984764 -0.0026476348
0.020750383 0.058294065 -0.023014784 0.084168606 -0.00038183044 0.034507707 -0.077417806 -0.0653802
-0.05232355 -0.041121613 -0.06694756 -0.057097327 -0.012608494 -0.06364568 0.016924568 -0.07162808
-0.07889969 0.022125872 0.053119015 0.0718023 -0.068884216 -0.03247707 -0.02114242 -0.017828587
0.07421924 0.02698834 0.08183925 -0.051193386 -0.026265722 -0.050190877 -0.013617709 -0.042893242
0.018915817 0.062046714 0.048008297 0.078774676 0.00869056 0.075560264 0.031946953 0.02212484
-0.054163132 -0.019464526 0.032331225 -0.070907995 0.016003968 0.032034516 0.051726583 0.0018243189
-0.014649314 0.029823575 -0.055645544 -0.0172941 -0.08058902 0.022596112 -0.020444239 0.045223463
-0.026607499 0.08861604 -0.06667521 0.05657254 0.028572252 0.022340383 0.08276494 -0.02929417
0.051890403 -0.051791724 -0.038602043 0.06547294 0.0072477767 0.083879955 0.052201755 -0.057846934
0.0987865 0.103071935 -0.012051094 0.053369436 -0.05241501 -0.04411915 0.094775066 -0.04094049
-0.02386374 -0.00048006006 0.017786497 0.08291049 0.08024431 -0.023260241 0.030945051 0.06389489
0.10735204 0.0052152984 0.056538876 -0.04029363 0.041648034 0.06722843 0.03853767 -0.07724807
0.11729041 -0.061466105 -0.008318381 -0.065483056 0.022268182 0.10258277 -0.03304026 0.040761683
-0.04099679 -0.025178676 -0.008012132 -0.04833926 0.06418074 0.0895649 -0.07931107 0.10098852
0.010842323 0.026972497 -0.006147114 -0.010926721 0.052077424 0.036221713 -0.0478741 0.028257037
-0.06806668 0.09949257 -0.008837461 0.07648518 0.031427193 0.054448996 -0.005207557 0.10391442
0.0027796088 -0.021701973 0.015667586 0.012763651 -0.003092263 -0.07924866 -0.032720763 -0.030899988
-0.042048592 -0.037691966 0.04812181 -0.058102198 -0.07543719 0.1015171 0.018103326 0.024000114
0.01845065 -0.06021805 -0.0083463015 -0.058391422 -0.047125217 0.056158673 0.035718486 0.08216193
0.051144607 -0.02377107 -0.053277496 -0.034348145 -0.062387515 -0.0047387835 -0.08232761 -0.014467638
0.05730809 0.067139156 0.054552093 0.093886 0.1041857 -0.0056736837 0.12108639 0.083084136
-0.03447188 0.0060218684 -0.044212416 0.07312587 -0.017228289 0.09166043 -0.06519251 0.08253488
0.11498189 -0.059675433 0.073087156 -0.058365505 -0.032252375 0.053621575 0.096973084 -0.058248486
0.043509208 -0.07393129 0.0081068 0.07244231 -0.0057671834 0.058736857 -0.018796617 0.13254681
00000000: c2be 633b 58c1 b4bd 1dc8 6cbd 756b 5b3d
00000010: 38a3 533d d7af 90bd 6374 2e3d 7c95 8d3d
00000020: 9c7e 81bb 65bf af3d 6ef2 a2bd b34e f13a
00000030: 15a4 aebd 0e4a 7d3d d231 413d c746 643b
00000040: d629 7dbd 20f4 413d 5f06 0fbd ea88 1c3d
00000050: e263 dfba 6531 89bb f885 80bd 137b 8cbd
00000060: 7385 12bd 8e18 6cbd c938 583c 96e9 013d
00000070: 4334 b1bd aa31 d2bc 64d5 863d e729 aebc
00000080: e53e 893d 4401 95bd 9747 893c 00bf 743c
00000090: d265 9a3d 4437 c53c b5ff b4bc 8a97 533c
000000a0: 5d0d 9abd db02 1d3d e6c7 8fbb 28f9 9cbd
000000b0: 3191 b3bd 2d41 ac3d c612 aa3d 66b4 9a3d
000000c0: 3bcc a2bd 7705 b43c bf02 8fbb 6ab6 6a3d
000000d0: 3925 b5bd 6382 98bd 6ffc 8a3d d6d9 883d
000000e0: 23f0 e53b 4b6b 483c ef85 98bc 20ee d13c
000000f0: ede0 a0bd fc6b 163b 4737 233d f183 2dbb
00000100: b5fc a93c c2c5 6e3d 8089 bcbc 9760 ac3d
00000110: 6a30 c8b9 f457 0d3d 3a8d 9ebd 0ee6 85bd
00000120: 3851 56bd 236f 28bd cd1b 89bd e3de 69bd
00000130: db93 4ebc ab58 82bd 64a5 8a3c beb1 92bd
00000140: 2996 a1bd 5141 b53c 5393 593d 160d 933d
00000150: 2b13 8dbd ad06 05bd de32 adbc 420d 92bc
00000160: 4200 983d a716 dd3c 569b a73d 28b0 51bd
00000170: 362b d7bc f394 4dbd d01c 5fbc d3b0 2fbd
00000180: 58f5 9a3c b224 7e3d 59a4 443d 9e54 a13d
00000190: da62 0e3c 57bf 9a3d cfda 023d 273f b53c
000001a0: 29da 5dbd 1274 9fbc bf6d 043d 3638 91bd
000001b0: c11a 833c a036 033d 41df 533d fc1d ef3a
000001c0: ad03 70bc 9250 f43c 95ec 63bd 5bac 8dbc
000001d0: db0b a5bd 7b1b b93c ad7a a7bc 3d3c 393d
000001e0: f8f7 d9bc 547c b53d 038d 88bd 9cb8 673d
000001f0: 5b10 ea3c 2e03 b73c aa80 a93d 54fa efbc
00000200: 088b 543d 8f23 54bd 2d1d 1ebd ad16 863d
00000210: c27e ed3b 41c9 ab3d 82d1 553d e8f0 6cbd
00000220: 9450 ca3d 6117 d33d f471 45bc e999 5a3d
00000230: 1fb1 56bd 48b6 34bd 6e19 c23d 37b1 27bd
00000240: e47d c3bc 92b0 fbb9 fdb4 913c facc a93d
00000250: 2157 a43d 438c bebc 7a80 fd3c 53db 823d
00000260: 63db db3d 18e5 aa3b 4f95 673d ef0a 25bd
00000270: 2197 2a3d 0faf 893d add9 1d3d 3c34 9ebd
00000280: f435 f03d e2c3 7bbd d249 08bc fb1b 86bd
00000290: c36b b63c ea16 d23d 3955 07bd b9f5 263d
000002a0: 40ec 27bd 8343 cebc 5145 03bc 63ff 45bd
000002b0: 3171 833d cd6d b73d d86d a2bd 12d3 ce3d
000002c0: 00a4 313c 6df5 dc3c bb6d c9bb fd05 33bc
000002d0: 234f 553d 385d 143d a217 44bd 4d7b e73c
000002e0: 8b66 8bbd c3c2 cb3d ffca 10bc 43a4 9c3d
000002f0: cdb9 003d e905 5f3d 28a4 aabb 15d1 d43d
00000300: 192a 363b 56c8 b1bc 4f59 803c a21e 513c
00000310: 90a7 4abb 1f4d a2bd 3506 06bd f921 fdbc
00000320: 253b 2cbd e462 1abd 601b 453d 92fc 6dbd
00000330: d07e 9abd 33e8 cf3d 6d4d 943c e39b c43c
00000340: d125 973c 34a7 76bd edbe 08bc d82b 6fbd
00000350: 5f06 41bd a306 663d 8c4d 123d 8444 a83d
00000360: 027d 513d 8cbb c2bc 8139 5abd a4b0 0cbd
00000370: 0d8a 7fbd cc47 9bbb 619b a8bd ac09 6dbc
00000380: e3bb 6a3d 4180 893d 0472 5f3d 4e47 c03d
00000390: 505f d53d 4fea b9bb 24fc f73d 0428 aa3d
000003a0: 6332 0dbd 1853 c53b 1418 35bd 04c3 953d
000003b0: 5722 8dbc 77b8 bb3d a783 85bd 0c08 a93d
000003c0: a07b eb3d 3a6e 74bd b8ae 953d ab10 6fbd
000003d0: 111b 04bd 4ca2 5b3d d399 c63d f795 6ebd
000003e0: b636 323d 4a69 97bd 62d2 043c a25c 943d
000003f0: a4fa bcbb 0f96 703d 5dfb 99bc 5aba 073e

conv1.bias f4 [6]
-0.084458366 0.11528567 -0.11197201 0.0025925902 0.06132165 0.019563409
00000000: 82f8 acbd e51a ec3d 9551 e5bd 72e8 293b
00000010: 692c 7b3d 7143 a03c

conv2.weight f4 [16, 6, 5, 5]
-0.050441306 -0.052209202 0.06678206 0.04961484 0.023233566 -0.008555531 -0.054773472 -0.027583802
-0.06234416 0.055937633 -0.03161984 0.019223416 -0.06577457 0.0012793437 0.035708472 -0.04083138
-0.0776975 0.0596616 -0.077358276 0.01867793 -0.062339358 -0.010407958 -0.020029334 -0.06058427
-0.015911002 -0.008250604 0.033330444 0.048680697 -0.015068882 0.043528795 0.013976206 -0.05636931
0.011242555 -0.07114308 -0.023466874 -0.028413843 0.012024657 0.043584168 0.031977665 -0.076308444
-0.074943975 0.032698695 0.027190778 -0.051610053 -0.07981347 -0.025813084 0.035321612 -0.04290578
0.07970989 -0.06474722 -0.007007038 -0.078186154 -0.015551676 0.01953323 0.05814821 -0.023998648
0.016803542 0.035156246 0.005558818 -0.057254903 -0.003272094 0.013089334 0.069328845 0.053881504
0.017881256 0.0022327665 -0.012418013 0.010589307 -0.007180469 -0.066026896 0.011764442 -0.031828664
0.02223991 -0.0029466597 0.04139041 -0.042210937 -0.035188276 0.06601845 0.05798683 0.047793955
-0.031700734 -0.040087048 0.07506922 0.016076706 -0.052933022 0.07722279 -0.00048077144 -0.02350056
0.03163461 0.0034826198 0.07034476 -0.0010598867 0.026921807 0.039763607 0.040003665 -0.026617905
0.003313277 0.021415746 -0.011884328 -0.007582978 0.043253206 0.060371973 0.029106833 -0.046958134
-0.03402941 -0.0476364 -0.0066889855 -0.079746336 -0.027470514 -0.046384603 -0.017998373 0.028650656
0.026165714 -0.009967847 -0.05932591 0.0456627 0.035926197 -0.08249777 -0.047439784 0.002635833
-0.02335102 -0.06376884 0.056990683 -0.07787159 -0.046832975 -0.035895187 0.039585922 -0.039461944
-0.060043365 -0.076595336 -0.06521491 -0.07788201 -0.006745447 0.01947152 -0.07143548 0.009224147
-0.002808922 0.019056434 -0.021204382 0.07612748 0.03367197 -0.0772027 -0.016929159 0.0044239345
0.036957048 -0.0046860836 0.02607879 0.069139466 -0.0013824292 0.031375285 0.028041476 0.012080323
-0.03266649 0.010617177 -0.06795339 0.067788996 0.06472579 0.027071992 0.03323915 -0.042022288
0.041964147 0.003243382 0.04302994 0.027713308 -0.061158966 0.061440304 0.08119481 0.02567566
0.03643334 -0.031254604 -0.005431982 0.019189784 0.0035414025 0.07487456 -0.005361976 0.06721641
-0.06705217 0.020161351 -0.07946954 0.036242787 -0.039480984 -0.05431184 0.06847501 0.07767798
0.06541535 -0.05131934 0.031418577 0.070906095 0.024288353 -0.017595967 0.081433706 -0.040101465
0.0073020286 -0.051779356 0.0531726 -0.07877192 0.03167035 -0.051255748 0.07673238 -0.019657325
0.00097331975 -0.049034495 -0.055728443 -0.0015760246 0.026968176 0.003656369 -0.08016378 0.001761518
-0.05128819 -0.06923763 -0.0031599128 0.052009292 -0.08101295 -0.036993597 -0.0482501 0.058732778
0.007639255 -0.07749426 -0.04833208 0.03070212 0.048137274 -0.0026180644 0.0639572 0.038351886
-0.059437063 -0.076037176 -0.074797936 -0.07267319 -0.069821216 0.061731398 0.023250109 -0.047370303
0.048178192 -0.048806645 -0.016089207 -0.054323062 0.026413772 0.07803566 0.039425757 0.01784901
-0.021729153 -0.0013174578 -0.04522836 -0.0049492694 0.020297999 -0.05180313 -0.07024788 -0.067518674
0.05900558 0.018731339 -0.012784036 -0.03769014 -0.005367739 -0.022286018 -0.015514429 0.048981495
00000000: 8b9b 4ebd 51d9 55bd 08c5 883d ee38 4b3d
00000010: 5254 be3c 7f2c 0cbc 265a 60bd 6df7 e1bc
00000020: 975c 7fbd dc1e 653d ce83 01bd 6d7a 9d3c
00000030: d1b4 86bd a7af a73a 0c43 123d ce3e 27bd
00000040: de1f 9fbd b95f 743d 046e 9ebd 7502 993c
00000050: 8e57 7fbd 2486 2abc 8f14 a4bc 3627 78bd
00000060: ca57 82bc 8b2d 07bc 8185 083d 6965 473d
00000070: 79e3 76bc 404b 323d 75fc 643c 81e3 66bd
00000080: b232 383c 77b3 91bd 9a3d c0bc 26c4 e8bc
00000090: 1103 453c 5085 323d 03fb 023d 9a47 9cbd
000000a0: 3a7c 99bd 11ef 053d 32bf de3c 1065 53bd
000000b0: 3f75 a3bd f675 d3bc 65ad 103d f9bd 2fbd
000000c0: f03e a33d 319a 84bd 4c9b e5bb 1020 a0bd
000000d0: 75cc 7ebc 2704 a03c d12c 6e3d d098 c4bc
000000e0: 95a7 893c ffff 0f3d bf26 b63b 1e84 6abd
000000f0: a170 56bb a574 563c 48fc 8d3d dab2 5c3d
00000100: b67b 923c 9b53 123b ec74 4bbc c67e 2d3c
00000110: 244a ebbb 1c39 87bd a5bf 403c c65e 02bd
00000120: 7930 b63c bf1c 41bb fe88 293d 60e5 2cbd
00000130: 9521 10bd ae34 873d 9983 6d3d 98c3 433d
00000140: a1d8 01bd 5132 24bd e4bd 993d 4cb3 833c
00000150: 4cd0 58bd fb26 9e3d 0d10 fcb9 3f84 c0bc
00000160: 4b93 013d aa3c 643b ea10 903d e5eb 8aba
00000170: 1f8b dc3c 2adf 223d e2da 233d cb0d dabc
00000180: 9023 593b 1370 af3c 7cb6 42bc a17a f8bb
00000190: 462a 313d 9a48 773d 7471 ee3c 2c57 40bd
000001a0: 6c62 0bbd 631e 43bd 472f dbbb 0c52 a3bd
000001b0: d809 e1bc c8fd 3dbd 5371 93bc c8b4 ea3c
000001c0: 7b59 d63c 2e50 23bc baff 72bd d008 3b3d
000001d0: 5927 133d 97f4 a8bd 3850 42bd f1bd 2c3b
000001e0: a34a bfbc 3d99 82bd 106f 693d 247b 9fbd
000001f0: efd3 3fbd d506 13bd d924 223d d9a2 21bd
00000200: 08f0 75bd 04de 9cbd 658f 85bd 9a80 9fbd
00000210: e908 ddbb bd82 9f3c c44c 92bd e020 173c
00000220: e415 38bb 3d1c 9c3c d0b4 adbc b9e8 9b3d
00000230: 9feb 093d 731c 9ebd 05af 8abc a7f6 903b
00000240: 4660 173d b88d 99bb 30a3 d53c fe98 8d3d
00000250: a032 b5ba 5f83 003d 3db7 e53c 8cec 453c
00000260: 4ccd 05bd abf3 2d3c 262b 8bbd f5d4 8a3d
00000270: f48e 843d 15c6 dd3c c625 083d 901f 2cbd
00000280: 99e2 2b3d ec8e 543b 2a40 303d 0507 e33c
00000290: d381 7abd d4a8 7b3d 7749 a63d c355 d23c
000002a0: 203b 153d d404 00bd c5fe b1bb e533 9d3c
000002b0: e016 683b d557 993d 84b3 afbb c2a8 893d
000002c0: a652 89bd 6b29 a53c edc0 a2bd 5173 143d
000002d0: d0b6 21bd 1876 5ebd a03c 8c3d a215 9f3d
000002e0: 7cf8 853d 3a34 52bd c4b0 003d 3737 913d
000002f0: 5ef8 c63c 6b25 90bc b7c6 a63d 6f41 24bd
00000300: db45 ef3b 9716 54bd 83cb 593d 2c53 a1bd
00000310: c5b8 013d 8cf1 51bd de25 9d3d 6608 a1bc
00000320: 6226 7f3a 65d8 48bd 8243 64bd 9c92 ceba
00000330: 5dec dc3c b19f 6f3b e82c a4bd bce2 e63a
00000340: 9113 52bd 75cc 8dbd 8a16 4fbb b207 553d
00000350: 1eea a5bd 9986 17bd e6a1 45bd c891 703d
00000360: b752 fa3b 50b5 9ebd dcf7 45bd 0383 fb3c
00000370: 972b 453d d593 2bbb fefb 823d de16 1d3d
00000380: 4774 73bd 61b9 9bbd a92f 99bd aed5 94bd
00000390: 6dfe 8ebd 10da 7c3d 0377 be3c 5d07 42bd
000003a0: 7f56 453d 7ae9 47bd 83cd 83bc dc81 5ebd
000003b0: b261 d83c 29d1 9f3d e77c 213d 1638 923c
000003c0: 5601 b2bc 8cae acba 5f41 39bd 7b2d a2bb
000003d0: fd47 a63c 852f 54bd 1fde 8fbd 3b47 8abd
000003e0: d6af 713d 7772 993c 2274 51bc fa60 1abd
000003f0: dce3 afbb 2b91 b6bc 3b30 7ebc d2a0 483d

conv2.bias f4 [16]
-0.050757293 0.031017762 0.13043346 0.020179056 0.15911423 -0.06464822 0.03662677 0.04092194
0.102046646 -0.05330802 0.02270584 0.20134094 -0.046326596 -0.058502953 0.079556085 0.095354766
00000000: e1e6 4fbd f618 fe3c 5990 053e 8c4e a53c
00000010: d7ee 223e 4966 84bd f405 163d c49d 273d
00000020: d5fd d03d 8359 5abd 9901 ba3c 522c 4e3e
00000030: f5c0 3dbd cba0 6fbd 4dee a23d 5c49 c33d

fc1.weight f4 [120, 584]
0.0134364525 -0.024533844 0.013029145 -0.02170824 0.014924921 0.014608892 -0.023825338 0.030701412
0.0054962817 -0.010363559 0.025330018 0.038695864 0.03934449 0.029916525 0.03986383 0.02837674
-0.032782953 -0.0070237657 -0.013370319 -0.0054617017 -0.013262633 0.0029999195 -0.030941099 -0.016381664
0.018742224 0.031009816 -0.017028822 0.015159787 -0.03734823 -0.010774032 0.0060191588 -0.007928272
0.028898628 0.022090867 -0.0021502788 0.002394579 -0.0026069582 0.0023469022 -0.027419373 -0.0007740712
0.035656795 0.036470555 0.031992678 0.038388398 0.022497157 0.027277697 0.0138289165 -0.03398407
0.0007270641 -0.025304517 -0.016498849 0.0027881707 -0.0047828862 -0.012042352 0.027645882 0.028511617
-0.021259781 0.037819296 -0.0005320601 -0.016393352 -0.028204482 -0.03618207 0.0020312166 0.027024092
-0.013407378 0.037358202 0.034160588 -0.008219828 0.017556468 -0.02384404 -0.011069705 0.021978995
0.029664518 0.021603422 -0.022674711 -0.01695622 -0.036652386 0.042841397 0.00078674534 -0.012840016
0.02259731 0.004785332 -0.017936898 -0.022152513 -0.022893397 -0.04656649 -0.0411544 -0.027431559
-0.011924352 -0.008675167 0.014672449 -0.004383845 0.032495204 0.005817607 -0.00442221 -0.033730045
-0.033444647 -0.029025562 -0.006440777 0.04147021 -0.012926815 -0.00025060933 0.0018620586 -0.029314399
0.0065008854 0.00514275 -0.0060329833 0.03384951 0.03869966 0.004953359 0.019740775 -0.02896858
0.028211212 0.020252608 0.030454457 -0.019906064 0.02851844 0.0067214803 0.019366572 0.021626933
0.008336414 0.009742596 -0.035892468 -0.0313428 0.022100607 0.041145112 -0.002039575 0.009677734
-0.023265393 0.017948834 0.0061793975 -0.036530595 0.009420477 0.017470285 0.039298907 0.03627167
-0.0030690387 0.0035498794 0.010327361 -0.0041361502 0.0020982802 0.032519285 0.0007987982 0.03467648
0.027829846 -0.018584715 0.01828691 0.019735046 -0.034239713 0.015949752 0.010349168 0.004955061
0.02520785 -0.002885199 0.039800208 0.013886578 -0.038004182 0.015365813 0.013842287 0.040155064
-0.0020439264 0.05681606 0.024009194 -0.010360055 0.01119775 -0.005936684 0.005677816 0.034791607
0.025403472 0.0010390481 -0.044443876 0.005365866 -0.036905352 -0.016760936 -0.0029328193 0.042796984
0.026917959 0.010275677 0.0023632683 0.021411156 0.010975775 0.007345029 -0.010238257 -0.008906401
-0.010579268 -0.011342924 0.03748052 0.03704442 0.0044650254 -0.015466198 -0.0005583731 0.018828588
0.015547079 0.008261308 0.030066313 0.016588377 -0.00876865 0.015198539 0.018722164 0.0010061121
0.030420892 0.04033199 0.0064254953 -0.005275691 -0.029698934 0.03201978 0.013352035 0.0032288274
0.03980572 -0.031077683 0.016034072 -0.009412943 0.017677693 -0.033680387 -0.022123685 -0.03098332
0.015438345 -0.01593863 0.015967201 0.009090459 -0.010576854 0.018023122 0.0057444135 0.008587464
0.013808517 -0.01711555 -0.011114013 -7.822185e-05 0.04863396 -0.0064031933 0.0030471669 0.016036984
0.0041186768 -0.014175166 -0.0046411715 0.022330329 0.04223736 0.012743208 0.010275445 -0.019283475
-0.019529497 -0.0055581927 -0.036793254 -0.02504728 0.043771606 0.0060174647 -0.0016416096 0.031644803
0.022380222 -0.040208645 -0.038876366 0.01046582 0.010170059 0.03456411 -0.001474335 0.020713743
00000000: 9124 5c3c 33fb c8bc 3278 553c 7bd5 b1bc
00000010: a887 743c 225a 6f3c 5b2d c3bc 8781 fb3c
00000020: 271a b43b ebcb 29bc e680 cf3c 8e7f 1e3d
00000030: b027 213d 8013 f53c 4148 233d 5676 e83c
00000040: 6b47 06bd 9e27 e6bb 2f0f 5bbc 13f8 b2bb
00000050: 844b 59bc 4c9a 443b 3078 fdbc d732 86bc
00000060: 4b89 993c 4c08 fe3c 0780 8bbc c160 783c
00000070: 75fa 18bd 9185 30bc 5d3c c53b 95e5 01bc
00000080: d1bc ec3c e8f7 b43c b1eb 0cbb 5eee 1c3b
00000090: 80d9 2abb 7cce 193b 989e e0bc 0aeb 4aba
000000a0: dc0c 123d 2662 153d c10a 033d 273d 1d3d
000000b0: f54b b83c 7a75 df3c ae92 623c e132 0bbd
000000c0: 7298 3e3a 6b4b cfbc 9828 87bc beb9 363b
000000d0: c2b9 9cbb 494d 45bc 9e79 e23c 3291 e93c
000000e0: fe28 aebc 68e8 1a3d f379 0bba 5a4b 86bc
000000f0: 160d e7bc a633 14bd 291e 053b a161 dd3c
00000100: 9faa 5bbc ea04 193d f9eb 0b3d 75ac 06bc
00000110: 95d2 8f3c 9454 c3bc b55d 35bc 4b0d b43c
00000120: 0103 f33c a9f9 b03c 51c0 b9bc c5e7 8abc
00000130: d020 16bd 767a 2f3d 963d 4e3a ee5e 52bc
00000140: fe1d b93c 46ce 9c3b 67f0 92bc 3079 b5bc
00000150: ef8a bbbc 81bc 3ebd 8491 28bd 26b8 e0bc
00000160: 5b5e 43bc 4a22 0ebc b664 703c 5ba6 8fbb
00000170: b119 053d a0a1 be3b 30e8 90bb 8428 0abd
00000180: 41fd 08bd 04c7 edbc 270d d3bb abdc 293d
00000190: feca 53bc 3764 83b9 5210 f43a c024 f0bc
000001a0: 6105 d53b 8484 a83b 55b0 c5bb c9a5 0a3d
000001b0: 8983 1e3d c94f a23b 68b7 a13c 844f edbc
000001c0: 331b e73c cce8 a53c a07b f93c 0b12 a3bc
000001d0: 819f e93c dd3f dc3b a5a6 9e3c f72a b13c
000001e0: 7495 083c 699f 1f3c fb03 13bd 4f61 00bd
000001f0: 550c b53c c787 283d 64aa 05bb 5c8f 1e3c
00000200: 1197 bebc 6f09 933c 8b7c ca3b 1ba1 15bd
00000210: 5858 1a3c d81d 8f3c e4f7 203d 9a91 143d
00000220: ed21 49bb 18a5 683b 1734 293c 8b88 87bb
00000230: 4d83 093b f132 053d 7166 513a ed08 0e3d
00000240: 6bfb e33c f93e 98bc 6ece 953c 64ab a13c
00000250: f13e 0cbd 0ea9 823c 8f8f 293c 105e a23b
00000260: b180 ce3c 9b15 3dbb 8b05 233d 8884 633c
00000270: 46aa 1bbd e4c0 7b3c c2ca 623c a379 243d
00000280: 65f3 05bb f5b7 683d eeae c43c 38bd 29bc
00000290: c576 373c 8488 c2bb f90c ba3b a581 0e3d
000002a0: f11a d03c ab30 883a c80a 36bd 25d4 af3b
000002b0: 112a 17bd 3b4e 89bc 8b34 40bb e44b 2f3d
000002c0: 0d83 dc3c 505b 283c 10e1 1a3b 7366 af3c
000002d0: bdd3 333c 92ae f03b 5dbe 27bc 27ec 11bc
000002e0: ab54 2dbc acd7 39bc 2c85 193d e4bb 173d
000002f0: 594f 923b f065 7dbc c95f 12ba 693e 9a3c
00000300: 2db9 7e3c 705a 073c a14d f63c 59e4 873c
00000310: 62aa 0fbc 4b03 793c 395f 993c 85df 833a
00000320: 3c35 f93c 2833 253d f68c d23b b4df acbb
00000330: 2e4b f3bc 2c27 033d 7ec2 5a3c bc9a 533b
00000340: 530b 233d a096 febc e359 833c bf38 1abc
00000350: cfd0 903c 72f4 09bd bb3c b5bc bbd0 fdbc
00000360: 1df1 7c3c bb91 82bc a6cd 823c 26f0 143c
00000370: 8b4a 2dbc 3aa5 933c a23b bc3b 6fb2 0c3c
00000380: 1e3d 623c e935 8cbc 8d17 36bc 090b a4b8
00000390: 6734 473d e1d1 d1bb fab2 473b fe5f 833c
000003a0: f7f5 863b f53e 68bc f814 98bb 18ee b63c
000003b0: 1501 2d3d e3c8 503c 575a 283c 61f8 9dbc
000003c0: 53fc 9fbc 8021 b6bb 86b4 16bd f42f cdbc
000003d0: db49 333d 272e c53b 472b d7ba fb9d 013d
000003e0: ba56 b73c d2b1 24bd d33c 1fbd d578 2b3c
000003f0: 52a0 263c 1993 0d3d 793e c1ba deaf a93c

fc1.bias f4 [120]
0.007581375 0.019209228 0.030404689 0.043303326 0.0191075 0.045763288 0.063447505 -0.031789873
0.08489886 0.095677115 0.050378624 0.011369487 -0.0153666735 -0.026626129 0.022974418 -0.007810715
-0.017532738 0.023740212 0.0064097773 -0.0038567241 0.016061978 0.033483345 0.024750568 0.04055541
0.055520084 0.020251352 -0.001098374 -0.016390676 0.005357127 -0.011174001 0.046362188 0.05171361
0.0064146114 0.055052605 0.029102432 0.011742049 -0.032781404 0.009101928 0.035880372 -0.034163862
0.0121289175 -0.03334147 0.026725778 0.07186117 -0.013440359 -0.021296272 0.0523842 0.016350644
-0.0073896735 0.034710485 -0.044695444 0.014549222 0.05098546 0.030938651 0.003873199 0.059411082
0.055105966 0.025089948 0.024884932 0.022473589 -0.00027857043 0.07644555 0.033779047 0.063291706
0.053637855 0.019815361 0.04755137 -0.006452349 -0.012888025 -0.011139993 0.043172315 0.0058336086
0.04556742 0.025440438 0.046341017 0.0120757455 -0.022618385 -0.028455613 0.011185316 0.07835178
0.044222824 0.07691704 0.00078934815 0.060423408 0.04264122 0.056638815 0.06419872 0.075426884
0.07476593 0.0030659612 0.07995208 0.045159314 -0.00025102554 0.06477992 0.049463898 0.04668335
-0.04266508 0.024904178 -0.018545339 -0.007544981 0.056009714 -0.015542005 0.019810805 0.08428501
0.065309115 0.026648803 0.062378474 0.07591988 0.05279954 0.009792362 0.022194283 0.053714342
0.018360049 0.0094222305 0.03316415 0.02584283 -0.0004043884 0.08071426 0.055184986 -0.0007537816
00000000: 2f6d f83b ac5c 9d3c 4113 f93c d45e 313d
00000010: 5587 9c3c 4972 3b3d c4f0 813d 1936 02bd
00000020: 74df ad3d 5df2 c33d d159 4e3d 1647 3a3c
00000030: 80c4 7bbc 0a1f dabc d934 bc3c 07f1 ffbb
00000040: d1a0 8fbc d57a c23c 1c09 d23b 18c1 7cbb
00000050: 6994 833c d525 093d b4c1 ca3c 6e1d 263d
00000060: 0769 633d 2ae6 a53c 51f7 8fba bd45 86bc
00000070: d78a af3b 2813 37bc 47e6 3d3d a6d1 533d
00000080: a931 d23b d77e 613d 3968 ee3c b961 403c
00000090: cb45 06bd 4120 153c 4cf7 123d 68ef 0bbd
000000a0: 5eb8 463c 1191 08bd 05f0 da3c f32b 933d
000000b0: f434 5cbc 8575 aebc d190 563d c9f1 853c
000000c0: 1325 f2bb 952c 0e3d 9212 37bd dc5f 6e3c
000000d0: 21d6 503d 0e73 fd3c 7fd5 7d3b 0959 733d
000000e0: cbb6 613d 6f89 cd3c 7cdb cb3c 881a b83c
000000f0: 170d 92b9 7c8f 9c3d e65b 0a3d 159f 813d
00000100: 5eb3 5b3d d353 a23c 3ac5 423d 3a6e d3bb
00000110: 4b28 53bc 8484 36bc 74d5 303d db27 bf3b
00000120: e7a4 3a3d 7768 d03c 14d0 3d3d 59d9 453c
00000130: 314a b9bc bf1b e9bc 9e42 373c e676 a03d
00000140: fe22 353d ae86 9d3d 42ec 4e3a 897e 773d
00000150: 8fa8 2e3d 1afe 673d 9e7a 833d 6979 9a3d
00000160: e11e 993d 4bee 483b ebbd a33d f9f8 383d
00000170: 149c 83b9 56ab 843d a89a 4a3d 0a37 3f3d
00000180: 94c1 2ebd d903 cc3c 65ec 97bc e33b f7bb
00000190: 716a 653d e5a3 7ebc 454a a23c 9f9d ac3d
000001a0: c9c0 853d 974e da3c 9280 7f3d e27b 9b3d
000001b0: 5544 583d 2570 203c c9d0 b53c 9203 5c3d
000001c0: d067 963c b35f 1a3c 22d7 073d 58b4 d33c
000001d0: 1804 d4b9 854d a53d a709 623d 6d99 45ba

fc2.weight f4 [84, 120]
0.008331184 -0.002214494 -0.037875876 0.0113015035 -0.0351535 0.0479976 0.08630405 -0.027435897
0.004042334 0.07595578 -0.07746307 0.057918757 0.033146624 0.06288166 0.047973037 -0.0010814365
-0.07523159 -0.02650362 -0.08063888 -0.012697361 -0.03758873 -0.051916767 0.00022484791 -0.041302435
0.05434798 -0.023622632 -0.08739285 -0.073572785 -0.030512538 -0.08952074 -0.09864244 0.008425711
-0.03500483 -0.045311432 0.06430491 -0.063185915 0.088445246 -0.07496584 -0.0134965 0.04436871
0.029312432 -0.0055841575 -0.030995378 -0.081990846 0.02136109 -0.0394591 -0.06173081 0.05292105
0.101065226 -0.020582303 0.05568329 0.008694015 -0.020379426 0.059479065 -0.021090318 -0.090887666
-0.031498373 0.074026875 0.047688946 0.017934848 0.017838798 0.1060929 0.074181974 -0.0100088185
0.046789728 -0.04475365 0.085089006 0.009737259 -0.05327861 -0.024421467 -0.059656024 -0.0713473
-0.08980439 -0.028165452 0.047204424 0.008963689 0.07879531 -0.04251153 0.06465147 0.045275815
0.01796375 -0.027781203 -0.083871335 0.021469593 0.08072388 -0.029338256 -0.09228012 0.020827532
0.002228113 0.079105854 -0.06545114 -0.083906196 -0.06919294 0.006272431 0.040586162 0.0077700354
0.022525772 0.07906487 0.006538683 -0.07712932 0.07540671 -0.05203314 -0.072866604 -0.059555672
0.07428252 -0.08699325 -0.04967943 0.0680858 0.055360846 0.030145345 -0.08194048 -0.0672349
-0.03001636 0.018664727 -0.07523081 0.104492635 -0.08757822 0.027624214 -0.054678828 -0.08170642
-0.026194558 -0.04906788 -0.023372881 0.02778819 0.035276048 0.05168472 0.03113843 -0.028635526
0.10547455 -0.05334529 -0.029263442 0.06617975 -0.056776848 -0.04208469 0.038845275 -0.0737535
0.009821446 0.034218915 0.013219474 -0.013220861 -0.069834374 0.042896528 -0.08057914 0.02420661
0.042924095 0.06653618 -0.030079592 -0.07206473 0.066981316 0.02756118 -0.08380964 -0.00071089756
-0.021478951 0.07200815 -0.031206867 0.025697084 -0.07301658 -0.03562167 -0.06446643 0.035948176
-0.042414885 -0.031582657 -0.037504993 0.006332977 0.04677348 -0.069525525 -0.07169729 0.045547917
0.08565052 0.046107754 0.03471145 -0.07483664 -0.06730937 -0.08511236 -0.002792796 0.0904157
-0.041845694 -0.046646923 0.077175036 0.07012097 -0.016283646 0.029252853 -0.07049608 0.08356304
-0.030928342 0.08320486 -0.022955175 -0.03941825 -0.03162602 -0.045793932 -0.024391042 0.06756609
-0.049111772 0.044039372 -0.060061187 -0.013935174 -0.080930516 0.07428114 -0.036909662 -0.024126438
-0.011474345 -0.090831034 0.047325373 0.031855192 0.04565615 -0.0071001244 -0.035344094 -0.030975835
0.05835652 -0.05162941 -0.009453263 -0.001189071 0.068371005 -0.06444288 0.10613284 0.07922149
0.0060960045 -0.022763208 0.06701336 -0.08308293 -0.052112468 -0.019854374 0.05207072 0.01978953
-0.034764007 -0.030972246 -0.03598536 -0.06595337 -0.014279314 -0.0054751765 -0.05935804 0.07207628
-0.020818988 0.08210108 0.07295645 -0.08935903 0.08791017 -0.011678115 -0.0530039 0.06713522
-0.07165022 -0.051172446 -0.056066025 -0.05931647 -0.06307076 -0.12611124 0.003628963 -0.010486441
-0.12122292 0.004313387 -0.047129273 0.032843877 0.046848033 -0.05289439 -0.057103712 -0.022858461
00000000: 857f 083c 0b21 11bb bc23 1bbd f129 393c
00000010: 1efd 0fbd 2299 443d 2ec0 b03d 3fc1 e0bc
00000020: 8e75 843b b48e 9b3d f5a4 9ebd 383c 6d3d
00000030: c1c4 073d 1ac8 803d 607f 443d fdbe 8dba
00000040: 0513 9abd 1f1e d9bc ff25 a5bd 9808 50bc
00000050: a4f6 19bd ada6 54bd 27c5 6b39 be2c 29bd
00000060: fd9b 5e3d 4084 c1bc 06fb b2bd 54ad 96bd
00000070: 6ef5 f9bc a656 b7bd 0c05 cabd fe0b 0a3c
00000080: 3a61 0fbd 7b98 39bd 4bb2 833d 9e67 81bd
00000090: c822 b53d b187 99bd 6d20 5dbc f7bb 353d
000000a0: a020 f03c 4ffb b6bb 05ea fdbc d1ea a7bd
000000b0: 74fd ae3c de9f 21bd 72d9 7cbd bec3 583d
000000c0: 49fb ce3d 389c a8bc 2914 643d 5871 0e3c
000000d0: c1f2 a6bc 52a0 733d 9ac5 acbc 5023 babd
000000e0: 7004 01bd 679b 973d 7c55 433d 1aec 923c
000000f0: ac22 923c 3c47 d93d b8ec 973d 07fc 23bc
00000100: 96a6 3f3d 9a4f 37bd 2543 ae3d 0689 1f3c
00000110: ac3a 5abd 870f c8bc e059 74bd 891e 92bd
00000120: 5deb b7bd 3cbb e6bc 6d59 413d 70dc 123c
00000130: 6f5f a13d 9220 2ebd fd67 843d 2273 393d
00000140: b728 933c 6895 e3bc bcc4 abbd 00e1 af3c
00000150: 9052 a53d c856 f0bc 5cfd bcbd 809e aa3c
00000160: 8805 123b 4002 a23d 3f0b 86bd 03d7 abbd
00000170: 07b5 8dbd f788 cd3b ad3d 263d c89b fe3b
00000180: f887 b83c c3ec a13d 7342 d63b faf5 9dbd
00000190: d56e 9a3d b420 55bd 163b 95bd a6f0 73bd
000001a0: 6f21 983d 8429 b2bd a87c 4bbd 9170 8b3d
000001b0: 0ec2 623d 5ff3 f63c 69d0 a7bd 74b2 89bd
000001c0: dfe4 f5bc c5e6 983c 9c12 9abd 3c00 d63d
000001d0: 365c b3bd 2d4c e23c e8f6 5fbd b255 a7bd
000001e0: f895 d6bc 67fb 48bd 7c78 bfbc 0fa4 e33c
000001f0: 9e7d 103d 5bb3 533d 0516 ff3c 0d95 eabc
00000200: 0a03 d83d 9780 5abd e3b9 efbc 4089 873d
00000210: d78e 68bd ff60 2cbd 391c 1f3d 130c 97bd
00000220: 21ea 203c 2229 0c3d 7e96 583c 4f9c 58bc
00000230: 5305 8fbd 45b4 2f3d ad06 a5bd f14c c63c
00000240: 2dd1 2f3d 1f44 883d 7a69 f6bc ac96 93bd
00000250: 802d 893d fcc7 e13c 63a4 abbd 875b 3aba
00000260: a0f4 afbc 0279 933d 8ba5 ffbc b182 d23c
00000270: b789 95bd 07e8 11bd fa06 84bd 653e 133d
00000280: 3bbb 2dbd d15c 01bd d69e 19bd dd84 cf3b
00000290: 8c95 3f3d 6663 8ebd 07d6 92bd 7490 3a3d
000002a0: 8a69 af3d 7cdb 3c3d 982d 0e3d f443 99bd
000002b0: 7fd9 89bd 644f aebd 5707 37bb de2b b93d
000002c0: 6466 2bbd d810 3fbd f20d 9e3d 959b 8f3d
000002d0: 4865 85bc aea3 ef3c 4060 90bd 1923 ab3d
000002e0: 6f5d fdbc 4f67 aa3d 7e0c bcbc 0875 21bd
000002f0: 498a 01bd 6b92 3bbd b9cf c7bc 1760 8a3d
00000300: 6d29 49bd a162 343d b802 76bd 5b50 64bc
00000310: e6be a5bd b620 983d 962e 17bd cfa4 c5bc
00000320: e4fe 3bbc 9f05 babd 40d8 413d 977a 023d
00000330: f101 3b3d 29a8 e8bb f8c4 10bd 09c1 fdbc
00000340: 3f07 6f3d 5c79 53bd dce1 1abc 9ada 9bba
00000350: 1906 8c3d a1fa 83bd 2d5c d93d e03e a23d
00000360: fec0 c73b e879 babc 4d3e 893d 6227 aabd
00000370: e273 55bd a4a5 a2bc 1b48 553d a71d a23c
00000380: b464 0ebd 82b9 fdbc 6365 13bd 8f12 87bd
00000390: c9f3 69bc 1c69 b3bb 6b21 73bd bb9c 933d
000003a0: 958c aabc 9c24 a83d 316a 953d de01 b7bd
000003b0: 3f0a b43d 9155 3fbc 9e1a 59bd 317e 893d
000003c0: 5abd 92bd 339a 51bd 7da5 65bd d4f5 72bd
000003d0: 3e2b 81bd 4e23 01be e5d3 6d3b 52cf 2bbc
000003e0: b943 f8bd 5057 8d3b a00a 41bd 4d87 063d
000003f0: b9e3 3f3d caa7 58bd 95e5 69bd ab41 bbbc

fc2.bias f4 [84]
-0.060735323 0.033951305 0.080637954 0.04982489 -0.035964057 0.12767448 -0.037656017 0.060940612
0.12358173 0.10044604 -0.024055978 -0.06480945 0.04307 0.1104233 -0.080484636 0.12634455
0.042193618 -0.030645393 -0.01861061 0.034618955 0.15744478 0.06548973 0.016973214 0.07954146
-0.020427091 0.12980133 0.0032613676 0.12808384 0.087821946 0.030247465 0.005064762 0.019404653
0.008700284 0.02048953 0.022794224 -0.076808 -0.042370558 0.12429645 0.011632571 0.09196914
-0.046043262 -0.0056220316 0.076063514 0.095117114 0.04983025 0.0032770392 -0.0815997 -0.017823476
-0.00784294 -0.03331859 0.14427558 0.065178365 -0.021247521 -0.01826948 0.015848905 0.09843705
0.10992265 0.0903686 0.0031655773 0.13694209 -0.019907806 0.060179237 0.04605283 -0.038752504
0.033690564 0.0853804 -0.0019228553 0.16463761 0.12618677 -0.0005453051 0.12845968 0.093256906
0.063107155 -0.05417379 0.040927295 0.00362606 -0.0031212252 0.0002876749 0.05459195 -0.0028657068
0.088561535 0.110886134 0.058837876 0.07677823
00000000: 9ac5 78bd 8610 0b3d 8325 a53d 2f15 4c3d
00000010: 0c4f 13bd 19bd 023e 323d 1abd dd9c 793d
00000020: 6b18 fd3d a7b6 cd3d 0b11 c5bc d1ba 84bd
00000030: 2b6a 303d 9c25 e23d 21d5 a4bd 7760 013e
00000040: 37d3 2c3d 0c0c fbbc 4775 98bc 9bcc 0d3d
00000050: 3439 213e 7b1f 863d 690b 8b3c a2e6 a23d
00000060: b756 a7bc a4ea 043e abbc 553b 6928 033e
00000070: fedb b33d 88c9 f73c 4ef6 a53b 82f6 9e3c
00000080: a38b 0e3c a9d9 a73c f4ba ba3c 834d 9dbd
00000090: c08c 2dbd 238f fe3d 8a96 3e3c 515a bc3d
000000a0: dc97 3cbd 0539 b8bb 30c7 9b3d c3cc c23d
000000b0: ce1a 4c3d 98c3 563b be1d a7bd 8a02 92bc
000000c0: ad7f 00bc 1379 08bd fabc 133e 3c7c 853d
000000d0: 480f aebc e0a9 95bc 90d5 813c 5d99 c93d
000000e0: 201f e13d 2c13 b93d 9375 4f3b 8c3a 0c3e
000000f0: b215 a3bc 817e 763d e4a1 3c3d f2ba 1ebd
00000100: 1eff 093d ebdb ae3d 5108 fcba c396 283e
00000110: 1b37 013e cef2 0eba ef8a 033e 7afd be3d
00000120: 533e 813d 56e5 5dbd 61a3 273d 31a3 6d3b
00000130: 788d 4cbb 12d3 9639 cf9b 5f3d 95ce 3bbb
00000140: c05f b53d 4518 e33d fcff 703d e83d 9d3d

fc3.weight f4 [2, 84]
0.051631562 0.018294659 -0.11853027 -0.2868303 -0.029327223 -0.19905902 0.133639 0.086732246
-0.18752666 0.01437863 0.061001662 -0.04562152 -0.10215976 -0.14563425 0.1008561 -0.21902132
0.28430662 -0.018068502 0.04965686 0.11372032 -0.32797807 0.22203301 -0.23805891 0.030506538
0.011570703 0.2648651 0.25613028 -0.07653381 -0.3525095 -0.16260324 0.14752832 -0.15439232
0.017988866 -0.05475125 0.09683311 -0.11497326 -0.020606311 -0.05694088 -0.044368178 -0.31010705
0.19692269 0.21746123 0.05124825 -0.12815633 -0.3271232 0.13174391 0.038931537 -0.01321788
-0.15842208 -0.14318313 0.2752331 -0.014583252 -0.08424525 0.009784793 0.2314396 -0.14005564
0.2981077 -0.33509412 0.21684049 0.417226 -0.0073681464 -0.06217435 -0.08561631 0.16668487
0.2249699 -0.026176754 0.038591582 -0.2673103 0.33316833 -0.05738526 -0.28518623 -0.0836535
0.13943066 0.0067352136 -0.12617913 -0.0049560913 -0.03292188 0.18344201 -0.22586899 -0.092330426
-0.009535996 0.041968 0.15361428 0.21097267 -0.17032905 0.13093576 0.32455534 0.06979243
-0.09657969 0.19046167 -0.055979945 -0.190467 -0.22614545 0.2975996 0.0055636014 -0.21419704
0.20561346 0.115774825 0.035445806 -0.15685108 -0.0058449856 -0.20483325 -0.111092396 0.16749276
-0.28184807 0.2508495 0.0009632601 -0.027191812 -0.2002838 0.108121224 0.08684153 -0.31432664
-0.24043185 0.08192012 -0.07796858 -0.121228874 -0.25393793 -0.038759783 0.060104396 -0.17500465
0.1322178 -0.1793727 0.2800195 0.120497406 -0.03164129 -0.32636482 0.022499252 -0.2107193
0.09946862 -0.12552002 -0.07298512 -0.2159492 -0.06387132 0.06612229 -0.35056704 0.009982086
-0.038700983 -0.14217035 0.013028804 0.38517997 -0.1444453 0.08319748 0.21772003 0.34391037
0.07233251 0.028387137 -0.023352524 -0.04134153 -0.15855174 -0.01582803 -0.16313465 0.37064344
0.18954849 0.26653922 0.04548303 -0.1149707 0.2947173 0.02954029 -0.09721878 0.06730225
0.025281312 0.14584053 -0.101548985 -0.1626398 -0.35099915 -0.12487787 -0.20678316 0.2364132
00000000: 9e7b 533d aede 953c 00c0 f2bd 6cdb 92be
00000010: a53f f0bc 21d6 4bbe a9d8 083e ada0 b13d
00000020: fd06 40be 5894 6b3c e1dc 793d a2dd 3abd
00000030: 2339 d1bd 2521 15be a58d ce3d 2047 60be
00000040: a390 913e 6504 94bc fe64 4b3d 33e6 e83d
00000050: beec a7be 9f5c 633e b7c5 73be d9e8 f93c
00000060: 0c93 3d3c 669c 873e 8223 833e c2bd 9cbd
00000070: 207c b4be 7781 26be aa11 173e 0519 1ebe
00000080: 635d 933c d942 60bd 7050 c63d 1a77 ebbd
00000090: 91ce a8bc d73a 69bd 68bb 35bd 5ac6 9ebe
000000a0: 1aa6 493e 28ae 5e3e afe9 513d 6a3b 03be
000000b0: b17c a7be e0e7 063e ad76 1f3d cf8f 58bc
000000c0: 6639 22be 999e 12be 5aeb 8c3e 98ee 6ebc
000000d0: c688 acbd 6550 203c 81fe 6c3e bf6a 0fbe
000000e0: 93a1 983e 7591 abbe 6f0b 5e3e a59e d53e
000000f0: 7e70 f1bb 88aa 7ebd 9b57 afbd 70af 2a3e
00000100: 825e 663e a270 d6bc 3512 1e3d e5dc 88be
00000110: 0a95 aa3e ce0c 6bbd ee03 92be 8752 abbd
00000120: e9c6 0e3e 11b3 dc3b 1a35 01be b566 a2bb
00000130: 18d9 06bd 39d8 3b3e 334a 67be bc17 bdbd
00000140: de3c 1cbc a3e6 2b3d 104d 1d3e 3809 583e
00000150: bd6a 2ebe 0614 063e 1e2c a63e 55ef 8e3d
00000160: 93cb c5bd 6208 433e 3a4b 65bd c809 43be
00000170: ac92 67be fa5e 983e df4e b63b 7856 5bbe
00000180: 568c 523e 5a1b ed3d 9f2f 113d 929d 20be
00000190: 4b87 bfbb cfbf 51be 6984 e3bd 3983 2b3e
000001a0: 644e 90be 586f 803e 4b83 7c3a 5dc1 debc
000001b0: 3217 4dbe a96e dd3d f9d9 b13d 6cef a0be
000001c0: c433 76be bcc5 a73d fead 9fbd d846 f8bd
000001d0: 2704 82be 94c2 1ebd 0730 763d 6b34 33be
000001e0: 1a64 073e 7aad 37be b75e 8f3e 58c7 f63d
000001f0: 4c9a 01bd 4a19 a7be 5a50 b83c cdc6 57be
00000200: 34b6 cb3d 5288 00be 3979 95bd c921 5dbe
00000210: f7ce 82bd 206b 873d 867d b3be e78b 233c
00000220: ec84 1ebd 1b95 11be c476 553c 4f36 c53e
00000230: 78e9 13be 7163 aa3d 00f2 5e3e 0515 b03e
00000240: 1123 943d 248c e83c cb4d bfbc bc55 29bd
00000250: 635b 22be c9a9 81bc c50c 27be fac4 bd3e
00000260: 0019 423e d477 883e 6a4c 3a3d c275 ebbd
00000270: 30e5 963e 7afe f13c a41a c7bd c3d5 893d
00000280: c11a cf3c 3857 153e eaf8 cfbd 0c8b 26be
00000290: 29b6 b3be f8bf ffbd f7be 53be 4d16 723e

fc3.bias f4 [2]
-0.06968495 -0.046282016
00000000: fcb6 8ebd 3692 3dbd
