src/models/dagger-fix-2.onnx (onnx, 336968 bytes, 10 tensors)

conv1.weight f4 [6, 5, 5, 5]
00000000: 60b6 3e3c b98b 86bd 735a 0cbd 3e3e 89bd
00000010: 92eb 163d 1728 7abc 80ed 0dbd 79f3 41bd
00000020: adcf 03bc a6ca 92bc b045 853c 1be1 95bd
00000030: a39e 06bc 70e7 babc 1a81 603d 8e38 aa3d
00000040: 71a3 47bd c7af 8dbd 6e2e 72bb c2ca 013d
00000050: f359 043d d390 523d 347b 973d fc57 9fbc
00000060: f144 a3bc 9710 97bd 7993 733c 8afd cfbc
00000070: c40a 903c a5d8 663d 1520 67bd 9bc5 b53d
00000080: b3da c7bc 909d 1b3c b55a ee3b 20c0 6d3c
00000090: 0225 733d a937 b7bd c0de b0bd b8ef 0c3d
000000a0: ef1b b1bd 46ba aabd 4ec3 cc3b 593c d1bc
000000b0: 3b40 6b39 dbad 323d cf93 1dbc f38a a9bd
000000c0: 1f10 9bbd a903 b73d 1c84 703c 1eb5 3ebd
000000d0: c0a2 963d 3204 9cbb 7a72 6cbd bc67 813d
000000e0: 6c63 b6bd dc8a 5a3c 25ea 87bd 9bf5 85bc
000000f0: 9505 c2bc 5d1e 62bd 1069 183d bc5a 403d
00000100: 5774 8e3d 4df1 05bc 4da4 5a3c cfa5 3ebc
00000110: 9a4f ea3c 5b4e 3cbd bae4 44bd 9569 0c3b
00000120: da76 533d be76 583d dc43 86bd 590e 193d
00000130: 53ea 5dbd 0c37 903d f016 5a3d c0e1 dfbc
00000140: b49b 883d 4906 b3bd c4de afbb cf78 2a3d
00000150: 6e43 063d 704e 80bd cb6b a4bd 7563 8e3d
00000160: 25bc 6bbd 93e8 4cbd 4c7b 75bd a7b8 5cbd
00000170: dfce a03d eb0b 74bd 9149 cabc 61fe 843d
00000180: c2a1 4fbc 6cf6 81bd 4b79 46bd 9654 453d
00000190: 381f 983d 4f21 0cbd bdc3 1ebd e667 6bbd
000001a0: 806a f13c ae46 e4ba 1430 1abd e759 4b3d
000001b0: 24ef 733c 0161 80bd d3ce 673d cef5 36bd
000001c0: c6cc bdbc e696 2a3d 2c8f a1bd 64f9 a5bd
000001d0: 8b30 31bd 7e77 8fbd ee54 783c ea99 6a3c
000001e0: 8c5a 063d d6c4 913d 7f6b bdbc 524b 423d
000001f0: d77e 7abd 6dca f33b ca86 7ebd babc 423d
00000200: b960 523d bc0b 0ebd ca10 15bd f506 513d
00000210: 6cbe f73a 1b12 b03c 33f4 23bd 6c08 b63d
00000220: 43fb 9abd 691d 98bc cbc8 b33d 3ecb aebd
00000230: 50a4 b43d 85e5 1f3d b8b9 12bd 20d1 2ebd
00000240: ee67 19bd 95bd 51bc 9003 e6bb fd52 afbd
00000250: 2160 b5bd 566c 323d a58f 883c c62b a33c
00000260: 4ed3 bbba 312a 90bb aab1 a1bd 9ca8 27bc
00000270: 2be6 2ebd 6c7b a83c d13f 7a3d 4303 d1bc
00000280: 2d9b 35bc c6f0 903d 462c 30bd 8939 3d3c
00000290: 2496 75bd d92f 7abd 979c 883c ad55 f4bc
000002a0: 3d15 863d 69db 063d 7373 febc 0c73 a43d
000002b0: addd b1bd ce43 b2bd b515 a1bd f15e 9abd
000002c0: 3892 573d ba2f 673d 7e10 8b3c 5f64 dbba
000002d0: cd22 27bd 76e7 8bbd f6aa 2bbd 8c70 2d3d
000002e0: ab69 d1bb fa12 36bd abbe 6ebd 4ec2 683d
000002f0: e2a0 923d 4be2 293d ed2d debc 77fc 9d3d
00000300: 1d4f 053d 9831 06bc 0dc1 b43c 1ca5 e23c
00000310: 0571 973d 5329 c0bc 1151 84bd 57ca 85bd
00000320: 5305 6fbd 26e1 94bc feb0 7e3d 11da 843b
00000330: a85a a23d a3a3 313c e3ce 903c 98f4 fdbc
00000340: dcfd 60bc 6ca3 813d c47b 733b 7cc4 913c
00000350: 19cd 7ebd 13e7 82bd 446c cebc dcbe 7cbd
00000360: 5fcd 263c 8f07 973d 9494 b0bd 8646 50bd
00000370: e552 a6bd 17ba 40bd 6e3e 7d3c 8f22 913d
00000380: c055 7cbd 778e 2ebd 8f4c c63c 5fbb b63d
00000390: 46cd 75bc 7f99 6ebd 4971 25bc 1e12 0a3c
000003a0: 49e3 813a 216e 323c 2e0b 1bbc 6f09 3a3d
000003b0: 1099 9c3d 395d 53bd 5017 a0bd 1df6 f23b
000003c0: 724e b3bc 3161 203c 6135 943c 727c 673d
000003d0: ee09 f63c 5441 ecbc 3440 35bd ff31 793d
000003e0: 8b44 7b3b 958f b4bd 1989 5f3d dc26 9d3d
000003f0: 3414 a0bc aead 803d 567a 85bd 9d96 c93c
0.011640161 -0.06569619 -0.034265947 -0.06701325 0.03684575 -0.015268347 -0.034650326 -0.047351334
-0.008045119 -0.017918896 0.016268581 -0.07318326 -0.008216533 -0.022815436 0.05481062 0.08311568
-0.048739854 -0.069182925 -0.0036953944 0.031687506 0.032312345 0.051407646 0.07396546 -0.019451134
-0.019930335 -0.07376211 0.014866703 -0.025389452 0.017583258 0.056358952 -0.05642708 0.08875581
-0.024396276 0.009498015 0.0072739967 0.014511138 0.059361465 -0.08946163 -0.08636236 0.0344083
-0.08647906 -0.0833631 0.006248868 -0.025541471 0.00022435274 0.043622833 -0.00961776 -0.082784556
-0.07571434 0.08936245 0.014679935 -0.046559446 0.07355261 -0.0047612423 -0.05772636 0.06318614
-0.08905682 0.013338771 -0.066364564 -0.016352465 -0.023684302 -0.055204738 0.03720957 0.04696153
0.06955784 -0.008175206 0.013344836 -0.011636212 0.02860241 -0.045973163 -0.048069693 0.0021425236
0.051627018 0.052847616 -0.06555912 0.0373672 -0.054178547 0.07041749 0.05324453 -0.027329326
0.06670323 -0.08741433 -0.005367132 0.04161912 0.03277915 -0.06264961 -0.080283724 0.06952564
-0.057552475 -0.050026488 -0.05993204 -0.053887036 0.078519575 -0.05958168 -0.024693282 0.064938314
-0.012672843 -0.06345829 -0.048455518 0.04817637 0.074278295 -0.034211453 -0.03876089 -0.057472132
0.029469728 -0.0017416084 -0.037643507 0.049646284 0.014888559 -0.06268502 0.056593727 -0.04466801
-0.023168933 0.041647814 -0.07888636 -0.08104208 -0.043259185 -0.07005213 0.015156968 0.014318923
0.032801196 0.071176216 -0.023122547 0.047435112 -0.06115612 0.0074399025 -0.062140264 0.047543265
0.051361773 -0.03467916 -0.036392964 0.051032025 0.0018901355 0.021493008 -0.04002781 0.08888325
-0.075674556 -0.018568711 0.087785326 -0.08534859 0.088204026 0.039037246 -0.035821646 -0.042679906
-0.03745263 -0.012801548 -0.0070194677 -0.08560751 -0.08856226 0.04356035 0.016670058 0.019918334
-0.0014329941 -0.004399561 -0.07895215 -0.010233071 -0.042699974 0.020566665 0.061096016 -0.02551425
-0.01108436 0.07077174 -0.043010972 0.011549362 -0.05995764 -0.061080787 0.01667623 -0.02982601
0.0654702 0.03292409 -0.03106091 0.08029756 -0.086848594 -0.08704339 -0.078654684 -0.0753764
0.05262968 0.056442 0.016975638 -0.0016738287 -0.040804673 -0.06831257 -0.041911088 0.04234366
-0.0063907704 -0.04445169 -0.058287304 0.05682593 0.07159592 0.041475575 -0.027121508 0.077141695
0.03254615 -0.008190535 0.02206471 0.02766662 0.07394604 -0.023457205 -0.06460775 -0.06532734
-0.058354687 -0.018173765 0.06218051 0.004054316 0.079274476 0.010842237 0.017676776 -0.03100042
-0.0137324 0.063299984 0.0037152627 0.017793886 -0.062207315 -0.0639173 -0.02519811 -0.061705455
0.0101808 0.073744886 -0.08622089 -0.050848506 -0.081212796 -0.04705247 0.015456779 0.0708667
-0.061605215 -0.042616334 0.024206428 0.08922457 -0.015002554 -0.058251854 -0.01009781 0.008427171
0.0009909655 0.010890515 -0.009463115 0.045419153 0.07646382 -0.051602576 -0.078169465 0.007414593
-0.021887992 0.009788797 0.01809186 0.056515165 0.030034032 -0.028839745 -0.044250682 0.060838696
0.0038340415 -0.088164486 0.054574106 0.076734275 -0.019540884 0.06283127 -0.06517474 0.02460795

conv1.bias f4 [6]
00000000: 8aac b3bc e6db 34bd 4e27 193d 9dd4 283c
00000010: 9476 21be 329b 143d
-0.021932859 -0.044155024 0.037391 0.010304597 -0.1576789 0.03628082

conv2.weight f4 [16, 6, 5, 5]
00000000: a09c 2e3d 5ffe 83bd d2d1 60bc f04e 963d
00000010: e378 77bd 287e 0d3c ea73 5d3d 6e87 5b3d
00000020: ccce 973b b8c7 69bb 3c79 153d bcac 01bd
00000030: 55ac 06bd c0e6 6bbd a37f 203c 06e5 7cbd
00000040: 09b0 3e3c 2b68 433d 3470 13bd c806 09bd
00000050: c0d8 433d 372b 963c 9794 88bd f2ba cabc
00000060: c758 5cbd f3ad 0bba e994 aa3b 73b1 60bd
00000070: b12f 3e39 7c1e d23c 6fda 3abd c517 aabc
00000080: 88e3 233d 2025 bc3b 860b bbbc dfff 9abc
00000090: 36e6 593d 10fe 40bd e9d4 8e3d e201 353d
000000a0: 3254 7a3d e4bc 2a3d dc5c 1e3d ee02 3a3d
000000b0: 0999 d8bc 4c6b 89bc 38a7 593c 3760 213c
000000c0: d9b3 82bd 85b2 803d 2f26 543d 4de1 963d
000000d0: a7cf a23d 8b68 013d c31a 8dbd 479e a8bc
000000e0: 8cfa 6c3c 6bce 2ebd 2342 e5bb 8c72 92bd
000000f0: 52ed 823c 794e 9f3d ff84 44bd e223 0c3d
00000100: c5e4 8cbd 38ae 85bd f5fb 34bc fcac 3d3d
00000110: d68f aebb 93f2 a9bd 9464 543d d609 ad3d
00000120: 4647 f7bc bdaa 443d e4cd dcbc eb6c 183d
00000130: df73 5ebc bbff fb3d 2792 b73d c082 4aba
00000140: 7b41 2c3d bec7 5a3d 2c9b ac3d cc89 00bd
00000150: 4da2 373c c0c0 123e 3b13 823d 0625 babd
00000160: 471b 08be 591d 213c 229f 2b3e cdda 6d3d
00000170: add5 79bc d8b7 4ebe 73f8 18be 5212 443e
00000180: 8489 eb3d 6151 1fbd eb3b f1bd 8c9c 9cbd
00000190: 52f1 29bd c506 aabc aae2 7cbd 00ad 583d
000001a0: bcd0 93bc 5736 dcbb 1796 52bc 7732 69bd
000001b0: 4f71 1f3d 07f9 80bd bdc3 de3d ec5e 6b3d
000001c0: 6e31 72bd 5534 15bd 5a3a c2bd ccaf b73b
000001d0: 6b64 983d f187 ebbd 14fe 1dbd 5167 483c
000001e0: 476e 4a3b ef08 b73d 2928 dabd ecb7 f4bd
000001f0: 3ea4 c1bc f9d7 a63c 170a 92bd 7978 be3c
00000200: 8c48 663d d6a4 d13c 24c2 91bc 7b21 893d
00000210: 6e15 8cbd e4d6 8ebc 18f3 863d 812c 2f3d
00000220: 3d08 1f3d 512e 2a3d e8cb 6d3d c710 8bbc
00000230: adab 8fbd 4e15 bd3c e8db a63d 2d61 80bd
00000240: 075a 96bd 977a c6bc f095 59bd 12cc a03d
00000250: 5f8e 603d e4ca 0ebc d50a 74bd 1c0d 8fbc
00000260: 0c01 2b3d c5df 903c 8a7c 593d 1284 c63c
00000270: 4dc9 f8bb e8b7 5dbb e873 3c3d e1a7 573d
00000280: a562 01bc 739d 9b3d 70eb 1cbd 044b f63a
00000290: f58c b9bc 23ec 8bbc 6c79 6f3d 7e0b 84bd
000002a0: 7b02 84bd 1292 893d 67b0 093d 15b4 29bd
000002b0: ce58 e2bc ceaf 943d 125c 7e3d 2f48 76bd
000002c0: b1ab 923b f0f4 a23d cc7a 7d3c d9f7 4fbd
000002d0: 7e0a 653c 90e7 6bbd 7b97 953d ecef 2a3c
000002e0: 3a73 473d 5b2e 48bd bc27 5dbd 8eea f23c
000002f0: 2729 cebc 3fb7 913d e859 6b3c 7542 a73b
00000300: bf4c 9e3d 9cf6 9ebd 271e 973d b961 a2bd
00000310: 7f5a 8bbd ff0a ffbc 5119 53bd 79ff 373d
00000320: a09d 6cbd 0438 06bd ae01 183c 003a 3f3b
00000330: 3aca a03c 0dac 6b3c 48eb 983c 1440 203d
00000340: d913 4f3c beb8 ea3c 03ed 1c3d ecb1 433d
00000350: ecae d13c 0dc8 bcbb f2bd 6c3c f2fc 0abd
00000360: 4c06 15bd bb33 783d 6e00 6b3d 60e9 3c3d
00000370: a813 593d b5e3 1fbc cba3 1a3c ddb2 193d
00000380: 0a22 53bd e674 953c 336b 0b3e 084f 2b3d
00000390: 6af8 d73c 8403 0fbe 748d f83d 6bbe 2d3e
000003a0: a8e6 2a3e 4b8f 31bc 1e69 43be d7d3 6b3d
000003b0: 0959 203e e82d 153e 9f1c e2bd 163d 1ebe
000003c0: bf0c f13c 1e7b 1c3e d3aa 5e3d f954 b8bc
000003d0: 1d40 9dbd 5235 e33d 76a3 a93b bcea 70bd
000003e0: d314 d9bd ddce 42be 1897 0fbd 8254 443b
000003f0: def5 863d 5b1d 543d 2462 3fbc 5fcf 31bb
0.042629838 -0.06445002 -0.0137219 0.07339275 -0.06041802 0.008636035 0.054065622 0.053595953
0.0046328064 -0.003567202 0.03649257 -0.031658873 -0.032879192 -0.057593107 0.009796056 -0.06174185
0.01163865 0.047706764 -0.035995677 -0.033453733 0.04781413 0.018331153 -0.06668966 -0.024747346
-0.053795602 -0.00053283497 0.0052057398 -0.05485673 0.00018137578 0.025649302 -0.04561847 -0.020763287
0.040011913 0.0057417303 -0.022832643 -0.018920837 0.053198062 -0.047117293 0.06974203 0.04419125
0.06111545 0.041684046 0.038662776 0.04541295 -0.02644016 -0.016774796 0.013284497 0.0098496
-0.063819595 0.0628405 0.051794227 0.073671915 0.07949763 0.03159384 -0.0688987 -0.020583285
0.014464032 -0.042677324 -0.0069964095 -0.07150754 0.015982304 0.07778639 -0.047978397 0.034213908
-0.06879572 -0.0652737 -0.011046399 0.04630755 -0.005327205 -0.082982205 0.05185373 0.08449142
-0.030185353 0.04801439 -0.026953645 0.037213247 -0.0135774305 0.12304636 0.08963423 -0.0007725172
0.042054635 0.053413145 0.08428034 -0.031381413 0.011208129 0.14331341 0.06351324 -0.09089093
-0.13291655 0.009833657 0.16759923 0.058069993 -0.015248698 -0.20187318 -0.14938526 0.19147614
0.115008384 -0.03889597 -0.117790066 -0.076470464 -0.041489907 -0.020755181 -0.0617396 0.05289936
-0.018043868 -0.006720345 -0.012853167 -0.056932893 0.03892642 -0.06297498 0.10877178 0.05746357
-0.05912917 -0.03642686 -0.09483786 0.0056056734 0.07441028 -0.11500538 -0.038572386 0.012231664
0.0030888484 0.08937251 -0.10652191 -0.11949143 -0.023637887 0.020366656 -0.07130831 0.023250805
0.05622153 0.025591295 -0.017792769 0.06695839 -0.06840025 -0.017436452 0.06589335 0.04276705
0.038826216 0.041548077 0.05805579 -0.016975773 -0.070151664 0.023081448 0.081474125 -0.06268535
-0.0734139 -0.024228377 -0.053121507 0.07851423 0.054823276 -0.008715365 -0.059580643 -0.017462306
0.041749045 0.017684827 0.053097285 0.024232898 -0.0075923563 -0.003383154 0.046008974 0.052650336
-0.007897054 0.075983904 -0.03831047 0.0018790667 -0.022650221 -0.017080372 0.058465406 -0.064475045
-0.064457856 0.06717314 0.033615496 -0.041431505 -0.027630236 0.072600946 0.062099524 -0.060127433
0.0044760336 0.07956874 0.015471172 -0.050773475 0.013979552 -0.057593882 0.07304283 0.010433178
0.048693873 -0.048872333 -0.05399297 0.02965286 -0.025166107 0.071150295 0.014364697 0.005104358
0.07729482 -0.07761881 0.07378798 -0.07928795 -0.0680437 -0.031133173 -0.051537815 0.044921372
-0.05776751 -0.032768264 0.009277744 0.0029178858 0.01962768 0.014384282 0.018666878 0.03912361
0.012639009 0.028652545 0.03831197 0.0477771 0.025596105 -0.0057611526 0.014449583 -0.033932634
-0.03638296 0.06059621 0.057373457 0.046121 0.05299726 -0.009758879 0.009438465 0.037524093
-0.051546134 0.018244218 0.13615112 0.041823417 0.02636357 -0.13966185 0.12136355 0.1696717
0.16689551 -0.010837386 -0.19083068 0.057575073 0.15658964 0.14568293 -0.11040615 -0.1545299
0.029425023 0.1528134 0.05436213 -0.022501456 -0.07678244 0.110941544 0.0051769568 -0.05881761
-0.10599675 -0.19024225 -0.035056204 0.0029957597 0.06589864 0.051785808 -0.011681113 -0.002713166

conv2.bias f4 [16]
00000000: ebfd 313e f997 113d d276 0b3e 7c01 273e
00000010: 3a33 f1ba 9102 a7bd 313e 37bd dcdd a6bd
00000020: c1cf dabd 899f 87bd 3184 81b9 dfb0 42bd
00000030: 6a96 9b3c 6061 463d 653d 44bd 203a 23bd
0.17382018 0.035545323 0.13619545 0.1630916 -0.0018402108 -0.081547864 -0.044737045 -0.08147785
-0.10684157 -0.06622226 -0.00024703288 -0.04753196 0.018992621 0.048432708 -0.047910113 -0.039850354

fc1.weight f4 [120, 584]
00000000: 54a9 f1bc 8dd5 ae3c 8402 733d fb69 5dbd
00000010: 24ce e4bc 9c5a c73b 7dd3 693d 2b0d b73c
00000020: 3b5e aa3c 6f1c b63c 97a2 853c 9b13 833c
00000030: f0f8 eb3c 76fe 033d 694f c43c a595 96bc
00000040: d900 adbc 0c38 793c 6b0e c8bc 7924 a0bc
00000050: cf51 c9bb 25f3 803a 76de 583d 870f 693c
00000060: 98d2 d0bc a3d8 be3c fde3 1c3b ef4e 9e3c
00000070: e7c3 d5bc dfa9 21bd 0e75 ea3a 7711 533c
00000080: 1fe5 c1bc 471d d83c 93d9 243d 7c1a 0abc
00000090: 48a0 c03c b21a 7ebc 83ed 4bbd 9b29 4cbd
000000a0: e5da 573b f728 3abc c773 0c3d 4fb3 bebc
000000b0: 1af5 38bd 2b28 33bd ac64 c5bc c1a5 f3bc
000000c0: b450 13bc 0de9 d33c 3769 fb3b 6d37 f53c
000000d0: 03e0 95bc 98c9 d6bb ea4e 733c 5302 24bc
000000e0: 352c 8a3d 4e13 013c 1d2e 273d 9565 84bb
000000f0: ddd7 0fbd 9311 bcbc 3ddd b53c 84c6 dc3b
00000100: abaa 763d 3a05 13bd 29a1 183d d145 90bc
00000110: f204 b23c 962b 113d 2384 833d bb51 4dbd
00000120: 843f 37bc 6f1b 28bd 447b 64bd 00df 64bc
00000130: 5b8d bebb 94ed ec3b 955f 603c c7e0 143d
00000140: a05c 62bd 2f6d 9f3c 6585 3d3c 7404 a13c
00000150: 2491 e1bc 8e75 31bd facf 7bbd 2a9f 74bd
00000160: f288 803c f182 0e3d 6a89 953c a043 d8bc
00000170: b63a eabc 200b 1abd 0c16 453d 1a4f 34bd
00000180: 6bae 353d d5a9 52bc 8bbc e93c 6bff eabc
00000190: 1c08 c33a 9a09 33bc 7392 07bc 31fc 9abc
000001a0: 291b af39 39bb b1bc 406b a9bb a41c af3c
000001b0: 3ab2 24bd 626d c8bb 6459 92bd cc12 52bd
000001c0: e41b d13c 02aa abbc 1d9f 373d 29e1 3f3c
000001d0: 8b3f 55bd 9ced c1b9 25a5 d5bc 03b2 093c
000001e0: b4a3 9a3c f310 883c a998 47bc b254 cd3b
000001f0: 83f7 823b 919e 4a3d 413b edbc 852d bc3b
00000200: 7377 073d f00d 9abc 0e7f b03b 7a29 3abd
00000210: a67f 7b3c 942f 613d 8056 523d 4371 7a3b
00000220: 2956 27bd a0c0 56bd 34f7 963c 63d5 743b
00000230: efbb 833d 772a 733b 7691 943c 0977 efbb
00000240: 3912 93bb 04be eebc 7923 eebb 5d40 e73b
00000250: 7217 17ba 7608 e63c 2925 8e3c 6e27 203d
00000260: 346d fbbc 4739 b9bc 4227 873c 6657 1c3c
00000270: 0144 0fbd 7631 b13a 9633 e23c 44d8 95bb
00000280: 12b2 ffbc 3bd0 153d a8ea 7e3c 1182 a73c
00000290: 8f7d cf3c b11e 35bd 8ca8 d03b 6a93 ddbc
000002a0: 90ba d13c 5e27 26bd 714b d8bc 8910 c33c
000002b0: fa0c b93c 9462 d63c dd2b 5f3b ffde 1bbc
000002c0: 93ce 1d3d 4da6 963c a319 033d bd4c 063c
000002d0: 8bda b9bc 73c2 96ba b9e6 08bd 888d 95bc
000002e0: ef7d 8dbc b8b7 0a3a 8609 033d b1eb e5bb
000002f0: 95eb d33c 05bd 493d c98d cbbc 2aae 42bd
00000300: f78a 7b3c 1853 c93c 4cb9 053d 6d19 0d3d
00000310: e8ec 37bd de64 6e3c f6f7 18bd 0510 a3bc
00000320: 2c0a af3c e77a 993c c46c d3bc 2051 abbc
00000330: af41 a93a 5bf1 b7bc d747 f2ba 0c69 d83c
00000340: 92dc acbc 7138 bfbc c9bf 8dba 2dbe 3cbc
00000350: 35bd bdbc 6adf 27bd 0be0 edbc eea4 aebc
00000360: d8c8 193c 0fd3 3e3c 1325 89bb 402e 6d3c
00000370: d86a eb3b 003c 0fba fc50 c93c 2c02 633c
00000380: c0fb bbbc 66e0 ab3c 5ef4 17bd d807 803b
00000390: d8ee 14bc 5a46 1abd 28ad 043c 400e 92bc
000003a0: f6d4 123d b45c 073d 881d fd3c 8694 d7bc
000003b0: e404 7e3c f416 9b3c 8c1e 233c 18fd b63c
000003c0: 72e4 b7bc 6c33 dd3c a82e a5bb a6b9 173d
000003d0: 4427 22bc 8c0c 5abc 3f04 27bd 0004 81b8
000003e0: 37f0 a3bc 5030 f1bc 80e4 57ba fc31 cebc
000003f0: 4db8 acbc b0c3 303c f6eb 07bd 2c55 f13c
-0.029499687 0.021342063 0.05932857 -0.05405615 -0.027930327 0.0060837995 0.057086457 0.022345146
0.020796886 0.022230355 0.01631288 0.01600056 0.028805226 0.032225095 0.023963647 -0.018381903
-0.021118568 0.0152111165 -0.024420938 -0.019548642 -0.0061437855 0.0009838088 0.05294653 0.014224893
-0.025491044 0.02329666 0.0023939603 0.019324748 -0.02609439 -0.039468642 0.0017887668 0.012882582
-0.023668824 0.026381148 0.040246557 -0.008429166 0.023513928 -0.015509294 -0.049787056 -0.049844366
0.0032936868 -0.011362306 0.0342901 -0.02327886 -0.045155622 -0.04373948 -0.024095856 -0.029742124
-0.008991409 0.025867963 0.0076724547 0.029933656 -0.018295294 -0.0065547936 0.014850358 -0.01001032
0.06746713 0.007878138 0.04081546 -0.00404043 -0.035117973 -0.022957599 0.022200221 0.006737532
0.060221355 -0.035893656 0.03726307 -0.017611416 0.021730874 0.035441957 0.064216875 -0.050126772
-0.011184577 -0.041041788 -0.055781618 -0.013969183 -0.0058151907 0.00723047 0.0136946635 0.036347177
-0.055264115 0.019461242 0.011567448 0.019655444 -0.027535029 -0.043325 -0.06147764 -0.059722103
0.0156903 0.034792844 0.018254 -0.026399434 -0.028592449 -0.037608266 0.04811673 -0.04402075
0.04435579 -0.012857874 0.028532287 -0.028686246 0.0014879736 -0.010927582 -0.008274662 -0.018919082
0.00033398837 -0.02169572 -0.005170256 0.021375962 -0.040209033 -0.006116555 -0.07145956 -0.051287457
0.025525995 -0.02095509 0.044829477 0.011711397 -0.052062552 -0.0003698886 -0.026079724 0.008404258
0.018876888 0.016609645 -0.012182393 0.0062662 0.003996791 0.049467627 -0.028958919 0.005742731
0.0330729 -0.018805474 0.00538624 -0.04544971 0.015350258 0.054977015 0.051352024 0.0038214482
-0.040853653 -0.052429795 0.018428423 0.0037358634 0.0643233 0.0037104168 0.018135767 -0.0073078913
-0.0044882563 -0.02914334 -0.0072674123 0.0070572332 -0.00057636865 0.028080206 0.017351704 0.039100103
-0.03069172 -0.02261032 0.016498212 0.009542322 -0.034976963 0.0013518769 0.027612489 -0.0045729
-0.03121284 0.036575537 0.015558876 0.020447763 0.025328426 -0.044218723 0.0063677486 -0.027047832
0.025601655 -0.040564887 -0.02640316 0.023811596 0.022589196 0.026170053 0.0034053244 -0.009513616
0.038527083 0.018389845 0.03200687 0.008197007 -0.022687217 -0.0011502042 -0.03342316 -0.018255964
-0.017271964 0.00052916585 0.031991504 -0.007016622 0.02586917 0.04925253 -0.024847882 -0.047529377
0.015352956 0.024575755 0.032647416 0.034448076 -0.044903666 0.014550416 -0.03734585 -0.0199051
0.021367155 0.018735362 -0.0258087 -0.020912707 0.0012913252 -0.022453954 -0.0018484545 0.026417278
-0.02110127 -0.023342343 -0.0010814603 -0.011519951 -0.02316151 -0.04098455 -0.029037496 -0.021318879
0.009386264 0.011647 -0.004185328 0.014476359 0.0071843676 -0.0005463958 0.02457475 0.013855498
-0.022947192 0.020981025 -0.03709828 0.003907185 -0.009090148 -0.03766475 0.008097924 -0.01782906
0.035847627 0.033047393 0.03089787 -0.026315939 0.015504096 0.018931843 0.009956013 0.022337481
-0.022447798 0.027002059 -0.0050409622 0.037042283 -0.009897057 -0.0133086555 -0.040775534 -6.1519444e-05
-0.020012004 -0.029441983 -0.0008235648 -0.025170319 -0.021083975 0.010788843 -0.033184014 0.029459558

fc1.bias f4 [120]
00000000: 1ae6 053d c701 c43c 6f3b 843d 4283 3b3c
00000010: eb67 ce3c 97ba 503d 6656 b93c 8bb6 b13d
00000020: 2014 b23d ea17 283d cfad a23d 3a15 59bc
00000030: 71d5 80bc 3675 86bc 1ad8 bdbb cd46 8d3d
00000040: e8de c63d f20b 663c 036a 6f3d a846 063d
00000050: 68c3 abbc 7942 e83c d503 7f3b f3e5 85bc
00000060: bc63 063d f18b cb3c 4eb5 a73c 88cc 2d3c
00000070: 2f86 403d 3910 8f3d b0c7 e5bc 4fb2 8f3d
00000080: 823c fcbc b652 0a3c 4129 afba d0c8 233d
00000090: d7d5 613c 2369 d53c cf80 74bc e896 733d
000000a0: 3ea5 003c b9be 263a d5b8 afbb 6ec5 0b3d
000000b0: 54b8 92bc ca97 413c f5d4 f03c 3085 48bb
000000c0: 02c1 3b3c 03a7 473c 2b9e 123d a734 543c
000000d0: 0ca3 293d 5e82 503c 4162 8a3d 0626 88bc
000000e0: bec8 f23d 0063 143d a07b cc3b 2b4d 343d
000000f0: 880b fb3c 8e8b 94bb 4c7a a2bb f2d3 febb
00000100: 171c 723d 2a74 973d 9874 a03d 3d9e 833d
00000110: f76c 753d 51bc 913d 404d 3b3c 3e94 013d
00000120: 78bc 5e3d 3b70 8a3b 78e2 d13c 9c06 4f3a
00000130: cf42 5d3d fc08 e9bb 21ee 403d 8652 383c
00000140: 28a4 33bb d0a9 323d 8a03 6b3b ae68 f63b
00000150: e7ce 903c 4ed2 a43c 4ede 883d f43c 293c
00000160: 4195 95bb b2b6 b83c 8a1a 733d 1acc 8b3c
00000170: 555d 7c3d 772d 923c 4e4a 9bbb e675 5c3d
00000180: 147e 703d 9d59 223d ac22 e53c 15b9 84bb
00000190: bd43 323d 7f28 c5bc 6a3e 78bb 87cc 413c
000001a0: 1cd9 45bc 82a2 973d fc2e 263c b207 ba3d
000001b0: 3e0e 803d deb2 733d c548 923d 6ea6 d13d
000001c0: 2535 523d bacd 27bc c4d3 703d a25a 973c
000001d0: b04d 023d 6433 3b3d ec1d 98bb b30f f5bc
0.032690145 0.023926629 0.064566486 0.0114448685 0.025196036 0.050959196 0.022624206 0.086773954
0.08695245 0.04103843 0.079433076 -0.01324969 -0.015726777 -0.016413312 -0.0057935836 0.0689827
0.09710485 0.014040934 0.05845071 0.032782227 -0.0209672 0.02835201 0.0038912196 -0.016345
0.032809958 0.024847003 0.020472195 0.010607846 0.047002967 0.06985516 -0.02804932 0.070164315
-0.030790571 0.008442571 -0.0013363735 0.03998643 0.013783894 0.02605111 -0.0149232885 0.059470087
0.007851897 0.00063608174 -0.00536261 0.03412383 -0.01791016 0.0118159745 0.02939842 -0.0030596964
0.011459591 0.012185815 0.035795372 0.012952006 0.04141526 0.012726394 0.06757022 -0.016619693
0.11854695 0.036227226 0.006240323 0.044018906 0.030645147 -0.004533238 -0.0049584266 -0.0077767307
0.05910882 0.073952034 0.078347385 0.06426666 0.05991837 0.07115997 0.011431992 0.031635515
0.054378957 0.0042248047 0.025620684 0.0007897408 0.05401879 -0.0071116667 0.047102097 0.011250144
-0.0027411077 0.043618977 0.0035860264 0.007519803 0.017676784 0.020119812 0.06683026 0.010329474
-0.0045649116 0.022548053 0.05935148 0.017065097 0.061612446 0.017843945 -0.0047390824 0.053823374
0.058713987 0.039636243 0.027970634 -0.004050384 0.04352163 -0.024067162 -0.0037878999 0.011828548
-0.012075689 0.07404043 0.010143038 0.09083499 0.062527165 0.059496753 0.07142786 0.10236822
0.051320214 -0.01024192 0.058795705 0.018475834 0.03181237 0.045703307 -0.004642239 -0.029914713

fc2.weight f4 [84, 120]
00000000: 2b8d 08bd d69d 0dbd 5317 9abd 4819 1e3c
00000010: 7718 a2bd 23b9 b8bd 0fab a1bd 7ef6 9c3d
00000020: 3298 98bd 2bc0 94bc c340 773d 9344 713d
00000030: 0378 033c e199 6d3b 27c8 5f3b 0ad0 04bd
00000040: 68a3 c7bc acb6 0d3d 1628 62bd eb9a 1e3d
00000050: a4bc 81bd 4f2c c0bd 9250 903d 4180 783c
00000060: dd85 a8bd 03b0 9fbd 51fb 1cbc 23d7 ae3c
00000070: 0175 c2bc ff95 abbd 7c7d 81bc a70f 103c
00000080: 515b 96bd faf6 a73c 60db fbbc 20d3 70bd
00000090: 0151 c93c 8f68 20bd 819f 0b3d 00ea a3bd
000000a0: 7940 b23d 6ada 9d3d f205 123d 26e1 ba3c
000000b0: c28e bf3d 5d5f f7bb 60ec d3b9 cd06 bc3d
000000c0: 87a8 82bd b1a4 00bb 8b57 733d d80f 213d
000000d0: 50d2 39bd ae97 393d c6d9 b93d ebf2 67bd
000000e0: 9ea8 953d 2870 663d 6387 633d e51a 72bb
000000f0: 3a41 57bc 8141 733d 1900 633b 8dd3 1c3d
00000100: 6d28 5d3d 5128 583d e33a 873d 989d 973d
00000110: 0266 013c 1da4 9dbd cd89 053d c52a 90bd
00000120: b406 9a3d 02ec b23c 04d5 31bd c590 c5ba
00000130: f608 8abd 2325 89bc 05df d9bc 13d6 0fbd
00000140: 7074 433d 7b88 973d bad2 7c3c ab73 9dbd
00000150: 8f98 c03d 6854 af3d 5433 6abc 075e 0cbd
00000160: 580b dbbc 2296 62bd 6187 26bd ac3c 92bd
00000170: a4f5 bcbc 0edc 2ebd 41ce 95bd f7bb e3bb
00000180: 246d 97bc 85f8 b6bc fab0 d43b 9e7b b43c
00000190: e694 aebd 3f19 babc 945c 293c 04e1 b43d
000001a0: 3614 033d 61a3 553d c5d1 923d 00c7 d13c
000001b0: 0856 303d 6a11 fc3c 3639 d93c 5873 1abd
000001c0: c88a 7a3d 4b7f 8f3d 0ca3 bf3c 3981 b2bc
000001d0: 2c5d 96bd fd15 99bd 9769 03bd 0dd6 d53a
000001e0: 6a58 fcbd 9a0e 783d 206f b53d 151a 37bd
000001f0: 5850 aa3c ac48 e0bc d0b6 5bbd 7c28 b43d
00000200: 31eb bebd f7aa a83d 7aeb b43c 6347 24bd
00000210: ab27 0c3d e4dd d2bd 71e9 dabd 7c77 5dbd
00000220: e283 9c3b 710b b9bd 8d07 d13c a3f5 573d
00000230: 8036 83bd 6d1a 81bd a13e 58bd cdbd 563d
00000240: 4682 003d 0f35 08be 02b2 84bc 60b1 6ebd
00000250: 2898 a23d dbf6 173c 9362 9ebd 37bd 13bc
00000260: 7474 e3bc cd78 b8bd 3066 c9bc 4fcb 5a3c
00000270: b878 313d a9bf e93c 3f5b 1d3d d587 703d
00000280: 54d8 103c 9636 c43d 4a81 40bd 9abf a03d
00000290: c794 a03c abdb d03d 2211 06bc 6806 6dbd
000002a0: bd5f 92bd 8c4c 833b 38cc 513d 8784 95bd
000002b0: db68 b6bd 84b6 893d 98c1 2fbd 12e1 ea3c
000002c0: d4a2 333d 5154 53bd 00d5 a53d 9da4 0c3d
000002d0: 7fe8 d43b 2bb4 4c3d 0590 52bd 34a7 be3d
000002e0: e6f6 c9bd 1934 a93d 6d7c 753d 1594 623d
000002f0: a503 333d c2ee a6bd e7cf ec3d 1a01 9a3d
00000300: c298 d4bc 41ae 40bd c667 8e3c 4cd7 3e3d
00000310: e901 a43d f5c5 7b3d 63a2 bc3d 590f 81bd
00000320: 81b2 963d 3508 a63d 53a5 22bd 6a8e 8bbd
00000330: 910a 42bd f12a dd3d 5bad 1a3d 66a5 a23d
00000340: c058 a43d 7169 1cbc 9d56 eabd 0cf7 8bbd
00000350: fd52 043d f4ee 30bd 3d02 c5bd c305 a3bd
00000360: 162f fe3c 35fb e7bc 89d9 813c de18 173d
00000370: f3a1 7dbd ec12 b0bd e7da 31bd 795f c33d
00000380: 0805 40bd 6307 633d fd92 f03c f4c4 b33d
00000390: f1d9 9ebd afb4 db3b 4849 b53d afc2 b83d
000003a0: 2c70 0dbd 684a 67bc 5ea0 003d 77f5 d83c
000003b0: 87ab 90bc 7ba4 aa3d 0eec 443d 5a7b 273d
000003c0: 719b 6e3c e15a 81bc 82d9 4abc a4cc 9a3d
000003d0: 6e65 afbd abb5 4ebd a893 283d 28c8 0e3d
000003e0: 2e14 00bd c079 76bd 8141 383d 5fe2 68bd
000003f0: fe5f a3bc 48b0 14bd 121d 3a3d 5e18 f53d
-0.033337753 -0.034574352 -0.0752398 0.009649582 -0.079148225 -0.09019687 -0.07893955 0.07664202
-0.07450904 -0.01815804 0.060364496 0.058903288 0.0080242185 0.003625505 0.00341464 -0.032424964
-0.02436991 0.034598038 -0.05521401 0.03872196 -0.063348085 -0.09383451 0.070466176 0.015167297
-0.082286574 -0.077972434 -0.009581403 0.02134282 -0.023737432 -0.08378219 -0.015806906 0.008792794
-0.07341636 0.02050351 -0.030744255 -0.058795094 0.024574758 -0.039162215 0.03408766 -0.08003616
0.087037034 0.07707675 0.0356502 0.022812437 0.09353401 -0.00754921 -0.0004042117 0.09180985
-0.063798 -0.0019629414 0.05940966 0.03932175 -0.045366585 0.04531067 0.0907474 -0.05662815
0.07307552 0.056259304 0.055549037 -0.00369423 -0.01313811 0.05938864 0.003463751 0.038287688
0.05399363 0.052772824 0.066030286 0.074031055 0.007897856 -0.07697318 0.03260212 -0.07039408
0.0752081 0.021841053 -0.04341604 -0.0015073052 -0.067399904 -0.016741341 -0.026595602 -0.035116266
0.047718465 0.073990785 0.0154311005 -0.076880775 0.09404098 0.08561021 -0.014294464 -0.03426936
-0.026738808 -0.05531896 -0.04065645 -0.071404785 -0.02306635 -0.04269033 -0.073147304 -0.0069498974
-0.01848466 -0.0223353 0.006490824 0.022031602 -0.08524494 -0.022717116 0.010337014 0.08831981
0.032001697 0.052157763 0.071689166 0.025607586 0.043050796 0.030770022 0.026516538 -0.037707657
0.06116751 0.07006701 0.023393176 -0.021790134 -0.0734199 -0.07474897 -0.03208312 0.0016314402
-0.12321551 0.0605608 0.08859086 -0.04470261 0.020790264 -0.027378403 -0.05364114 0.08796784
-0.09322203 0.08235734 0.02208494 -0.040107142 0.034217518 -0.102962285 -0.10689057 -0.054069027
0.004776464 -0.090353854 0.025516296 0.05272449 -0.064068794 -0.063038684 -0.052794103 0.052427102
0.03137424 -0.1330149 -0.016198162 -0.058274627 0.07939178 0.0092751635 -0.07733645 -0.00901728
-0.02776549 -0.09007416 -0.02458486 0.013354137 0.043328017 0.028533773 0.038417097 0.05872329
0.008840639 0.09580724 -0.0469983 0.07849045 0.019602193 0.10198148 -0.008182796 -0.057867438
-0.07147167 0.004006928 0.05122015 -0.07300668 -0.08906718 0.06724265 -0.042909235 0.028671775
0.043856457 -0.051594082 0.08097267 0.034336675 0.0064974423 0.04997651 -0.05140688 0.09309235
-0.09861545 0.0826189 0.059933115 0.055317003 0.043704648 -0.08151008 0.11563092 0.07519741
-0.025951747 -0.04704118 0.017383467 0.04659204 0.08008177 0.061468083 0.0921066 -0.063017555
0.07358266 0.08107034 -0.039708447 -0.06814273 -0.04737336 0.10799206 0.03776298 0.079417035
0.0802474 -0.009546624 -0.114423014 -0.0683423 0.032305706 -0.043196633 -0.096195675 -0.07960083
0.031028312 -0.028318027 0.0158508 0.03688895 -0.061922025 -0.08597359 -0.043421652 0.09539694
-0.0468798 0.055426966 0.029366964 0.087778 -0.07756413 0.006704889 0.08851868 0.09021508
-0.034530804 -0.014116861 0.031402938 0.026484234 -0.017659916 0.083321534 0.04807668 0.04088912
0.014563427 -0.015790405 -0.0123809595 0.07558563 -0.08564268 -0.05046622 0.04115644 0.034858853
-0.031269245 -0.060174704 0.044984344 -0.05685651 -0.019943234 -0.036300927 0.04543788 0.11967538

fc2.bias f4 [84]
00000000: 2564 bf3c c793 c93d c265 1d3e 2066 21bd
00000010: 07e9 433d 7332 c93d c0bc fa3d 78a4 4c3e
00000020: 21a0 dbbc a265 8f3d c7c4 363e 98f2 45bd
00000030: 5db7 603d f26a 133d e407 293d 494f 62bd
00000040: bf45 b93c bac2 193e 3d1f debc 0af8 40bd
00000050: 8cb8 91bd 9a95 f43d ed81 1dbc 667f 553d
00000060: 436c 283d f8a5 64bc 7956 fb3c fe29 233e
00000070: d50a 4f3c a286 0d3d 9d91 233e 8da9 1cbb
00000080: eaac d33d e8a3 34bd 30e4 1ebb 1142 c23b
00000090: 70be b43d 2b59 c83c 013a 093e 5d70 0c3e
000000a0: dfb6 6b3d 664a ce3d 8ef0 783c 506c cc3b
000000b0: 39c3 9d3d 4bfd 87bd 157f f83c bd4b 483c
000000c0: cc9c 963d b28e c73d b108 febc fb9a 983d
000000d0: 193a c73d d123 003d 5d69 32bd a4be 2c3e
000000e0: c4a6 ce3d 36b9 7a3d 5458 1cbd 7ea7 a33d
000000f0: c286 d53d 7c36 163e 1abd 5a3d e948 babd
00000100: ed17 103d 6a18 f33d 9a90 3c3e e503 1a3e
00000110: 3a71 1b3d 8b59 e83c 3fb0 453d 4057 073e
00000120: ba77 073d 0d9a 91bd bc28 1e3e eb4d a7bd
00000130: 4e88 363d 2039 943d 688c 193d cd15 8ebc
00000140: e5db 9c3d 7aae 0d3e 0a60 943d e297 573d
0.023363182 0.098426394 0.15370849 -0.039404035 0.047829654 0.098240755 0.122430325 0.19984615
-0.026809754 0.07001807 0.17848502 -0.04832706 0.05486237 0.035990663 0.04126729 -0.055251393
0.022616265 0.15015689 -0.027114505 -0.04711155 -0.07115278 0.11942597 -0.009613496 0.05212345
0.04111887 -0.013955586 0.030680882 0.15933987 0.01263686 0.034552224 0.15973516 -0.002390477
0.10335715 -0.044101626 -0.0024244897 0.005928286 0.088253856 0.024456581 0.13401033 0.13714738
0.057547446 0.10072784 0.015194071 0.006238498 0.077032514 -0.06640109 0.030334035 0.012225089
0.073541254 0.09744014 -0.031010004 0.07451435 0.09727878 0.031284157 -0.043557514 0.16869599
0.10090402 0.061211787 -0.038170174 0.07990931 0.10426094 0.14669222 0.053402998 -0.09095938
0.035179067 0.11869891 0.18414536 0.15040548 0.03794978 0.02836301 0.048263784 0.13216877
0.033073165 -0.07109461 0.15445226 -0.081691585 0.044563584 0.07237458 0.037487417 -0.01734438
0.07659129 0.13836089 0.072448805 0.05263508

fc3.weight f4 [2, 84]
00000000: f928 2bbd 01a0 83be 5644 75be 4639 11be
00000010: e67b 22be ee7d 0dbd 876f 8a3d ad32 1cbe
00000020: 96dd 593d 65f6 9c3e 1ab4 233e 6c8c dd3d
00000030: 5616 6c3d 0005 fc3d d870 953d 071e a53d
00000040: 42d8 a13d 8759 7e3d 04fc 0f3d 957c 373d
00000050: fba5 d5bd 176c 9bbe 0f8d c9bc c57a d53d
00000060: ae12 143e 5f35 1cbe 5feb c63e c157 9fbe
00000070: 918b 413d e604 0fbd 78f4 4abe f2f2 063e
00000080: df67 0c3e 20b4 fe3d 0b56 ed3d 7fcc 083e
00000090: 368a 40be 6836 24bd f1de 99be 286b 47be
000000a0: 029c 5c3d 94c5 ac3e bfda 923e 65a5 993d
000000b0: 8543 4b3e e674 ec3d 8152 253e 5fa2 9e3b
000000c0: 7f98 2ebe e26b 953e 19b4 debd 8559 44be
000000d0: 3650 bebd 6d84 4e3d 25bc 93bc 74c3 9cbe
000000e0: 2576 d73d bad9 543c 649b 313e 399c 033e
000000f0: 1705 76be c5ee 26be f782 943b 09ad 6cbd
00000100: e1a7 233e 9d12 b73e 14d4 b03e c7fb 8fbe
00000110: 3a95 4fbd 8cff 83bd a31b 26be d7c7 87be
00000120: 933b 56be caa4 e2bd a5f3 c0bc 8f7c cabc
00000130: b6d1 2abd 8c80 a1be 50eb b23c 4a71 69bd
00000140: a182 543e fb7d a9bd c497 923d c4ea 293e
00000150: 3834 abbd c19a 02be 34ea ed3d ab1c 56be
00000160: 3222 2dbe fb02 a1be 5a69 81be 7a33 d53e
00000170: 21b6 e7bc 607a 03be d478 a2be 8f15 8fbc
00000180: c3fc 2dbe 3faf b83d 6a24 043e 8ba1 94bd
00000190: 6140 773e 6389 ab3e acff 243e 81c1 0bbd
000001a0: 0dd8 cebd 07e6 683d 28de 213d 52a6 83bd
000001b0: 5013 b93e 45af cabd 4c75 9cbd 3152 18be
000001c0: 96ab e33d 64dc 923c a825 40be 0367 da3d
000001d0: d7ae 803e a7bc 01be 5ccb 0ebe 8b23 2fbd
000001e0: 06a4 b5bd e8ee d3bd c619 193e cd53 b03c
000001f0: cdaf 5abe cd5c 21be 7b69 ec3d 915c 0bbe
00000200: f3d7 553e 11fa f6bc a79f 13be 2bf5 11be
00000210: 1a9e afba b9d1 113e 636d cd3d dc2d 8fbd
00000220: 0569 153e 5357 583d e7eb 99bd 86e2 6fbe
00000230: cab7 46be 995e ab3d e9da d63d d7ee a3bb
00000240: f6a6 2abd 4da2 783e ad78 5ebd 7115 38be
00000250: 80f7 8abe 424f 453a fc20 643e 8d81 fa3c
00000260: 0289 d23d 2686 043e 2644 4dbe 8093 2abe
00000270: 547a c53e fac8 4fbd 05cf b73e db18 173d
00000280: 19f8 2e3e 01ab 7abe 4d2b 04be 2581 0b3d
00000290: f098 89be f784 743e 9f5d 4fbe 4010 ee3d
-0.04178712 -0.2570801 -0.2395185 -0.14182004 -0.15867576 -0.034543924 0.067595534 -0.15253706
0.053189836 0.30656734 0.15986672 0.10817799 0.05763849 0.12305641 0.07296914 0.08062368
0.07902576 0.0620971 0.03515245 0.044796545 -0.10432049 -0.30355904 -0.024603395 0.10423807
0.1446025 -0.15254734 0.3885145 -0.31121638 0.04725224 -0.03491678 -0.1981982 0.13178614
0.13711499 0.124367 0.11588677 0.13359259 -0.18802723 -0.04009095 -0.30052903 -0.1947447
0.05385972 0.3374449 0.28682515 0.0750225 0.19849975 0.11545734 0.16144754 0.0048411335
-0.1705036 0.2918387 -0.10874195 -0.19174774 -0.09292643 0.05041926 -0.01803405 -0.3061787
0.10520581 0.012991363 0.17344433 0.12852563 -0.24025379 -0.16302021 0.004532214 -0.057782207
0.1598201 0.35756388 0.34536803 -0.28121778 -0.050679423 -0.06445226 -0.1622148 -0.26519653
-0.20921163 -0.11066587 -0.023553679 -0.024717597 -0.041703902 -0.31543386 0.021840721 -0.056992806
0.20752956 -0.08275982 0.07157853 0.16593462 -0.08359569 -0.12754346 0.11616936 -0.20909373
-0.16907576 -0.31447586 -0.2527569 0.41640836 -0.028285088 -0.12839651 -0.3173281 -0.017466335
-0.16990952 0.090178005 0.12904516 -0.072573744 0.24145652 0.33503255 0.16113156 -0.034120087
-0.10099802 0.056859996 0.039518505 -0.064282075 0.36147547 -0.09896711 -0.0763956 -0.14875104
0.11116712 0.017927356 -0.18764365 0.10664179 0.25133392 -0.12669621 -0.13944763 -0.042758506
-0.088691756 -0.10348302 0.14951238 0.021524334 -0.21356125 -0.15758057 0.11543556 -0.1360953
0.2088316 -0.030148538 -0.14416371 -0.1425368 -0.0013398558 0.14240159 0.100306295 -0.06991169
0.14590843 0.052817654 -0.07515698 -0.23426256 -0.19406047 0.083676524 0.104909725 -0.005002837
-0.041663133 0.24280663 -0.054314304 -0.17976929 -0.27141953 0.0007526764 0.22278208 0.030579353
0.102800384 0.12941799 -0.20045528 -0.1665783 0.3856989 -0.050728776 0.3590013 0.03688894
0.17086829 -0.24479295 -0.12907143 0.03405871 -0.26874495 0.23878847 -0.20250557 0.11624193

fc3.bias f4 [2]
00000000: a11e d93c 8881 0fbc
0.026503863 -0.00875891
