src/models/dagger-fix-4.onnx (onnx, 336968 bytes, 10 tensors)

conv1.weight f4 [6, 5, 5, 5]
00000000: c7a8 3ebd d8c3 11bd ea95 7abd d321 d2bc
00000010: 12fc a6bd c37a b23d 17c9 99bc f5f4 93bc
00000020: 3716 953d 6287 753d 0d4e f8bc f0c7 953c
00000030: 674e afbd 1851 7bbd fcae 3dbb dd90 d1bb
00000040: c0e6 8cbc 6f26 99bd 168a 113d e470 4dbc
00000050: da93 8ebd a401 a9bd e560 0cbd 4be8 6cbd
00000060: 4c2a 683c ff23 cbbc 7dee 9c3c 3077 6e3d
00000070: 0727 123d 484c 56bc fb9d 9d3d ee47 12bd
00000080: 9b1c 763c 690e a9bd b2e4 5abc 3fdd b03d
00000090: f1f1 c13c 364f d53b 51d0 6d3d 1b4c 85bd
000000a0: 65db 0d3d 0843 c2bc 8dbe 753b 863d 7cbd
000000b0: 517a 04bd 29bf 31bb 06c9 3bbd 8514 4e3c
000000c0: 642b 103c 8234 89bd 36ed 74bd b25c 46bd
000000d0: e732 d0bc ba1a 9e3d bc0c 75bc 53bc ad3c
000000e0: 38b9 1cbd 3bcf 983c 549c 853c d7d7 b6bd
000000f0: 80e7 b33d 8a19 903d a11b a43d 505b 16bb
00000100: e15f 40bd bcd3 cebc 4a17 6e3d 1adb 9b3d
00000110: 7411 b23d 812d b53d c6ec 6cbd b459 2f3d
00000120: e661 1c3d 4696 a93d cef2 133c 1fad 18bc
00000130: dcbd 6dbc 0f2e 5dbd 493a 4fbd 0a85 8b3d
00000140: 799d 203b a57e 28bd bc3e 2a3d c8b1 933d
00000150: 2c29 803c f24e e9bc dde1 38bd 128b d93b
00000160: e324 87bd 9d66 aebd a6ba 133d 9eb8 c9bc
00000170: e07c 74bb 7aa6 d5bc 3b90 4dbc f8ae 92bd
00000180: a0d1 933d 60c5 63bc 8aa1 8dbc 1396 aa3d
00000190: 21f1 b6bc 5267 57bd db13 323d 3c39 41bd
000001a0: b7c6 af3d 26c2 433d 5f4b e5bc 8aa9 72bd
000001b0: 6231 cc3c a589 8e3c 117a 1dbc 100d 803c
000001c0: 70fe a4bd 7992 a03d f252 a53d 5e82 c73b
000001d0: 3600 2d3d dacf 6fbc 5cb0 6ebd 0075 ad3d
000001e0: 4675 56bc 3f11 ab3d 8e65 9a3d de35 6cbc
000001f0: 2928 afbd dbf3 133e d2a3 453e 7e4b 323e
00000200: ca3e f83d c616 473d 2523 093e 36c5 353e
00000210: c489 3a3e 3537 653e 2d89 f03d b60c 183d
00000220: bd89 3e3e 6f2c fa3d 09d3 bc3d 22d0 503e
00000230: 3c76 c43d da84 a73d a8ed b73d 16e7 6b3e
00000240: 1a18 553d 8405 4fbd 0e6f cd3d 4446 a73d
00000250: 88f9 a53d 66f5 a83d f6bf bf3d e916 0d3e
00000260: 3ee9 363e 021a 4f3e 4a77 0e3e 18ff 113e
00000270: 95a4 e83d 1997 233e 78e7 113e 9374 003e
00000280: 66d7 d73d 4d80 063e ffc4 013e 2761 4e3e
00000290: e836 0e3e 63bf 2e3c 7de2 9f3d 5846 cf3d
000002a0: 7c91 5b3e 334e 513e fe74 5dbd ce69 783c
000002b0: e57b 143e bcaf c23d 3b3d bd3d b0e6 84bc
000002c0: 3c90 013e 8f13 1a3d 17d3 f53d 26a0 de3d
000002d0: d152 b53c 897b b73d 51d3 5b3e ec10 0b3e
000002e0: e305 dc3d bb2b 2a3e f496 d43d 4026 513e
000002f0: 112c 463e dd81 063e 48e3 f33d dbab f33d
00000300: 9297 c43d 1a69 ed3d aecf 4f3e 8d82 67bc
00000310: 1f9a 6ebc 74ab 2e3e 2a80 383e 1990 853d
00000320: f514 ab3d 05cd 8e3d b4b5 d13d 2a82 323e
00000330: 7d3d b23d 762d 1f3e 96b6 043e dd55 533e
00000340: 281e 593e 016b 2f3e eddb f33d 8ab5 b93d
00000350: 2151 683e 7595 183e 0ea8 623e e852 e33d
00000360: 84eb dc3d 8bc4 c53d a1c6 233e 608c bb3d
00000370: 62aa 12bd bfd7 963d 5550 563d 28ff f33d
00000380: c312 c73d 1967 1bbd 4a1e 223e 19c0 4d3e
00000390: 48df 143e eaa0 c83d 4f09 833d 6e6d 1c3e
000003a0: 6301 073e 6690 643e 7fb5 2a3e e547 123e
000003b0: d73f 133e 6f0f 1c3e 92dd 843e e8dd 5e3e
000003c0: f24f 9a3d 5fd6 ba3d d513 5e3e ce56 8e3d
000003d0: 614c 233e 3b9d 4dbd eb7d 083d 684f 353d
000003e0: 7aa7 9b3c 389b 703d 2f5f 3fbb 6310 48bc
000003f0: 95e5 87bd 5316 da39 825b b1bc 43dd eaba
-0.046547677 -0.03558716 -0.061178125 -0.025650894 -0.08153547 0.08714821 -0.018772645 -0.01806114
0.07279628 0.059943564 -0.030310655 0.018283814 -0.08559876 -0.061356634 -0.002894341 -0.006395443
-0.017199874 -0.07478034 0.03553208 -0.012539122 -0.06961794 -0.08252266 -0.034272093 -0.05783872
0.014170241 -0.024797438 0.019156689 0.058219135 0.03568175 -0.01307971 0.07696148 -0.03571313
0.0150214685 -0.08254702 -0.013360189 0.08635949 0.023674937 0.006509687 0.058059994 -0.065086566
0.03463306 -0.023713604 0.003749761 -0.06158211 -0.032343213 -0.0027121997 -0.045846008 0.012578134
0.008799408 -0.06699468 -0.059796534 -0.048428245 -0.025414897 0.077199414 -0.014956649 0.021207964
-0.038262576 0.018653503 0.016309895 -0.08927887 0.087843895 0.07036121 0.08013082 -0.002294261
-0.046966437 -0.025247447 0.05812768 0.0761015 0.08694735 0.0884657 -0.057842992 0.042810157
0.0381793 0.082806155 0.009030057 -0.009318619 -0.014510598 -0.053999003 -0.050592694 0.068124846
0.0024507924 -0.041136403 0.041563734 0.072116435 0.015644632 -0.028480027 -0.045137275 0.006638893
-0.065988325 -0.08515666 0.036066674 -0.024624165 -0.0037305877 -0.026080359 -0.012546594 -0.07162279
0.07217717 -0.013902038 -0.017288942 0.08329406 -0.022331776 -0.05258877 0.043475967 -0.047173724
0.08582824 0.047792576 -0.027990041 -0.059243716 0.024925891 0.017399618 -0.009611622 0.015631229
-0.080563426 0.078404374 0.08072461 0.006088539 0.04223653 -0.014636958 -0.05827366 0.084695816
-0.013089484 0.08352899 0.07538901 -0.01441714 -0.08552582 0.14448492 0.19300774 0.1741161
0.12121351 0.048605703 0.13392313 0.17751011 0.18216616 0.22384341 0.11744914 0.037121497
0.1860723 0.12215506 0.09219939 0.20391896 0.09592864 0.08179636 0.08980876 0.23037371
0.05202494 -0.05054237 0.100309476 0.08167699 0.08104235 0.08249931 0.093627855 0.13778271
0.17862412 0.20224765 0.13912693 0.14257467 0.113595165 0.15975608 0.14248455 0.1254447
0.10539131 0.1313488 0.12672804 0.20154248 0.13888133 0.010665747 0.07806871 0.10120839
0.21442217 0.20439987 -0.05406665 0.015161945 0.14500387 0.09506175 0.092401944 -0.016223282
0.12652677 0.03761631 0.12003153 0.1087039 0.022134217 0.08959109 0.2146733 0.13580674
0.1074331 0.16618244 0.103803545 0.20424747 0.19352747 0.13135476 0.11908585 0.11898013
0.09599222 0.11592312 0.20294067 -0.014130247 -0.0145631125 0.17057592 0.1801764 0.06521625
0.083536066 0.06972698 0.10239735 0.17432466 0.08703134 0.15544686 0.12960276 0.20638223
0.2120291 0.17130663 0.11907182 0.09067829 0.22687198 0.14900763 0.2213442 0.110997975
0.107871085 0.09656628 0.1599374 0.09157634 -0.03580702 0.07365369 0.052322704 0.119139016
0.097203754 -0.03794012 0.15831867 0.2009281 0.145383 0.09796317 0.0639826 0.15276119
0.13184123 0.22320709 0.16670798 0.14285238 0.14379822 0.15240262 0.25950295 0.21764338
0.075347796 0.09122919 0.21687253 0.069501504 0.15947105 -0.050198775 0.03332321 0.04426518
0.019000757 0.058741778 -0.002920102 -0.012210938 -0.06635586 0.00041596833 -0.02165008 -0.0017918724

conv1.bias f4 [6]
00000000: 22e4 f1bc acc2 88bd 3359 4f3d dd58 05bd
00000010: 6734 7fbc a40c 803e
-0.029527728 -0.06677756 0.050622176 -0.03255545 -0.015576459 0.25009644

conv2.weight f4 [16, 6, 5, 5]
00000000: 4549 d5bc 8000 0fbd 8346 94bd 59bc 3f3c
00000010: 3654 9fbd 73d6 bebc 18d0 36bd 6391 a43c
00000020: 8c61 75bd 16c4 8d3d 7d6c 33bd 93f9 753d
00000030: 9b74 70bd c648 9b3d cd15 0f3d ae6a 8c3d
00000040: 94d4 76bd 78ad 1d3d 68a9 ddbc dffb 103d
00000050: 42d1 d43c ece4 d1bc f68c 2dbd 7179 5b3d
00000060: 2973 9cbd 1b11 f93c 7e1a 183e a736 143e
00000070: 10c3 5d3d 32b6 0c3e cc2a 00be d857 e6bc
00000080: 0002 b9bd d00f f5bc 5829 61bd 78b3 12be
00000090: 340f 20be a636 c5bd 526b c5bc 5876 1cbd
000000a0: 0f9f b13c 9cc4 063d 452a a2bd 9ea8 6c3c
000000b0: 8d9f ca3c c92a 093e 8175 c73d 5b55 663d
000000c0: 1927 1f3d b7fc 0c3d b57a 90bd 52c7 73bb
000000d0: ef1b 983d 09dd c4bb b7f7 98bd cffb 5abd
000000e0: af90 853d bc86 95bd f05a 8bbd 138c 993d
000000f0: b3d3 2f3d 6f82 163c 10bc 4d3c 0101 5f3d
00000100: c418 35bc 6570 38bb a391 6d3d 6a61 c8bc
00000110: ea81 8cbc 1f9a 843c 0e9f 573c 0b15 773d
00000120: b4b8 1f3c fe9e d53b 468d 6e3c 08cd 863d
00000130: 574d 70bd 0559 523d b159 ba3c 900a 3abd
00000140: c3ad e93c 6a48 5d3d a94f b53c b453 943d
00000150: ea0f d9bc 46bf 0abd 1a11 aabc 6983 6b3d
00000160: b7ca 233c 82ef febb c990 66bd f50e 70bb
00000170: 5d3f 30bd 0da4 a6bd 8c83 873d 9e8a edbc
00000180: 3056 973c 7b9c dd3c 91c5 573d 409e 413c
00000190: 698d 123d cc14 993d 253f ff3c 7644 123d
000001a0: e9a4 54bd 8fbd 47bd e692 a43c d727 b9ba
000001b0: d172 14bd 7970 09bd 93b5 30bc 5525 1abc
000001c0: cf56 813d cb06 103d 92bf 393c 5bce 813d
000001d0: ac50 8a3c e9b8 6e3c 85f9 5dbd 2114 2fbd
000001e0: 8c35 9a3c 1e59 98bd 02ac 9c3c 7b07 84bd
000001f0: 94f6 f83c 3a08 e43c 5768 cd3d d01b a33c
00000200: e33f debc b748 313d c20b 3bbb 308f 543d
00000210: d9a2 dfbb 3783 a1bc defb 59bd c35d aabd
00000220: 6707 73bd 6af3 a6bd e218 3ebd 4b46 3cbd
00000230: 56cb fcbc efd4 153d 19af 51bd 958a 8c3d
00000240: cbf7 56bd 0dd2 993c 0ad0 4d3d 754a c8bb
00000250: d54d 17bd e330 6abc 4d20 313d 90d7 9c3d
00000260: 204e 36bd df83 213d da8a 963c e3db 8c3d
00000270: e8aa a43d 3e72 4a3d 6a80 9b3d 4679 3e3d
00000280: d60b 413d c324 913d bd87 93bd 8581 823d
00000290: 8316 42bd af74 3dbd efa7 15bd 141c b93c
000002a0: 39ae 25bd b39d 0f3d 29de 733c 9fdf 69bc
000002b0: a99d e63c 7dce 3d3d b583 6b3d 09aa aaba
000002c0: 6359 83bd 6027 b3bd c167 51be 9073 7bbe
000002d0: 0ba3 633d 1fd3 503d fe5e c13d 3197 8b3d
000002e0: 33f8 27bd 180f 963d bd3f 763d 7b8f 483e
000002f0: 2720 1c3e 2bfd adbd cf01 3fbd 3c2e e73d
00000300: a41e 0b3e c1a7 243e 4f99 8cba da64 8ebd
00000310: a3a2 16bd d90d 933d 6c56 cd3d 8c8f e1bd
00000320: 83ec c3bb c2c5 fe3c 98c2 973b 34d3 8fbd
00000330: 97dd 0a3d 1318 8ebd b741 1abd 3210 a13d
00000340: df21 bb3b 3a76 e3b9 e82c 9e3d f077 36bd
00000350: bcdf a0bd f50c 8a3c 5e9e 4abd e3ec c63b
00000360: d7f9 70bd 5db3 8c3d 15ea 633d 76de 27bd
00000370: b45b f93c 13f1 eebb e9ba a13c 42a4 263c
00000380: 8d91 7a3c 3b96 7cbd 0cf8 ecbc 2ca6 c83c
00000390: df4a b13b 7314 8cbd c00b 133d 1c9d 24bc
000003a0: b2c2 80bc 9a9b d3bc 6903 8dbb e8e4 6ebc
000003b0: fe28 403d b5e3 abbc f5d6 4cbd 8986 b63c
000003c0: 37d6 94bb d531 abbc 9037 14bd a82c 133d
000003d0: f566 c43b aaed 2f3d caa9 96bb 1051 8e3d
000003e0: a144 873d 7396 79bc 38c7 b1bc 4499 5a3d
000003f0: b288 05bc 5b43 6c3d 5dd0 72bc 5112 e93b
-0.026035914 -0.034912586 -0.072400115 0.01170262 -0.07779734 -0.023295617 -0.044632047 0.020088857
-0.05990748 0.06922166 -0.043804634 0.060052466 -0.058704954 0.0758224 0.0349329 0.06856285
-0.060261324 0.03849551 -0.027058318 0.035396453 0.025978688 -0.025621854 -0.04237076 0.053582612
-0.076391526 0.030403664 0.14853856 0.14473973 0.054141104 0.13741377 -0.12516326 -0.028118059
-0.090335846 -0.029914767 -0.05497107 -0.14326274 -0.156308 -0.09629564 -0.024099026 -0.0381988
0.02168229 0.032902345 -0.079182185 0.014444498 0.024734283 0.13395227 0.09739209 0.056233745
0.038855646 0.034420695 -0.070546545 -0.0037197662 0.07427203 -0.0060077948 -0.07469123 -0.0534628
0.06521737 -0.07301089 -0.06804454 0.0749742 0.0429265 0.009186371 0.012557045 0.054444317
-0.011053268 -0.0028143164 0.058000218 -0.024460513 -0.017151792 0.016186772 0.01316048 0.060322803
0.0097486265 0.0065191975 0.014560049 0.06582075 -0.058667507 0.051354427 0.022747846 -0.04542023
0.028525239 0.054024138 0.022132711 0.072425276 -0.026496846 -0.03387382 -0.020760108 0.05749837
0.009997061 -0.0077800164 -0.05629042 -0.0036630009 -0.043029178 -0.08136759 0.066168875 -0.028996762
0.018473715 0.027052155 0.05267865 0.011817515 0.03577939 0.0747467 0.03115804 0.03570982
-0.051915083 -0.04876476 0.020089578 -0.0014126253 -0.03624231 -0.033554528 -0.010785478 -0.009408315
0.063153856 0.03516273 0.011337178 0.06338187 0.01688417 0.014570453 -0.05419304 -0.042743806
0.018824361 -0.07438873 0.019124988 -0.06446739 0.030391015 0.027835954 0.10029667 0.019910723
-0.027130073 0.043282237 -0.0028540944 0.051894367 -0.006824833 -0.019715888 -0.053218715 -0.08318665
-0.05933323 -0.08151896 -0.04641045 -0.045965474 -0.030858677 0.036580022 -0.051192377 0.0686237
-0.052482408 0.018776918 0.05024723 -0.0061123916 -0.03693946 -0.014293882 0.043243695 0.07658303
-0.0445081 0.039432403 0.018376756 0.068778776 0.0804041 0.049425356 0.075928524 0.046502374
0.04713043 0.0708709 -0.072036244 0.0637236 -0.04738475 -0.046253856 -0.036537107 0.022596397
-0.040449355 0.035062503 0.01488451 -0.014274507 0.02815135 0.0463395 0.057498652 -0.0013020645
-0.064135335 -0.087477446 -0.20449735 -0.24555802 0.05557541 0.05098259 0.094419464 0.06815947
-0.041008186 0.07327098 0.06011938 0.19585983 0.1524664 -0.084955536 -0.046632584 0.112881154
0.13585907 0.16079618 -0.0010726842 -0.0695283 -0.036776196 0.071803756 0.10026249 -0.110137075
-0.005979122 0.031100158 0.0046313517 -0.07022706 0.03390273 -0.069381855 -0.037660327 0.07864417
0.005710825 -0.000433849 0.07723409 -0.044547975 -0.07855174 0.016851882 -0.049467437 0.0060707196
-0.058832016 0.06870148 0.05564316 -0.04098364 0.030439235 -0.007291922 0.019742446 0.010170998
0.015293491 -0.06166671 -0.028926872 0.0244933 0.0054105367 -0.06839838 0.035899878 -0.010047223
-0.015717838 -0.025831033 -0.004303385 -0.014580943 0.046914093 -0.020982603 -0.050009686 0.022280948
-0.004542138 -0.020897785 -0.0361858 0.03593126 0.0059937187 0.042951263 -0.004597877 0.06949055
0.06604887 -0.015233624 -0.02170144 0.05336882 -0.0081502665 0.057681423 -0.0148201855 0.007112779

conv2.bias f4 [16]
00000000: 5952 a0bc 144e b53c 8b8c bd3b adbc a93b
00000010: 23e9 30bd f2bc 41bd d749 14be d54a 54bd
00000020: 6948 343e 620d 0dbd 2d2e 373e 9e8b edbc
00000030: bc3e 6d3c 58df 4e3e d5e9 a1bc 49a7 703e
-0.019570516 0.022131957 0.0057845763 0.0051799626 -0.043191087 -0.047299333 -0.14481293 -0.051829178
0.17605747 -0.03443659 0.17888708 -0.028997239 0.014480289 0.20202386 -0.01976482 0.23501314

fc1.weight f4 [120, 584]
00000000: 095e 12bd 7f36 29bd fd49 0bbd d66f b13c
00000010: a525 dabc fbc5 ce3c a398 e53a 53fc 053c
00000020: bad9 adbc 6ee2 abbc bfbd 33bc c6da 07bd
00000030: aecc 8a3b c6db 44bc 383c 07bd d93f 943c
00000040: c060 ca3b 6604 2cbc 82a8 0bbd 4a5b 00bd
00000050: 6df6 773c 46bc 093d 47c8 423c d951 00bd
00000060: f9ad a63c b5a7 213d aeb3 d3bc cfa8 803c
00000070: 2d2e 0d3d 372d 09bd a489 f33a 4052 d13c
00000080: 498e 273d 7e72 27bd 158b 7c39 6147 573c
00000090: 0d3e c83c 32d9 503c 182f e0b9 c8d9 513c
000000a0: 48eb 413d e5a6 bf3c fe6b 06bd 7c12 203c
000000b0: 3638 3f3c d0b6 73bc 3991 f3bb 6ced 3abc
000000c0: a19b 9e3b 72ef 1dbc b072 8bbb f1ae 15bc
000000d0: d083 42bc 0c05 93bc 7c5e b83c 62dd 993a
000000e0: 8163 493c e911 c0bc b4e9 58bb 85d0 5abd
000000f0: 6780 cdba cb44 b03c 9d0a 0c3d be6f f4bc
00000100: c60b 19bd 552f 853c 2174 3c3d cf0c e83c
00000110: 45b2 10bc 4478 8d3b ecd9 9c3b a7bb 3dbd
00000120: 4cc5 4d3a f8bd c23c d11a 97bc 699d 17bd
00000130: dcfe dd3c 4a68 263c 8ebd 39bd db52 943c
00000140: ac45 15bd 70e6 8fbc 621d 2a3d 4c80 5ebd
00000150: e6e0 513c e593 f6bc 5d4a 7bbc ff2d acbc
00000160: bf97 2abd bd7b 3cbd 6cbf e7bc fe09 c53c
00000170: 7aa6 8cbc 7529 df3c 0e37 febb a400 bb3c
00000180: 5103 813c c168 5abc f28f 3ebd fe51 60bc
00000190: d05d 053c e64b 073d 6ad2 5cbd 291d e5bc
000001a0: db3b d6bc ec85 a9bc 5716 f43b b296 02bd
000001b0: a6f9 8d3b f119 33bc d9db 7fbc 2eb1 bcbc
000001c0: c86d 24bd 3d96 d33c 02ce 1e3c a7e3 aa3b
000001d0: 9c6e cebc d1f3 83bc 57be adbb 9e26 1d3c
000001e0: e406 a9bc f932 d8bb 2344 49bc ddee f03c
000001f0: aaac 01bd 3633 9a3a fdd9 603c a30e 053d
00000200: 2f3e 633c 265e 913c 3250 a8bb 4474 95bc
00000210: d1db b93c eccd 70bc 7fd1 febc 40b3 fc3c
00000220: 9f11 d1bc 4425 0dbd c3cc 493c 3a2a df3c
00000230: c4fe 4cbc 2199 e6bc d0d3 ac3c b8c8 863b
00000240: 2331 2bbc 51cc 5cbc fd5c 04bd d9da 063d
00000250: 8ae0 073c a5a0 05bd 3272 0f3d b9e7 9d3c
00000260: 3855 693c ed9d ab3c 5918 303c c469 ea3c
00000270: b3bf 01bd 08ee debc 8dfb db3c 89c6 46bb
00000280: 8799 923c 86d5 b9bc 43af 02bd 13ba b7bc
00000290: 917b ca3c 4357 01bd 4eea a33a 8d7e df3c
000002a0: 1ac7 a13b 8965 e0bb 3d9e 0cbd d6db 9abc
000002b0: 8221 11bd 432c 40bc b2bc 6dbc 2f44 c33c
000002c0: d646 00bd bfef bbbc 7297 fb3c fc26 c93c
000002d0: bbee efbc 2c9c 0abd 1911 7ebb 8ffb 003d
000002e0: 6cb7 ecbc 9899 bbbc c34e b6bb 4c42 d3bc
000002f0: f0ca 3bbd d2b8 2fbd 50a7 073b 2f33 8d3c
00000300: 4316 c83c 00df ad3b 783d 20bc 344b 1c3d
00000310: 2c74 b3bb 3222 52bc f7c2 2cbc 50ac 993c
00000320: 477a 67bc 687c b03c f540 383c 8443 a9bb
00000330: 25c5 223d 0458 2dbc dde5 93bb c1a0 23bd
00000340: 0014 8abc 8836 dbbc 4ff0 84bc 1a63 1e3d
00000350: 33d0 cbbc 81da b2bc c512 1c3d a5aa a53c
00000360: 4d95 12bc 14f4 403d b280 5c3b b7b7 aabb
00000370: 6075 1a3d 172e 383d 1b42 9dbc 8263 fbbc
00000380: 3972 7fbc b8ab 453c cf4c 8dbc 37f8 40bd
00000390: 0444 4cbc da8c 9b3a e922 92bc 6688 113d
000003a0: d28b 303d fe74 00bc 8e48 1e3d 98a8 52bc
000003b0: ccbd bdbc f182 d7bc 6c6d 9d3c a0e6 e4bc
000003c0: e15c 9dbc 4e1c c83c 11f8 773c b19b 0abc
000003d0: 0662 e8bc ed00 80bd 4e8f b33c bece 443d
000003e0: ffa6 433d ed9f 6abc 8d46 eb3c 9ce7 913c
000003f0: cc26 1abd 7ecc 7eb9 3a88 12bd 3f75 463b
-0.03573421 -0.041311737 -0.034006108 0.021659773 -0.026629278 0.025240889 0.0017516803 0.008177835
-0.021221984 -0.020981994 -0.010970532 -0.033167623 0.0042358255 -0.012015289 -0.033016413 0.018096851
0.0061760843 -0.010499096 -0.03409625 -0.03133706 0.015134436 0.033626817 0.01188857 -0.031328056
0.020346629 0.03946658 -0.025842514 0.015705494 0.034467865 -0.033490386 0.0018580449 0.025551915
0.040907178 -0.040880673 0.00024084405 0.013139577 0.02444365 0.012747096 -0.00042759697 0.012808271
0.047343522 0.023395011 -0.032817833 0.009770032 0.011671117 -0.014875129 -0.0074330834 -0.011409145
0.0048403298 -0.009639608 -0.004255615 -0.009135948 -0.011872247 -0.017946742 0.022505991 0.0011738951
0.01229179 -0.02344604 -0.0033098282 -0.053421516 -0.0015678526 0.021517178 0.03418981 -0.02983844
-0.037364744 0.016257921 0.046009187 0.02832642 -0.008831565 0.0043173153 0.0047867205 -0.046321537
0.0007849529 0.023772225 -0.018445404 -0.037015352 0.027099065 0.0101567 -0.04534679 0.018105915
-0.036443397 -0.017565936 0.041531928 -0.054321572 0.012809968 -0.030099818 -0.015337554 -0.021018026
-0.041648623 -0.046016444 -0.02828952 0.024052616 -0.017169226 0.027241448 -0.007758028 0.022827454
0.015748652 -0.013330639 -0.046523996 -0.013691423 0.008140042 0.033031367 -0.053911604 -0.027968006
-0.026151588 -0.020693742 0.007448952 -0.031881995 0.004332739 -0.010931478 -0.015616381 -0.023033705
-0.040143758 0.025828475 0.009692671 0.0052151266 -0.025199227 -0.016107472 -0.0053022313 0.009591727
-0.020633169 -0.0065978733 -0.0122843115 0.029410774 -0.031658806 0.001176453 0.013723847 0.03248466
0.013869806 0.017745089 -0.005136513 -0.018243916 0.022687824 -0.014697533 -0.031105755 0.030847192
-0.025521098 -0.034459367 0.012316885 0.027241815 -0.012511913 -0.02814919 0.021097094 0.004113283
-0.010448727 -0.013476447 -0.032315243 0.032923553 0.00829328 -0.032623906 0.035021015 0.019275533
0.014241509 0.020949328 0.010747992 0.028614886 -0.03167696 -0.027213112 0.026853347 -0.0030330739
0.017895473 -0.022684824 -0.031905424 -0.022427594 0.024717124 -0.03157736 0.0012505741 0.027282024
0.004937065 -0.0068480414 -0.034330595 -0.018903654 -0.035432346 -0.011729303 -0.0145103205 0.023836223
-0.031317554 -0.022941468 0.030711863 0.024554722 -0.02928864 -0.033840343 -0.0038767515 0.031489905
-0.028896056 -0.022900388 -0.0055635883 -0.025788449 -0.045847833 -0.042900868 0.0020699091 0.01723632
0.024424678 0.0053061247 -0.00978028 0.038157657 -0.0054764953 -0.012825536 -0.01054453 0.018758923
-0.014128274 0.021543697 0.011245956 -0.005165519 0.039738793 -0.010580067 -0.004513486 -0.03994823
-0.01685524 -0.026759401 -0.01622787 0.03866873 -0.02487955 -0.021832706 0.038103838 0.020222971
-0.008946729 0.04710777 0.0033646044 -0.005209889 0.037709594 0.04496583 -0.01919656 -0.030687097
-0.015591198 0.012064867 -0.01724854 -0.047111716 -0.012467388 0.0011867539 -0.017838912 0.03553047
0.043102093 -0.007840393 0.038643412 -0.012857579 -0.023161791 -0.026307555 0.019217215 -0.027942002
-0.019209327 0.02442756 0.015134827 -0.008459971 -0.028367054 -0.062501766 0.021918919 0.048048727
0.04776668 -0.014320356 0.028720165 0.017810635 -0.037634656 -0.00024299507 -0.035774447 0.0030282286

fc1.bias f4 [120]
00000000: f030 0b3d 717b b4bc 7900 13bc 111e cbbc
00000010: 239e 153d bd48 3e3d f7fc f1bb 756e c2bc
00000020: 5363 823d 8dd4 23bc 46b0 433d 0609 fdbb
00000030: 4a1f 003e 25a6 533b 92d4 b53d 7eae 023d
00000040: 6617 e03d 3d01 2a3c 73a4 843d a66e a03d
00000050: 13bd 1e3d 829d 8d3d 3059 4e3d 9be1 ae3d
00000060: bef4 f03c c9a6 fd3c eed5 1d3d 7779 683d
00000070: b130 293d e4bb e83d e1d5 a13d 5bf2 473d
00000080: df03 a43c 735b 973d 7595 23bd d90e 913d
00000090: 15cf 27ba a7ff 653d 784e 11bc 8a8d 9a3d
000000a0: 5e1a 5f3d d2f2 6c3d 54dc c43c 5732 d33c
000000b0: 80cb 193c a433 a13d e60c 933c 3153 b4bc
000000c0: b2b6 8bbc 3bb5 ac3d eb1f 113d 6a8c 7d3d
000000d0: b692 d53c 7c98 693d c096 eb3c 52a1 5a3c
000000e0: d073 ee3c 4b08 903c c7b0 fa3b c4bc 24bc
000000f0: 4bc0 383c 1c08 6d3d 7388 f53d 8904 0b3d
00000100: f511 213d e979 ef3c 3446 833d 34fe 043e
00000110: be29 093d 72b7 4f3d c239 853d b05a 133d
00000120: 5810 2e3d d031 5f3d 151b 813d 4ac9 913d
00000130: cfa5 eb3d 668e ab3d b742 d03d 28cf 843d
00000140: 450c 293c 110f a03d 6e30 a43d 4363 893c
00000150: cb0c a7bc 45b0 1a3e 212b 8e3d 4bc1 7a3d
00000160: 5cd2 73bd c08b f23c db49 3f3b 757c 16ba
00000170: 8b25 2d3d 2573 063d 9a68 e43d 14d7 0ebc
00000180: d09c 773d 2231 4a3d 2ece 8d3b 641b cdb9
00000190: fc6c 4f3d 69dc 063c fbe6 6f3d 458c b53c
000001a0: 0e44 6a3d 4f63 003d de0c b43c 775e 0e3d
000001b0: 665a 003d 7c06 7b3c 0baa 833d f400 4cbc
000001c0: b788 4e3d b78c 13bc 8a80 093c 9c97 723d
000001d0: 2766 d83c 8047 f83c 7b56 f53a 38f2 3ebc
0.033982217 -0.022031518 -0.008972281 -0.02479461 0.036527764 0.046456087 -0.007384892 -0.02373431
0.06366601 -0.0099994065 0.04777553 -0.007722023 0.12511936 0.0032295075 0.08878435 0.03190469
0.10941963 0.010376272 0.06476679 0.078336045 0.038754534 0.06914808 0.050378025 0.085391246
0.029413577 0.030963318 0.038534097 0.056756463 0.0413062 0.11363962 0.07902122 0.048815113
0.020021377 0.073904894 -0.039937455 0.0708291 -0.0006401402 0.056152012 -0.008868806 0.07546528
0.054468505 0.05784876 0.024030842 0.02578084 0.009386897 0.07871178 0.017950486 -0.022012325
-0.01705489 0.084330045 0.03543083 0.061901487 0.026070934 0.057030186 0.028758407 0.013344126
0.029107958 0.01758208 0.007650468 -0.010054771 0.011276315 0.05786906 0.11988916 0.033939872
0.039323766 0.029232936 0.064098746 0.12987596 0.033487074 0.050712056 0.06505157 0.03597516
0.042496055 0.054490864 0.063039936 0.07118471 0.11506235 0.0837677 0.10168975 0.064848244
0.010317867 0.07815374 0.0801705 0.016770964 -0.020391842 0.15106304 0.0694182 0.061219495
-0.059526786 0.029607654 0.0029188308 -0.00057405914 0.042272132 0.032824654 0.11152764 -0.008718271
0.060452282 0.049363263 0.004327557 -0.00039121055 0.050641045 0.008231261 0.05856989 0.022161612
0.05719381 0.031344708 0.021978792 0.034758057 0.03133621 0.01532137 0.064289175 -0.012451399
0.05042335 -0.009005717 0.0083924625 0.059226617 0.026415898 0.030307531 0.001871779 -0.011654429

fc2.weight f4 [84, 120]
00000000: 0673 183d 60a9 8dbd f6de fe3b 91a7 79bc
00000010: 6813 0fbb adc2 063d 5134 dc3a 5eb9 a9bd
00000020: ff85 8c3c 3f8c 3d3d c3df 913c 216e 543d
00000030: c715 5d3c 33d9 3cbd 5ee9 8e3c a71f 88bd
00000040: 688e e83c e17f 883d c8d9 04bc e008 a13b
00000050: db32 373d d410 93bd 02b1 853d c067 a03d
00000060: 85fc 47bd f247 0fbc 7878 f43c 788f 1abd
00000070: d55a 1bbd 5468 d23c 41fa 983d cf76 573d
00000080: b98f 8cbd ed3d 243c deb8 9b3c 9603 5fbd
00000090: 55f1 8c3d 6e66 b13c e1fb 903d 5d56 39bd
000000a0: 53c8 37bd ae8b a53d 2492 4ebd 57e3 b33c
000000b0: 720f 563d 9b18 3cbd 2c66 0ebd 8f08 1abc
000000c0: cd9a 4d3d 9df3 45bc 74a4 d8bd f887 9cbc
000000d0: 814e 163d 2570 3e3c 9bbe 4f3c 9d9b 983d
000000e0: 11ea 983d d647 883d b856 e63a 3251 74bd
000000f0: eeb0 92bd 9398 963b 953c b1bd 58e9 63bd
00000100: a154 253c a7ae 4cbd ecf9 483d f4b5 d6bd
00000110: b482 baba 53a1 8d3d eaec 6a3d c753 243d
00000120: 4fe0 383d c5d8 cdbd 5780 b93d b693 4fbc
00000130: 8fbf 613d 8dc8 643c 91b8 a03d 2a2b a73d
00000140: 4bfb ad3c 482a 563d 7b50 96bd 21e2 0abc
00000150: d541 75bd a000 10bd 8710 303b f9aa 853c
00000160: bd7b 3cbd 802e 7cbd aa7c 373d 14a0 82bd
00000170: be97 883d 52cc 95bd a48e 8fbd e6c1 a83c
00000180: 108b bbbd 41b9 86bc a2d7 523d 61b9 84bd
00000190: 2f4d 1bbc de92 ad3d dc5b 17bd de19 bf3d
000001a0: e671 623d bf1d 01bc 3be8 6b3d 780b 85bd
000001b0: c160 2c3c 8fb2 183d 7781 d43d eb91 b9bd
000001c0: 0314 9ebd 1b42 083c 8ef4 3a3d 47da e73b
000001d0: d700 193d 78c5 0cbd bb34 473d 2d58 023c
000001e0: 70e8 67bd 10f5 a33d 4df0 70bd d932 7f3d
000001f0: c6ee 5cbc 6ab4 ee3c 7ef2 95bb d27b b5bc
00000200: 4148 6abd 982b 003d b08d 513d a43d b83d
00000210: 28bd 59bd 1379 1b3d a9fd b4bb b950 233d
00000220: 1ce3 92bd 3d55 7abd a8f5 983d 96e9 de3a
00000230: 6aa6 203d ed66 33bd 994e 97bd 58a6 a7bc
00000240: 4dd3 883c e5a8 0f3c 14e9 1fbd bbee 3abc
00000250: 1ded b0bd 9abc fbbc 64ad a93d 84a2 683c
00000260: ca0e 10bd 1168 8f3d 5273 c6bc 66f8 b5bb
00000270: bd77 99bd c4ca 723d e87f 4ebd 0afe 58bd
00000280: b163 00bd e875 94bd ab79 b5bc e445 47bd
00000290: 13eb 143c cbd7 30bd 178f 7c3c c0ff 993d
000002a0: 9eb3 afbc 64e6 153d c267 3d3d 0dc2 8bbd
000002b0: f0a3 2b3d 89c3 46bc 10f8 d33c cbe7 0b3d
000002c0: 41b2 723d c413 8a3c b1d8 9e3d b356 c0bd
000002d0: 43c2 00bd 5bac 49bd aaab 4d3c 6eb7 10bd
000002e0: ce9e bcbc d9ab 89bd 4604 84bc ad89 813d
000002f0: 7147 923c 8be2 193d 8cba 8cbd 5cc2 45bd
00000300: ef6b 073c 27ad 54bd d6f2 a53d b591 a7bd
00000310: d99f c1bc e816 2fbc 7a70 e73c c364 093d
00000320: 8cd8 b2bd d30b 27bd 80ae 91bd 8187 ebbc
00000330: f8ad 9b3d 0f9f 023e 0691 153d 3ddc bcbd
00000340: f6e1 593d 4c26 023d 0cff a23c 89d4 133d
00000350: 4b99 bfbd e2f7 5c3d e692 c83d f72a 83bd
00000360: ff91 803b 1f41 15bd 1eda ddbc c7d6 033d
00000370: 9df6 983b 5b91 1dbd d3a9 873d 73ee cdbc
00000380: e0f2 453c afaf 5e3d 2e7f 06bd 2519 51bb
00000390: e94c a83d 7051 efbb 8775 9abd fd31 933c
000003a0: ff5a a7bd 468a bdbd 6f31 97bd 73be e03c
000003b0: aecc aabd 491e 1bbd 5511 86bd 7463 eebc
000003c0: 2896 6fbc 60b8 20bd 5175 ffbc e69e ad3d
000003d0: be47 34bd cbd1 b5bd 838a 06bd 1288 96bc
000003e0: 6177 46bb 579e edbb a368 6abd d687 993d
000003f0: e13d fe3c 1622 273c fb2b 1bbc 610d aa3d
0.03721907 -0.06917071 0.007778044 -0.015237705 -0.0021831635 0.0329005 0.001680026 -0.08287309
0.017153738 0.046276327 0.017806893 0.05186284 0.013493962 -0.046105575 0.017445263 -0.06646662
0.028388217 0.06665016 -0.008108564 0.004914388 0.044726234 -0.07180944 0.06527902 0.07832289
-0.048824806 -0.00874518 0.0298426 -0.03773448 -0.03792842 0.025684513 0.07469607 0.05260354
-0.068633504 0.01002453 0.01900905 -0.05444678 0.06881968 0.021655288 0.07079292 -0.045248378
-0.04486878 0.080832824 -0.05043234 0.02195899 0.052260824 -0.045921903 -0.034765407 -0.009401455
0.050196458 -0.012082008 -0.10578242 -0.019107804 0.03669596 0.011623417 0.012679721 0.07451556
0.074665196 0.066543266 0.0017573452 -0.059647746 -0.07162653 0.004595825 -0.08654133 -0.055642456
0.010090978 -0.04997125 0.04906647 -0.104839236 -0.0014229626 0.06915536 0.057354845 0.04011896
0.045135792 -0.10051111 0.09057682 -0.012669494 0.055114325 0.013963831 0.07847703 0.0816253
0.02123799 0.052286416 -0.07339569 -0.008476765 -0.059877235 -0.035156846 0.002686532 0.016316878
-0.046016444 -0.061567783 0.044796623 -0.06378189 0.066695675 -0.07314362 -0.070096284 0.02060027
-0.091573834 -0.016445758 0.051475175 -0.06480671 -0.009478851 0.08475278 -0.03695284 0.09331106
0.055284403 -0.007880627 0.05759452 -0.06496328 0.010521115 0.03727966 0.10376256 -0.09061035
-0.07718661 0.008316542 0.04564338 0.0070755812 0.037354317 -0.03436801 0.048634272 0.007955593
-0.056618154 0.08005726 -0.05882292 0.06230435 -0.013484662 0.029138763 -0.0045760265 -0.022153769
-0.057197813 0.031291574 0.051160514 0.08996132 -0.05315891 0.037957262 -0.0055234027 0.039871905
-0.07172224 -0.061116446 0.0746873 0.001700687 0.039221205 -0.04379933 -0.07388038 -0.020465061
0.016702319 0.008768295 -0.03904064 -0.011409457 -0.08638976 -0.03072958 0.08285025 0.014198903
-0.035170354 0.07002271 -0.02422491 -0.005553293 -0.074935414 0.059275404 -0.05041495 -0.052976646
-0.031345073 -0.07249051 -0.022152742 -0.048650637 0.009089249 -0.043174546 0.015414975 0.075194836
-0.021447953 0.03659667 0.04624153 -0.068241216 0.04190439 -0.01213158 0.025875121 0.034156602
0.059252027 0.016855128 0.07756174 -0.093915366 -0.031435262 -0.049236637 0.012553135 -0.035331182
-0.023024943 -0.067222305 -0.016115319 0.06325088 0.017856332 0.037569564 -0.068715185 -0.04828106
0.0082654795 -0.051922943 0.08102958 -0.08182088 -0.023635792 -0.010686614 0.028251875 0.03354336
-0.08732709 -0.04078276 -0.07113361 -0.028751137 0.07601541 0.12755989 0.03651526 -0.092216946
0.05319401 0.031774804 0.019897006 0.03609136 -0.0935541 0.053947337 0.09793644 -0.06404679
0.003923654 -0.036439057 -0.027081545 0.03218725 0.0046680705 -0.0384687 0.06624188 -0.025138116
0.012081832 0.054366764 -0.03283613 -0.0031905856 0.082177944 -0.0073034093 -0.07541948 0.017968172
-0.08171653 -0.09254889 -0.073824756 0.027434563 -0.08339821 -0.03787068 -0.065462746 -0.029100157
-0.014623202 -0.039238334 -0.03118387 0.08477573 -0.04401373 -0.088779055 -0.03284694 -0.01837543
-0.0030283558 -0.0072515416 -0.057228696 0.07496612 0.031035366 0.010200998 -0.009470935 0.08303333

fc2.bias f4 [84]
00000000: f243 6d3d aedc eabd 5caa 1b3d 82d5 073e
00000010: 4206 a2bd 140d 2c3e 7a4f 523d cfe0 1d3e
00000020: 885e 773e a79b 0f3d ef58 113e 1f15 023e
00000030: 77d5 dbbd df6b 1c3e 39ae 433e 5ac4 f03d
00000040: 99dc 743c ccfa 3d3e 8929 f63c 077d ca3c
00000050: 2a39 bc3d e556 8dbd 2e77 c0bd 1cb9 4e3e
00000060: b66a e43d 6a0e 8bbc e3ec 1fbc 5cb4 61bd
00000070: f8fc acbb 8645 823b 6d65 52bd 08ae 533d
00000080: e6e9 ed3d b7f0 9d3d f3a8 ec3d b85a 87bd
00000090: efbd 063e fa2c 113c ae99 243e c69c f03d
000000a0: 1129 b5bb 2724 113e f62b 1f3d 8e24 ed3d
000000b0: 3f67 cd3c 21ba ac3d 5117 073e 2d06 9d3b
000000c0: 4237 953d b3f8 c6bd 7fb3 663d f222 233c
000000d0: 26fe 093e 40c4 f63d 1ca4 e53c e2b0 f7bc
000000e0: 62fb 003e 8056 a43d 6871 143e 378e cb3a
000000f0: 4f53 f13b 0d30 d93d b2ce f43d 7cb6 013e
00000100: 9eba e83c 6b3f a23d 2a2d ce3d 09cc e63d
00000110: 7661 8abd 5f30 35bd 7e06 243d 70d8 e33d
00000120: 779d 39bd 5874 e03d c7b9 7d3c 0ee7 033e
00000130: 5973 123e 5adc 263e 2b47 673e c00a 1d3e
00000140: 3a34 563d 8ba9 00be 2f40 7dbc 5441 803d
0.057926126 -0.114678726 0.038004264 0.1326504 -0.0791135 0.16801864 0.051345326 0.15417789
0.24157155 0.03506055 0.14194082 0.1270337 -0.107340746 0.15275525 0.1910943 0.11756201
0.014945173 0.18552703 0.030049102 0.02471782 0.09190591 -0.069013394 -0.09397732 0.20187801
0.11153166 -0.016974647 -0.009761068 -0.055103645 -0.0052791797 0.003975573 -0.05136626 0.05167964
0.11616878 0.07711928 0.11555662 -0.066091 0.13158391 0.008860821 0.16074249 0.11748652
-0.005528577 0.14173947 0.038860284 0.11579238 0.025073646 0.08433939 0.13192488 0.004791996
0.0728593 -0.09715404 0.056323525 0.009957062 0.13475856 0.120491505 0.028032355 -0.030235711
0.12595895 0.08024311 0.14496386 0.0015530054 0.0073646675 0.10604868 0.119534865 0.12667269
0.028409299 0.07922252 0.10067208 0.11269385 -0.067568704 -0.044235583 0.040045254 0.111252666
-0.045316186 0.10959691 0.015486187 0.12881109 0.14301814 0.16294995 0.22585742 0.15336132
0.0522959 -0.12564676 -0.015457197 0.0626246

fc3.weight f4 [2, 84]
00000000: 7736 3a3e c228 d9bd 5abf c23d 8737 6e3e
00000010: 679b 49be 9f84 8ebe 4b51 403e 7a34 bebe
00000020: 599d 9e3e 7baa a03e 75c7 84be 616d 673e
00000030: c44a 363e 9b7d bfbd fe3b 8b3e 53d0 563e
00000040: fab1 01bd 92f3 aabe 614e c3bd 7f08 6dbe
00000050: eef9 1a3e 61c9 d43c 5496 17be 0f25 443e
00000060: 5387 533e 21ed 883d 2866 363d 9d5a 4dbb
00000070: 3a5c c7bd 5860 4dbd fa4c c2bc a770 2d3e
00000080: 5a02 93be c065 213e 2340 a1bd 9094 b73d
00000090: 218d 0bbe 810d 4dbe dc79 e7bd 48ba 6abd
000000a0: fa20 053e e6db c2bc 3f8e 8a3d 6a2a 623e
000000b0: 2e78 143d 792e a7be 00a5 073e c011 86be
000000c0: 4e63 223e 412b 37be 844b 733e 8c33 10be
000000d0: a5b5 a23e f06b 4ebc 5145 e63d 4e20 07be
000000e0: 8de8 ff3d 277c efbd 7505 86be 3bec e13d
000000f0: c8aa 02bd da68 533e 43b8 653e cdfb e1bd
00000100: 0933 5ebd 552f 61bc 2171 023e 0e7b 84be
00000110: 9928 a4bd 0e01 a53d 93de ebbd 0997 943e
00000120: 3abf 07bd 74fc 603e ee84 97bd 20e1 92bd
00000130: bc2a 19be 3c96 e43d 6fca 8bbe 9c5d cdbe
00000140: 9a68 dd3d 3ca5 13be 8295 abbd 5bf8 85be
00000150: e14f ffbc 1beb 3a3e 4609 e3bc 7fd0 fdbc
00000160: 7a15 60bd deb8 9cbe 8102 b73d 331e 6e3e
00000170: d798 c03e 83c9 4d3d cc22 113e 13f7 a1be
00000180: e98a e4bd bee8 b83e 5f92 1abe d0a7 1cbe
00000190: 30b6 b33d 9b30 d7bd afdc 8abe a758 10be
000001a0: 40c1 20be 2677 9a3d 04f5 acbd 14c0 abbe
000001b0: 2319 0fbe 2658 3bbe 3b45 523e f1c1 8cbd
000001c0: 8bf5 c8bd a63b d53d b454 393e ed44 30bd
000001d0: 44be 5cbe 3b03 34bd 0fcf 973e 4bcc 4fbc
000001e0: 7834 82be 20c7 ff3d a8c6 84be 88a8 a73e
000001f0: 2c9c e13d f5e0 95be b266 debd d0a7 983e
00000200: 9478 643d d8a2 cbbd 4bea 8e3e 6cf3 d3bd
00000210: da39 693c 4fb8 28be 63d5 aebc 5c41 363d
00000220: bf47 89be 8149 363e 3750 32be 055e 1ebd
00000230: 5929 e03d cdb0 79bc f886 533d 56d5 643e
00000240: f6fc 593e fc95 e6bc e53f 003e fa7d 74be
00000250: b516 893e 2a57 8cbd 48b7 a53d 74bb 303c
00000260: 06c4 1cbc 31fb e5bd 1fd9 4abe aff6 3dbd
00000270: baea e83d b12f 143e 9ea4 25be 79ff 2ebe
00000280: 5cec 873e 9e49 523e 954d 81be d5aa 473e
00000290: 0ab3 81be 91c6 de3d cbb0 523d 0b8f 563e
0.18184839 -0.10603477 0.09509154 0.2326337 -0.19688188 -0.27835557 0.18781011 -0.3714941
0.30979422 0.31380066 -0.25933424 0.22600318 0.17801958 -0.09350129 0.27194208 0.20977907
-0.031663872 -0.33388954 -0.09536434 -0.23147772 0.15134403 0.025974931 -0.1480344 0.19154762
0.20657091 0.06685854 0.044531018 -0.0031334527 -0.09734388 -0.05014071 -0.023718346 0.16937505
-0.28712732 0.15761471 -0.07873561 0.08963883 -0.13628055 -0.20024683 -0.1130254 -0.057306558
0.13000861 -0.023786496 0.067654125 0.22086492 0.036247425 -0.32652643 0.13246536 -0.26185417
0.15858194 -0.17887594 0.23759276 -0.14082164 0.3177921 -0.0125989765 0.1124369 -0.13195917
0.124955274 -0.11693602 -0.26176038 0.110313855 -0.03190115 0.20645466 0.22433572 -0.11034355
-0.05424789 -0.013744195 0.12738468 -0.25875133 -0.08015556 0.08056842 -0.11517062 0.2902148
-0.033141352 0.21971303 -0.07398401 -0.071718454 -0.14957708 0.111614674 -0.27302882 -0.4011048
0.10810967 -0.144185 -0.08378126 -0.26166043 -0.031166019 0.18253748 -0.027714383 -0.030983208
-0.05470798 -0.30609792 0.089360245 0.23253708 0.37616608 0.050241005 0.1417343 -0.31633815
-0.111593075 0.36115068 -0.15094899 -0.1529839 0.08774984 -0.10507318 -0.27121493 -0.14096318
-0.15698719 0.07542257 -0.084451705 -0.3354498 -0.13974433 -0.18295345 0.20534222 -0.06872929
-0.098124586 0.10411768 0.18098718 -0.043034483 -0.21556956 -0.043948393 0.2965016 -0.012682985
-0.25430655 0.12489152 -0.25932813 0.32745767 0.110161155 -0.2927319 -0.10859431 0.2981553
0.055779055 -0.09943169 0.27913126 -0.103491634 0.014234984 -0.16476558 -0.021341985 0.044495925
-0.2681255 0.17801477 -0.17413412 -0.038663883 0.109453864 -0.0152399065 0.051642388 0.22347006
0.21287903 -0.02814769 0.12524374 -0.23876181 0.26775137 -0.06852563 0.08091599 0.01078688
-0.00956822 -0.112295516 -0.19809388 -0.046377834 0.113728955 0.14471318 -0.16176078 -0.17089643
0.26547515 0.20535895 -0.25254503 0.19498761 -0.25331908 0.10877717 0.051438134 0.20953004

fc3.bias f4 [2]
00000000: 77c9 2dbd 96a1 b83c
-0.04242846 0.022537988
