src/models/dagger-fix.onnx (onnx, 336968 bytes, 10 tensors)

conv1.weight f4 [6, 5, 5, 5]
0	0x3d962cc1	0.07332755
1	0x3dadee94	0.08492771
2	0x3e1779dd	0.14792581
3	0x3dfa5ac0	0.122243404
4	0x3aa69607	0.0012709507
5	0x3e432712	0.19057873
6	0x3e380ffe	0.1797485
7	0x3e815c77	0.25265858
8	0x3dc51a87	0.096242
9	0x3d02ce1f	0.031934854
10	0x3e43d0a6	0.19122562
11	0x3e504e37	0.20342337
12	0x3e309662	0.17244866
13	0x3e7cb363	0.24677806
14	0x3d81ad8c	0.063319296
15	0x3e0d200c	0.13781756
16	0x3d9f6584	0.077830344
17	0x3e834027	0.25634882
18	0x3e1aa7a9	0.1510302
19	0x3e103ebd	0.14086433
20	0x3dddef0c	0.1083661
21	0x3d58a1f7	0.052888837
22	0x3e57bcc2	0.21068099
23	0x3e0b6abc	0.13614935
24	0x3cf2ad5b	0.029623678
25	0xbc3344f4	-0.010941733
26	0x3e09be65	0.13451536
27	0x3d45d693	0.048300337
28	0x3de0fc13	0.10985579
29	0x3d27219f	0.040803548
30	0x3c83ebbe	0.016103622
31	0x3e068f17	0.13140522
32	0x3e0e1052	0.13873413
33	0x3e4e2a6f	0.20133375
34	0x3e538f38	0.20660102
35	0x3df671f7	0.12033456
36	0x3e2edc53	0.17076235
37	0x3e3d44e6	0.18483314
38	0x3e86220b	0.26197848
39	0x3e1b9cd9	0.15196551
40	0x3d506eed	0.050887037
41	0x3e69e7bd	0.22842307
42	0x3e6299ad	0.22128935
43	0x3e3fdc81	0.1873646
44	0x3e108f9a	0.1411728
45	0x3d2b73d7	0.04185852
46	0x3e27e583	0.16396146
47	0x3e254f5d	0.16143556
48	0x3e5c9482	0.21541026
49	0x3dd0a3c3	0.10187485
50	0x3d168792	0.036750384
51	0x3dc1e043	0.09466603
52	0x3db7389f	0.089463465
53	0x3d863722	0.065534845
54	0x3c8a84a6	0.016908955
55	0x3dec5aa5	0.115407266
56	0x3e6d5ef0	0.23180747
57	0x3e6831a3	0.22675185
58	0x3dba2fb9	0.090911336
59	0x3e2392ef	0.1597402
60	0x3d5dc2e8	0.054140955
61	0x3dd58022	0.1042483
62	0x3e68dbaa	0.22740045
63	0x3e55f497	0.20894085
64	0x3d6a4138	0.057191104
65	0x3cdc261d	0.026873643
66	0x3e153b7c	0.14573473
67	0x3e7e77cb	0.24850385
68	0x3e846049	0.2585471
69	0x3e10b9bd	0.14133354
70	0x3cd3e546	0.025866162
71	0x3d7146ba	0.05890534
72	0x3e3421ce	0.1759102
73	0x3de91e2e	0.113827094
74	0x3d76b792	0.06023366
75	0x3e0cca13	0.1374896
76	0x3daf3834	0.08555642
77	0x3dc75004	0.09732059
78	0x3e363b1c	0.17795986
79	0x3dfb6082	0.12274267
80	0x3dce440e	0.10071574
81	0x3e2175fc	0.15767664
82	0x3e84ecae	0.25961822
83	0x3e3d3211	0.1847613
84	0x3d7feb90	0.06248051
85	0x3df50d09	0.11965377
86	0x3e51229a	0.20423356
87	0x3e9049ae	0.28181213
88	0x3e09e8ab	0.13467662
89	0x3dcfc111	0.10144246
90	0x3dc7f706	0.09763913
91	0x3d9df310	0.07712376
92	0x3e84df87	0.25951788
93	0x3e4ec773	0.20193271
94	0x3e48b214	0.19599181
95	0x3d0ba5ca	0.034093656
96	0x3e3d43cb	0.18482892
97	0x3e135df7	0.14391313
98	0x3dea9f9e	0.11456226
99	0x3e29d105	0.16583641
100	0x3c9019f9	0.01759051
101	0x3ddf17c1	0.108932026
102	0x3e6469e0	0.22306013
103	0x3dbc3b6c	0.09191021
104	0x3d77bc11	0.06048209
105	0x3e469437	0.19392477
106	0x3e79d099	0.2439598
107	0x3e768470	0.24073958
108	0x3e486a17	0.1957172
109	0x3dd28cb4	0.10280743
110	0x3e53a181	0.20667078
111	0x3e7aa42a	0.24476686
112	0x3e604ea7	0.21905003
113	0x3e152a3a	0.1456689
114	0x3e4fda30	0.20298076
115	0x3ddb0378	0.10694021
116	0x3e47da40	0.1951685
117	0x3e40ffed	0.18847628
118	0x3e789884	0.2427693
119	0x3e0f22ce	0.1397812
120	0x3d04375d	0.03227936
121	0x3df1cdd2	0.11806835
122	0x3e7584ea	0.23976484
123	0x3e3468a4	0.17618042
124	0x3de80be9	0.11330397
125	0xbd066404	-0.032810226
126	0x3d6a4a25	0.057199616
127	0xbcb7a6b3	-0.022418356
128	0xbc8c65b2	-0.017138336
129	0xbcf411c1	-0.029793622
130	0x3de873ca	0.1135021
131	0x3d88020b	0.06641015
132	0x3c374f4f	0.011188342
133	0x3e183861	0.14865257
134	0x3d04665c	0.03232418
135	0x3dc19ad5	0.0945336
136	0x3e2a45c5	0.16628177
137	0x3dbfe887	0.09370523
138	0x3e00217c	0.12512773
139	0x3c8d1a36	0.017224412
140	0x3c4e60f7	0.01259636
141	0xbc2c0618	-0.0104995
142	0x3dc0565c	0.09391472
143	0x3e0105ce	0.1259987
144	0x3d5a9ef7	0.053374257
145	0x3d1b634e	0.0379365
146	0xbb819696	-0.003954719
147	0x3e0f642b	0.14003055
148	0x3db9c2e1	0.09070373
149	0x3da877cb	0.08225974
150	0x3e0603af	0.13087343
151	0x3c9833cf	0.018579392
152	0xbb230aa2	-0.0024878164
153	0x3d5bad0b	0.053631824
154	0x3d457218	0.04820451
155	0x3b0f7a61	0.0021893012
156	0x3e254ead	0.16143294
157	0xbb7239a3	-0.0036960624
158	0x3dcbe0cf	0.09954988
159	0xbc499121	-0.012302668
160	0x3e02277e	0.12710378
161	0x3e0d6ddd	0.13811441
162	0x3d402c7e	0.04691743
163	0x3d0e3311	0.03471667
164	0x3b760e9d	0.0037545331
165	0xbc374d4d	-0.011187864
166	0xbc011f89	-0.007881054
167	0x3e17a0b2	0.14807394
168	0x3da2ef03	0.07955744
169	0x3cbc61e5	0.022995899
170	0xbbc5e022	-0.0060386816
171	0xbc235b36	-0.009970477
172	0xbc9e54b5	-0.0193275
173	0x3cbd1641	0.0230819
174	0x3d9a9b77	0.07549184
175	0x3cfdb054	0.030967869
176	0x3d28b1ef	0.041185316
177	0x3dda9f96	0.1067497
178	0xbb769445	-0.0037624997
179	0x3d2401ee	0.040040903
180	0x3dd71816	0.10502641
181	0x3e1208c8	0.14261162
182	0x3e2a6864	0.16641384
183	0x3cba6273	0.022752022
184	0xbd30043a	-0.04297278
185	0x3dc0575d	0.09391663
186	0x3dd52e7a	0.10409255
187	0x3d868221	0.06567789
188	0x3d3ce698	0.04611835
189	0x3cee197c	0.029064886
190	0x3dfba47b	0.122872315
191	0x3c5db1dc	0.0135311745
192	0x3def3362	0.11679722
193	0x3c2a56a0	0.01039663
194	0x3d304cf9	0.043042157
195	0xbb9c48de	-0.0047694286
196	0x3b825e20	0.0039785057
197	0x3bcccae1	0.006249771
198	0x3dec5ed8	0.115415275
199	0x3d6f5585	0.058431167
200	0x3df9b7fd	0.12193296
201	0x3e031077	0.1279925
202	0x3d088c04	0.033336654
203	0x3da25eba	0.07928224
204	0x3db3e2c6	0.08783488
205	0x3d51299f	0.051065084
206	0x3b9393e1	0.0045037125
207	0x3e20581c	0.15658611
208	0x3e1e71df	0.15473126
209	0x3d94c821	0.07264734
210	0x3d45b667	0.048269656
211	0x3dc86ef2	0.09786786
212	0x3d970f07	0.07375913
213	0x3cf0af7b	0.02938055
214	0x3d5c02b4	0.053713515
215	0x3dc0718a	0.09396656
216	0x3e2bd097	0.1677879
217	0x3e00feb1	0.12597157
218	0x3c4b1923	0.01239613
219	0x3d8080da	0.062745765
220	0x3dd7a89d	0.10530207
221	0x3daf24d5	0.08551947
222	0x3d78ca2c	0.06073968
223	0x3de5a1a5	0.11212472
224	0x3dc5dbfa	0.09661098
225	0xbd102e49	-0.03520039
226	0x3d22d89f	0.039757367
227	0x3d811777	0.06303304
228	0x3d96518a	0.07339771
229	0xbb86c659	-0.0041130004
230	0x3cdd45b4	0.027010776
231	0x3e2af187	0.16693698
232	0x3db145b8	0.08655876
233	0x3df2df16	0.118589565
234	0x3d10418a	0.035218753
235	0x3e14fd60	0.1454978
236	0x3c0f9034	0.008762408
237	0x3da24f44	0.07925275
238	0x3ca3ece2	0.020010415
239	0x3da8dbdc	0.0824506
240	0x3cfd1f7b	0.0308988
241	0x3e170798	0.1474899
242	0x3e22baab	0.1589152
243	0x3dd8c607	0.10584646
244	0x3b161627	0.0022901387
245	0xbcbf1e45	-0.023329863
246	0x3da6cf95	0.08145062
247	0x3ddcbe60	0.10778499
248	0x3dd67655	0.10471789
249	0x3d85f1a1	0.06540228
250	0x3cdbd53c	0.026835077
251	0x3d5b64e9	0.053563032
252	0x3e0eea82	0.13956645
253	0x3c99629c	0.018723778
254	0x3ddee21c	0.10882971
255	0x3e0a9305	0.13532646

conv1.bias f4 [6]
0	0xbdfa4fd4	-0.12222257
1	0xbc3be5f6	-0.011468401
2	0xbe14b209	-0.1452104
3	0x3d2e8cad	0.042614628
4	0x3c32d11a	0.0109141115
5	0x3d28d0a7	0.04121461

conv2.weight f4 [16, 6, 5, 5]
0	0x3da7a86a	0.08186419
1	0x3d83fac6	0.064443156
2	0x3c67143b	0.014103944
3	0xbda0a54d	-0.078440286
4	0xbe157eb4	-0.14599115
5	0xbb818b42	-0.0039533684
6	0x3df5bc76	0.11998837
7	0xbac602c5	-0.0015107027
8	0xbcc0f5ab	-0.023554644
9	0xbe0b6399	-0.13612212
10	0x3da295cf	0.0793873
11	0x3dc9a8df	0.09846663
12	0xbb9e39bb	-0.0048286594
13	0x3cba424d	0.022736693
14	0xbe3e4719	-0.18581809
15	0x3e1f0c25	0.15531977
16	0x3d80425b	0.06262656
17	0xbd6b7c39	-0.057491515
18	0xbe069921	-0.13144352
19	0xbe27b836	-0.16378865
20	0xba3d144e	-0.00072128035
21	0xba67c68b	-0.0008841536
22	0xbda27efe	-0.07934378
23	0xbe02ee0a	-0.12786117
24	0xbc937100	-0.017998219
25	0xbc3b6d3e	-0.01143962
26	0x3d945fec	0.07244858
27	0x3db7e024	0.08978298
28	0x3d21c24b	0.039491933
29	0xbe0520fc	-0.13000864
30	0x3d91bf35	0.07116548
31	0x3de2a1fd	0.11066053
32	0x3ddb7f03	0.10717585
33	0x3d0c73ca	0.034290113
34	0xbda57dd8	-0.080806434
35	0x3dd202c0	0.10254431
36	0x3dd6a277	0.104802065
37	0x3d750c17	0.059825983
38	0x3c6cd95d	0.01445612
39	0xbda8865c	-0.08228752
40	0x3dcb8a51	0.09938491
41	0x3d8dacfb	0.06917759
42	0x3d95a84b	0.0730749
43	0xbdac65a9	-0.08417828
44	0xbc885c0b	-0.016645452
45	0x3b93c3d0	0.0045094267
46	0x3d9f7aa3	0.07787063
47	0xbcc15fd8	-0.023605272
48	0xbdbac65d	-0.09119866
49	0x3ca85a8e	0.020550992
50	0x3cfc34f9	0.030786978
51	0x3c7ddc7a	0.01549446
52	0x3c487afb	0.012236352
53	0xbd0b59a5	-0.03402104
54	0xbde57a60	-0.11204982
55	0x3da2f62c	0.0795711
56	0x3cb53935	0.022122005
57	0x3deb208a	0.11480816
58	0x3d3d9ff6	0.04629513
59	0xbd11c597	-0.035588827
60	0xbcbec4bc	-0.02328717
61	0x3e0c58db	0.1370577
62	0x3deb5de4	0.114925176
63	0xbd5d2025	-0.053985734
64	0xbdbb7f16	-0.09155099
65	0x3d5c117b	0.05372761
66	0x3e0b0bd0	0.13578725
67	0x3bffbc48	0.0078044273
68	0x3cc53cb4	0.024076797
69	0xbd9ec46d	-0.07752309
70	0xbbdf4c88	-0.006814543
71	0x3c8bf19e	0.017082985
72	0xbc39ce2c	-0.011340659
73	0xbdf4ae9d	-0.11947367
74	0xbdeaa6e0	-0.1145761
75	0x3af22927	0.0018475399
76	0xbd0d7d30	-0.034543216
77	0x3cf721ec	0.030167542
78	0x3c56baa2	0.01310602
79	0x3c17cfb9	0.0092658335
80	0xbb8f7a78	-0.004378613
81	0xbd4e24b9	-0.05032799
82	0x3d8be233	0.068302535
83	0x3d6c60ff	0.05770969
84	0x3d203af1	0.03911871
85	0xbd4f56ba	-0.05061982
86	0x3d8f35e0	0.06992698
87	0xbcfd6dde	-0.030936178
88	0x3d6674c0	0.056263685
89	0xbde44151	-0.111452706
90	0x3d96cdc2	0.07363464
91	0x3d366208	0.044527084
92	0x3dbae2a2	0.09125258
93	0xbda12d21	-0.07869936
94	0xbcb3edc7	-0.021963967
95	0x3d703102	0.058640487
96	0x3d7170c5	0.058945436
97	0x3d862a66	0.065510556
98	0x3d22d3b1	0.039752666
99	0x3b9304da	0.0044866623
100	0x3a999ea8	0.0011720257
101	0x3beb3808	0.0071783103
102	0xbd9d8b25	-0.07692555
103	0x3c89433f	0.016755698
104	0xbda5869f	-0.080823176
105	0xbc428c36	-0.011874249
106	0xbd91fe13	-0.07128539
107	0xbca3d0f1	-0.019997092
108	0xbc1b92f5	-0.0094954865
109	0xbc726ef5	-0.014796962
110	0xbda359ab	-0.07976087
111	0x3d7ccab0	0.061716735
112	0xbb1645f1	-0.0022929872
113	0xbcbeeddf	-0.023306785
114	0x3c9e3baa	0.01931556
115	0xbd99a770	-0.07502639
116	0xbd97ea0f	-0.0741769
117	0x3d8ebe14	0.06969848
118	0x3cf4fda1	0.029906096
119	0xbcbc2ba7	-0.022970034
120	0x3d18764d	0.037222195
121	0xbd169a76	-0.0367684
122	0xbd502e00	-0.05082512
123	0x3c3c364b	0.011487554
124	0x3cafd957	0.02146594
125	0xbd72f574	-0.059316114
126	0x3d92d11d	0.071687914
127	0xbcfa378f	-0.03054407
128	0xbd2e66a4	-0.042578354
129	0xbd0b1173	-0.033952188
130	0x3cfae44b	0.030626437
131	0x3dede253	0.116154335
132	0x3c9004a2	0.017580334
133	0xbc81b486	-0.01583315
134	0xbc9bc6ec	-0.019015752
135	0x3d5c2549	0.053746495
136	0xbcaaf8cb	-0.020870587
137	0xbd781c1b	-0.06057368
138	0xbd3960e8	-0.045258433
139	0xbd66a020	-0.05630505
140	0x3c7853da	0.0151567105
141	0x3dc40e5a	0.0957305
142	0x3d7f9de6	0.062406443
143	0xbdacf67a	-0.08445449
144	0xbdcdf3c7	-0.100562625
145	0x3daf6dc1	0.08565856
146	0x3d768b9f	0.060191747
147	0x3d4e4896	0.050362192
148	0x3c974d27	0.018469406
149	0xbdb9974f	-0.09062063
150	0xbdd88f5a	-0.10574217
151	0xbdc077ec	-0.09397873
152	0xbc970672	-0.01843569
153	0xbdc0fff3	-0.094238184
154	0xbd2b4f73	-0.041823816
155	0xbd91a240	-0.07111025
156	0x3c31dc72	0.010855781
157	0xbda6058c	-0.08106527
158	0xbc48677f	-0.012231707
159	0xbd16edff	-0.036848065
160	0xbe28c18f	-0.16480087
161	0x3ae2bab8	0.0017298078
162	0x3d43d6c7	0.04781225
163	0x3d80ca5a	0.062885955
164	0x3e07d0f1	0.13263299
165	0xbdd27c5d	-0.10277627
166	0xbce73638	-0.028224096
167	0x3db15623	0.086590074
168	0x3e5b1404	0.21394354
169	0x3dd35617	0.10319155
170	0xbe017c6a	-0.12645116
171	0xbd2bf8a9	-0.041985188
172	0x3d8b8815	0.06813065
173	0x3e0375c6	0.12837896
174	0x3dad9da9	0.08477337
175	0xbdd8400c	-0.10559091
176	0x3d1e96ec	0.03871815
177	0xbd9b5703	-0.075849555
178	0xbd93191e	-0.07182525
179	0xbcd0170f	-0.02540162
180	0xbdcee5ab	-0.101023994
181	0x3d25f283	0.04051448
182	0xbc472c7f	-0.012156605
183	0x3d9aac3d	0.07552383
184	0xbd74ad71	-0.05973572
185	0xbdc574cb	-0.09641417
186	0x3d50fa51	0.05101997
187	0x3da4d792	0.08048929
188	0x3d88dd05	0.06682781
189	0x3d5cc354	0.053897217
190	0x3bc4dff3	0.006008142
191	0x3b87a767	0.004139829
192	0x3d0b221e	0.033968084
193	0x3e09993e	0.13437364
194	0x3d8db778	0.069197595
195	0xbd9ee260	-0.07758021
196	0xbdaf4653	-0.08558335
197	0x3da1340c	0.07871255
198	0x3db2a1ac	0.08722243
199	0x3df8bbd3	0.121451996
200	0xbd306473	-0.043064546
201	0xbd81471a	-0.0631239
202	0xbd5e6fe0	-0.05430591
203	0x3d56d84e	0.052452378
204	0x3d6b03c7	0.05737665
205	0xbdb19a92	-0.0867206
206	0xbb8daaa5	-0.004323321
207	0x3d4ee78c	0.05051379
208	0x3d689ca6	0.056790017
209	0xbd86c7e2	-0.06581093
210	0xbddb35b7	-0.10703605
211	0x3d03da8e	0.032190852
212	0xbce6bc27	-0.02816589
213	0x3c84325c	0.016137294
214	0x3db04ed8	0.08608788
215	0xbd3bd634	-0.045858577
216	0x3d01073c	0.03150104
217	0x3df07e1c	0.117428035
218	0x3e2edd29	0.17076553
219	0x3e1ace7b	0.15117829
220	0xbe17a22f	-0.14807962
221	0x3b04fa9b	0.0020290974
222	0xbca72029	-0.020401077
223	0x3e0d25cd	0.13783951
224	0x3d95a9f9	0.0730781
225	0xbcc906ed	-0.024539435
226	0x3c51d9ee	0.012808306
227	0x3c92912c	0.017891489
228	0xbd751863	-0.05983771
229	0x3d204b33	0.039134216
230	0xbdc595d4	-0.09647718
231	0xbdd7a947	-0.10530334
232	0x3d25cf9b	0.04048119
233	0x3d670ca1	0.05640853
234	0xbd60ead9	-0.05491147
235	0xbca3192a	-0.01990946
236	0xb86faba4	-5.7141893e-05
237	0xbbda03a4	-0.006653266
238	0xbd41df47	-0.047332074
239	0xbcaf45bb	-0.021395555
240	0xbc62e24a	-0.013847897
241	0x3c91a9d8	0.017781183
242	0x3d00f54a	0.031483926
243	0xbae8ec12	-0.001777055
244	0x3ddf79f9	0.10911936
245	0xbd9d37e0	-0.07676673
246	0x3cc1cb56	0.023656528
247	0x3c4ba142	0.012428584
248	0x3db20280	0.08691883
249	0x3ab776e3	0.0013997223
250	0xbd1dc2bd	-0.038515795
251	0xbd066960	-0.032815337
252	0xbd700de7	-0.05860701
253	0x3d93563b	0.071941815
254	0xbd3569c3	-0.044290315
255	0xbd63a791	-0.055579726

conv2.bias f4 [16]
0	0x3d8592a4	0.0652211
1	0xbd4ff55e	-0.05077111
2	0x3d3dce98	0.0463396
3	0x3dc0c5c3	0.0941272
4	0x3c533a5e	0.012892334
5	0x3d186ca9	0.037213
6	0x3d02c4c9	0.03192595
7	0x3dd2c5f0	0.1029166
8	0xbd3cfcd2	-0.046139546
9	0x3da445e9	0.08021147
10	0xbd8c16cf	-0.06840288
11	0xbc36c8c4	-0.011156265
12	0xbc98bac0	-0.018643737
13	0xbd18b4b4	-0.037281707
14	0x3e0eac62	0.13932946
15	0x3e1e4f81	0.15460016

fc1.weight f4 [120, 584]
0	0xbd546757	-0.051856365
1	0x3c6089b8	0.01370471
2	0xbb8639b0	-0.0040962324
3	0x3cf17506	0.029474746
4	0x3cb0448e	0.021517064
5	0x3d450965	0.048104662
6	0xbd37a0bb	-0.04483102
7	0xbd54be04	-0.051939026
8	0x3d014876	0.031563245
9	0xbba55322	-0.0050453106
10	0x3c8a2759	0.016864466
11	0x3ce4f1b2	0.02794728
12	0xbcfda637	-0.030963046
13	0xbd1d4984	-0.038400188
14	0x3c464fc0	0.012103975
15	0xbd189954	-0.0372556
16	0x3ca5c883	0.020237213
17	0xbc7bdb2c	-0.015372079
18	0x3d0988a9	0.033577595
19	0xbd7bbed7	-0.061461296
20	0x391fa985	0.00015226573
21	0xbc1ed787	-0.00969494
22	0xbc58982e	-0.013219876
23	0xbca392fc	-0.019967549
24	0x3c05dac4	0.008169834
25	0x3cc45136	0.023964506
26	0x3ce3e5e6	0.027819585
27	0x3ca7b3a3	0.0204714
28	0x3c914cf4	0.01773689
29	0xbc8186bd	-0.015811319
30	0xbcca017d	-0.024658913
31	0x3a92e887	0.0011208215
32	0x3d549a46	0.05190494
33	0xbc4de55d	-0.0125668915
34	0x3cb51e90	0.0221093
35	0x3d7ce9dd	0.061746467
36	0x3c87bffb	0.016571036
37	0xbd20adcb	-0.039228242
38	0x3bc21223	0.005922572
39	0x3be43bb4	0.006965125
40	0x3c83bca4	0.016081162
41	0xbc7b396c	-0.015333515
42	0x3bcb3ba3	0.0062021776
43	0xbd2b8578	-0.041875333
44	0xbca69134	-0.02033291
45	0xbd6311b1	-0.055436794
46	0xbc9ac38f	-0.018892078
47	0x3be79ed8	0.007068496
48	0x3c5a3495	0.013318201
49	0xbc494cb0	-0.01228635
50	0xbcef8aa1	-0.029240908
51	0xbd7dd5dc	-0.06197153
52	0xbabfc1b6	-0.0014629874
53	0xbbad6ef3	-0.005292767
54	0xbc7b1dfb	-0.015326972
55	0x3c5537ef	0.013013824
56	0xbc1121a3	-0.008858117
57	0xbd13ea10	-0.03611189
58	0xbd0b889c	-0.034065828
59	0x3d8f1ab5	0.06987516
60	0x3cf4b1bb	0.029869905
61	0xbba9c883	-0.0051813736
62	0x3d2cc471	0.04217953
63	0x3c8295c5	0.015940556
64	0x3cc0fc7c	0.023557894
65	0xbcb48e50	-0.022040516
66	0xbbac195c	-0.0052520465
67	0x3bb58442	0.005539448
68	0x3d40b926	0.04705157
69	0x3b05e244	0.0020429054
70	0x3c9f2494	0.019426621
71	0xbd110e31	-0.035413925
72	0xbd2af8bb	-0.041741114
73	0xbc6cda68	-0.014456369
74	0x3d6441e5	0.055726904
75	0x3db55af2	0.08855237
76	0x3dc4ba15	0.09605805
77	0xba2440c4	-0.00062657543
78	0xbb0b971f	-0.0021299792
79	0x3c82a04e	0.01594558
80	0xbc06e295	-0.008232732
81	0xbcf60c79	-0.030035244
82	0x3d39da37	0.04537412
83	0xbc1d5bfb	-0.009604449
84	0x3c0d65eb	0.008630256
85	0xbbb0f8d9	-0.0054007587
86	0xbc9be908	-0.019032016
87	0x3ca90771	0.020633431
88	0xbcac2df5	-0.021018008
89	0x3c2df37f	0.010617136
90	0x3d16a65d	0.03677975
91	0x3c0c15a8	0.008550085
92	0xbcb90b48	-0.022588387
93	0xbd262dd9	-0.040571067
94	0xbc4c73a0	-0.012478739
95	0xbc304f53	-0.0107611
96	0x3cb5503b	0.022132983
97	0x3cb6811a	0.022278357
98	0xbb926f11	-0.0044688066
99	0xbca82d7c	-0.020529501
100	0xb91f2e05	-0.00015180565
101	0x3bcc3289	0.00623161
102	0x3cb0b5f1	0.021571131
103	0x3d221ca9	0.039578114
104	0x3ce00a2f	0.027348606
105	0x3c2b19d1	0.010443167
106	0xbba5d6bf	-0.005061
107	0xbd061bc6	-0.03274133
108	0x3c242771	0.010019169
109	0x3d011e6b	0.03152315
110	0x3d0201bd	0.03173994
111	0xbd1ed487	-0.0387769
112	0xbc1a5ff5	-0.009422292
113	0xbc1d524d	-0.009602142
114	0x3d3d7ceb	0.04626171
115	0xbc9497f9	-0.018138872
116	0x3ca19ece	0.019729044
117	0x3ba9000c	0.0051574763
118	0x3bc38c9d	0.00596769
119	0xbc5cf552	-0.013486223
120	0xbbe05412	-0.0068459595
121	0xbc806fcb	-0.015678307
122	0x3d3012b7	0.042986598
123	0x3d14c1a2	0.036317475
124	0xbc649d89	-0.013953575
125	0xbb965f8a	-0.004589026
126	0xbcac3262	-0.021020118
127	0x3b9e686c	0.0048342254
128	0x3d260419	0.04053125
129	0x3c9e6e1d	0.019339615
130	0xbbd87caf	-0.0066066603
131	0xbc391388	-0.0112961605
132	0xbba2b871	-0.004965835
133	0x3bcebc35	0.006309057
134	0x3d031cae	0.032009773
135	0xbb84274f	-0.0040330063
136	0x3d3f3ce4	0.04668893
137	0xbd21f57a	-0.039540745
138	0x3d3e8d68	0.046521574
139	0xbb3d2809	-0.0028862974
140	0xbcccb800	-0.024990082
141	0xbc8216e6	-0.01588006
142	0x3caa1ffa	0.0207672
143	0x3d05c660	0.03265989
144	0x3c2bff66	0.010497903
145	0x3cccd9b0	0.025006145
146	0x3d3be7ae	0.045875244
147	0x3ce1fdac	0.02758678
148	0x3a8275de	0.000995334
149	0xbcd9d3d6	-0.026590269
150	0x3d0f0d44	0.03492476
151	0x3d1190d4	0.03553851
152	0x3c685e7d	0.014182684
153	0x3ce98435	0.028505424
154	0xbb736d76	-0.0037144101
155	0xbbebe71f	-0.0071991826
156	0xbce186cc	-0.027530096
157	0x3b281c60	0.0025651678
158	0x3d18ff88	0.03735307
159	0xbbd44a40	-0.006478578
160	0x3a83ddfd	0.0010060664
161	0xbd123ed5	-0.035704453
162	0x3c3df663	0.011594388
163	0xbcaa06b1	-0.020755144
164	0x3c82fb5c	0.015988998
165	0x3ca73f71	0.020415993
166	0x39815c6c	0.00024673657
167	0x3cc99d3c	0.024611108
168	0xbc8a838f	-0.016908435
169	0x3c0983cc	0.008393239
170	0x3d19905a	0.03749118
171	0xbacb63c2	-0.0015517401
172	0xbab23a95	-0.0013597781
173	0xbab9916e	-0.0014157721
174	0xbd0b985e	-0.034080856
175	0x3ca4722f	0.020073978
176	0x3d01512b	0.03157155
177	0x3ca88d49	0.020575183
178	0xbd1e90c3	-0.038712274
179	0x3b8d045f	0.0043034996
180	0x3d04b9ed	0.032403875
181	0xbd195063	-0.03743018
182	0x3c6e9c5e	0.014563648
183	0x3d276532	0.04086799
184	0x3bf6062a	0.007508059
185	0xbbdebfa9	-0.00679775
186	0x3ce96b04	0.028493412
187	0x3c2e1348	0.010624714
188	0x3c6e5c57	0.014548383
189	0xbb95c84b	-0.004570996
190	0xbc21b376	-0.009869447
191	0xbb00e7d0	-0.001966942
192	0xbb6623a8	-0.0035116468
193	0xbcb68aa2	-0.022282902
194	0xbc151043	-0.009098115
195	0x3c63290b	0.013864766
196	0x3c23f0e0	0.01000616
197	0x3c986149	0.018601077
198	0xbc96b4ca	-0.018396754
199	0x3c9b3958	0.018948242
200	0xbc7b7420	-0.015347511
201	0x3c844c16	0.016149562
202	0x3ccb460e	0.024813678
203	0x3d1d38e9	0.038384352
204	0x3c94a55d	0.018145258
205	0xbb64fca7	-0.0034940632
206	0xbd0bb2f3	-0.034106206
207	0xba9ec647	-0.0012113535
208	0xbc408d6f	-0.01175247
209	0xbc353063	-0.0110589
210	0xbcd83d4d	-0.026396418
211	0x3c522e89	0.012828478
212	0xbd1f1de8	-0.03884688
213	0xbd134bd1	-0.035960976
214	0xbd250cd2	-0.04029543
215	0xbd281f84	-0.04104568
216	0xbd472375	-0.0486178
217	0xbd0b5698	-0.03401813
218	0xbb92e089	-0.004482333
219	0x3adc991f	0.0016830302
220	0x3d581641	0.052755598
221	0x3d533ae1	0.051569823
222	0xbd7c11d6	-0.061540447
223	0xbd89e0fa	-0.06732364
224	0x3c7783c8	0.015107103
225	0x3d30808f	0.043091353
226	0x3d0577b9	0.03258488
227	0x3ca8ab3c	0.020589463
228	0xbd20a9f2	-0.039224572
229	0xbcb4a224	-0.02204997
230	0xb86b6808	-5.6125253e-05
231	0x3cae9bc3	0.021314507
232	0x3d4390a7	0.047745373
233	0xbcb53995	-0.022122184
234	0xbbe1a758	-0.006886404
235	0xbcc8c01e	-0.024505671
236	0xbc4e8bb9	-0.012606555
237	0x3ce512c1	0.027963044
238	0x3c308d7a	0.010775918
239	0xbd286bc7	-0.04111841
240	0xbc9dd8ed	-0.019268477
241	0xbca6148c	-0.02027347
242	0xbbb0550a	-0.005381231
243	0xbbc2dff1	-0.005947106
244	0x3cbc8e9b	0.023017218
245	0xbcd4a29f	-0.02595645
246	0xba2fabed	-0.0006701339
247	0xbc46de43	-0.012137952
248	0x3d63a09c	0.05557309
249	0xbcedb81f	-0.02901846
250	0x3c123fac	0.008926313
251	0xbc127ab6	-0.008940389
252	0xbc94af08	-0.018149868
253	0x3cbea05d	0.023269827
254	0x3c4efafb	0.012633081
255	0xbbf809e6	-0.0075695394

fc1.bias f4 [120]
0	0x3d3ad703	0.045615207
1	0x3d6cc33e	0.057803385
2	0x3bf41589	0.0074488563
3	0x3c400440	0.011719763
4	0x3ccaaed2	0.024741564
5	0x3ccbc14e	0.024872448
6	0x3c915f84	0.01774574
7	0x3cf687ab	0.030093988
8	0xbcf1ceff	-0.029517649
9	0x3c566264	0.013084982
10	0x3c155b81	0.0091160545
11	0x3d43c303	0.0477934
12	0x3d1bc3b2	0.038028426
13	0x3d7c5193	0.061601233
14	0xbc7b179c	-0.015325453
15	0x3e0156b5	0.12630732
16	0x3896531a	7.168036e-05
17	0xbc54a534	-0.012978841
18	0x3cf5f2e0	0.030023038
19	0x3d2e0e42	0.042494066
20	0xbc8506dc	-0.016238622
21	0x3b3adf68	0.0028514508
22	0xbcea0801	-0.02856827
23	0x3cf0a697	0.029376311
24	0x3c33531e	0.01094511
25	0x3c857687	0.01629187
26	0xbc404505	-0.011735206
27	0x3d096ac3	0.03354908
28	0x3d043f3a	0.03228686
29	0x3ca0e51d	0.0196405
30	0x3bd5216a	0.0065042274
31	0x3cebb2b7	0.028771741
32	0x3d7f8df9	0.062391255
33	0x3d3f4d64	0.046704665
34	0x3c519763	0.012792441
35	0x3d40a5ae	0.047033004
36	0x3d7c56d6	0.06160625
37	0x3cdc6cd4	0.026907362
38	0x3c7cd94b	0.015432666
39	0xbd194d22	-0.037427075
40	0x3b6b8223	0.0035935722
41	0x3d223946	0.0396054
42	0x3c317cef	0.010833009
43	0x3d87ea3d	0.06636474
44	0x3cab19ae	0.020886268
45	0x3d5c57d9	0.053794716
46	0xbb47800b	-0.003044131
47	0x3cdaaa9d	0.026692683
48	0x3af52ecd	0.0018705964
49	0x3d809f94	0.06280437
50	0x3d98cedb	0.074613295
51	0x3d42cb69	0.04755727
52	0xbbe3378a	-0.006934111
53	0x3cae1ce9	0.02125402
54	0xbcad3c2f	-0.021146862
55	0x3c75d401	0.015004159
56	0x3d05cefc	0.0326681
57	0x3d0660a4	0.032807007
58	0x3be332b1	0.006933533
59	0x3d144ecf	0.03620797
60	0x3a1d356d	0.0005997036
61	0x3d0ac3c4	0.033878103
62	0x3c919d3e	0.017775174
63	0x3da267d2	0.079299584
64	0x3d0c8ca0	0.034313798
65	0x3d1b0398	0.037845224
66	0x3dbcec46	0.09224753
67	0xbbf786aa	-0.007553895
68	0x3c9084d2	0.017641459
69	0xbc8a70ce	-0.016899493
70	0x3cdf3f61	0.027251901
71	0x3d9545e5	0.07288722
72	0x3b681177	0.00354108
73	0x3a80cb7f	0.0009826272
74	0x3db8ec49	0.09029443
75	0xbbe87799	-0.0070943353
76	0x3d8c1558	0.068400085
77	0x3d7c4824	0.061592236
78	0x3ca8ce9b	0.02060633
79	0x3d14c17d	0.036317337
80	0xbd094c0e	-0.033519797
81	0xbb06d1db	-0.002057186
82	0x3d62ebc9	0.055400643
83	0x3d8070f1	0.06271542
84	0x3d3a7cdc	0.04552923
85	0x3da739fc	0.081653565
86	0x3d74491a	0.059640028
87	0xbd085682	-0.033285625
88	0x3d8367f0	0.06416309
89	0xbcca61db	-0.024704864
90	0x3d832f45	0.064055
91	0x3d332ec3	0.043745767
92	0xbba53ad2	-0.0050424123
93	0xbc3ca201	-0.011513234
94	0x3cd164e4	0.025560804
95	0x3cea0d4f	0.0285708
96	0x3d11ba82	0.03557826
97	0x3c6e7bfe	0.014555929
98	0x3cbc62ca	0.022996325
99	0x3da9d9a8	0.08293468
100	0x3dd6ff61	0.104979284
101	0x3ddb0beb	0.106956325
102	0xbc618527	-0.013764656
103	0x3d8276f2	0.06370343
104	0x3ce4d78d	0.027934814
105	0x3d36a15a	0.04458747
106	0x3cd4159f	0.025889216
107	0x3ca7cc64	0.020483203
108	0x3d40de9c	0.047087297
109	0xbca39e7f	-0.019973038
110	0x3cf22df8	0.029562935
111	0x3c8bad92	0.017050538
112	0xbbdae5d0	-0.006680228
113	0x3cf84616	0.030306857
114	0x3d0a69dc	0.03379236
115	0x3d94beff	0.07262992
116	0x3d2b667c	0.041845784
117	0x3d1e0fdd	0.038589347
118	0x3db1f94f	0.0869013
119	0x3ca025e5	0.01954932

fc2.weight f4 [84, 120]
0	0xbc857ceb	-0.016294917
1	0xbd900abc	-0.070332974
2	0x3d3fbeb4	0.046812728
3	0xbdea931c	-0.1145384
4	0x3a6b3019	0.00089717057
5	0xbdda3e7c	-0.10656449
6	0x3d885f62	0.06658818
7	0x3db66c62	0.08907391
8	0x3dda4290	0.10657227
9	0x3d860690	0.065442204
10	0xbe090554	-0.13380939
11	0xbc4b45a4	-0.01240674
12	0x3da29d42	0.07940151
13	0x3da5b21d	0.08090613
14	0x3cd48b33	0.025945282
15	0x3d17b385	0.037036438
16	0xbda9c122	-0.0828879
17	0xbd474f6e	-0.048659734
18	0x3e1efa9b	0.15525286
19	0xbdc1bad1	-0.094594605
20	0x3c8060bc	0.015671127
21	0xbe035776	-0.12826332
22	0xbe1d3abd	-0.15354438
23	0x3d9854a1	0.07438017
24	0xbe0e5810	-0.1390078
25	0xbd351122	-0.044205792
26	0x3bafcc49	0.005364929
27	0x3d15d0ac	0.036575958
28	0x3c775e0a	0.015098104
29	0x3d80f206	0.06296162
30	0x3d42229a	0.04739628
31	0xbc3f8b4a	-0.011690924
32	0xbd9e366b	-0.07725223
33	0x3c9bab5a	0.019002605
34	0x3da01416	0.07816331
35	0x3dbe5b99	0.092948146
36	0xbd9921af	-0.07477128
37	0x3d8aea55	0.067829765
38	0x3d8dfd1c	0.069330424
39	0xbd4f831d	-0.05066215
40	0x3dcb4859	0.099259086
41	0x3d98f755	0.0746905
42	0xbd827041	-0.06369067
43	0xbd54505b	-0.051834445
44	0xbde83e1f	-0.11339974
45	0x3c84f729	0.016231136
46	0x3c20d8be	0.0098173
47	0xbe240267	-0.16016541
48	0x3dd7b1bd	0.10531948
49	0x3d4875c1	0.048940424
50	0x3d8c1811	0.06840528
51	0x3d2011b1	0.03907937
52	0xbd650df5	-0.055921514
53	0x3df08e23	0.117458604
54	0xbd7d7bc5	-0.061885614
55	0xbcf3351d	-0.029688412
56	0xbd8560e6	-0.065126225
57	0xbe3641d5	-0.1779855
58	0xbdb28443	-0.08716633
59	0xb816f178	-3.5987672e-05
60	0x3c8cfbf3	0.017209982
61	0xbb777c0f	-0.0037763154
62	0x3da478c8	0.0803085
63	0xbe371f17	-0.17882954
64	0x3d82606e	0.06366049
65	0x3db7fdce	0.08983956
66	0x3b8e8431	0.0043492545
67	0xbe1957a9	-0.14974846
68	0x3db9d46a	0.09073718
69	0x3db49b74	0.08818713
70	0x3d30d639	0.04317305
71	0xbe0b1778	-0.13583171
72	0x3d80608b	0.06268414
73	0x3d9fff91	0.07812417
74	0x3df91b5f	0.12163424
75	0x3d60c0c0	0.05487132
76	0xbd66f013	-0.056381296
77	0xbca2f06c	-0.019890033
78	0x3c0b658f	0.0085081
79	0xbdd2a48e	-0.102852926
80	0x3c89c1d6	0.016816061
81	0x3c5fbc38	0.013655715
82	0x3d7f24e0	0.062291026
83	0x3d3bbc61	0.04583395
84	0xbd7046b0	-0.058661163
85	0xbbeccdc3	-0.007226677
86	0xbd05d932	-0.032677837
87	0xbd5a4a5e	-0.05329358
88	0x3e1ecfd8	0.15508974
89	0xbd896953	-0.06709542
90	0xbd233bd5	-0.039851982
91	0xbdf2fa8f	-0.118641965
92	0xbd1ad658	-0.03780207
93	0x3e0b8e31	0.1362846
94	0xbda22a93	-0.07918277
95	0x3dcb9e3d	0.09942291
96	0x3dd747a9	0.10511715
97	0x3c35ae19	0.011088871
98	0x3e004937	0.12527929
99	0x3da60016	0.08105485
100	0xbc93fbe0	-0.01806444
101	0x3dc71904	0.09721568
102	0xbbd62c17	-0.0065360176
103	0x3cb8f379	0.022577034
104	0x3cbd9a31	0.023144813
105	0x3d2c0000	0.041992188
106	0x3be136c8	0.0068729855
107	0xbd296d3f	-0.04136395
108	0x3ab8a6d0	0.00140878
109	0xbdcb4239	-0.0992474
110	0xbc45ff12	-0.012084739
111	0xbdcc676e	-0.09980665
112	0xbcd8793c	-0.026424997
113	0x3d8d0c02	0.06887056
114	0x3e323b99	0.17405547
115	0x3dbabc9a	0.09118004
116	0xbe03918f	-0.12848495
117	0xbd243b6b	-0.040095728
118	0xbe0580de	-0.1303744
119	0xbe1c3a05	-0.15256508
120	0x3d82f768	0.06394845
121	0xbd8a5dca	-0.0675617
122	0x3cb1801d	0.021667534
123	0xbca1159e	-0.019663628
124	0xbdd7b4b7	-0.105325155
125	0xbd4df8da	-0.05028615
126	0xbded45c2	-0.11585571
127	0xbdbea4d9	-0.09308786
128	0xbdd2038b	-0.10254582
129	0xbdb094e7	-0.08622151
130	0x3d520cc8	0.05128172
131	0xbb93d861	-0.0045118784
132	0x3d064b29	0.032786522
133	0xbd4a8630	-0.049444377
134	0xbb67a7c3	-0.0035347797
135	0xbcc3b2f3	-0.02388904
136	0xbd5aded3	-0.053435158
137	0x3d9feca7	0.0780881
138	0xbdb14666	-0.086560056
139	0xbc607f2a	-0.013702193
140	0x3d42f4c1	0.047596697
141	0x3d793052	0.060837097
142	0x3d348bde	0.0440787
143	0xbbc43815	-0.005988131
144	0xbd03c13b	-0.0321667
145	0x3d3ddec1	0.046355013
146	0xbd6479be	-0.055780165
147	0x3cc53df7	0.024077399
148	0xbd9bd1c8	-0.07608372
149	0x3da7f8cb	0.0820175
150	0x3d43885d	0.047737468
151	0xbcd51d0d	-0.026014829
152	0xbcbaa363	-0.022782987
153	0x3cb3b7c9	0.021938222
154	0xbd3e1035	-0.046402175
155	0xbd5c22d5	-0.053744156
156	0x3d9b40ca	0.07580717
157	0x3d9bc58c	0.076060385
158	0x3ca908dd	0.02063411
159	0x3cbe7531	0.02324924
160	0x3d75b26c	0.05998461
161	0xba284c0c	-0.0006420023
162	0x3d82094f	0.06349432
163	0x3d115078	0.03547713
164	0xbc3ce10f	-0.0115282675
165	0x3cda0f19	0.026618527
166	0xbcc13189	-0.02358319
167	0x3d8990d4	0.06717077
168	0xbcb2b1d7	-0.021813316
169	0xbdbbdbca	-0.09172781
170	0xbc779ec2	-0.015113534
171	0x3d5e80f0	0.054322183
172	0xbd9c4473	-0.07630243
173	0x3d07dc12	0.03316886
174	0xbc8d7f52	-0.017272625
175	0xbd73229c	-0.059359178
176	0x3dcf22d9	0.101140685
177	0x3d656682	0.056005962
178	0xbc92e55a	-0.017931629
179	0xbb5b5720	-0.0033468679
180	0x3cb7341e	0.022363719
181	0xbcfab765	-0.030605027
182	0xbc1e5f31	-0.00966625
183	0xbd058252	-0.032594986
184	0x3d4bc3e0	0.049747348
185	0x3c1b24a1	0.009469182
186	0xbd479ae0	-0.048731685
187	0x3c9f0351	0.019410761
188	0xbcab5dc6	-0.020918738
189	0x3d2e2d70	0.0425238
190	0xbc586f13	-0.013210076
191	0x3ca56677	0.02019046
192	0x3d44cf74	0.048049405
193	0x3d59fa4f	0.05321723
194	0x3d072627	0.03299537
195	0x3b54acd4	0.0032451646
196	0x3d60e5b2	0.054906555
197	0xbda1ecd0	-0.079064965
198	0xbc8d367a	-0.01723789
199	0xbd90e2a8	-0.07074481
200	0xbd0a1992	-0.033715792
201	0xbd74806d	-0.05969279
202	0xbdd2fa8c	-0.10301694
203	0xbd08143d	-0.033222426
204	0x3cc172f2	0.02361438
205	0x3da6cbfa	0.08144374
206	0x3d22d919	0.03975782
207	0xbd9b6880	-0.07588291
208	0x3d2be075	0.041962106
209	0xbd3fff81	-0.046874527
210	0x3d6bfd0e	0.05761438
211	0x3d062774	0.03275247
212	0x3dc3c6bf	0.09559392
213	0xbd88012a	-0.06640847
214	0x3d598f33	0.05311508
215	0xbd9e6ac7	-0.0773521
216	0x3c06c2b8	0.0082251355
217	0xbd506671	-0.050878946
218	0xbc7c37c2	-0.015394153
219	0xbdc61a94	-0.09673038
220	0x3dc3c6b2	0.095593825
221	0x3c23a127	0.009987152
222	0xbd0cbf12	-0.034361906
223	0xbd8d85d4	-0.06910291
224	0xbdb9ff56	-0.090819046
225	0x3b840c3d	0.004029779
226	0x3db3cdae	0.08779465
227	0xbd96b221	-0.07358194
228	0xbcef24ab	-0.02919229
229	0xbd3266ab	-0.043554943
230	0x3b1c4ca9	0.0023849404
231	0x3d92f062	0.07174756
232	0xbd045ca4	-0.03231491
233	0x3db5e418	0.08881396
234	0x3c8c3a59	0.017117666
235	0xbb343a12	-0.0027500433
236	0x3ca98cda	0.020697046
237	0xbd08357c	-0.03325413
238	0xbc8e2861	-0.017353239
239	0x3ca949c7	0.020665063
240	0x3d2f968d	0.042868186
241	0x3d216595	0.039403517
242	0xbc0e1c99	-0.00867381
243	0x3d8a207a	0.06744476
244	0xbd9380ba	-0.07202287
245	0x3d246451	0.04013473
246	0xbd319a0a	-0.043359794
247	0x3ce9e512	0.028551612
248	0xbcf2fd12	-0.029661689
249	0xbda06dc9	-0.0783344
250	0xbd8f3070	-0.069916606
251	0x3ce70f7c	0.028205626
252	0x3c5367ca	0.012903163
253	0x3c8ff40f	0.01757243
254	0x3d54fbae	0.051997833
255	0xbdb21d9b	-0.08697053

fc2.bias f4 [84]
0	0x3e383bdd	0.17991586
1	0x3db12163	0.08648946
2	0xbddefcb1	-0.10888041
3	0x3dce912d	0.10086284
4	0x3ca64daa	0.020300705
5	0x3d84c7ef	0.06483447
6	0x3da1be7b	0.078976594
7	0x3ca261b8	0.019821987
8	0x3e3d2f4d	0.18475075
9	0x3e0779ac	0.13230008
10	0xbcebc9c5	-0.028782735
11	0x3da70659	0.081555076
12	0x3db09d2a	0.08623727
13	0x3e085705	0.13314445
14	0xbd56cdd5	-0.05244239
15	0xbc611e78	-0.0137401745
16	0x3c808c52	0.01569191
17	0x3d9c2a6a	0.07625277
18	0x3e0bfca8	0.136706
19	0x3c80d6b3	0.015727377
20	0x3debf4c3	0.11521294
21	0x3e471901	0.19443132
22	0x3dc15411	0.094398625
23	0x3dd49b84	0.10381225
24	0x3d5191a5	0.051164288
25	0xbc8affad	-0.016967619
26	0x3e06c768	0.13162005
27	0x3d2bfd85	0.041989822
28	0x3dd948a1	0.10609556
29	0x3d85991b	0.06523343
30	0xbd469499	-0.048481558
31	0x3e277267	0.16352235
32	0x3e12a577	0.14320932
33	0x3d347e40	0.044065714
34	0x3d210c7d	0.03931855
35	0x3c421600	0.0118460655
36	0xbd04f129	-0.03245655
37	0x3e0d107c	0.1377582
38	0x3e2fa889	0.17154135
39	0xbd6f2372	-0.058383413
40	0x3e4420e5	0.19153173
41	0xbcc4af4f	-0.024009375
42	0x3d4243c9	0.047427926
43	0x3dba812a	0.09106667
44	0x3dd4e3d6	0.10395019
45	0x3d19b2eb	0.037524145
46	0x3cff49aa	0.031163055
47	0xbdd1339c	-0.10214922
48	0x3e218a22	0.1577535
49	0xbd37063e	-0.044683687
50	0x3e0b5100	0.13605118
51	0x3de59127	0.11209326
52	0xbdac545f	-0.0841453
53	0xbdaef368	-0.0854252
54	0x3dc0e2a4	0.09418228
55	0x3d3943fa	0.045230843
56	0x3d2bd27a	0.041948773
57	0x3b9d90a9	0.0048085046
58	0xb8bcf319	-9.009819e-05
59	0x3def0145	0.11670164
60	0xbbc9c2e8	-0.006157268
61	0xbd06ed3a	-0.03294108
62	0x3dad0a60	0.084492445
63	0x3d3a0172	0.045411535
64	0x3c843b7b	0.016141644
65	0xbcc88a1b	-0.024479916
66	0x3e273289	0.16327871
67	0x3e0bce7c	0.13652986
68	0x3c713fe8	0.014724709
69	0x3d30c523	0.043156754
70	0xbd004d16	-0.031323515
71	0xbd1580f2	-0.036499925
72	0x3d678f4d	0.056533147
73	0x3d911ef8	0.07085985
74	0x3e06d39e	0.13166663
75	0xb84d75d2	-4.8985537e-05
76	0x3e4c881d	0.19973798
77	0xbc70d911	-0.01470019
78	0x3e10943b	0.14119045
79	0xbc0fb1d7	-0.008770428
80	0x3de3143e	0.11087845
81	0x3e11c557	0.14235435
82	0x3da1d614	0.0790216
83	0x3c6c0bf2	0.014407145

fc3.weight f4 [2, 84]
0	0x3ed22ffa	0.41052228
1	0xbe27131d	-0.16315885
2	0xbdbe5782	-0.092940345
3	0xbdc24497	-0.09485739
4	0x3e8beb0c	0.27327764
5	0xbd60a8c4	-0.054848447
6	0x3d7ed7f8	0.062217683
7	0xbd864fc5	-0.065581836
8	0x3ecce5fc	0.40019214
9	0x3aff91b6	0.0019498381
10	0xbdb3c405	-0.08777622
11	0xbe755610	-0.23958611
12	0xbed5e6ce	-0.41777653
13	0xbe1a2945	-0.15054806
14	0x3d814baa	0.0631326
15	0xbde53e2b	-0.11193498
16	0x3e8aa8d0	0.2708192
17	0xbe36bdf3	-0.17845897
18	0x3e9e9f1e	0.30980772
19	0xbe949120	-0.29016972
20	0xbe3ea59b	-0.18617861
21	0x3ecb9231	0.39759973
22	0x3e41bdf5	0.18920119
23	0x3e0f6f21	0.14007236
24	0x3d299ff9	0.041412327
25	0xbe3f9114	-0.18707687
26	0x3e3d8ca1	0.18510677
27	0xbed765c2	-0.42069823
28	0xbe25b205	-0.1618119
29	0x3e947360	0.28994274
30	0xbc8aee3c	-0.016959302
31	0xbe5e6ae7	-0.21720468
32	0xbe4baf9f	-0.19891213
33	0xbde120e6	-0.10992603
34	0xbe819c9d	-0.253148
35	0xbe26c6dc	-0.16286796
36	0xbd17b104	-0.03703405
37	0xbe7e4e26	-0.24834499
38	0xbf14b7eb	-0.58093137
39	0xbd85789e	-0.065171465
40	0x3df94eb6	0.12173216
41	0xbd5e1eeb	-0.054228704
42	0x3deca49e	0.11554836
43	0x3e1aa3b7	0.15101515
44	0x3e5e55e1	0.21712448
45	0x3d5710d0	0.052506268
46	0xbe088ca0	-0.13334894
47	0x3de9cd73	0.114161395
48	0x3e4283de	0.18995616
49	0x3d23f7ce	0.040031247
50	0x3ebb633e	0.36599153
51	0xbebcaacc	-0.36849058
52	0x3df1ebe6	0.11812572
53	0x3dc3520c	0.095371336
54	0x3e756abc	0.23966497
55	0xbd8ea0bd	-0.06964252
56	0xbe634960	-0.22195959
57	0xbe4c9bdb	-0.19981329
58	0x3e4a4d02	0.19755939
59	0xbe482882	-0.19546703
60	0x3e30c543	0.1726275
61	0x3b73a1b6	0.0037175245
62	0x3cfe175c	0.031016998
63	0xbe058658	-0.1303953
64	0x3cf034bb	0.029322019
65	0x3db25cf6	0.08709137
66	0x3f00eb0b	0.5035865
67	0xbd26de75	-0.040739495
68	0x3ea7e6a5	0.32793155
69	0x3d8fc9c1	0.070209034
70	0xbcc4de69	-0.024031835
71	0x3d993c66	0.07482223
72	0xbeae7a5e	-0.34077734
73	0x3d03a718	0.032141775
74	0x3e923e29	0.2856305
75	0xbeaa7dd1	-0.33299115
76	0xbe48140a	-0.19538894
77	0xbda7a581	-0.08185864
78	0xbda62930	-0.08113325
79	0xbdca3d99	-0.0987503
80	0x3ea7ddbc	0.32786357
81	0xbd5a6493	-0.05331857
82	0x3d5022ae	0.050814323
83	0x3df7b447	0.12094932
84	0xbf02d701	-0.5110932
85	0x3e141f9c	0.14465183
86	0xbe32b4f5	-0.17451842
87	0xbe27e2d2	-0.16395119
88	0x3e0777db	0.13229315
89	0xbd9df347	-0.07712417
90	0x3b9023e6	0.0043988107
91	0x3e876c1f	0.26449677
92	0xbe29f86d	-0.16598673
93	0xbe760301	-0.24024583
94	0x3d0fab24	0.03507532
95	0xbe7628d3	-0.2403901
96	0xbea72c27	-0.32650873
97	0x3e2ca06e	0.16858074
98	0xbdcf0963	-0.10109212
99	0x3dddab9b	0.10823747
100	0xbecca44e	-0.39969105
101	0x3dd5bf80	0.10436916
102	0x3dd0ef2d	0.10201869
103	0xbcc45ab5	-0.023969034
104	0xbedab116	-0.4271323
105	0x3eb6a7f4	0.35675013
106	0x3dbcf288	0.09225947
107	0x3ee05d8a	0.43821365
108	0x3e446214	0.19178039
109	0x3d40da43	0.04708315
110	0x3e363e64	0.17797238
111	0x3d3bbc2c	0.04583375
112	0x3dab486a	0.08363421
113	0x3e4a0a53	0.19730501
114	0x3dd1d1b9	0.102450795
115	0x3e74a4dc	0.23891014
116	0x3dfb5bb4	0.1227335
117	0x3dc5d227	0.09659224
118	0x3e3f90e0	0.18707609
119	0xbe04b56f	-0.12959836
120	0x3e5cb452	0.21553162
121	0xbe9ade5b	-0.3024777
122	0x3e23aa41	0.15982915
123	0xbdd927bf	-0.10603284
124	0xbef73b36	-0.48287362
125	0x3e885edf	0.2663488
126	0x3e46e9b4	0.19425088
127	0xbc0ccca9	-0.008593717
128	0x3e140738	0.14455879
129	0x3d347078	0.04405257
130	0xbe43608c	-0.19079798
131	0x3b90c157	0.004417579
132	0xbeb80479	-0.35940912
133	0x3bf6b135	0.007528449
134	0xbe54714b	-0.20746343
135	0x3e6b978f	0.23007034
136	0xbd29d867	-0.041466143
137	0x3d3cc90e	0.04609018
138	0xbd9ea817	-0.07746904
139	0xbce72cbb	-0.028219571
140	0x3e31b74e	0.17355081
141	0xbe47da7c	-0.19516939
142	0x3e14b7d8	0.14523256
143	0xbe848f82	-0.25890738
144	0x3d06ec5e	0.03294026
145	0x3e57cbeb	0.21073882
146	0xbe99f68c	-0.30070913
147	0x3e0b89f9	0.13626851
148	0xbe0490db	-0.12945883
149	0x3c6b6248	0.014366694
150	0x3d587f65	0.052855868
151	0x3e4dd531	0.20100857
152	0x3de50f66	0.11184578
153	0xbd6ce779	-0.057837937
154	0x3daef136	0.08542101
155	0x3dcf9eaf	0.10137688
156	0xbec6e901	-0.38849643
157	0x3dfccafc	0.12343404
158	0xbe0be326	-0.13660869
159	0xbd103ed9	-0.035216186
160	0x3ee521e2	0.44752413
161	0xbde04a12	-0.10951628
162	0xbe675ae1	-0.22593261
163	0x3c28b442	0.010296883
164	0x3e8e68b2	0.2781425
165	0x3e8fb9df	0.28071496
166	0x3ea61431	0.3243728
167	0xbecf2068	-0.40454412

fc3.bias f4 [2]
0	0xbd27a362	-0.0409273
1	0x3d3f8eef	0.04676717
