src/models/dagger-4.onnx (onnx, 336968 bytes, 10 tensors)

conv1.weight f4 [6, 5, 5, 5]
0.030967655 0.12879647 0.084417954 0.13643515 0.112426825 0.023902848 0.20537198 0.10386695
0.23391393 0.09675529 0.13302049 0.1536899 0.2233939 0.26783052 0.2227378 0.13216978
0.13182989 0.14163916 0.2144906 0.18685795 -0.04839484 -0.0021059928 0.19718218 0.058158785
0.08136808 0.0007194278 0.121602215 0.15177327 0.1343458 0.104829766 0.036850575 0.13561921
0.19065344 0.17874289 0.06111461 0.060771253 0.12775922 0.24396813 0.1839865 0.16825525
0.08102536 0.12297925 0.2565256 0.16308628 0.1691421 0.057807893 0.041970998 0.17274997
0.14866415 0.024384394 0.039816715 0.09171962 0.048414998 0.041977003 0.15011413 0.054929234
0.082309775 0.22001728 0.16517273 0.078684494 0.16438091 0.21841602 0.24752845 0.1787143
0.21116064 0.12585726 0.08912627 0.27637395 0.26372656 0.19546905 0.09978338 0.06316356
0.0559575 0.15291905 0.15402356 0.047955744 0.15963402 0.19645734 0.18479265 0.16552494
0.002718092 0.2522879 0.16170044 0.19751018 0.18579105 0.055811748 0.2582952 0.24873292
0.2875181 0.18182966 0.08641383 0.10938505 0.26459438 0.2354325 0.18822463 0.021175541
0.09926117 0.15544511 0.105294585 0.09273641 0.007899634 0.13556173 0.15259506 0.18009418
0.19986244 0.09902295 0.14488323 0.24841803 0.21370065 0.25060323 0.1128012 0.19607215
0.206824 0.32643577 0.24253152 0.115572944 0.26406857 0.24068771 0.2206888 0.089856334
0.0645567 0.09938142 0.2254831 0.19885805 0.09402033 0.0867566 0.06947696 -0.045747112
0.01209939 -0.019271381 0.048502862 -0.068647094 -0.038797956 0.028898291 0.0057261838 0.09724322
0.057254355 0.04079078 -0.06087173 0.04807327 0.06771416 0.024279948 0.07426138 0.044427734
0.05854066 -0.06154782 0.04741897 -0.086563595 0.043093793 0.048169147 0.06334439 -0.029748378
0.046167314 -0.007867183 -0.04195971 0.07224754 0.040345345 -0.005879394 0.028226035 -0.014076777
-0.048108116 0.009512261 0.038439374 -0.068568006 -0.048724156 0.089999154 -0.01981642 -0.084233105
-0.025948057 -0.08234919 -0.0029423586 -0.039798386 0.0069444585 -0.010834618 -0.05934685 0.108495176
-0.025978064 0.076123424 0.07601559 -0.064577974 -0.027460774 0.09723572 -0.03330185 -0.018219585
0.028253548 -0.0023928734 -0.023468502 -0.08446925 0.052590437 0.046932682 -0.06253895 0.012354178
0.005673164 -0.013446805 -0.059464652 -0.014312857 0.0764022 -0.0051707425 -0.04877696 -0.046476733
0.03375895 0.06576143 0.017926136 -0.044875275 0.0728116 0.012319966 0.09747669 -0.050948635
-0.009282613 -0.08869502 0.000104430816 -0.01654337 -0.07956005 0.06746222 -0.08034902 0.021821072
0.009922293 -0.045520302 -0.027515246 -0.054676015 -0.042651962 -0.019383179 -0.0066913026 -0.07743237
0.02402586 0.029884098 0.029457394 0.06827082 0.013033446 0.061301168 0.096392006 0.02535228
0.010520365 -0.0018080138 -0.026904887 0.1031673 0.077911824 -0.054095708 -0.092228256 -0.059804678
0.10059625 0.08407439 -0.057678327 -0.09163497 -0.07372758 0.080039255 0.0424965 -0.05741009
-0.06177558 0.0591111 -0.042808823 0.012510123 -0.03165332 -0.039263386 0.008837696 0.06213289
00000000: e1af fd3c 39e3 033e 52e3 ac3d a8b5 0b3e
00000010: 0940 e63d e8cf c33c 084d 523e 32b8 d43d
00000020: 2287 6f3e a327 c63d 8636 083e e360 1d3e
00000030: 5fc1 643e 1521 893e 6115 643e 8457 073e
00000040: 6afe 063e db09 113e 6da3 5b3e b157 3f3e
00000050: ab39 46bd b204 0abb 20ea 493e e837 6e3d
00000060: 4fa4 a63d fb97 3c3a 950a f93d 746a 1b3e
00000070: f291 093e fdb0 d63d a1f0 163d c3df 0a3e
00000080: a83a 433e 6008 373e 5053 7a3d 47eb 783d
00000090: 50d3 023e c8d2 793e f566 3c3e 1b4b 2c3e
000000a0: a0f0 a53d 8cdc fb3d 5357 833e 1700 273e
000000b0: 9633 2d3e f8c7 6c3d c8e9 2b3d 5ee5 303e
000000c0: 6a3b 183e c8c1 c73c da16 233d 7fd7 bb3d
000000d0: ce4e 463d 14f0 2b3d 85b7 193e 7afd 603d
000000e0: 0792 a83d 364c 613e 0a23 293e 5625 a13d
000000f0: 7853 283e 73a8 5f3e 1978 7d3e e200 373e
00000100: 7f3a 583e bae0 003e d587 b63d e380 8d3e
00000110: 2b07 873e 0a29 483e 3b5b cc3d e65b 813d
00000120: b133 653d d096 1c3e 5ab8 1d3e 3e6d 443d
00000130: 1a77 233e 1d2c 493e 493a 3d3e 5f7f 293e
00000140: 0422 323b e12b 813e cd94 253e 1c40 4a3e
00000150: 0240 3e3e dc9a 643d 453f 843e d8b3 7e3e
00000160: 9335 933e 8e31 3a3e bcf9 b03d 4505 e03d
00000170: ea78 873e 3815 713e f5bd 403e 5478 ad3c
00000180: 7149 cb3d 012d 1f3e b0a4 d73d 96ec bd3d
00000190: 776d 013c b2d0 0a3e e141 1c3e 9c6a 383e
000001a0: bda8 4c3e 8bcc ca3d 455c 143e 4c61 7e3e
000001b0: 58d4 5a3e 114f 803e 5104 e73d 23c7 483e
000001c0: acc9 533e 9722 a73e 2f5a 783e 82b1 ec3d
000001d0: ff33 873e d776 763e 3ffc 613e 9906 b83d
000001e0: 4e36 843d 7c88 cb3d 0be5 663e 72a1 4b3e
000001f0: bb8d c03d 72ad b13d f049 8e3d 5361 3bbd
00000200: 853c 463c 04df 9dbc f0aa 463d d996 8cbd
00000210: 9bea 1ebd 1cbc ec3c b6a2 bb3b 7427 c73d
00000220: 8b83 6a3d 3c14 273d a354 79bd 7ae8 443d
00000230: b9ad 8a3d bee6 c63c 5a16 983d dbf9 353d
00000240: 55c8 6f3d 9119 7cbd 653a 423d 4148 b1bd
00000250: 1e83 303d 034d 453d b4ba 813d dfb2 f3bc
00000260: f019 3d3d 5be5 00bc f2dd 2bbd 85f6 933d
00000270: 2941 253d eea7 c0bb 493a e73c 48a2 66bc
00000280: 040d 45bd 50d9 1b3c 9b72 1d3d 626d 8cbd
00000290: fb92 47bd 7a51 b83d 0b56 a2bc 6882 acbd
000002a0: 0591 d4bc b1a6 a8bd 96d4 40bb a203 23bd
000002b0: 578e e33b ae83 31bc af15 73bd b832 de3d
000002c0: f3cf d4bc 99e6 9b3d 10ae 9b3d 7541 84bd
000002d0: 6bf5 e0bc 8523 c73d 8567 08bd 3d41 95bc
000002e0: fc73 e73c c1d1 1cbb 0441 c0bc 37fe acbd
000002f0: 1269 573d 7c3c 403d 6c14 80bd 2e69 4a3c
00000300: f3e5 b93b fd4f 5cbc 3591 73bd 7980 6abc
00000310: c278 9c3d 556f a9bb 59ca 47bd 635e 3ebd
00000320: d346 0a3d eead 863d d5d9 923c 23cf 37bd
00000330: 401e 953d afd9 493c dca1 c73d 84af 50bd
00000340: 1a16 18bc bca5 b5bd de01 db38 f685 87bc
00000350: 61f0 a2bd a229 8a3d 078e a4bd 1bc2 b23c
00000360: 1d91 223c 7f73 3abd a767 e1bc f5f3 5fbd
00000370: d3b3 2ebd 79c9 9ebc b742 dbbb dd94 9ebd
00000380: e1d1 c43c 7fcf f43c a250 f13c 92d1 8b3d
00000390: 3c8a 553c ef16 7b3d 2c69 c53d 96af cf3c
000003a0: 9c5d 2c3c e0fa ecba a367 dcbc 6149 d33d
000003b0: 3c90 9f3d 7693 5dbd 2be2 bcbd c0f5 74bd
000003c0: 6805 ce3d 322f ac3d 1c40 6cbd 1dab bbbd
000003d0: 7cfe 96bd 9feb a33d cf10 2e3d d826 6bbd
000003e0: 6408 7dbd 7b1e 723d 4e58 2fbd 42f7 4c3c
000003f0: e9a6 01bd a5d2 20bd fccb 103c 0f7f 7e3d

conv1.bias f4 [6]
0.08245731 -0.035095118 0.120098606 -0.24167782 -0.035300408 0.01972564
00000000: 61df a83d e6bf 0fbd 42f6 f53d 647a 77be
00000010: 2997 10bd aa97 a13c

conv2.weight f4 [16, 6, 5, 5]
0.013216628 -0.09898729 -0.25974151 -0.33927128 -0.2737121 0.19537911 -0.008758025 -0.26803976
-0.4349647 -0.36840174 0.30102322 0.14681084 0.104643494 -0.10401729 -0.2669994 0.17051105
0.2663782 0.19689235 0.07970233 0.015361528 -0.0033745451 0.24780035 0.13715905 0.062181313
0.14947471 0.061281953 0.058125254 -0.017599806 0.008821343 -0.032270826 0.045093402 0.033160914
0.033433553 0.0579265 -0.06698297 -0.05365956 -0.043599017 -0.043331165 -0.06584602 -0.08988697
-0.008249411 0.06705089 0.07129248 -0.009264118 -0.0037929781 -0.06003167 0.05511831 -0.026729476
0.059615776 0.06635927 -0.041023374 0.0058544776 0.05121781 0.011728566 0.023483805 -0.025113557
-0.058369204 0.07516583 0.05585415 0.043087017 0.0011902459 -0.026516944 0.0037619167 0.023839554
-0.049102012 -0.06215089 -0.08242884 -0.025441008 -0.07351723 0.015883079 -0.024975 -0.061550308
0.07387369 0.0672529 0.059861366 0.07691533 0.034549247 -0.14934583 -0.31581876 -0.26154995
0.13350977 0.0374175 -0.11636183 -0.3182557 -0.29121563 0.24677797 0.22819597 -0.0070094224
-0.12402542 -0.12514395 0.1439601 0.24413481 0.23697944 0.13162452 -0.023636881 -0.0128280325
0.2050284 0.1665879 0.14799975 0.030113487 0.007469379 0.06373101 0.024074 0.034255695
-0.038661357 -0.034285095 -0.0774686 -0.04362338 -0.04787567 0.0014939279 -0.048902344 -0.061297167
-0.0123581365 0.026343795 0.05824557 -0.04386092 -0.03503156 0.060790043 0.047514394 0.02260422
0.04719923 0.020875743 0.03410737 -0.015403589 -0.013313757 -0.04847705 0.07973965 0.004456883
0.015588541 0.08108375 0.03785607 -0.0490157 -0.045302875 0.06752476 0.015054085 0.04062672
-0.05149348 0.077471204 0.055869132 0.033853423 -0.024070285 0.0785633 0.032683212 0.05047333
0.04542423 -0.019500637 0.018810786 0.02789985 -0.026339557 0.0662249 0.07420127 0.073213905
0.051168457 -0.013427615 0.0017400607 -0.025294151 -0.061141938 -0.069612905 -0.031485032 0.07066326
-0.03257161 -0.06699127 -0.019735798 -0.025788784 -0.0130355805 0.07679178 0.030917339 -0.039918445
-0.020959325 -0.03980324 -0.06268254 -0.045685377 0.007302858 -0.0018588975 -0.066109836 -0.07797152
0.05396253 -0.03971972 0.00919202 -0.06682828 -0.030063547 -0.070788816 0.06776066 -0.042924713
-0.013063371 -0.051497012 0.022201903 -0.0755813 0.032740384 -0.035300437 0.038176045 0.07788901
0.028602041 -0.0325833 -0.080895916 -0.073818766 0.07168731 0.047742218 -0.06619377 -0.043103848
0.05721809 -0.04269343 0.008712046 0.012136087 0.0588077 -0.041853525 0.07757442 0.008383386
-0.057426717 -0.050635174 -0.029877502 0.039535955 -0.003422372 0.06674121 0.032867074 0.033178367
-0.04964619 -0.017021 -0.07923346 -0.026791051 0.03972564 0.0685858 -0.022272322 0.060949028
0.07522772 0.05374852 -0.05275493 -0.07980341 -0.05351318 -0.07930757 -0.057288084 -0.04294711
0.051448658 -0.043776505 -0.07704273 0.04032533 -0.07565969 -0.010515377 0.06271361 -0.004873574
-0.034768447 -0.012464747 -0.056670636 0.034070924 0.007965453 -0.05782596 0.026191778 -0.015533522
-0.024426118 0.049124375 0.06508592 -0.017132096 0.015925482 0.06425686 -0.05681362 0.07553001
00000000: 8e8a 583c d9b9 cabd d7fc 84be f7b4 adbe
00000010: fe23 8cbe 7611 483e d27d 0fbc 823c 89be
00000020: b1b3 debe 279f bcbe b71f 9a3e 9555 163e
00000030: 544f d63d 0407 d5bd 25b4 88be 739a 2e3e
00000040: b962 883e 269e 493e fa3a a33d ebae 7b3c
00000050: 7927 5dbb 60bf 7d3e 6c73 0c3e d5b1 7e3d
00000060: e60f 193e c902 7b3d bf14 6e3d 782d 90bc
00000070: 6587 103c 6a2e 04bd dcb3 383d bdd3 073d
00000080: 9ff1 083d 5644 6d3d 5e2e 89bd 20ca 5bbd
00000090: e294 32bd 057c 31bd 47da 86bd a916 b8bd
000000a0: 8a28 07bc fa51 893d cb01 923d 87c8 17bc
000000b0: 9d93 78bb c5e3 75bd bdc3 613d c6f7 dabc
000000c0: ac2f 743d 5ee7 873d 2008 28bd ebd6 bf3b
000000d0: c4c9 513d 2c29 403c 1c61 c03c f2ba cdbc
000000e0: 8c14 6fbd 8bf0 993d 52c7 643d 037c 303d
000000f0: 0602 9c3a 103a d9bc 7d8a 763b 2b4b c33c
00000100: 311f 49bd ee91 7ebd 74d0 a8bd a969 d0bc
00000110: 3490 96bd 3b1d 823c 5f98 ccbc 2d1c 7cbd
00000120: 174b 973d e3bb 893d 3131 753d c985 9d3d
00000130: 8383 0d3d 1dee 18be ffb2 a1be e0e9 85be
00000140: c9b6 083e 1843 193d 1c4f eebd 69f2 a2be
00000150: 371a 95be 5db3 7c3e 34ac 693e 4caf e5bb
00000160: 0a01 febd bc25 00be 476a 133e 7afe 793e
00000170: bdaa 723e 94c8 063e 22a2 c1bc ab2c 52bc
00000180: f7f2 513e 0596 2a3e 3f8d 173e 8fb0 f63c
00000190: b1c1 f43b 6785 823d d636 c53c b34f 0c3d
000001a0: 5f5b 1ebd 876e 0cbd dba7 9ebd 6eae 32bd
000001b0: 4719 44bd e7cf c33a d34d 48bd bd12 7bbd
000001c0: c879 4abc f1ce d73c e892 6e3d 82a7 33bd
000001d0: 417d 0fbd fbfe 783d 749e 423d 7c2c b93c
000001e0: fb53 413d 9b03 ab3c 2bb4 0b3d 565f 7cbc
000001f0: f221 5abc df8f 46bd 8b4e a33d 0b0b 923b
00000200: 1467 7f3c 3d0f a63d f70e 1b3d b0c4 48bd
00000210: 828f 39bd 6c4a 8a3d 69a5 763c 3468 263d
00000220: d4ea 52bd 39a9 9e3d 08d7 643d e3a9 0a3d
00000230: 0c2f c5bc cce5 a03d d5de 053d 1fbd 4e3d
00000240: c20e 3a3d cdbf 9fbc 1419 9a3c 3a8e e43c
00000250: 0ec6 d7bc eca0 873d d6f6 973d 2cf1 953d
00000260: 0496 513d 80ff 5bbc c012 e43a ae35 cfbc
00000270: f86f 7abd 3691 8ebd 73f6 00bd e6b7 903d
00000280: cf69 05bd b832 89bd f8ac a1bc 0043 d3bc
00000290: 3093 55bc 0245 9d3d 5c46 fd3c 8681 23bd
000002a0: e4b2 abbc b908 23bd b45f 80bd 9720 3bbd
000002b0: d04c ef3b 40a6 f3ba 9864 87bd 88af 9fbd
000002c0: d007 5d3d 25b1 22bd 209a 163c 44dd 88bd
000002d0: d447 f6bc baf9 90bd 1ac6 8a3d d3d1 2fbd
000002e0: c007 56bc 88ee 52bd c4e0 b53c 5eca 9abd
000002f0: c81a 063d 3197 10bd 7c5e 1c3d 4684 9f3d
00000300: d44e ea3c 1176 05bd c2ac a5bd 4b2e 97bd
00000310: ccd0 923d 588d 433d 9990 87bd a98d 30bd
00000320: 845d 6a3d 4edf 2ebd f8bc 0e3c 70d6 463c
00000330: 58e0 703d 9a6e 2bbd 56df 9e3d 785a 093c
00000340: 4738 6bbd d466 4fbd aac1 f4bc 74f0 213d
00000350: e049 60bb 9eaf 883d a09f 063d 0ae6 073d
00000360: ce59 4bbd a06f 8bbc 2745 a2bd e878 dbbc
00000370: 5ab7 223d b676 8c3d 7274 b6bc b0a5 793d
00000380: fe10 9a3d 6827 5c3d 8e15 58bd f86f a3bd
00000390: a330 5bbd 026c a2bd e9a6 6abd 4fe9 2fbd
000003a0: d4bb 523d fe4e 33bd 94c8 9dbd 2c2c 253d
000003b0: 78f3 9abd b048 2cbc fe6f 803d 80b2 9fbb
000003c0: 5c69 0ebd f038 4cbc 781f 68bd f48d 0b3d
000003d0: 8881 023c eada 6cbd 2490 d63c 5080 7ebc
000003e0: 4819 c8bc a436 493d c44b 853d 9c58 8cbc
000003f0: 2876 823c 1a99 833d 66b5 68bd 7aaf 9a3d

conv2.bias f4 [16]
-0.040379442 -0.023524728 0.06936726 0.16012311 -0.05236893 0.0650501 0.123028405 0.20694257
-0.05418154 -0.011913012 -0.040495098 -0.026332876 0.015951626 0.21940355 0.0699788 -0.029737175
00000000: ea64 25bd eeb6 c0bc 6c10 8e3d 50f7 233e
00000010: ce80 56bd fd38 853d 51f6 fb3d c1e8 533e
00000020: 76ed 5dbd cb2e 43bc 30de 25bd 0bb8 d7bc
00000030: fcac 823c 53ab 603e 0c51 8f3d 609b f3bc

fc1.weight f4 [120, 584]
0.022338443 0.007016273 0.035960093 -0.015132581 -0.01848245 0.024732264 -0.07091252 -0.041588835
0.01089305 -0.0060956706 0.05445635 0.0072944444 0.011099854 -0.054238908 -0.0132485265 -0.022075294
0.012318149 -0.013564681 0.037435655 -0.035364214 -0.040851902 -0.0019199373 0.0070610247 0.01675961
0.038902517 0.0532996 0.039391357 -0.03095808 -0.011366603 0.016913377 0.004671506 0.0063478053
-0.0020633307 -0.021733837 0.0010658838 -0.0067914682 -0.026421612 -0.031233277 0.013410807 -0.01848209
-0.029421235 0.023771778 0.023904338 0.017518483 -0.029236022 0.002512738 0.017091993 -0.034922037
-0.0041608885 0.014341757 0.031355068 0.01790056 0.015814997 -0.03848157 0.02336131 -0.028396249
0.0047504976 -0.033521704 0.027098738 0.009360839 -0.00015214458 0.00430768 -0.011526655 0.038775407
-0.007848173 0.007820137 0.029053532 0.016728904 0.028763063 0.03343706 -0.037870064 0.0379858
0.021298667 -0.02749839 -0.054773718 -0.062492896 0.016935622 0.035012886 -0.005688026 0.015291027
-0.049645964 0.005735446 -0.038123515 -0.0027274902 -0.013460356 0.031324994 -0.010616673 -0.05015603
-0.063586324 -0.01611667 -0.0054544923 0.060850807 -0.021437481 -0.025267549 0.017572895 -0.032941043
0.0067355363 0.051475737 -0.0012344728 0.04507455 -0.024611749 -0.013632819 0.03866254 0.044618126
-0.019086791 -0.077846386 0.004536078 -0.026987012 -0.018720403 0.062283397 0.00010351493 -0.02393601
-0.019913083 -0.010236063 -0.026866358 -0.024906404 0.025292415 0.025220554 -0.008615896 -0.013631569
-0.018136917 -0.015590806 -0.034240495 -0.015962815 0.040109154 -0.002097861 -0.013096772 -0.014734237
-0.038356315 -0.017654983 -0.039766338 -0.04727498 -0.04158224 -0.006468838 -0.0026129636 -0.025254091
0.024923068 0.0050667347 0.024083111 -0.010193668 -0.050816614 -0.08671308 -0.06631877 -0.012609996
0.00051611336 0.013454782 -0.03925185 -0.00036073156 0.012150982 -0.012675826 -0.04029154 -0.017062055
-0.005482182 0.023634814 -0.0260508 0.037860446 0.015009195 -0.014889324 -0.011889614 -0.023704385
0.014644001 0.003520701 -0.010697801 -0.017855072 -0.0053598434 -0.035645355 0.015479162 0.039732903
0.034126513 0.020100249 0.030756816 -0.022179004 0.004109796 -0.016965538 -0.04000732 -0.020561783
-0.020372229 -0.01796508 0.015940327 -0.020431973 -0.01933578 -0.022577744 0.047239214 -0.019408572
0.028534353 0.05193768 -0.004691832 -0.022356419 0.017010415 -0.028892579 -0.02515276 0.015946181
-0.004366653 0.0038724 -0.019427264 0.034845203 -0.042748496 -0.04141152 -0.002567832 -0.01133311
-0.0048137465 0.016665213 -0.039393872 -0.020856071 -0.007359318 -0.05467906 -0.021733187 -0.0056327092
-0.01311375 0.013605988 -0.01402381 -0.051445186 0.0013578025 -0.04070152 -0.055707544 0.031340744
-0.03661783 -0.014963525 0.047726415 -0.030530684 0.0324951 -0.0014546935 -0.0186789 -0.048432183
0.0109187635 -0.007867687 0.010018991 -0.008207437 -0.039496977 -0.039720505 0.015619928 0.010145251
-0.03351732 -0.040259488 -0.012436589 -0.022855386 -0.037358027 -0.019769564 -0.004384092 -0.0072868145
-0.012368975 -0.0047332365 0.024530131 0.024904758 -0.05200519 0.017749706 0.035373338 0.022820033
0.01217181 -0.034474444 -0.032834385 -0.012666541 -0.022785725 0.030149 0.060810685 -0.0030937444
00000000: 1cff b63c c4e8 e53b e44a 133d a5ee 77bc
00000010: 8268 97bc 519b ca3c 953a 91bd 0e59 2abd
00000020: c378 323c 31be c7bb 9f0d 5f3d 3c06 ef3b
00000030: 29dc 353c 9e29 5ebd 5910 59bc 3fd7 b4bc
00000040: 10d2 493c 653e 5ebc 2156 193d 11da 10bd
00000050: 5354 27bd 68a6 fbba 2b60 e73b 734b 893c
00000060: 3f58 1f3d ae50 5a3d d558 213d cd9b fdbc
00000070: fd3a 3abc ec8d 8a3c 6f13 993b 4001 d03b
00000080: f238 07bb 290b b2bc 20b5 8b3a f78a debb
00000090: 2372 d8bc eedc ffbc 00b9 5b3c c167 97bc
000000a0: cd04 f1bc 08bd c23c 08d3 c33c ec82 8f3c
000000b0: 6280 efbc c0ac 243b 8204 8c3c 690a 0fbd
000000c0: 1058 88bb b0f9 6a3c 2c6e 003d 32a4 923c
000000d0: 748e 813c da9e 1dbd 3860 bf3c 409f e8bc
000000e0: 10aa 9b3b 0e4e 09bd 2cfe dd3c 345e 193c
000000f0: 0089 1fb9 7027 8d3b 4cda 3cbc f6d2 1e3d
00000100: a095 00bc 0820 003c ac01 ee3c 0e0b 893c
00000110: 84a0 eb3c 4cf5 083d a41d 1bbd 0097 1b3d
00000120: 8b7a ae3c 4e44 e1bc 685a 60bd 8df8 7fbd
00000130: 93bc 8a3c ac69 0f3d 9f62 babb 3787 7a3c
00000140: 9159 4bbd 68f0 bb3b 6727 1cbd b1bf 32bb
00000150: d388 5cbc a34e 003d 8ef1 2dbc 6970 4dbd
00000160: 8c39 82bd 1b07 84bc 99bb b2bb b23e 793d
00000170: a89d afbc e4fd cebc 08f5 8f3c 30ed 06bd
00000180: c6b5 dc3b 39d8 523d 09ce a1ba 17a0 383d
00000190: 949e c9bc 305c 5fbc 9d5c 1e3d 7fc1 363d
000001a0: e75b 9cbc ed6d 9fbd 61a3 943b de13 ddbc
000001b0: 885b 99bc e01c 7f3d 2816 d938 7415 c4bc
000001c0: c320 a3bc 29b5 27bc d616 dcbc 8408 ccbc
000001d0: 0a32 cf3c 569b ce3c b029 0dbc f256 5fbc
000001e0: df93 94bc 9470 7fbc c33f 0cbd 73c4 82bc
000001f0: 7f49 243d 447c 09bb d893 56bc df67 71bc
00000200: 831b 1dbd 2fa1 90bc 07e2 22bd 69a3 41bd
00000210: 2452 2abd 8cf8 d3bb 413e 2bbb abe1 cebc
00000220: 762b cc3c da06 a63b f249 c53c 5803 27bc
00000230: 1525 50bd a196 b1bd 23d2 87bd 289a 4ebc
00000240: c84b 073a 7271 5c3c 8cc6 20bd 9220 bdb9
00000250: ea14 473c 45ae 4fbc be08 25bd b9c5 8bbc
00000260: e0a3 b3bb cc9d c13c 7d68 d5bc 8e13 1b3d
00000270: 20e9 753c 5af2 73bc a8cc 42bc b32f c2bc
00000280: 64ed 6f3c 90bb 663b d445 2fbc cd44 92bc
00000290: a0a1 afbb dd00 12bd 509c 7d3c f8be 223d
000002a0: 3ec8 0b3d 47a9 a43c b8f5 fb3c beb0 b5bc
000002b0: 78ab 863b 50fb 8abc b7de 23bd 2f71 a8bc
000002c0: a9e3 a6bc 812b 93bc 4a95 823c f460 a7bc
000002d0: 1266 9ebc f6f4 b8bc e87d 413d bafe 9ebc
000002e0: e0c0 e93c 9bbc 543d f0bd 99bb cf24 b7bc
000002f0: 6d59 8b3c 21b0 ecbc 290d cebc 91a1 823c
00000300: 2416 8fbb 17c8 7d3b ed25 9fbc d8b9 0e3d
00000310: 0c19 2fbd 209f 29bd 1249 28bb 82ae 39bc
00000320: a2bc 9dbb 7c85 883c 785b 21bd 5ada aabc
00000330: 6f26 f1bb 26f7 5fbd cc09 b2bc 9792 b8bb
00000340: 0edb 56bc a6eb 5e3c 1fc4 65bc 30b8 52bd
00000350: 4bf8 b13a a3b6 26bd 982d 64bd 275f 003d
00000360: 94fc 15bd 9329 75bc c67c 433d 7c1b fabc
00000370: 9519 053d 6aab beba 7e04 99bc d360 46bd
00000380: 9de4 323c 79e7 00bc b226 243c 7c78 06bc
00000390: 95c7 21bd f8b1 22bd baea 7f3c 4438 263c
000003a0: 7549 09bd 22e7 24bd d6c2 4bbc 383b bbbc
000003b0: bb04 19bd c8f3 a1bc 6ea8 8fbb 3bc6 eebb
000003c0: 3ea7 4abc 4419 9bbb 6af3 c83c 1005 cc3c
000003d0: 6503 55bd d567 913c a2e3 103d 14f1 ba3c
000003e0: 456c 473c 1335 0dbd 597d 06bd 5387 4fbc
000003f0: 21a9 babc 09fb f63c a014 793d 6bc0 4abb

fc1.bias f4 [120]
0.0130456155 0.13802575 -0.013366987 0.0048490153 0.037380006 0.05643127 0.0635615 -0.0060878303
-0.01908688 -0.016822645 0.045516256 0.06678896 0.026369257 0.016937472 0.0037452553 0.010872871
0.05222214 -0.041211896 0.033945795 0.07315402 0.019896805 0.013721892 -0.009034921 -0.0020863938
0.12566309 0.12310729 0.047956325 0.037545636 0.0031953207 0.10542515 0.078149006 0.10102226
0.018351488 -0.035781953 0.05251537 0.07576217 0.0061503244 -0.020259114 -0.056719486 0.031053532
0.064407505 0.06587185 -0.00251311 0.007526558 0.09345235 -0.028715545 0.1746444 0.054228403
0.057515226 0.103836015 0.06746087 0.033172324 0.034517318 -0.051154405 0.058466807 0.021064721
0.03794268 0.10224345 0.039676197 0.0616389 0.011511944 -0.014292841 0.0116384765 -0.051705513
-0.0034023118 0.0724063 0.028661318 0.1235159 -0.026494958 0.023222633 0.047956236 -0.011722976
0.091177076 0.042938955 0.04970573 0.09094084 0.06454468 0.0065732677 0.055725977 0.052661926
0.07931508 0.04379724 0.06653754 0.07901928 0.06378373 0.099024616 0.052246675 0.058021866
0.015176926 0.019557798 0.04850916 0.02606724 0.04553391 0.09250673 0.09769226 0.102013394
0.093817055 0.072088696 0.060476992 0.07186073 0.054302488 -0.03163213 0.0075936923 0.019028408
0.040203888 0.0054278723 0.13554981 0.11286167 0.07771486 0.006130644 0.041967947 0.07021063
-0.022588165 0.07666527 0.0625358 0.061195347 0.028462727 0.07370769 0.035483483 0.03477079
00000000: 47bd 553c 9f56 0d3e 3501 5bbc 7de4 9e3b
00000010: c71b 193d 7a24 673d 882c 823d 6c7c c7bb
00000020: 175c 9cbc a5cf 89bc 416f 3a3d a6c8 883d
00000030: 5704 d83c 74c0 8a3c f572 753b 2024 323c
00000040: e2e6 553d cecd 28bd bf0a 0b3d c6d1 953d
00000050: a0fe a23c c9d1 603c 3507 14bc e1bb 08bb
00000060: d3ad 003e ad1f fc3d da6d 443d 74c9 193d
00000070: 9668 513b 24e9 d73d 960c a03d c2e4 ce3d
00000080: dc55 963c 1990 12bd 5b1a 573d 3229 9b3d
00000090: a988 c93b 71f6 a5bc b152 68bd fa63 fe3c
000000a0: 15e8 833d d2e7 863d fdb2 24bb 58a1 f63b
000000b0: f263 bf3d dd3c ebbc fbd5 323e 9a1e 5e3d
000000c0: 1695 6b3d faa7 d43d ed28 8a3d b4df 073d
000000d0: 0862 0d3d 4887 51bd e47a 6f3d ec8f ac3c
000000e0: c969 1b3d 0465 d13d 8283 223d 1279 7c3d
000000f0: 989c 3c3c 852c 6abc 4faf 3e3c 29c9 53bd
00000100: 52f9 5ebb c149 943d 24cb ea3c e7f5 fc3d
00000110: f40b d9bc 643d be3c c26d 443d ba11 40bc
00000120: 0cbb ba3d c2e0 2f3d 3c98 4b3d 313f ba3d
00000130: 0030 843d 9164 d73b ec40 643d 08b4 573d
00000140: f26f a23d bc64 333d d544 883d dcd4 a13d
00000150: 0ba1 823d 6bcd ca3d 9c00 563d 56a8 6d3d
00000160: a4a8 783c ad37 a03c 8ab1 463d f78a d53c
00000170: c481 3a3d 2b74 bd3d e112 c83d 66ec d03d
00000180: 2823 c03d 3da3 933d b9b6 773d b82b 933d
00000190: 496c 5e3d b190 01bd 82d4 f83b 77e1 9b3c
000001a0: d5ac 243d 4bdc b13b 92cd 0a3e 0524 e73d
000001b0: f828 9f3d 92e3 c83b 95e6 2b3d 97ca 8f3d
000001c0: d10a b9bc ae02 9d3d c512 803d f9a7 7a3d
000001d0: aa2a e93c 0ff4 963d 2157 113d d16b 0e3d

fc2.weight f4 [84, 120]
-0.11491234 0.07762124 -0.07967899 -0.0019834673 -0.038711865 0.032198694 0.091078684 -0.035334557
0.038397092 0.11169735 -0.08641954 0.046699997 -0.03524507 0.027620481 0.018634675 -0.015717814
0.14822462 0.050656334 -0.1058173 -0.062212475 -0.05627046 0.003942058 0.008273118 -0.059548877
0.023729058 -0.06638644 -0.18201491 0.0009371719 0.040482186 0.011565261 0.060178097 0.053202637
-0.16114001 0.075362146 -0.059142042 0.063929744 -0.01071552 -0.019762978 0.013681678 -0.0735871
0.12723702 0.014586387 0.08808421 -0.054278426 0.07224308 -0.075022526 0.059908953 0.030973984
0.052040186 -0.0057479776 0.08266574 0.005286852 0.003596248 -0.03432496 0.074342944 0.06463334
0.07467497 0.0067466567 -0.06594714 0.014440184 -0.074603826 0.03536922 -0.093657345 -0.035080772
0.021718575 0.055297386 0.046489004 0.0023768216 -0.13422856 -0.015568649 -0.076676324 -0.0731184
0.039210185 0.05936766 -0.10454164 -0.041413512 0.050283037 -0.093264 -0.037673812 -0.094842196
0.06265466 -0.07518345 0.08313561 0.10680215 0.07856402 0.0144598605 -0.11472306 0.024171816
0.09887385 0.0043906686 -0.037108835 0.038568273 0.058692776 0.002589665 0.07020328 0.08687782
-0.00818117 0.03931354 -0.050574936 -0.07631574 -0.05808256 0.11722911 0.066052414 0.08104904
0.025632206 -0.03157604 0.04297303 0.105973884 -0.053385306 -0.060942784 0.03978647 -0.037157975
0.08547851 -0.05048811 0.0030371756 0.08282702 -0.06406653 -0.106410705 -0.13216512 -0.07494738
0.075852856 0.05660628 -0.067761794 0.07917939 -0.05017047 -0.0018002955 -0.05604881 -0.0653639
0.049972408 -0.10916035 0.034694858 0.08831456 -0.08567022 -0.0063975328 -0.13424149 0.007920173
-0.07297196 0.029134167 0.09305821 -0.05892143 -0.11855759 -0.0572994 0.06559544 -0.0059768106
0.030524306 -0.03393273 0.033394895 0.03728682 -0.04876815 0.019009322 -0.04139201 0.09864975
0.11688998 0.014972756 0.10808254 0.12613297 -0.052251473 -0.10179664 0.084605575 -0.011827195
0.022236893 -0.013475983 0.0008672768 0.06337797 0.048336275 -0.016112527 0.028794838 0.08227275
0.028052276 0.10136654 -0.059230354 0.05979011 0.09965353 -0.018147303 -0.11198636 -0.050964978
0.02058605 -0.08515091 0.0036836164 -0.13230015 0.01149724 -0.0045772004 0.029591877 0.08401331
0.010694835 0.10830772 -0.0986833 -0.06750598 -0.050624065 0.09191201 0.033080544 0.003699844
-0.06610623 -0.11360672 -0.05344509 0.049901307 -0.031118944 -0.058669854 0.018700311 0.11650117
0.062314086 -0.057853755 0.06506004 0.090887934 -0.065655254 0.030343816 -0.04916805 -0.0056903246
-0.023675552 0.08347543 -0.13828173 -0.066781804 -0.03279061 0.10752275 0.010820324 -0.10328354
-0.11357362 -0.063917235 0.036466584 -0.008808726 -0.0591939 -0.10508827 -0.016114436 0.0535585
-0.09560859 0.10362177 0.010164294 -0.08968309 0.013304892 0.036597025 -0.06892264 0.075801596
-0.056018185 -0.054224804 -0.03152062 -0.049684744 -0.05190889 0.04063454 0.13914326 -0.015297491
-0.036275856 -0.06063574 0.06178905 0.040221874 0.038213864 -0.03989334 -0.06203586 0.05118633
0.034797687 -0.015156132 -0.08857269 0.079548515 0.06241626 -0.0045687063 -0.0002445659 0.010791226
00000000: 2957 ebbd e2f7 9e3d bd2e a3bd 0ffd 01bb
00000010: 5590 1ebd c7e2 033d 7687 ba3d f8ba 10bd
00000020: 4546 1d3d 95c1 e43d bafc b0bd 7f48 3f3d
00000030: 225d 10bd 5944 e23c bfa7 983c a5c2 80bc
00000040: 32c8 173e 047d 4f3d beb6 d8bd 82d2 7ebd
00000050: db7b 66bd 612c 813b f98b 073c 86e9 73bd
00000060: 7163 c23c 9df5 87bd 1e62 3abe 8bac 753a
00000070: a6d0 253d 387c 3d3c 4f7d 763d 02eb 593d
00000080: e301 25be 7857 9a3d ed3e 72bd 99ed 823d
00000090: 2690 2fbc f8e5 a1bc 1e29 603c d5b4 96bd
000000a0: 6c4a 023e befb 6e3c 7f65 b43d 0e53 5ebd
000000b0: 2ef4 933d 69a5 99bd 1763 753d 27bd fd3c
000000c0: 1728 553d 8859 bcbb a84c a93d 543d ad3b
000000d0: 08af 6b3b 5498 0cbd 1d41 983d 7c5e 843d
000000e0: 31ef 983d 0f13 dd3b 4b0f 87bd 8696 6c3c
000000f0: e4c9 98bd 51df 103d 6ccf bfbd dbb0 0fbd
00000100: 27eb b13c 837f 623d 416b 3e3d 73c4 1b3b
00000110: 3673 09be a613 7fbc 7a08 9dbd 1abf 95bd
00000120: dc9a 203d 812b 733d ed19 d6bd 37a1 29bd
00000130: 96f5 4d3d 3201 bfbd db4f 1abd a03c c2bd
00000140: 1651 803d c8f9 99bd 0143 aa3d 16bb da3d
00000150: 2ce6 a03d 0de9 6c3c ecf3 eabd f903 c63c
00000160: 607e ca3d 99df 8f3b 6fff 17bd c4f9 1d3d
00000170: d667 703d 5eb7 293b bdc6 8f3d 00ed b13d
00000180: 500a 06bc 3c07 213d aa27 4fbd 6d4b 9cbd
00000190: fae7 6dbd d115 f03d 7d46 873d 0afd a53d
000001a0: a2fa d13c e155 01bd 7d04 303d d608 d93d
000001b0: 8daa 5abd 249f 79bd 23f7 223d f632 18bd
000001c0: 5b0f af3d 9fcc 4ebd 5a0b 473b 36a1 a93d
000001d0: 5035 83bd dbed d9bd 4b56 07be 037e 99bd
000001e0: be58 9b3d fddb 673d b2c6 8abd ce28 a23d
000001f0: 8d7f 4dbd e5f7 ebba 7093 65bd 82dd 85bd
00000200: deaf 4c3d 768f dfbd 321c 0e3d 44de b43d
00000210: de73 afbd 65a2 d1bb 9a76 09be 9dc3 013c
00000220: 5372 95bd c7aa ee3c 4e95 be3d 9957 71bd
00000230: 52ce f2bd c7b2 6abd e756 863d 1fd9 c3bb
00000240: 1c0e fa3c 0cfd 0abd 16c9 083d 11ba 183d
00000250: 1dc1 47bd 70b9 9b3c ab8a 29bd e108 ca3d
00000260: 0464 ef3d 4a50 753c 615a dd3d 0029 013e
00000270: a405 56bd c27a d0bd b045 ad3d dac6 41bc
00000280: 252a b63c 5fca 5cbc f659 633a 4fcc 813d
00000290: 42fc 453d 6bfe 83bc 27e3 eb3c 9e7e a83d
000002a0: e3cd e53c 4399 cf3d 879b 72bd 79e6 743d
000002b0: 2617 cc3d a7a9 94bc 1b59 e5bd a7c0 50bd
000002c0: 13a4 a83c 9a63 aebd d468 713b b179 07be
000002d0: eb5e 3c3c 57fc 95bb aa6a f23c 2c0f ac3d
000002e0: 6439 2f3c 70d0 dd3d 781a cabd 9340 8abd
000002f0: 2e5b 4fbd 5d3c bc3d 777f 073d 1579 723b
00000300: b462 87bd a4aa e8bd 3de9 5abd 5065 4c3d
00000310: 28ed febc cd4f 70bd 6531 993c 2a98 ee3d
00000320: 0e3d 7f3d 0ff8 6cbd 333e 853d 7423 ba3d
00000330: 4376 86bd 9893 f83c 7064 49bd e775 babb
00000340: 3bf3 c1bc 2bf5 aa3d ba99 0dbe e6c4 88bd
00000350: 724f 06bd e334 dc3d ba47 313c 5286 d3bd
00000360: 4999 e8bd 0ae7 82bd fc5d 153d 7a52 10bc
00000370: 4e75 72bd 8538 d7bd 6c02 84bc 2860 5b3d
00000380: 70ce c3bd a737 d43d 2488 263c c5ab b7bd
00000390: c3fc 593c c3e6 153d 5027 8dbd de3d 9b3d
000003a0: 5373 65bd d41a 5ebd c41b 01bd 3b82 4bbd
000003b0: 6b9e 54bd 6770 263d 927b 0e3e 54a2 7abc
000003c0: fe95 14bd 2f5d 78bd 8416 7d3d b1bf 243d
000003d0: 2486 1c3d 3367 23bd 5019 7ebd c2a8 513d
000003e0: 0588 0e3d 6d51 78bc 9965 b5bd 55ea a23d
000003f0: 31a8 7f3d 16b5 95bb 1439 80b9 afcd 303c

fc2.bias f4 [84]
0.05407867 0.08329885 0.070336275 -0.015192285 0.107604764 0.15512116 -0.039017048 0.057962593
0.14323561 0.11975455 0.2325533 -0.0642711 0.12464113 0.0075274827 0.123954326 -0.086521335
0.027153572 0.11994502 0.11271919 0.15054344 0.069937676 -0.003099771 0.1894656 0.21857668
0.06559712 0.08514371 0.012079952 0.12213783 0.036973838 -0.075722404 0.08997653 0.049279757
0.13967684 0.07738426 0.20071062 0.18344283 0.2210682 0.08065458 -0.03603273 0.08320751
0.12668729 0.15140127 -0.005501534 -0.031513862 0.19449975 -0.023951393 0.11158523 0.014559611
-0.03861625 0.18627205 -0.11888895 -0.050034318 0.09333356 0.12890504 0.15263945 -0.032005686
-0.08641865 0.0276212 0.07348308 0.092119895 -0.01935662 0.16596252 0.13699307 0.022275763
0.07737538 0.0088092 0.023824409 -0.08030324 0.06175465 0.11575868 0.20881212 0.11310536
0.05636445 0.16065194 0.19273917 0.17441419 -0.014006843 0.12717478 0.19693202 0.22172576
0.054819 0.0025172785 0.07095493 0.034242574
00000000: 9881 5d3d 9698 aa3d 770c 903d 10e9 78bc
00000010: e35f dc3d 15d8 1e3e 57d0 1fbd 2f6a 6d3d
00000020: 5bac 123e e041 f53d 7422 6e3e 91a0 83bd
00000030: d943 ff3d 1aa9 f63b c4db fd3d 1932 b1bd
00000040: 2b71 de3c bca5 f53d 52d9 e63d 0f28 1a3e
00000050: 7c3b 8f3d 8725 4bbb 4503 423e 91d2 5f3e
00000060: c857 863d d35f ae3d feea 453c 6623 fa3d
00000070: e171 173d 5914 9bbd 9d45 b83d 92d9 493d
00000080: 7207 0f3e a47b 9e3d 1687 4d3e 70d8 3b3e
00000090: b45f 623e 3a2e a53d 0e97 13bd b368 aa3d
000000a0: 50ba 013e ef08 1b3e 3646 b4bb ae14 01bd
000000b0: f12a 473e b635 c4bc cc86 e43d 6f8b 6e3c
000000c0: 132c 1ebd 1abe 3e3e 0d7c f3bd c9f0 4cbd
000000d0: aa25 bf3d afff 033e 844d 1c3e 6518 03bd
000000e0: 43fc b0bd db45 e23c 4c7e 963d 5ba9 bc3d
000000f0: c691 9ebc 14f2 293e e947 0c3e a97b b63c
00000100: fc76 9e3d 7654 103c 682b c33c 0676 a4bd
00000110: 72f2 7c3d e312 ed3d d8d2 553e c8a3 e73d
00000120: 69de 663d f181 243e 6b5d 453e a299 323e
00000130: f57c 65bc 1b3a 023e 8ca8 493e 140c 633e
00000140: e389 603d edf8 243b d150 913d f141 0c3d

fc3.weight f4 [2, 84]
-0.07080035 0.23781946 -0.30565482 -0.06259867 0.14098994 -0.24389929 -0.07678419 -0.045596227
0.17671862 -0.32466316 0.18063183 -0.28676227 -0.35035804 -0.1285863 -0.3450661 -0.3341818
-0.24482892 -0.32576737 -0.17298909 0.1094989 0.13508949 0.036070533 -0.23069811 0.40515536
-0.22016741 0.26636234 0.11783782 0.30135286 -0.0024270122 -0.089279994 0.16509292 0.27512342
-0.48382062 0.22129981 -0.3337246 0.18267998 -0.43038246 0.06026586 -0.06216327 -0.1287577
0.26618585 0.34909615 0.029045794 -0.020466138 0.4667961 -0.00096451625 0.17461777 0.12755741
-0.1602111 0.53390086 -0.2658568 -0.1276573 0.45049837 -0.10509313 -0.25174993 0.042452343
-0.14213288 -0.07566367 -0.3883091 -0.25946134 0.06185276 -0.36133143 -0.114563696 0.06565066
0.139367 0.057857756 0.26484165 0.02318656 0.11614465 0.21404538 0.47884667 0.23306261
0.123300105 0.06868086 -0.15062535 0.49199423 -0.08765007 -0.19317137 0.39877304 0.23574363
0.20377444 -0.023384973 -0.0735237 0.025519844 0.39861757 -0.3172428 0.1310405 -0.23812222
-0.21256664 0.04988395 0.05306366 -0.0557857 0.15910253 0.16829671 -0.4746565 0.13243856
-0.3330797 -0.10510888 -0.18023157 0.009487836 -0.012375443 -0.030251704 -0.09898226 -0.4377519
0.2647057 -0.12938242 0.31781518 0.35090196 0.022249784 0.21899569 -0.060596824 -0.1690882
0.10693046 0.11813064 -0.06395827 0.059529543 -0.18156978 0.30543524 0.55851173 -0.26373643
-0.2700572 0.39221728 0.06819213 -0.49799013 -0.1773518 -0.18473503 0.2410262 -0.26490605
0.13392264 0.0554909 -0.032472044 0.08760874 0.24579468 0.15145835 -0.022548167 0.18078001
-0.14590272 -0.2880671 -0.06517094 0.08723973 -0.03690796 -0.24880154 -0.10391324 -0.06764321
-0.16654047 0.16075043 0.4678879 0.27719086 0.06450459 -0.30813465 0.058446735 -0.055065375
-0.27427527 0.32927945 -0.16680409 -0.21301703 -0.14387167 -0.44076186 0.36577383 0.27147067
-0.1101145 -0.20614895 -0.337755 -0.38423353 -0.012961207 0.12576638 0.25105286 -0.07058022
00000000: c6ff 90bd f286 733e ca7e 9cbe bb33 80bd
00000010: ab5f 103e bcc0 79be 0841 9dbd 1cc3 3abd
00000020: baf5 343e 403a a6be 8df7 383e 81d2 92be
00000030: 2162 b3be 21ac 03be 81ac b0be e019 abbe
00000040: 6fb4 7abe fbca a6be 0d24 31be f640 e03d
00000050: e654 0a3e b2be 133d 203c 6cbe 8670 cf3e
00000060: 9173 61be a560 883e f454 f13d ec4a 9a3e
00000070: 820e 1fbb 6ed8 b6bd 1e0e 293e fadc 8c3e
00000080: 56b7 f7be 6b9c 623e f3dd aabe 7610 3b3e
00000090: 175b dcbe 56d9 763d ea9e 7ebd 0fd9 03be
000000a0: 8349 883e bbbc b23e 72f1 ed3c 9aa8 a7bc
000000b0: e6ff ee3e 97d7 7cba 00cf 323e 699e 023e
000000c0: 610e 24be baad 083f 621e 88be 98b8 02be
000000d0: b9a7 e63e 113b d7bd 5ee5 80be 82e2 2d3d
000000e0: 488b 11be 8ef5 9abd 73d0 c6be 1ed8 84be
000000f0: 5259 7d3d 6f00 b9be 5fa0 eabd da73 863d
00000100: 39b6 0e3e 41fc 6c3d 5399 873e bef1 bd3c
00000110: 3fdd ed3d b62e 5b3e 642b f53e f7a7 6e3e
00000120: c484 fc3d 8da8 8c3d 883d 1abe abe6 fb3e
00000130: e181 b3bd b7ce 45be fb2b cc3e c766 713e
00000140: 3faa 503e d891 bfbc 9893 96bd fe0e d13c
00000150: 9a17 cc3e a66d a2be 7b2f 063e 50d6 73be
00000160: 12ab 59be 1d53 4c3d 4859 593d 8c7f 64bd
00000170: c6eb 223e f955 2c3e 2d06 f3be f99d 073e
00000180: 6c89 aabe 5343 d7bd a08e 38be de72 1b3c
00000190: 5fc2 4abc 6cd2 f7bc 36b7 cabd 0421 e0be
000001a0: 8187 873e d37c 04be acb8 a23e 6ca9 b33e
000001b0: 2e45 b63c 6840 603e 6034 78bd 7525 2dbe
000001c0: 5bfe da3d 7aee f13d 8efc 82bd 40d5 733d
000001d0: 6eed 39be 0262 9c3e a0fa 0e3f 7608 87be
000001e0: f044 8abe b4d0 c83e 51a8 8b3d 90f8 febe
000001f0: b69b 35be 2e2b 3dbe 92cf 763e c4a1 87be
00000200: 0423 093e 6d4a 633d 6801 05bd 366c b33d
00000210: 9ab1 7b3e e617 1b3e efb6 b8bc 651e 393e
00000220: 8667 15be 887d 93be 5778 85bd beaa b23d
00000230: cd2c 17bd d5c5 7ebe 77d0 d4bd 8688 8abd
00000240: 9689 2abe c39b 243e 018f ef3e f6eb 8d3e
00000250: fc1a 843d d3c3 9dbe d865 6f3d 3b8c 61bd
00000260: cf6d 8cbe 5197 a83e b1ce 2abe 2321 5abe
00000270: 1853 13be 8aab e1be b546 bb3e 34fe 8a3e
00000280: b683 e1bd b618 53be 39ee acbe 42ba c4be
00000290: 3e5b 54bc e7c8 003e 008a 803e 5d8c 90bd

fc3.bias f4 [2]
0.0755077 -0.005227509
00000000: c8a3 9a3d 864b abbb
