src/models/dagger-fix-5.onnx (onnx, 336968 bytes, 10 tensors)

conv1.weight f4 [6, 5, 5, 5]
0.04131213 0.06076213 0.015175572 -0.036625978 0.051062185 0.035778917 -0.083989464 0.003259308
0.03376929 -0.07036114 0.03269745 0.06990475 -0.008871298 -0.067094184 -0.021937788 -0.022710178
0.06357039 -0.069221914 -0.023101011 -0.0395495 0.00909595 -0.052298635 -0.08115193 -0.0037813156
0.06990214 -0.030540226 -0.008465539 -0.07142481 0.08495668 0.07432316 0.019882377 -0.015700825
0.08752046 -0.024114808 0.06517352 -0.089297846 0.054961078 -0.04946816 -0.04513614 -0.066317335
-0.06982955 0.023526434 0.00032214358 0.0506164 -0.051888622 -0.056477223 0.0038541479 0.007186534
-0.031760152 0.0029017213 0.01667551 0.08192549 -0.085960366 0.038355272 -0.07360048 -0.0041440045
0.032511976 -0.012519172 -0.0018793845 -0.01535391 0.05120611 -0.075450994 0.03724698 -0.08997849
-0.0010365953 -0.056887377 -0.08495606 0.061272703 0.08669227 -0.07967927 -0.032289952 -0.043399345
0.0051007266 0.07085865 -0.05297385 -0.06001729 -0.044640735 0.03926968 -0.0683449 -0.06947778
-0.075868405 -0.070659794 -0.031833977 0.079336226 0.030241558 0.025445528 -0.038808513 0.08709098
0.026745027 0.06732432 0.056673877 0.07017867 0.004025021 0.071633786 0.047463506 0.04763762
-0.054240104 0.07132009 0.009355028 -0.05506205 -0.047460373 -0.05792032 -0.06829843 -0.014267136
0.0068378174 0.071507625 0.072316825 0.04838018 -0.057114825 -0.01839224 0.024463423 0.0047271517
0.032970596 -0.025745748 0.06226482 0.057173386 0.024993286 -0.077116385 -0.050249252 0.05116201
-0.040205795 -0.059452083 0.0320497 0.0024758386 -0.056891322 0.11445394 0.05942704 0.088858515
0.052635312 0.10955206 0.07082526 0.039703406 0.11298223 0.11289893 0.13986711 0.036396977
0.1313788 0.19324982 0.03896148 0.11278806 0.13646045 0.016205464 0.11086071 0.1297731
0.009061481 -0.04488155 0.046189815 0.034870718 0.119481154 -0.06548498 0.1354174 0.062248122
0.013443355 -0.02111796 0.12646936 -0.012313671 0.11240573 0.13196795 0.064144 -0.010287975
0.0992553 0.09588892 0.067062706 0.13363658 0.1009201 0.090796955 0.0070635574 0.106974825
0.057770744 0.04435395 0.09793372 -0.018910363 0.07571143 0.0019762185 -0.062802315 0.069482096
0.13030592 0.107139476 0.02100061 0.10967078 0.15059075 0.032038264 0.17303537 0.10578687
0.08627394 -0.009853997 0.010886908 0.093025036 0.069552444 -0.0024482016 0.123430386 0.055829745
0.037258312 0.02279796 0.025493441 0.10968802 0.11927987 0.12990837 -0.008144585 -0.055838432
0.03876577 0.033847336 0.12922929 0.05360908 0.064719684 0.002318598 0.12899084 0.05258372
0.16065538 0.120099366 -0.016625198 0.024822079 0.08259817 0.09951208 0.010682672 0.0945876
0.12900373 0.11101278 0.01979607 0.10726003 -0.031882722 -0.04463637 -0.023424102 -0.010250248
0.09903651 0.09392085 0.11823841 0.13541807 0.118824236 0.064667635 0.09221521 0.066057414
0.17820513 0.13050792 0.011876454 -0.0057332404 0.042703964 0.18573087 0.016932761 0.13921015
-0.03361051 0.1358414 0.09943077 0.058335602 -0.010102282 -0.02496329 -0.03556888 -0.0077640056
-0.04373557 0.066141956 -0.055854946 -0.017508226 0.04603406 0.08255596 -0.060575195 -0.040128373
00000000: e836 293d b6e1 783d f6a2 783c 1f05 16bd
00000010: 9526 513d ea8c 123d ab02 acbd 1d9a 553b
00000020: ab51 0a3d 8019 90bd c3ed 053d 392a 8f3d
00000030: ec58 11bc ad68 89bd e0b6 b3bc b20a babc
00000040: 3131 823d 38c4 8dbd 553e bdbc a8fe 21bd
00000050: 2e07 153c 1837 56bd fc32 a6bd f3cf 77bb
00000060: da28 8f3d 7f2f fabc 0bb3 0abc 2c47 92bd
00000070: c5fd ad3d be36 983d 5ee0 a23c 049f 80bc
00000080: ed3d b33d 6b8c c5bc b279 853d cae1 b6bd
00000090: de1e 613d 209f 4abd ace0 38bd 62d1 87bd
000000a0: cc02 8fbd 82ba c03c 61e5 a839 2453 4f3d
000000b0: 2a89 54bd a954 67bd df95 7c3b 047d eb3b
000000c0: ef16 02bd ce2a 3e3b 149b 883c 8dc8 a73d
000000d0: fd0b b0bd 6b1a 1d3d d9bb 96bd 6eca 87bb
000000e0: 472b 053d 371d 4dbc ae55 f6ba f78e 7bbc
000000f0: 7fbd 513d 0d86 9abd 4a90 183d a446 b8bd
00000100: 5ede 87ba bd02 69bd 71fd adbd 16f9 7a3d
00000110: b88b b13d e32e a3bd 7842 04bd 83c3 31bd
00000120: ff23 a73b 571e 913d 1cfb 58bd b1d4 75bd
00000130: 34d9 36bd 3ed9 203d 69f8 8bbd 5e4a 8ebd
00000140: e560 9bbd 15b6 90bd 5864 02bd 087b a23d
00000150: 25bd f73c 2473 d03c adf5 1ebd c15c b23d
00000160: 6318 db3c 55e1 893d de22 683d d6b9 8f3d
00000170: 53e4 833b bcb4 923d 1869 423d aa1f 433d
00000180: df2a 5ebd 4410 923d d545 193c bf88 61bd
00000190: cf65 42bd dc3d 6dbd 0ce0 8bbd b5c0 69bc
000001a0: c50f e03b 9772 923d d81a 943d 4c2a 463d
000001b0: 3cf1 69bd 53ab 96bc 8467 c83c 39e6 9a3b
000001c0: 2d0c 073d bfe8 d2bc 6509 7f3d a42e 6a3d
000001d0: b8be cc3c 32ef 9dbd 29d2 4dbd 418f 513d
000001e0: d5ae 24bd 0784 73bd 8c46 033d ae41 223b
000001f0: e006 69bd d466 ea3d c569 733d 74fb b53d
00000200: 2098 573d d55c e03d d50c 913d 0aa0 223d
00000210: 3a63 e73d 8e37 e73d 5339 0f3e ff14 153d
00000220: 2a88 063e 48e3 453e 1396 1f3d 6dfd e63d
00000230: 4abc 0b3e 52c1 843c f10a e33d 3de3 043e
00000240: 9b76 143c b7d5 37bd 8831 3d3d 99d4 0e3d
00000250: 89b2 f43d fd1c 86bd dcaa 0a3e e3f7 7e3d
00000260: 8541 5c3c 92ff acbc 2f81 013e 48bf 49bc
00000270: fa34 e63d 9b22 073e ee5d 833d e58e 28bc
00000280: 5d46 cb3d 6961 c43d 2c58 893d 07d8 083e
00000290: 33af ce3d c1f3 b93d 6a75 e73b 9e15 db3d
000002a0: 04a1 6c3d 7dac 353d 7991 c83d e8e9 9abc
000002b0: 980e 9b3d 7283 013b 809e 80bd a14c 8e3d
000002c0: ea6e 053e f16b db3d 7909 ac3c 139b e03d
000002d0: 7634 1a3e 8e3a 033d 2f30 313e c9a6 d83d
000002e0: 64b0 b03d a972 21bc 005f 323c e983 be3d
000002f0: 8371 8e3d 0272 20bb 12c9 fc3d bbad 643d
00000300: 2c9c 183d cac2 ba3c 9fd7 d03c 1da4 e03d
00000310: 0149 f43d b306 053e de70 05bc d7b6 64bd
00000320: dbc8 1e3d 81a3 0a3d af54 043e 3295 5b3d
00000330: c18b 843d 9ff3 173b 2d16 043e 0762 573d
00000340: d882 243e a8f6 f53d 9131 88bc ac57 cb3c
00000350: 3b29 a93d fdcc cb3d 6006 2f3c 25b7 c13d
00000360: 8e19 043e ab5a e33d 5e2b a23c 26ab db3d
00000370: 7597 02bd a0d4 36bd e7e3 bfbc a8f0 27bc
00000380: a7d3 ca3d 9359 c03d fb26 f23d 09ab 0a3e
00000390: 1f5a f33d 7770 843d 54db bc3d 1c49 873d
000003a0: 687b 363e dea3 053e 7595 423c e8dd bbbb
000003b0: 5aea 2e3d 3c30 3e3e 93b6 8a3c 1b8d 0e3e
000003c0: 2dab 09bd 021a 0b3e 5ca2 cb3d 50f1 6e3d
000003d0: 0b84 25bc d07f ccbc adb0 11bd 3369 febb
000003e0: 1224 33bd 6f75 873d 28c8 64bd 696d 8fbc
000003f0: 368e 3c3d 1913 a93d b21d 78bd a65d 24bd

conv1.bias f4 [6]
0.014344234 0.081605926 -0.17130041 0.020235652 0.021263609 0.013494959
00000000: 1404 6b3c 0221 a73d 6069 2fbe 3dc5 a53c
00000010: 0531 ae3c f619 5d3c

conv2.weight f4 [16, 6, 5, 5]
0.06532836 -0.014597798 0.0070096552 -0.031106934 0.053293973 0.077749535 0.004764167 0.073696084
-0.045378625 -0.009471119 0.047184985 0.044160854 -0.07127132 -0.045321487 -0.05471814 -0.076246314
0.07969791 0.05056501 0.03330639 -0.08129666 -0.08127836 -0.036368683 0.056474466 -0.016609825
0.051769696 0.13822816 0.10477784 0.122840315 0.10626321 -0.005285344 0.1569649 0.052396815
0.08943684 0.031329114 0.117675856 0.03571138 0.01891084 -0.014685541 0.016077396 0.066686794
-0.1344868 -0.1442022 -0.07283229 0.015013996 -0.11765951 -0.1361367 -0.17574824 -0.07754473
-0.12387612 0.021410333 0.07670165 0.1176357 0.09625099 0.11777437 -0.055963647 0.069502555
0.056407485 0.09565212 0.024527181 0.022441408 -0.10081422 -0.06272779 -0.0836504 0.050964862
-0.10349787 -0.03548424 -0.12670021 -0.024893615 -0.059139986 -0.0312493 -0.107613444 -0.051708914
-0.11158565 -0.06909092 0.07162982 0.26232088 0.2767536 0.21105205 0.093451075 0.16951059
0.18127076 0.20974946 0.13227151 0.09695723 0.048651528 -0.020947035 0.030851353 0.041344114
0.031319175 -0.052445468 -0.26899177 -0.28932625 -0.23438913 -0.15681687 -0.081754684 -0.24403866
-0.176204 -0.09959749 -0.12596901 -0.029294943 -0.0905623 0.019238934 -0.028038483 -0.016261922
0.00952355 0.05768043 0.03750721 0.06725068 -0.007861806 -0.036857 0.06462791 -0.07831267
-0.0045239516 -0.006557505 -0.010536632 -0.04767909 -0.062744714 0.042687852 -0.045770116 0.07054775
-0.06930601 -0.09023427 -0.060922235 -0.079965495 -0.07688914 0.054526463 -0.04847546 0.02298945
-0.025567312 0.012367766 -0.0046276357 -0.008889495 0.041065883 -0.019894134 -0.07858753 0.014066944
-0.041547384 0.047943547 -0.08123525 0.007490531 -0.028087884 -0.0623407 -0.03768833 -0.02882331
-0.08147449 0.03027604 0.06957567 0.036371745 0.0027238913 0.0007410189 -0.047629602 0.020085262
-0.064102426 0.039165787 0.020264653 0.044224277 0.06733061 0.08028811 0.025611518 -0.0726776
0.07312409 0.06514933 -0.01451712 0.024376689 -0.037028898 -0.060010836 -0.06298466 -0.017767834
-0.024067577 0.05956429 0.04077211 -0.035011824 0.0040987744 0.07191085 -0.030016433 -0.06744313
-0.00014764664 0.024939131 0.055085655 -0.042945728 0.0027877227 0.099704176 0.05169057 0.13410205
0.094681695 -0.06658194 -0.029884487 0.009274356 0.07009823 0.085195914 0.009598764 -0.06313717
-0.008217143 -0.035045903 0.010996092 -0.12987964 -0.13032423 -0.023556266 -0.055533133 -0.10990434
0.09558466 -0.026594572 -0.0069053634 0.061252333 0.028883459 0.07216171 -0.038352713 0.072823666
0.055470992 -0.033731032 -0.0675676 0.10899874 -0.0044306037 0.04672949 -0.061722174 0.00013705973
-0.093727276 -0.067399524 0.031418756 -0.05580675 0.019239863 -0.038810056 -0.13737603 -0.036501713
-0.08347925 0.08097265 0.07711078 0.18177943 0.14893971 0.11291841 0.026779315 0.15111177
0.20598526 0.1897663 0.043078065 0.052210554 0.14360885 0.0439961 0.14317301 0.07649827
-0.043891262 -0.061080728 0.009072773 -0.060555965 -0.15137938 -0.18835515 -0.23105179 -0.25481442
-0.21669188 -0.21174584 -0.07293872 -0.0019448778 -0.04025862 0.049802996 0.05993183 -0.08712064
00000000: e0ca 853d 9a2b 6fbc 40b1 e53b f8d3 febc
00000010: c84a 5a3d 263b 9f3d bb1c 9c3b f9ed 963d
00000020: f0de 39bd c12c 1bbc 0b45 413d 03e2 343d
00000030: b3f6 91bd 06a3 39bd 2120 60bd 0727 9cbd
00000040: a838 a33d 421d 4f3d 486c 083d dd7e a6bd
00000050: 4575 a6bd 54f7 14bd c551 673d 5411 88bc
00000060: 760c 543d af8b 0d3e c495 d63d b493 fb3d
00000070: 87a0 d93d ae30 adbb 68bb 203e 0b9e 563d
00000080: a92a b73d f552 003d 0a00 f13d 1946 123d
00000090: e8ea 9a3c a09b 70bc beb4 833c 1693 883d
000000a0: e8b6 09be bea9 13be 1829 95bd 43fd 753c
000000b0: 78f7 f0bd 6b67 0bbe 59f7 33be c5cf 9ebd
000000c0: c3b2 fdbd b964 af3c c115 9d3d fcea f03d
000000d0: 3d1f c53d b033 f13d 233a 65bd 5b57 8e3d
000000e0: 890b 673d 42e5 c33d 3aed c83c 0bd7 b73c
000000f0: b077 cebd 6d77 80bd e750 abbd 88c0 503d
00000100: b1f6 d3bd ec57 11bd b3bd 01be b2ed cbbc
00000110: c53c 72bd 88fe ffbc 7064 dcbd bacc 53bd
00000120: 0487 e4bd 8a7f 8dbd a8b2 923d ec4e 863e
00000130: a6b2 8d3e 071e 583e 4763 bf3d 2f94 2d3e
00000140: 0b9f 393e 90c8 563e 2f72 073e 8391 c63d
00000150: d346 473d 1e99 abbc fabb fc3c 7258 293d
00000160: 8948 003d 0fd1 56bd 4ab9 89be 9222 94be
00000170: b403 70be 9a94 20be 006f a7bd 45e5 79be
00000180: d26e 34be c5f9 cbbd 05fe 00be f3fb efbc
00000190: ba78 b9bd f89a 9d3c f6b0 e5bc b937 85bc
000001a0: aa08 1c3c 5142 6c3d 29a1 193d b9ba 893d
000001b0: cece 00bc 5ef7 16bd a35b 843d 6562 a0bd
000001c0: a83d 94bb 57e0 d6bb d6a1 2cbc 264b 43bd
000001d0: 4d80 80bd 75d9 2e3d 7279 3bbd 577b 903d
000001e0: 4ff0 8dbd bfcc b8bd 9889 79bd f3c4 a3bd
000001f0: 0e78 9dbd 2457 5f3d 348e 46bd 5f54 bc3c
00000200: 8a72 d1bc 2ca2 4a3c 6ca3 97bb 3fa5 11bc
00000210: b334 283d 06f9 a2bc 80f2 a0bd 0a79 663c
00000220: 972d 2abd 7460 443d ab5e a6bd 2173 f53b
00000230: 9018 e6bc f658 7fbd 145f 1abd dd1e ecbc
00000240: 19dc a6bd 7505 f83c b07d 8e3d 8afa 143d
00000250: 5083 323b f040 423a 4217 43bd d989 a43c
00000260: 2248 83bd 4e6c 203d 0f02 a63c 8424 353d
00000270: a1e4 893d 186e a43d 3fcf d13c fed7 94bd
00000280: 15c2 953d 036d 853d 37d9 6dbc 9fb1 c73c
00000290: 9dab 17bd eccd 75bd 1afe 80bd d98d 91bc
000002a0: 5e29 c5bc aff9 733d a800 273d 8f68 0fbd
000002b0: 034f 863b ff45 933d 06e5 f5bc a01f 8abd
000002c0: 98d1 1ab9 264d cc3c 7fa1 613d dce7 2fbd
000002d0: 3ab2 363b b431 cc3d 7eb9 533d 0c52 093e
000002e0: 7ae8 c13d 1d5c 88bd 50d0 f4bc 78f3 173c
000002f0: a98f 8f3d 327b ae3d 2244 1d3c 104e 81bd
00000300: 32a1 06bc 4b8c 0fbd f428 343c 2bff 04be
00000310: b773 05be 12f9 c0bc b676 63bd 8715 e1bd
00000320: e4c1 c33d dcdc d9bc 6346 e2bb bae3 7a3d
00000330: 019d ec3c 85c9 933d bc17 1dbd 9324 953d
00000340: 8d35 633d 8d29 0abd e260 8abd bb3a df3d
00000350: 992e 91bb 6c67 3f3d 64d0 7cbd b1b7 0f39
00000360: 16f4 bfbd c308 8abd f4b0 003d 9e95 64bd
00000370: eb9c 9d3c 4bf7 1ebd 4dac 0cbe d282 15bd
00000380: 2bf7 aabd fdd4 a53d 42ec 9d3d 6324 3a3e
00000390: a783 183e c441 e73d 4b60 db3c 0bbd 1a3e
000003a0: cded 523e 1952 423e a072 303d bcda 553d
000003b0: 330e 133e 4135 343d f29b 123e 20ab 9c3d
000003c0: 53c7 33bd c92f 7abd f8a5 143c 8809 78bd
000003d0: 3203 1bbe 2ce0 40be d798 6cbe 0977 82be
000003e0: 7ae4 5dbe e7d3 58be e560 95bd 45eb feba
000003f0: 39e6 24bd 3afe 4b3d 147b 753d 4e6c b2bd

conv2.bias f4 [16]
0.023149341 -0.07020247 0.016383888 0.17182855 0.05342282 -0.028017601 0.06840731 -0.015197861
-0.016300265 0.11194348 0.040340394 0.059019025 0.16747873 0.1188978 0.15798625 0.1763105
00000000: b0a3 bd3c 50c6 8fbd 8137 863c d3f3 2f3e
00000010: e3d1 5a3d 2b85 e5bc 2219 8c3d 7300 79bc
00000020: 2288 85bc a042 e53d f83b 253d efbd 713d
00000030: 8b7f 2b3e b180 f33d 26c7 213e bd8a 343e

fc1.weight f4 [120, 584]
0.026663078 -0.0392798 0.004965446 -0.03128894 -0.024599632 -0.02660474 0.029268784 0.02275894
-0.055864953 -0.028862517 -0.02428754 -0.032626532 -0.05082517 -0.030339863 0.010700874 0.025773816
0.0116569325 -0.012333383 0.011530324 -0.033095602 -0.028720954 -0.004423108 -0.056675874 -0.005230225
0.044971853 0.0340005 0.05006394 0.02541577 -0.031362344 0.015768144 -0.047261424 -0.008366541
-0.028074823 -0.017438818 0.0348754 0.00011771081 0.005081316 -0.026250673 -0.0019583658 -0.003857532
-0.019403081 0.0010977219 -0.0020061056 0.006526451 -0.032461453 0.014976686 -0.0034614275 -0.04321046
0.016563447 -0.024559053 0.027585749 -0.017546138 -0.032930944 -0.0632611 -0.034580283 -0.020212881
-0.019378724 -0.03548389 -0.057533566 0.013337927 -0.0075586736 0.008677498 -0.04223868 -0.0033606319
0.015206951 0.05746522 0.014147985 -0.066218734 -0.0070260395 -0.034725692 0.00033752937 0.0060712923
0.0029500865 0.011046048 -0.012009607 0.042910777 0.041391306 -0.03464337 0.00408261 0.009086083
0.00094766833 0.0066331355 0.012889813 -0.025543118 0.027573407 -0.014126415 0.0054192594 -0.0060762735
0.03352167 -0.038148932 0.02843397 0.008421552 0.022709817 0.008426483 0.04773297 0.023008235
0.025579648 -0.025907995 -0.012435183 -0.020569446 0.0127447285 0.014099312 0.008957728 -0.016111478
0.005097088 0.005035411 0.024117745 -0.03317058 0.034300618 0.023444403 0.06510724 0.040573467
0.017623784 -0.0075877523 -0.008303145 -0.03312304 0.009550375 -0.037425667 -0.009442948 5.657696e-05
0.0465005 -0.030989507 0.026306247 0.047827788 -0.018008823 0.05824479 -0.029619418 -0.024619717
-0.015944023 -0.008010543 0.03491681 -0.0012149161 -0.02547576 0.0035333424 -0.014818033 -0.0043949564
0.050002586 0.008893042 0.03969583 -0.015280871 -0.020193083 0.008408691 0.023619417 0.019574828
0.021208616 -0.04658361 -0.011028357 0.032063007 -0.035559125 -0.07607935 0.0082134055 -0.009220223
-0.01059905 -0.016651899 -0.018422468 -0.0068483814 0.0027841018 0.00022743084 0.045833323 -0.018797347
0.039389066 0.07092791 -0.0076424982 0.0075014844 0.0005708414 0.027879255 0.03745984 0.036684398
0.043491166 0.04329434 -0.0117366165 0.019187162 0.030710192 0.029573316 0.03351447 -0.010791842
0.05424109 0.009943213 -0.04510278 -0.006296899 -0.01596277 0.026122678 -0.02035692 0.045570895
-0.015661117 -0.0067176796 0.031202082 -0.032588344 0.028482966 -0.03515551 0.023000587 0.029904082
0.04159496 -0.013262319 -0.0069093783 -0.018340413 0.038241826 0.03963349 0.004507063 -0.038398415
0.04375955 0.029226864 0.017529152 0.032254435 -0.020254498 -0.009867052 -0.032087814 0.011949609
-0.017177477 0.0032822026 0.038252145 -0.0317398 -0.036642227 -0.01016492 0.017455142 -0.024270827
0.034032993 -0.025796687 0.00035073317 0.03878583 -0.022154052 -0.011188472 0.007680852 -0.011914614
-0.02233995 0.0026742814 -0.03299488 -0.004414458 -0.0009663484 -0.004735922 0.020490268 -0.027872603
0.027269423 -0.035060026 -0.04167254 -0.022400215 -0.007915324 0.048071492 -0.019075472 0.01510865
-0.028350381 0.0017289005 0.025329832 0.05047222 -0.0015137765 -0.02793691 -0.022224603 -0.015673066
-0.025130715 -0.008195469 -0.039343633 0.005653152 0.0005108011 0.037209004 -9.921911e-05 0.015429405
00000000: 876c da3c dbe3 20bd 2eb5 a23b d528 00bd
00000010: 2b85 c9bc 2ff2 d9bc 17c5 ef3c f570 ba3c
00000020: a6d2 64bd 1671 ecbc aaf6 c6bc 66a3 05bd
00000030: 0e2e 50bd 4e8b f8bc b852 2f3c 9c23 d33c
00000040: b8fc 3e3c f511 4abc afe9 3c3c 418f 07bd
00000050: 3548 ebbc b8ef 90bb f624 68bd 4f62 abbb
00000060: 6834 383d 1c44 0b3d d90f 4d3d bc34 d03c
00000070: cd75 00bd 322c 813c 3295 41bd d113 09bc
00000080: 2cfd e5bc dadb 8ebc 82d9 0e3d 83db f638
00000090: 2b81 a63b a70b d7bc ed57 00bb a6ce 7cbb
000000a0: 36f3 9ebc 6fe1 8f3a de78 03bb d7db d53b
000000b0: 4df6 04bd c660 753c 1ed9 62bb 74fd 30bd
000000c0: 11b0 873c 1130 c9bc 82fb e13c ebbc 8fbc
000000d0: 99e2 06bd 098f 81bd 0ea4 0dbd 7c95 a5bc
000000e0: 21c0 9ebc 8e57 11bd 51a8 6bbd 5287 5a3c
000000f0: c0ae f7bb 112c 0e3c 7702 2dbd 0c3e 5cbb
00000100: 9326 793c a760 6b3d f3cc 673c b09d 87bd
00000110: b13a e6bb 873c 0ebd 6df6 b039 b1f1 c63b
00000120: 3d56 413b 7cfa 343c f1c3 44bc 36c3 2f3d
00000130: ee89 293d 35e6 0dbd 6ac7 853b cbdd 143c
00000140: f26c 783a c65a d93b cb2f 533c cd3f d1bc
00000150: a0e1 e13c 7b72 67bc 0b94 b13b 7a1b c7bb
00000160: 054e 093d 0e42 1cbd 5bee e83c 8dfa 093c
00000170: f009 ba3c 3b0f 0a3c a683 433d c47b bc3c
00000180: 698c d13c 013d d4bc f0bc 4bbc 4181 a8bc
00000190: 44cf 503c cd00 673c 6fc3 123c 38fc 83bc
000001a0: 7905 a73b 1700 a53b 9492 c53c e0dd 07bd
000001b0: ce7e 0c3d 7a0e c03c f256 853d 5d30 263d
000001c0: c15f 903c aea2 f8bb ea09 08bc 06ac 07bd
000001d0: 2d79 1c3c a84b 19bd 98b6 1abc 0c4d 6d38
000001e0: 4f77 3e3d b5dd fdbc 3380 d73c 12e7 433d
000001f0: 3d87 93bc 1792 6e3d 6ca4 f2bc 4aaf c9bc
00000200: 0a9d 82bc a73e 03bc ee04 0f3d d23d 9fba
00000210: 8bb2 d0bc a68f 673b 56c7 72bc 9103 90bb
00000220: 83cf 4c3d 1fb4 113c 1898 223d 9e5c 7abc
00000230: f76b a5bc 9bc4 093c 827d c13c 645b a03c
00000240: b1bd ad3c 75ce 3ebd 48b0 34bc 8054 033d
00000250: 72a6 11bd 7ecf 9bbd 8591 063c 6b10 17bc
00000260: a3a7 2dbc 9069 88bc b7ea 96bc 6368 e0bb
00000270: 7a75 363b 807a 6e39 b9bb 3b3d e5fc 99bc
00000280: 6e56 213d a742 913d ec6d fabb 03cf f53b
00000290: 85a4 153a 0963 e43c 7d6f 193d 6142 163d
000002a0: cb23 323d 6855 313d f04a 40bc 652e 9d3c
000002b0: f193 fb3c bd43 f23c 7846 093d 44d0 30bc
000002c0: e82b 5e3d dce8 223c b1bd 38bd 3856 cebb
000002d0: 5bc4 82bc 3aff d53c 8ec3 a6bc 8ca8 3a3d
000002e0: be4b 80bc fb1f dcbb 829b ff3c 5b7b 05bd
000002f0: 1c55 e93c 39ff 0fbd ba6b bc3c 68f9 f43c
00000300: 7a5f 2a3d 334a 59bc 1168 e2bb a23e 96bc
00000310: 76a3 1c3d ba56 223d fcaf 933b a847 1dbd
00000320: 373d 333d 2d6d ef3c 4c99 8f3c 3a1d 043d
00000330: c3ec a5bc 6aa9 21bc 836e 03bd 4bc8 433c
00000340: c8b7 8cbc 391a 573b 48ae 1c3d 9801 02bd
00000350: 2916 16bd c48a 26bc 16fe 8e3c 9dd3 c6bc
00000360: 2e66 0b3d 9353 d3bc 9ce2 b739 e4dd 1e3d
00000370: 6a7c b5bc da4f 37bc a8af fb3b 8335 43bc
00000380: 4502 b7bc ff42 2f3b a425 07bd 28a7 90bb
00000390: 8b52 7dba cb2f 9bbb 35db a73c 1655 e4bc
000003a0: 2064 df3c 1a9b 0fbd d3b0 2abd a880 b7bc
000003b0: 46af 01bc 9de6 443d 2a44 9cbc 458a 773c
000003c0: 0f3f e8bc 469c e23a 8280 cf3c f5bb 4e3d
000003d0: e969 c6ba f2db e4bc 5f10 b6bc cd64 80bc
000003e0: eede cdbc 4a46 06bc ca26 21bd 133e b93b
000003f0: 48e7 053a 7868 183d db13 d0b8 9dcb 7c3c

fc1.bias f4 [120]
0.052656952 -0.002631866 -0.017783849 0.09111227 0.034756854 0.046635907 0.08023878 0.039709724
0.04885069 0.042603917 0.005629569 -0.0017122889 0.08896212 0.072608 0.05928725 0.0015066429
0.1185781 0.07312949 0.077046886 0.010247675 -0.0057565337 -0.029630722 0.030655576 0.013475551
0.06491188 0.055917125 0.061018944 0.09781027 0.029675862 -0.015510888 0.044024304 0.02955893
-0.037256453 0.007957063 0.003005788 0.08643176 0.054250345 0.095080465 0.110504225 0.067268506
-0.037560537 0.06846529 0.08294806 0.09477107 0.042014375 0.043672398 0.017113816 0.06866679
0.12752515 0.03951627 0.06888988 0.10407109 0.07800986 0.064074434 0.121933155 -0.023973035
0.058375046 0.12820965 0.036165368 0.029243272 0.07971251 0.004870413 0.028538616 0.024049785
0.044216815 0.11115735 0.048681494 0.11461163 0.06415019 0.030046968 0.008856433 0.010358759
0.04474619 0.030381808 0.018829748 -0.016828002 0.0429646 0.044152394 0.0037457861 0.08732073
0.0658888 0.017419493 -0.02057327 0.055460423 0.043478366 0.04121646 0.08510854 0.06633147
-0.04394912 0.019326206 0.11539793 0.05873501 0.03363291 0.093816414 0.014179796 0.06664396
-0.019695755 -0.05495079 -0.0043806797 -0.015651723 0.07414616 0.023665452 0.09076992 0.046857428
0.120882355 0.06202204 0.006273531 -0.005143094 0.09106955 0.010587639 0.056710552 -0.0074644843
0.078644514 0.09321657 0.037897114 0.0018775364 0.06385687 0.12130961 0.03210547 0.09616321
00000000: d1ae 573d 627b 2cbb 6faf 91bc 1299 ba3d
00000010: 345d 0e3d 4b05 3f3d 3b54 a43d aaa6 223d
00000020: a917 483d 7281 2e3d 3f78 b83b e26e e0ba
00000030: c631 b63d 81b3 943d 30d7 723d 8c7a c53a
00000040: 13d9 f23d eac4 953d c2ca 9d3d dde5 273c
00000050: 4ea1 bcbb 21bc f2bc 6721 fb3c 8fc8 5c3c
00000060: 85f0 843d 5b09 653d 00ef 793d c050 c83d
00000070: cb1a f33c 6121 7ebc d452 343d 9225 f23c
00000080: 399a 18bd 575e 023c c1fc 443b 2203 b13d
00000090: 9c35 5e3d 8cb9 c23d 0a50 e23d 12c4 893d
000000a0: 14d9 19bd 8837 8c3d ace0 a93d 5617 c23d
000000b0: 4417 2c3d d4e1 323d 4632 8c3c 2da1 8c3d
000000c0: f495 023e d0db 213d 2316 8d3d 3923 d53d
000000d0: a2c3 9f3d 7539 833d 17b8 f93d 1963 c4bc
000000e0: ac1a 6f3d 6449 033e 2322 143d 968f ef3c
000000f0: 5040 a33d fc97 9f3b d1c9 e93c 0e04 c53c
00000100: b11c 353d 77a6 e33d 3f66 473d 81b9 ea3d
00000110: 2d61 833d 0f25 f63c 931a 113c c9b7 293c
00000120: c847 373d 45e3 f83c d840 9a3c e1da 89bc
00000130: a6fb 2f3d 24d9 343d dd7b 753b 36d5 b23d
00000140: b5f0 863d 53b3 8e3c 4689 a8bc 782a 633d
00000150: 5f16 323d 97d2 283d 634d ae3d cbd8 873d
00000160: fe03 34bd fe51 9e3c c055 ec3d 1f94 703d
00000170: aac2 093d d222 c03d 6052 683c a17c 883d
00000180: fe58 a1bc 1414 61bd ce8b 8fbb 0b38 80bc
00000190: f1d9 973d 0dde c13c 94e5 b93d 93ed 3f3d
000001a0: 2b91 f73d d30a 7e3d 3192 cd3b 6687 a8bb
000001b0: ac82 ba3d c777 2d3c 5349 683d a298 f4bb
000001c0: 6010 a13d 54e8 be3d 013a 1b3d ab17 f63a
000001d0: 64c7 823d 2c71 f83d 0681 033d 38f1 c43d

fc2.weight f4 [84, 120]
0.0075776344 -0.016238831 -0.054835252 0.083771214 0.036788702 -0.05616467 0.032038577 -0.061740905
0.065540545 -0.002977583 -0.072622046 -0.0129270265 -0.017170982 -0.026559964 0.042003613 -0.05556099
0.06339911 -0.0050895885 0.050970633 0.09402971 0.065146886 -0.03510948 0.025604842 -0.06319066
0.09670278 0.036608085 -0.01791441 -0.10957775 -0.062496297 -0.059645362 -0.08740524 0.0015484154
-0.0874765 -0.11069217 -0.077693895 -0.03032399 0.0505081 0.025109597 0.05544011 0.02370676
0.045554884 0.02192193 -0.06446704 0.032553706 -0.048786834 -0.052238736 -0.09244952 -0.07358988
0.07442488 0.015833382 0.038195617 -0.04832634 0.036150865 0.03192905 0.057662245 -0.03421837
0.064583264 -0.046984125 0.09022872 0.0565133 -0.028571703 0.029999264 -0.047651034 -0.061030943
0.0584527 0.013580905 -0.03008684 -0.01569436 0.025648737 -0.008667556 0.06816246 0.033825655
0.056185145 -0.027088517 0.0339354 -0.015621719 -0.04058477 -0.021969846 0.013949956 0.0030703426
0.0008721773 0.054203812 -0.07709763 0.016583513 0.03489133 0.028358858 0.01919586 -0.042963624
0.07586048 0.040695567 0.031542964 0.013480617 -0.060762398 0.071474135 0.03819272 -0.0003545476
-0.022663752 0.090350136 -0.011086904 -0.014005511 -0.06582746 -0.05480309 0.007787751 -0.05196919
0.0008846526 0.029553544 0.00037992685 0.05326012 -0.06297589 0.08869328 -0.060699612 0.007849576
0.059546243 0.058774274 0.0058827004 0.038073458 0.080221266 -0.04177008 -0.04480103 -0.06496599
-0.018245932 0.07151947 0.0911643 -0.04549439 -0.053346965 -0.0031137227 0.08558617 0.050249718
-0.086918585 0.06067348 0.08183295 -0.014576788 -0.059782404 -0.002533407 0.04968318 0.06658481
0.087231204 -0.06368484 0.0058529167 0.04342668 0.08150148 -0.057741143 -0.031705275 -0.0506012
-0.08774514 0.0001642697 -0.058178782 -0.0106775 0.022279454 -0.05542282 0.01157937 -0.009132439
-0.03714037 0.0044775405 -0.058836438 -0.029054936 0.027485881 0.03170782 -0.06275522 0.010292327
0.037934363 -0.06914742 0.07848015 -0.059655093 -0.079772584 0.044908985 0.0944991 0.049966607
-0.052169833 0.0042312387 -0.082357295 -0.0751155 0.022743383 -0.040566776 0.033281878 0.033188287
-0.030329984 0.035259746 -0.083203994 0.043391537 -0.084661745 -0.024801902 0.025818856 -0.0053707208
-0.04348997 -0.07286818 0.03918227 -0.08294069 -0.0694747 0.032485742 -0.0061097066 -0.017729402
0.074239515 -0.019359976 0.063675955 0.039432924 0.02961924 0.0777021 0.02910577 0.0212863
-0.06756353 0.035210233 -0.023243884 0.01938978 0.04265119 0.07288176 -0.051913 0.024723232
0.082365565 0.0077831973 -0.018419774 -0.011224485 -0.08723702 -0.066816844 0.090456806 0.003572134
-0.040908232 -0.025847532 -0.033736978 -0.067418545 -0.065644175 0.0022227168 -0.0065504555 0.014350437
-0.07246288 -0.04853368 0.010469822 0.09251222 -0.046458997 0.077946536 0.029465426 0.084130205
0.0020572727 0.036841217 -0.066278756 0.08274341 -0.07830451 0.045478497 0.068486355 -0.019179545
-0.044993505 0.050397538 0.0356562 -0.039983556 -0.018728336 0.0917509 -0.08877292 -0.049724977
-0.024701344 0.04288915 0.07167865 -0.09395798 0.09640705 0.0090244105 0.051713146 0.008103406
00000000: ce4d f83b 4c07 85bc ee9a 60bd 3e90 ab3d
00000010: c0af 163d ed0c 66bd e23a 033d 08e4 7cbd
00000020: 1f3a 863d 8e23 43bb deba 94bd e1cb 53bc
00000030: 29aa 8cbc 4894 d9bc fb0b 2c3d ec93 63bd
00000040: 65d7 813d 90c6 a6bb 95c6 503d a692 c03d
00000050: bb6b 853d f5ce 0fbd 3fc1 d13c 1b6a 81bd
00000060: 1b0c c63d 5cf2 153d 3ec1 92bc 4d6a e0bd
00000070: 1efc 7fbd b24e 74bd 8501 b3bd 33f4 ca3a
00000080: e126 b3bd 94b2 e2bd fa1d 9fbd 046a f8bc
00000090: 95e1 4e3d a4b2 cd3c 2b15 633d ae34 c23c
000000a0: c297 3a3d 9f95 b33c 4c07 84bd 0957 053d
000000b0: b4d4 47bd 49f8 55bd 2d56 bdbd 4ab6 96bd
000000c0: 126c 983d 02b5 813c 0273 1c3d d7f1 45bd
000000d0: ee12 143d 09c8 023d 3f2f 6c3d 9028 0cbd
000000e0: 3b44 843d 6d72 40bd d6c9 b83d 7d7a 673d
000000f0: 340f eabc 04c1 f53c bb2d 43bd 95fb 79bd
00000100: 196c 6f3d 7282 5e3c ad78 f6bc 7591 80bc
00000110: 4d1d d23c 5d02 0ebc c398 8b3d c58c 0a3d
00000120: 6522 663d bde8 ddbc d9ff 0a3d 3df2 7fbc
00000130: 373c 26bd 1bfa b3bc 5b8e 643c cd37 493b
00000140: d4a2 643a d104 5e3d 5de5 9dbd 26da 873c
00000150: 36ea 0e3d d650 e83c a340 9d3c a0fa 2fbd
00000160: bd5c 9b3d 65b0 263d 3233 013d cedd 5c3c
00000170: fee1 78bd 0861 923d f86f 1c3d 93e2 b9b9
00000180: 55a9 b9bc 7e09 b93d d9a5 35bc 5f77 65bc
00000190: 8cd0 86bd 3479 60bd 6430 ff3b a5dd 54bd
000001a0: 08e8 673a 461a f23c eb30 c739 4927 5a3d
000001b0: 81f9 80bd d3a4 b53d 28a0 78bd 829b 003c
000001c0: c3e6 733d 4bbd 703d abc3 c03b eaf2 1b3d
000001d0: 0c4b a43d 1a17 2bbd 4981 37bd e40c 85bd
000001e0: 7e78 95bc cd78 923d 59b4 ba3d 5358 3abd
000001f0: 5982 5abd 990f 4cbb cd47 af3d a6d2 4d3d
00000200: 5f02 b2bd c184 783d 0998 a73d 7bd3 6ebc
00000210: 65de 74bd 8407 26bb 9780 4b3d 9e5d 883d
00000220: 46a6 b23d 336d 82bd d3c9 bf3b 2de0 313d
00000230: 3fea a63d fa81 6cbd 64dd 01bd 3443 4fbd
00000240: b9b3 b3bd d03f 2c39 e04c 6ebd aef0 2ebc
00000250: 6783 b63c 0a03 63bd 66b7 3d3c 3aa0 15bc
00000260: 8020 18bd 55b8 923b 7afe 70bd 9e04 eebc
00000270: 122a e13c 0fe0 013d cf85 80bd 26a1 283c
00000280: 1061 1b3d 2a9d 8dbd 33ba a03d e658 74bd
00000290: cf5f a3bd 7cf2 373d bf88 c13d c9a9 4c3d
000002a0: 09b0 55bd 34a6 8a3b f1aa a8bd 28d6 99bd
000002b0: 5550 ba3c 5929 26bd 9452 083d 71f0 073d
000002c0: 9676 f8bc 866c 103d db66 aabd 53bb 313d
000002d0: 2363 adbd 5c2d cbbc 1182 d33c dffc afbb
000002e0: 8a22 32bd ea3b 95bd 977d 203d cfdc a9bd
000002f0: c048 8ebd c50f 053d ef33 c8bb 403d 91bc
00000300: e30a 983d d098 9ebc 8a68 823d 6b84 213d
00000310: 0ca4 f23c 4722 9f3d 396f ee3c 9b60 ae3c
00000320: bf5e 8abd 9b38 103d f569 bebc 51d7 9e3c
00000330: 04b3 2e3d 0843 953d baa2 54bd 6088 ca3c
00000340: 47af a83d 310a ff3b 11e5 96bc e7e6 37bc
00000350: 53a9 b2bd 45d7 88bd 6b41 b93d 771a 6a3b
00000360: 648f 27bd 34be d3bc c92f 0abd bc12 8abd
00000370: 7470 86bd 00ab 113b 34a5 d6bb 181e 6b3c
00000380: 6b67 94bd 41cb 46bd 9e89 2b3c 0c77 bd3d
00000390: ca4b 3ebd 6fa2 9f3d 7a61 f13c 754c ac3d
000003a0: 4fd3 063b d1e6 163d 28bd 87bd 6075 a93d
000003b0: 1d5e a0bd a947 3a3d 9342 8c3d 6c1e 9dbc
000003c0: 1c4b 38bd a66d 4e3d 3c0c 123d ccc5 23bd
000003d0: 2b6c 99bc e5e7 bb3d 94ce b5bd 6bac 4bbd
000003e0: 795a cabc 89ac 2f3d 42cc 923d 0b6d c0bd
000003f0: 0f71 c53d 1fdb 133c 2ad1 533d 26c4 043c

fc2.bias f4 [84]
-0.040523574 -0.05550015 0.12407746 0.00883053 0.11259142 0.15144475 0.2278483 0.08132318
0.112745106 -0.021102753 0.09218426 -0.05860239 0.028341932 0.044857208 -0.009942836 0.039165996
0.1906905 0.13864383 0.18190446 0.09438637 0.04303246 0.16561648 -0.047624685 0.046717368
0.055075586 0.07968622 -0.057625115 0.007105403 0.1558925 0.13050039 -0.0055211256 -0.03164176
0.04282761 0.0761738 -0.030978631 -0.032292835 -0.0051606027 -0.01398532 0.05607649 0.048257776
-0.0581572 0.30725178 -0.0055720205 0.037327975 0.045504004 -0.067474425 -0.006161111 0.21057461
0.11483911 0.10536724 -0.006495005 0.19714665 -0.013308729 -0.0244194 0.08914082 0.07929721
-0.02380714 0.14716892 0.103734024 0.08771845 -0.00697771 0.24640135 0.07348845 -0.02165815
0.12735312 0.17840794 0.13793826 0.07417729 0.10562852 0.1416603 -0.029466866 0.22990581
0.20213214 0.08206335 0.18305439 0.012664953 0.1987365 0.11222563 0.2861313 0.22290283
0.03780271 0.17976266 0.06513732 -0.05284932
00000000: 0cfc 25bd 2054 63bd 531c fe3d edad 103c
00000010: 5596 e63d 5514 1b3e 1151 693e c48c a63d
00000020: e8e6 e63d aedf acbc 1acb bc3d 0f09 70bd
00000030: 572d e83c 31bc 373d 47e7 22bc 866c 203d
00000040: 5f44 433e a6f8 0d3e 2a45 3a3e a44d c13d
00000050: ce42 303d 5e97 293e 1a12 43bd b65a 3f3d
00000060: f096 613d 8732 a33d 5008 6cbd 71d4 e83b
00000070: 49a2 1f3e e5a1 053e 8fea b4bb ca9a 01bd
00000080: 016c 2f3d 0201 9c3d e6c6 fdbc 7e45 04bd
00000090: 461a a9bb af22 65bc 76b0 653d f2a9 453d
000000a0: 3f36 6ebd 1b50 9d3e 7f95 b6bb 38e5 183d
000000b0: 6862 3a3d 0830 8abd 25e3 c9bb dfa0 573e
000000c0: c430 eb3d c8ca d73d 0dd4 d4bb d0e0 493e
000000d0: db0c 5abc 320b c8bc 768f b63d 9366 a23d
000000e0: 3107 c3bc 73b3 163e 8172 d43d bba5 b33d
000000f0: 46a5 e4bb a350 7c3e 1d81 963d 6f6c b1bc
00000100: db68 023e 92b0 363e b03f 0d3e 43ea 973d
00000110: c453 d83d 660f 113e 7f64 f1bc 6e6c 6b3e
00000120: bafb 4e3e d410 a83d 9c72 3b3e aa80 4f3c
00000130: 9581 4b3e 8dd6 e53d cd7f 923e a440 643e
00000140: 04d7 1a3d b413 383e b766 853d 8778 58bd

fc3.weight f4 [2, 84]
-0.049362563 0.0040931525 0.14319223 0.017768359 -0.12789764 0.2987251 -0.08004892 -0.032799967
-0.2325756 0.074258074 0.36514443 0.026145093 -0.3029052 -0.19746 -0.10761416 0.17916663
-0.39131373 -0.2743707 0.23032095 0.06232957 -0.01843578 0.25248104 0.0071124164 0.3377406
0.27232945 0.13401134 0.029799275 0.10796541 0.43205804 -0.27020034 0.10529337 -0.18470106
-0.022664806 -0.21314757 0.26462096 -0.0652349 -0.032381512 -0.297475 -0.061838955 -0.19576913
0.019852912 0.46069297 -0.3235176 0.19852464 0.21149129 0.176425 -0.12643941 0.033225246
-0.30230796 -0.10900258 0.06962298 0.19644898 0.06414866 -0.032881264 0.0069178045 0.14526764
0.09352672 -0.43324798 0.30370378 0.14475001 -0.09993525 -0.37913272 0.10364386 -0.17548616
0.0068070195 -0.2854216 0.16781794 -0.13982755 0.38466263 -0.26265445 0.15611397 -0.44926378
-0.3493611 0.13290596 -0.16893786 0.12228756 0.22116446 0.27481073 0.49801382 0.30913845
-0.13808896 -0.28863674 -0.05690334 -0.1692717 0.08595994 -0.07039537 -0.43258426 -0.18154722
0.13360693 0.051202346 -0.52106833 0.33111992 0.15871078 -0.0394955 0.07133201 0.02524399
-0.18818273 0.0023409792 -0.09978281 -0.035569146 0.08747178 0.034120765 0.10356205 -0.24062595
-0.098092586 0.26591152 0.06289846 -0.12640443 0.25781977 0.1789352 0.10571257 -0.04707308
-0.07384941 0.108565256 0.21570048 -0.046631012 -0.062398817 -0.21425357 -0.08410949 0.06887504
-0.048664447 0.18439583 -0.11395254 -0.36339673 -0.044356298 -0.647562 0.1268854 0.053053644
-0.040617038 0.19077572 -0.018695671 0.41892964 0.087813355 -0.2230889 -0.05333853 0.35661468
-0.1967597 -0.08164227 -0.35437897 0.18523997 0.075665966 -0.16536771 -0.00078436715 0.27841973
0.23459211 -0.52265656 0.102114335 -0.19154689 0.23797214 0.12510915 0.3244043 0.26737517
-0.101844676 0.23867156 0.0839656 0.24760056 -0.20381226 0.1309245 -0.2981069 0.20386694
0.38249236 0.014418624 -0.34932506 0.34111154 0.25008744 0.15504014 0.017575039 0.15819503
00000000: 6630 4abd da1f 863b fca0 123e f38e 913c
00000010: 99f7 02be 7ff2 983e b0f0 a3bd 4259 06bd
00000020: 4c28 6ebe 9e14 983d 36f4 ba3e 3c2e d63c
00000030: 6416 9bbe f432 4abe d064 dcbd 7577 373e
00000040: 465a c8be 517a 8cbe 41d9 6b3e 4b4d 7f3d
00000050: a206 97bc 3245 813e 460f e93b 56ec ac3e
00000060: c46e 8b3e 453a 093e 9c1d f43c f81c dd3d
00000070: b636 dd3e b357 8abe 0da4 d73d 4622 3dbe
00000080: 8bab b9bc 5b43 5abe 667c 873e e099 85bd
00000090: 7aa2 04bd a54e 98be d84a 7dbd b477 48be
000000a0: 93a2 a23c f3df eb3e 19a4 a5be 0b4a 4b3e
000000b0: 2c91 583e c1a8 343e 5579 01be 3217 083d
000000c0: 1cc8 9abe bf3c dfbd 7e96 8e3d ec29 493e
000000d0: 5f60 833d 81ae 06bd c0ae e23b 0ac1 143e
000000e0: f08a bf3d aed2 ddbe 107f 9b3e 5939 143e
000000f0: daaa ccbd af1d c2be 3b43 d43d a5b2 33be
00000100: 6b0d df3b c822 92be 77d8 2b3e f42e 0fbe
00000110: 80f2 c43e a57a 86be 57dc 1f3e e705 e6be
00000120: 75df b2be 8018 083e 0cfe 2cbe e671 fa3d
00000130: f078 623e feb3 8c3e abfb fe3e 6547 9e3e
00000140: 3167 0dbe 32c8 93be 7a13 69bd 8f55 2dbe
00000150: c40b b03d 732b 90bd af7b ddbe 84e7 39be
00000160: 41d0 083e 8db9 513d bc64 05bf 8d88 a93e
00000170: 1485 223e 09c6 21bd 8416 923d 7ccc ce3c
00000180: f9b2 40be 1d6b 193b ee5a ccbd f4b0 11bd
00000190: 6824 b33d 37c2 0b3d 5718 d43d a666 76be
000001a0: c4e4 c8bd 8e25 883e e8d0 803d 2a70 01be
000001b0: f400 843e ca3a 373e d57f d83d b4cf 40bd
000001c0: 5c3e 97bd 7657 de3d 96e0 5c3e 2900 3fbd
000001d0: e795 7fbd 4a65 5bbe 9941 acbd 5b0e 8d3d
000001e0: 5f54 47bd 43d2 3c3e f35f e9bd 230f babe
000001f0: f3ae 35bd a0c6 25bf 3fee 013e c74e 593d
00000200: 0d5e 26bd b65a 433e aa27 99bc f27d d63e
00000210: 7dd7 b33d 6b71 64be 8179 5abd 3396 b63e
00000220: 607b 49be 1034 a7bd 2971 b5be 8caf 3d3e
00000230: c2f6 9a3d 2756 29be fd9d 4dba 088d 8e3e
00000240: ea38 703e d2cc 05bf 5221 d13d de24 44be
00000250: f8ae 733e 9d1c 003e 5218 a63e 66e5 883e
00000260: f193 d0bd 5166 743e 28f6 ab3d 008b 7d3e
00000270: 29b4 50be 1211 063e 78a1 98be 7fc2 503e
00000280: 0ad6 c33e 183c 6c3c bcda b2be 2ca6 ae3e
00000290: 760b 803e d8c2 1e3e 87f9 8f3c e1fd 213e

fc3.bias f4 [2]
-0.04440792 0.060104396
00000000: 14e5 35bd 0730 763d
