src/models/dagger-3.onnx (onnx, 336927 bytes, 10 tensors)

conv1.weight f4 [6, 5, 5, 5]
00000000: 7e87 8b3c 9ce2 14bd d3f2 4e3d bd32 76bd
00000010: 6184 12bd 8526 48bd 1527 4a3d 64ad 363d
00000020: 0a02 30bd 75fb 813d a1b0 bebc 7289 a83d
00000030: 13aa 91bd b621 fd3c 93f9 17bd f7d9 f2bc
00000040: a400 b4bc fd42 5b3d 7500 97bd 1fa8 86bd
00000050: 836e a5bb fb85 91bc 3e7a 3b3d 5105 783d
00000060: 5199 adbd fb35 a33d 82e4 853d 3888 6ebc
00000070: 8939 ab3d 580a 9ebd d2d2 553c a9f0 4dbd
00000080: 6389 a53d 4001 7dbd e28f 443d 18ec 073d
00000090: 29e9 b6bd bb9f 02bc c9bd a53d af8e 98bd
000000a0: c7fd 413d 2c9d 0abd cd4f a1bd 82a4 ce3b
000000b0: 8c9a 71bd eb4a 963c 6e4d 0abc 25e3 773c
000000c0: f25e acbd 11f3 af3d aaac ae3c 9704 afbd
000000d0: 6156 fd3c 57fe 653d 86ab 8f3c 4704 3dbd
000000e0: b0a0 893c 9d93 2fbd 0226 13bd 34a2 b33d
000000f0: 56e2 4ebd 1254 29bd d0ab 5cbc 2b78 3d3d
00000100: 82ab 353d 6a06 8e3c b8f7 71bd a453 97bd
00000110: aa94 3f3d c293 5bbd 93a9 a6bd 0d8c 87bd
00000120: b899 b2bd 5635 7dbd 390d b1bd b49a 9ebd
00000130: a2d2 0bbb 6891 3c3b 80fa b3bd bb70 863d
00000140: adfa 02bd 4c40 973c 41e5 9a3d 16a9 90bc
00000150: 3b6b 8fbd 4a1d 3fbd a8bb 1cbd d4a7 1ebd
00000160: 7a8e 8bbd 3803 7bbd c2e7 963d 54a3 35bc
00000170: 7aab dc3c 4df0 bd3c bce3 aebb 2b74 243d
00000180: 0c4a 6a3d cfec 20bc 9ea7 983d 0dde 503d
00000190: d1b5 c8bb bc8c 1dbb caa3 f5bc ce62 663c
000001a0: 1d6d fa3c c5f4 753d e7ce 40ba bcab 8a3d
000001b0: 27a3 20bd 81ad 913d 8382 33bd 0140 103d
000001c0: 195f 82bd 555d 4abc 0d43 4ebd ffbb f03c
000001d0: 95c9 1d3b cba4 863d 9c5d 2f3c 68c0 68bd
000001e0: 839c 863d eab0 1ebc 2ba3 bdbb ce30 b03d
000001f0: 6cd8 b13d 637c 543c 3f70 42bd e7dd a23d
00000200: 6958 cd3d b456 ad3c 1f04 e03d 79a1 00bd
00000210: d8f1 783d df61 183d ead9 c83d d360 d23d
00000220: e9ee 883d 4a29 083e f4b0 993d 87ae e23d
00000230: 1033 473c dc8e ad3d 6175 fe3d a4fb e53c
00000240: 921f 763d bea2 c43d cf48 1bbd 1e8f ac3d
00000250: ce18 5e3d 3ddd 55bb e7a1 843d 2e47 e93d
00000260: 80a4 033d 14b2 743d cf05 dd3d 3c18 843d
00000270: af68 4c3d 2ee2 a73d 75c6 c23a e243 7d3d
00000280: 85b4 293d f677 c33d 9d8a 713d 97e5 023e
00000290: ae73 03bd d796 083e 3c50 843b 484e fdba
000002a0: c352 d93d 33ea 1e3c b811 f93d 9d30 103e
000002b0: d9bd e93d 6e3e e83d 3dde ef3c ac5c e43d
000002c0: af5e 9cbc f28d ab3d 4970 7f3b 1b1d 81bb
000002d0: 9132 5a3d bc08 6cbc 8a29 1a3e 85a1 753c
000002e0: 8725 003e 3312 043e b516 2a3e 78a0 9e3d
000002f0: 6a39 1e3d cceb f23d 9d9a f43d 40ec 2b3d
00000300: 8809 ba3d 498b b83d 1d09 873d b237 da3d
00000310: 1bfd 45bb 4215 a83d 81c6 b63d cbb5 ed3b
00000320: f6ab 833c 9095 01bc abfe 893d 6c33 883d
00000330: 2cf0 1ebc bef0 c73d d364 49bb 8aed 213e
00000340: 3ed6 333d e461 3c3c be93 c33d 4751 063e
00000350: c747 213e 9143 ef3d e17f 523d df5c 823d
00000360: 8b92 c23d 9288 a33d fbe3 473d d2a8 e33a
00000370: 6f39 0d3e a0b5 1f3e 04e8 f63d 8564 dd3d
00000380: 717e a83d 6108 ea3d 177a 393d 47f6 113d
00000390: 012f 743d 8f0b a03a 89f6 343d e33f b23d
000003a0: e140 d73c dfe0 3b3d a698 f93b da2b 113e
000003b0: 9eb5 0b3e 0f7d 4f3e e8c8 2e3e ae45 7fba
000003c0: b4fa bd3c 9c03 463e 22da 403d 7d99 1a3e
000003d0: 422e 203e 8146 ba3c 1362 da3d 6398 e13d
000003e0: 7db1 0f3e 4112 de3c 4fa4 983d 2347 d13d
000003f0: 47e8 4f3d 5323 7bbc 3299 de3c 2acc eeba
0.017032381 -0.036348924 0.050524544 -0.06010698 -0.035770778 -0.04886486 0.049353678 0.044598952
-0.042970695 0.0634679 -0.023277583 0.082293406 -0.07112517 0.030899864 -0.037103247 -0.02964495
-0.021972962 0.053530682 -0.07373134 -0.06575035 -0.0050485744 -0.017764082 0.045770876 0.060551945
-0.084765084 0.0796928 0.06537725 -0.014558844 0.08360583 -0.07716817 0.013050752 -0.05027834
0.08082845 -0.06176877 0.04798878 0.03318414 -0.089311905 -0.007972653 0.08092839 -0.0744909
0.04736116 -0.033841297 -0.07876549 0.006306232 -0.058985278 0.01834627 -0.008441312 0.015129839
-0.08416547 0.08591283 0.021322567 -0.08545797 0.030924978 0.05615076 0.017537843 -0.046146657
0.016800255 -0.042865384 -0.03592492 0.08771172 -0.05050882 -0.04133994 -0.013468698 0.04625718
0.044353016 0.017337043 -0.059074134 -0.07389 0.046772636 -0.05360771 -0.081378125 -0.066185094
-0.08720726 -0.061818443 -0.086451 -0.07744351 -0.0021335264 0.0028773192 -0.087880135 0.065644704
-0.031977344 0.018463276 0.07563258 -0.017658751 -0.070028745 -0.04665879 -0.0382649 -0.038734272
-0.068142846 -0.061282367 0.07368423 -0.011086304 0.026937235 0.023185873 -0.0053372066 0.04014985
0.057199523 -0.009822085 0.074538454 0.050993014 -0.00612519 -0.0024040183 -0.029985327 0.014061643
0.030569607 0.060047884 -0.00073550496 0.06771037 -0.039218094 0.07113171 -0.043825638 0.03521729
-0.06365795 -0.012351354 -0.050356913 0.029386519 0.002407645 0.065744005 0.010703471 -0.056824118
0.06572821 -0.009685734 -0.0057872734 0.08603059 0.08683857 0.012969109 -0.047470327 0.07952481
0.100266285 0.021159507 0.10938286 -0.031403992 0.060777515 0.037202712 0.09807189 0.10272374
0.066861935 0.13297 0.07504454 0.11068445 0.01215817 0.08474514 0.12424732 0.028074093
0.0600887 0.09601353 -0.037911233 0.08425735 0.054222874 -0.003263309 0.06476193 0.113905296
0.0321393 0.05974014 0.107921235 0.06449935 0.04990452 0.08197437 0.001486017 0.061832316
0.041431922 0.09544365 0.058970083 0.12782894 -0.032092743 0.13338791 0.004037885 -0.0019325698
0.10611489 0.009699392 0.12161583 0.14081044 0.11413164 0.113400325 0.029280776 0.11150488
-0.019088117 0.08376683 0.003897684 -0.003940237 0.05327088 -0.014406379 0.15054908 0.014992123
0.12514316 0.12897567 0.16610225 0.07745451 0.038628973 0.11861381 0.11943553 0.041973352
0.09083849 0.090109415 0.06593535 0.10655154 -0.0030210677 0.082071796 0.0892458 0.0072543374
0.016073208 -0.007909194 0.06738027 0.06650433 -0.009700816 0.09762715 -0.0030730262 0.1581327
0.04390549 0.011497948 0.09549664 0.13116942 0.15750037 0.11682809 0.051391486 0.0636537
0.09500607 0.07985033 0.048801403 0.0017369038 0.1379144 0.15596628 0.12055972 0.10810188
0.08227242 0.114273794 0.04528245 0.03563526 0.05961514 0.0012210476 0.044180427 0.08703592
0.026276054 0.04586875 0.007617074 0.14176884 0.136435 0.2026255 0.17068827 -0.0009737861
0.023190834 0.19337314 0.047083028 0.15097614 0.15642646 0.022738697 0.106632374 0.110153936
0.1403255 0.027108314 0.074532144 0.102186464 0.050758626 -0.015328246 0.027172659 -0.0018218805

conv1.bias f4 [6]
00000000: 5862 1dbd ccd2 443d 8a5b 12be e8da e0bc
00000010: 9434 603d 26c8 903d
-0.038423866 0.048052594 -0.14292732 -0.027448133 0.054737642 0.07069425

conv2.weight f4 [16, 6, 5, 5]
00000000: 7814 913d 5c75 ec3c 7f45 7dbd 187f 7d3d
00000010: 0afd 233d ea7c 1b3d 8e37 ecbc f425 733d
00000020: 8c4c 783d a8a8 733d 426b a0bd 954b 57bd
00000030: d6a3 9fbc c1d3 6dbd 50d4 623c dce9 723d
00000040: 7cee 9b3c d8b2 8b3c 9441 823c e40a b33c
00000050: 8bd9 3dbd 8c2f 39bd eee0 acbc f474 90bd
00000060: 709a 963d e872 8ebd 28cd c3bc f828 50bd
00000070: 2c34 d73c 50a5 96bd 951a 52bd b71d 5bbd
00000080: f8ab 703c ac00 a1bd 62bc 7abd 8c6b c23c
00000090: 2059 9bbd 8c05 403d c824 31bd 38f8 5a3c
000000a0: d875 6fbd b060 f1bc 48ec 6b3c cb53 01bd
000000b0: 48a8 ff3c 07bb 9ebd a4f3 a3bd 68bb 3bbc
000000c0: 0cb3 033d 00e4 fbb9 7869 adbc 4730 44bd
000000d0: 18b2 363d 6853 6d3d a7d6 76bd b2b2 07bd
000000e0: e889 653c b767 85bd a0f3 07bb d216 adbc
000000f0: 544c d83c 7640 d4bc 4403 7f3d a83d 573d
00000100: 0878 563d f865 6ebd f076 babb 0bf3 8bbd
00000110: a4ec 1c3d 0c9d dd3c fc4e 813d a195 3dbd
00000120: b827 e1bc 2824 513d fc32 d03c 3cc3 7cbd
00000130: d0af 053d bf5e a0bd bc62 513d 1aae 94bd
00000140: a246 9a3d acad 78bd 0058 d33c a06b ba3b
00000150: 99df 82bd 3cc5 a53c 04c3 9a3c 4805 7f3c
00000160: 5139 94bd 8058 7cbd 385c a03c 6872 803c
00000170: 0019 b73a fcca 9ebd 8091 76ba 9ce7 243d
00000180: f810 5e3d 4070 afba 5989 56bd 58cb 7d3c
00000190: 7827 343d 2220 813d 12a5 a03d 02a0 933d
000001a0: a606 10bd 224b 9a3d d8f1 333d 04d6 a2bd
000001b0: 6013 64bb 8739 83bd 9c5d 4d3d fc14 fdbc
000001c0: 963c 8d3d 40d8 a53b 6c2d a6bd 67d5 50bd
000001d0: c685 873d ee80 83bd 928b 3abd 0c20 513d
000001e0: 90a9 983c b1a9 9fbd 7234 a33d 9ccb ae3c
000001f0: 5f05 a1bd 1a41 9abd 0094 36b9 20c7 75bb
00000200: f400 1e3d 0813 8e3c 886e 69bc a0da 3b3b
00000210: db1d 01bd 84c1 5d3d b8ef a43c 2027 433d
00000220: ec24 213d 54c3 98bd f049 d43c 0077 78bc
00000230: 7b55 26bd 5c18 383d 7c98 883c d479 9b3c
00000240: 6083 d2bb 5025 4b3c d188 a0bd 50ff 8bbd
00000250: 0a94 933d a0a7 fabb 73ba 54bd d112 7ebb
00000260: 1485 a73c 7433 49bc 6d5a 4fbd 106b 9bbd
00000270: 80f2 c6bc 2511 b5bc 4e48 253d 1996 2cbd
00000280: f538 5a3d 3811 f83c c474 c13c f174 243d
00000290: 6683 0a3d 59b5 97bd 5c97 fd3c d5d4 75bd
000002a0: 540e 8e3d d872 a83c 125f 06bd 9ba4 19bd
000002b0: c989 82bc f0e7 71bc 251b 853b 8604 70bd
000002c0: 4f17 d3bc cb10 b9bc bc85 eabd 6361 8cbc
000002d0: 8c6e aa3c 00c6 1f3b f029 8ebc 6b37 beb9
000002e0: 0388 c5bb 9046 98bd 68b6 16bc 9688 f2bc
000002f0: 2ce9 163e fbe3 083e 61f4 54bd cef4 acbb
00000300: a955 b53d 913c 123e ea58 c53d 0e8b 44bd
00000310: e51a 9c3d e3e5 143d 5761 0d3e 2c59 d33d
00000320: cb51 f1bd e9a8 fdbd fab1 fbb9 c87e e9bd
00000330: ba31 c2bd 1a96 9fbc e377 dfbd add2 91bd
00000340: d09a 9d3c b98f bdbd 2710 afbd 4f80 57bd
00000350: 1c65 633c cc95 91bd e21f 683d 9c16 813c
00000360: cfd4 1cbd f83a 983d 9711 80bd 9616 9fbc
00000370: ee34 a3bd 747d 883d 8a21 aa3d 5c27 063d
00000380: c274 a6bc 8fb6 12be e24a 69be 81bd 53be
00000390: 5971 28bd 13c6 e4bc 6f1c 29be 0c1a eabd
000003a0: a479 fbb9 3dcd 92bd 10ab 95bd 8daf b2bd
000003b0: 8eac 2c3d 3cc5 e33d e55d 2a3e 4fc8 853d
000003c0: 6e07 b1bd ff6c 613d ddff 113e abcf d83d
000003d0: ab1e 503e a99e 69bd 5539 a2bc 1a0d 173e
000003e0: 4646 3b3e d1e2 903d a1b9 ab3c 610d 78bd
000003f0: 1f0e 09bd 76b8 21bd ef99 183d d3bf 923d
0.07083982 0.028864555 -0.061833855 0.061888784 0.04003624 0.037960924 -0.028835084 0.059362367
0.060619876 0.059487015 -0.07832958 -0.052562315 -0.019487303 -0.058063272 0.013844565 0.059305057
0.019034617 0.017053053 0.01590041 0.021855779 -0.046350043 -0.04521136 -0.021103349 -0.07053557
0.07353675 -0.069555104 -0.023901537 -0.05082032 0.026269995 -0.073557496 -0.05129488 -0.053495135
0.014689438 -0.07861456 -0.061214812 0.023732923 -0.075853586 0.04688029 -0.043247968 0.013364844
-0.058461994 -0.02946505 0.014399596 -0.03157405 0.031208172 -0.077505164 -0.08005455 -0.011458255
0.032153174 -0.00048044324 -0.021168455 -0.047897603 0.044603437 0.05794087 -0.060263302 -0.0331294
0.01400993 -0.06513923 -0.0020744577 -0.021129046 0.026403584 -0.025909644 0.062258974 0.052549034
0.052360564 -0.058202714 -0.005690448 -0.06833466 0.038311616 0.027052425 0.06313893 -0.046285275
-0.02748476 0.051059872 0.025414936 -0.061709628 0.03263837 -0.078305714 0.05111955 -0.0725977
0.075330034 -0.0607125 0.025798798 0.0056890994 -0.06390304 0.02023565 0.018891819 0.015565224
-0.07237495 -0.061607838 0.019575223 0.015679553 0.0013969243 -0.0775356 -0.00094058365 0.040259942
0.0542154 -0.0013384894 -0.05237708 0.015490375 0.043982953 0.06304957 0.07843985 0.072082534
-0.03516259 0.07533862 0.043931812 -0.079509765 -0.0034801587 -0.06407457 0.0501381 -0.030893795
0.068963215 0.0050611794 -0.08114132 -0.050984766 0.06617312 -0.06421076 -0.04554326 0.051055953
0.018635541 -0.07796038 0.079689875 0.021337323 -0.078623526 -0.075319484 -0.00017412007 -0.003750272
0.038575128 0.01734306 -0.014247544 0.0028664246 -0.031522613 0.05413963 0.020133838 0.047644734
0.039341852 -0.07459131 0.025914162 -0.015165091 -0.040608864 0.044945106 0.016674273 0.01897899
-0.0064243525 0.012399033 -0.07838596 -0.06835806 0.072059706 -0.007649377 -0.051935624 -0.003876854
0.020449199 -0.012280334 -0.050623346 -0.0758878 -0.024285555 -0.022102902 0.04035216 -0.04213533
0.053276975 0.030281648 0.023615249 0.040150587 0.033816718 -0.07407636 0.030955963 -0.060017426
0.069363266 0.020562574 -0.03280551 -0.037510496 -0.015934842 -0.014764771 0.004062074 -0.058598064
-0.02576795 -0.022591015 -0.11451289 -0.017136281 0.020804666 0.0024379492 -0.017353982 -0.00036280914
-0.0060281768 -0.07435334 -0.0091987625 -0.029606145 0.14737386 0.13368218 -0.05199087 -0.0052782064
0.08854229 0.14280917 0.096361 -0.047984175 0.07622317 0.03635205 0.13806663 0.103197426
-0.11783179 -0.12385733 -0.00048007054 -0.11401135 -0.09482141 -0.019480754 -0.109115385 -0.07120261
0.01923886 -0.092559285 -0.08548003 -0.0526126 0.013879087 -0.071086496 0.05667103 0.015757851
-0.038288888 0.074331224 -0.06253355 -0.01941995 -0.0796908 0.06664553 0.08307178 0.03275238
-0.020319346 -0.14327453 -0.22782472 -0.20677759 -0.04112372 -0.02792648 -0.16514753 -0.11430749
-0.0004796508 -0.07168052 -0.07308018 -0.0872489 0.04215675 0.11121604 0.1663738 0.065323465
-0.08643995 0.055035587 0.1425776 0.105864845 0.20324199 -0.057036076 -0.019802729 0.14751092
0.18288526 0.07074512 0.020962538 -0.060559634 -0.033460733 -0.039482556 0.037256178 0.07165494

conv2.bias f4 [16]
00000000: 1cfa a2bd 9ee1 673e 8eb8 033d b8bf 97bd
00000010: 572e fc3d b9d2 6a3d 81d6 8cbd 8bef 8dbb
00000020: 83cb 07bd bdbd 68bd 11d9 9dbd c1a1 bd3d
00000030: 7b6b 0abd 5a85 233e ebbd 18ba deda 033e
-0.07957861 0.2264466 0.032158427 -0.07409614 0.12313526 0.057329867 -0.06876851 -0.0043315343
-0.03315307 -0.056821574 -0.07707418 0.09259368 -0.033793908 0.15968838 -0.000582664 0.1287646

fc1.weight f4 [120, 584]
00000000: c044 dcbb 347a e53c e8b7 c43b e85b b2bc
00000010: 6e96 edbc 4065 29bd cfd6 1bbd 37a2 85bc
00000020: f85c cebc bc9b 11bc 3cb7 723c 3849 b13c
00000030: 3896 203c 54a2 6cbc 3ebc 17bd b04e 0f3b
00000040: 2535 17bd 1053 c3bb f82a c4bb 43b6 a3bc
00000050: 781c 303c d8b7 57bc f88a 253d a064 123d
00000060: 9ae1 193d e039 a93a a061 75bc a679 1d3d
00000070: 7885 25bd af38 bbbc 4845 3e3c e020 bd3c
00000080: dc87 79bc debd 39bc 08a8 22bc a6a0 3bbc
00000090: ba3e 9bbc a6ef ae3c b048 49bd eeaf 21bc
000000a0: 08a3 f33b 7bc0 103d b50f 8cbb 9f6f d13c
000000b0: 8cdd 2e3c 8e09 26bb 5f54 a2bc 2830 77bc
000000c0: 1335 3fbd 6707 2e3d f618 43bc 499d a8ba
000000d0: c0c0 393d 89f3 d3bb 6248 efbc f8c2 b73b
000000e0: 2e69 44bd bc54 133d 4678 fa3b b0fa 87bc
000000f0: ce44 60bc 5931 173c df6e f2bb dd9c cdbb
00000100: 7387 14bd de16 823c 97b0 50bc 498b 16bd
00000110: 228a abbc f6c7 4e3c d3f3 97bb 0858 14bd
00000120: 97b6 063d 95ae c6bc df0d cf3c 9c29 e5ba
00000130: 13e5 1cbc 6a84 35bd a64a f1bc 0b81 bebc
00000140: 3faf 3dbd 431e 0e3d 0919 26bd 45f0 c6bc
00000150: 7e16 66bc 710a 06bd cd55 97bc ba16 7939
00000160: cf2b acbc 4e02 693b 8d3d 09bd c7df 483c
00000170: c7a8 be3a 69b5 763c de1e 2c3d e212 603c
00000180: 1eee 10bc 47ae bdbc 8b21 db3c accc 243d
00000190: b6f5 1d3d fabc b5bc 9626 2f3c 0843 d33c
000001a0: 289b ef3c 7cb2 033d 4c92 e1bc 34fe 3b3d
000001b0: de27 a2bc 4691 27bd 83c0 0ebd 62a6 133d
000001c0: c178 a23b ddff 96bc 2615 c23a 1086 cfbc
000001d0: fd2e 623c be21 9fbb 9d2e 033d e488 87bc
000001e0: bb77 4cbb 4450 cc3c 7d58 69bb 4507 bb3c
000001f0: 439c 64bc 0809 83bc 249a 8dbc fff0 23bd
00000200: 7400 1d3d 451f 153d 450c c53c fe8e 093d
00000210: 7b95 a63c f82f bdbc 5167 c63c 5bd9 ee3b
00000220: 551d 8abc 3be0 9bbc fe33 f4bc 0661 d83c
00000230: 29b9 87bb c74f 33bc b6ba d73c 1e87 133d
00000240: fbbe 753c c8eb 4cbc 2d6d 253c 2554 51bd
00000250: 1811 a43b f5ee a9bc 8fad fb3c 4579 353c
00000260: e0c3 d53c 067e 483b 5d0c 34bd 2b69 94bc
00000270: 8521 ecbc 5aa6 11bd 264d d03c 2510 3abd
00000280: 7783 953c 32e0 b53c d5ed 3bbc 0fbc 5fbc
00000290: 3376 1b3c 07df 053c ce25 a53c 4d59 1abc
000002a0: a66c 90bc efbb 003c a2f2 103d d4ea 06bd
000002b0: dd17 c3ba a472 e53c ebb7 4c3c d53f a9bc
000002c0: 6568 133c 9a85 03bd f51e e63b 7b7e 76bc
000002d0: e61b d33a 1e41 963c 0a16 9abc d745 d4bc
000002e0: 2432 713c 741d dd3a 3654 97bc 6208 fa3c
000002f0: 64dd 623c c219 3ebd c0bc acbc 7e89 fcbc
00000300: 3b8c 08bc c008 993b 2cd7 e43c 9056 7a3c
00000310: 5918 9fbc 6e2d 743c 72ef e4bb b3da 70bc
00000320: 6de7 ef3c 49a2 60bc 4ccd 85bc d30b 513d
00000330: 462c c83b cf22 1dbd 40a0 6a3c b7f9 0fbc
00000340: 0bdc 523c f779 9abc f272 f73c 528f 12bd
00000350: 6d6d de3b 6066 163d e78b e73b d180 893c
00000360: 855f b1bc 5674 e53a 33a6 17bd 4c53 e6bc
00000370: dac3 5d3b 093e 7bbc 6d61 013d b405 a13c
00000380: acd9 bbbc 7e10 b8bc 7cd4 f73b 8fa2 27bd
00000390: 2286 063d 7233 073d b529 15bd b0bd 883c
000003a0: 1ba1 9c3b ae53 083d 484c 213d 82a6 21bd
000003b0: 07d0 423c 04a8 6f3c 9d4a 17bd f16b f8bc
000003c0: fa02 983c 369f 8abc b931 283d 1506 13bc
000003d0: b2bb ab39 181e 41bc 794f a5bc af1f 243c
000003e0: d10a eb3c b5e4 ae3c e93b f83b 5205 17b9
000003f0: 0bac 14bd 7089 d93b d837 823b f4b7 1fbc
-0.006722063 0.028012373 0.0060033686 -0.02177234 -0.029002395 -0.041356325 -0.038046654 -0.016312702
-0.025190815 -0.008887228 0.014814194 0.021641359 0.00980144 -0.014442999 -0.037044756 0.002186697
-0.036915917 -0.0059608296 -0.0059865676 -0.01998437 0.010748975 -0.01316639 0.040415734 0.035740495
0.037568666 0.0012910925 -0.014976889 0.03844609 -0.04041049 -0.022854177 0.011613198 0.023086965
-0.015230145 -0.011336772 -0.009927757 -0.011451876 -0.018950809 0.021354508 -0.049141586 -0.009868605
0.0074352063 0.035339814 -0.0042743334 0.02556592 0.010672938 -0.0025335285 -0.019815622 -0.015087165
-0.046681475 0.04248753 -0.011907807 -0.0012864257 0.045349836 -0.0064682406 -0.02920932 0.005607959
-0.04795187 0.03596948 0.0076437322 -0.01659903 -0.013688279 0.009228074 -0.007398471 -0.006274803
-0.036261987 0.015880045 -0.012737415 -0.036753926 -0.02093989 0.012620917 -0.0046372204 -0.036216766
0.032888975 -0.02425317 0.025275169 -0.0017483714 -0.0095761 -0.044315733 -0.02945454 -0.023254892
-0.046309706 0.03469683 -0.04055122 -0.024284491 -0.0140434485 -0.0327248 -0.01847353 0.00023754957
-0.021016983 0.0035554352 -0.033505965 0.012260384 0.0014546149 0.0150579 0.042021625 0.013676377
-0.008845834 -0.023154391 0.026749393 0.040234253 0.038564406 -0.022184838 0.010690352 0.025788799
0.029248789 0.032152638 -0.02753558 0.045896724 -0.0197944 -0.040910028 -0.034851562 0.036047347
0.0049582426 -0.018432552 0.0014807328 -0.02533248 0.013805148 -0.0048563173 0.032026876 -0.016544767
-0.0031199295 0.024940617 -0.0035605722 0.022830615 -0.013953271 -0.015995517 -0.017285414 -0.040024754
0.03833051 0.036406774 0.024053702 0.033583634 0.02033495 -0.023094162 0.024219187 0.0072890944
-0.01685969 -0.01902782 -0.029809948 0.026413452 -0.004141946 -0.010944313 0.026334148 0.03601753
0.014999147 -0.0125073865 0.01009683 -0.051105637 0.0050069205 -0.020743826 0.030722408 0.011076276
0.026094377 0.0030592694 -0.043957103 -0.018116554 -0.028824577 -0.035559036 0.025427412 -0.045425553
0.018251164 0.022201631 -0.011470278 -0.0136556765 0.00948863 0.00817085 0.020159628 -0.009420705
-0.017629933 0.007857307 0.035387643 -0.032938793 -0.0014884431 0.028008766 0.012495021 -0.02066032
0.008997058 -0.032109834 0.0070227333 -0.015044804 0.0016106337 0.018341597 -0.018809337 -0.025912208
0.014721427 0.001686974 -0.018472772 0.030521575 0.013846729 -0.046411283 -0.021086097 -0.03082728
-0.008334215 0.0046702325 0.027934633 0.015279427 -0.01942079 0.014903409 -0.006986552 -0.014700579
0.029285157 -0.013710567 -0.016333245 0.051036667 0.0061087934 -0.038363274 0.014320433 -0.008787564
0.012869845 -0.018856985 0.030206177 -0.035781212 0.006787947 0.036718726 0.007066238 0.016785057
-0.021651993 0.0017505984 -0.037023734 -0.02811589 0.003383866 -0.015334615 0.031587053 0.01965604
-0.022930942 -0.022468802 0.007563172 -0.040926512 0.032842763 0.033008046 -0.036416728 0.016692013
0.0047799475 0.03328293 0.039379388 -0.039465435 0.011890418 0.01462746 -0.03693639 -0.030324908
0.018556107 -0.01692162 0.041063044 -0.008973618 0.00032755506 -0.01178696 -0.020179497 0.01001732
0.028691681 0.02134929 0.007575501 -0.00014402464 -0.036296885 0.0066386983 0.0039739423 -0.009748448

fc1.bias f4 [120]
00000000: f7be bebc 2e77 173d 1e7c 273d d80b f03c
00000010: 25a7 273b 1167 2b3d 19c6 39bc aba7 1b3d
00000020: de73 e4bc 6331 923d a8e4 053d 713b dabb
00000030: c122 d73c 1b2e 9c3c bdea a43d c8d1 27bd
00000040: 96ff 423d 7b97 a53d 2aae 6f3d 01bb 693d
00000050: 282b 293d 5bfc 363d dff6 c83b a50e 383d
00000060: c2ec 953c b49a 9e3c cfe4 09bd 77df 2e3d
00000070: c74d 98bb 458c 2abb 71c0 e03c a49b 1e3d
00000080: 7e84 53bc 04e2 9f3d 0559 ec3c bc0c a83c
00000090: a6f8 463d c96e 3bbc a9fc b03d 691d d83d
000000a0: 6882 d83c 276c 003d 798c cc3c 4f14 a8bb
000000b0: 6d4d 533d ba26 4f3d be61 0d3d 1463 323d
000000c0: de51 8c3d a958 de3c bebc cb3b 041a 4a3d
000000d0: e76a 0dbc 480b 83ba 881c 833c 31c5 6d3d
000000e0: 50c0 02bc 1ede c7bb 8f07 2c3d 4d74 d13b
000000f0: de16 d7bc 2209 5a3d 3b82 563d c6d8 a03c
00000100: 1255 61bc 35f5 243c 0658 193d 60e1 5b3d
00000110: ae7f e1bc 269b 8b3d 36ea 803d 8783 9c3b
00000120: d6e2 b13b 6ec5 933c efe4 5d3d 5c68 303c
00000130: 0b4d a23d 8227 a7bc 970f e5b9 4240 323d
00000140: c995 bf3c 7ac8 13bd 1765 cdbb df11 03bd
00000150: de2b e83c 1f85 233c 5427 8a3d f603 a93c
00000160: e919 6f3c ad30 473c c591 3c3d c33a db3d
00000170: a344 ae3d 853b 7d3c 32fb b03d b2d6 1b3d
00000180: 0001 4c3d 6a02 a03d db7d 283d 8ceb 963d
00000190: be49 103d 52f6 ad3d a834 96bc ccd9 233d
000001a0: 711d da3b 2175 ed3c c96f c1bb d058 8b3b
000001b0: 63d5 403d 552b 2d3d 60a3 963d dc97 0fbb
000001c0: d6fa d63c fa3b d63b b399 da3c da08 343b
000001d0: 1810 833d 53a6 c5b7 aa2d 9d3c 25fb 4d3d
-0.023284419 0.036978893 0.04088985 0.029302523 0.0025581804 0.04184634 -0.011338734 0.038001698
-0.027887281 0.07138326 0.032688767 -0.006659918 0.02626169 0.019064954 0.08052585 -0.040971547
0.047607027 0.08085533 0.058515705 0.057063106 0.041300923 0.04467426 0.006132945 0.04493584
0.018301371 0.019360878 -0.033665475 0.04269358 -0.0046479437 -0.0026023549 0.027435513 0.03872265
-0.012910007 0.07806781 0.028851042 0.020513885 0.048576973 -0.011439987 0.08641941 0.105524845
0.02642937 0.031353142 0.024969326 -0.005129374 0.05158751 0.050574042 0.034517042 0.04355152
0.068515524 0.027141886 0.006217568 0.049341217 -0.008631445 -0.0009997869 0.016004816 0.058049385
-0.007980421 -0.0060994765 0.041999396 0.006392038 -0.026256021 0.053231366 0.05237029 0.019634616
-0.0137531925 0.010068228 0.03743746 0.05368173 -0.027526703 0.068167016 0.06294672 0.0047764215
0.0054286523 0.018038478 0.054173406 0.010767069 0.07924851 -0.020404581 -0.000436899 0.043518312
0.023386853 -0.03607986 -0.0062681544 -0.031999465 0.02834123 0.009980469 0.067457825 0.020631772
0.01459358 0.012157601 0.046037454 0.10704567 0.08509185 0.015456085 0.08641662 0.038046546
0.04980564 0.078129604 0.04113565 0.07369146 0.035226576 0.084942475 -0.018335655 0.04000263
0.0066563417 0.028986515 -0.0059032184 0.0042525306 0.0470785 0.042277653 0.0735538 -0.0021910584
0.026242655 0.0065379115 0.026684618 0.0027471096 0.06399554 -2.356168e-05 0.019186813 0.05028834

fc2.weight f4 [84, 120]
00000000: c940 a0bd 5712 7dbd 9f2c 84bc 07b2 a4bd
00000010: e36b 05bd c292 893c 31c3 19bc f9d7 813d
00000020: db20 4b3d a2cf 26bd b4f1 b2bc ff08 99bd
00000030: 5cd3 45bd 2c76 a93d 16be fcbc 9886 a0bd
00000040: da89 cb3d 0c72 d53d 9e21 a93d 87ac 123d
00000050: 2cad 103d 7073 79bc 4c29 913d 4fd8 a5bd
00000060: 8397 4a3d d098 143c 6d8a 833c 75ff a43d
00000070: 46a6 e23d bb4d 54bc 6227 683d 073c 86bd
00000080: dd76 263d 8be8 a33c 603c 983c 4d8e 90bd
00000090: efcb 12bd ebaf c1bd 9deb 0cbd d27d d2bd
000000a0: 4732 b9bd 1b51 afbd bd1f 123d 6837 0f3d
000000b0: aa86 163d af59 203c 78de ecbc 5810 e43d
000000c0: 7726 b3bd ddd5 83bb 36a6 803d a4fa 7cbd
000000d0: 43bf 533d 90a1 b63d 7660 d5bc aea0 7cbc
000000e0: 4bc7 a83d 5643 19bd ff30 c23d 128e acbd
000000f0: c96e 8d3c 6f45 39bd 9c90 52bd 2388 eabc
00000100: 8cce 1dbd 3215 a93d 6a43 8d3d 1c7d c0bd
00000110: d52b 93bd 2e89 b93c 06b0 bf3d 2266 17bd
00000120: c80c 4dbd f5cb 5abd 984e 9a3d 474c 04bd
00000130: 8fde 9f3d 7603 e43c 96a2 8f3d e622 72bd
00000140: 9bf9 043c 6530 b83d 8d38 3b3d 596f 8c3d
00000150: 583c b4bd dd65 8dbd 6ad4 7fbd 9241 813d
00000160: 10bf 1bbd f423 ffbb 87de 8dbd 7b86 2f3d
00000170: 4482 8c3c 7987 9c3c 6d8e 8fbd 2b57 babd
00000180: 3812 96bc 3bbd 653c f272 5e3c 144b 4abc
00000190: 38fa b93d 3f88 bf3d 5880 a13d 4553 4abd
000001a0: ea2c 7abd 0379 89bd 73a3 8abc aa9b 5c3d
000001b0: ad75 cf3c c72b 12bd 136e 3a3d 04de 29bd
000001c0: e66d 963c 64c4 2e3d a566 b6bd 28c8 9dbd
000001d0: 60a4 523d 1b0c 303c cdf0 33bb 7fe7 c1bd
000001e0: 6279 a73d 16ea 80bd a102 db3d 8426 abbd
000001f0: 1442 92bd 0c14 ae3d 36b6 3b3d 5afc 903d
00000200: ef1e bbbd 29ae a23d bfff 963c 20ac b1bd
00000210: da0b 9c3d 268a cfba 554e 5f3d 2e87 9e3c
00000220: 8782 e3bd 99e2 fabc 2ecd a33d 7cd0 f03c
00000230: 7876 8d3d 781b ecbc 636c e83d 6ed4 873c
00000240: b689 9c3d 283d ba3d a430 143d 25f4 92bd
00000250: 32e8 8c3c 049a 90bd 7a16 40bd 6ac6 f73c
00000260: d363 cf3d 6c10 bcbc bce4 76bd fcc0 3e3d
00000270: 9f26 61bd a855 593b 5f17 c2bd 2f6b 8bbd
00000280: 73e6 a03d 9da7 d5bc 5485 1d3d 791b abbd
00000290: a0d3 f33c 274a 833c 6362 233d cea4 2fbd
000002a0: 54a3 09bd afb8 b53d 4075 30bd 4ba3 6abc
000002b0: e559 b33d d5fe 17bc 4914 07bb 365f d8bd
000002c0: 3134 b3bd afe3 493d 6a7f 30bc e38b 2a3d
000002d0: 7335 e5bb 88ba d63d ffc3 6abc ec8b b43d
000002e0: 2b50 f9bc 36c4 40bd 0fc0 3f3d 7b27 ce3d
000002f0: 6b57 8cbd 6929 76bd 6906 84bd fef9 16bd
00000300: 559e d93c 1c36 f9bc 3b2a f23c 455f c1bd
00000310: c097 b8bd 5ce9 d93c 088c 653d 1360 de3d
00000320: 303a 8d3c 9a72 b5bb 0f6e 2b3d 2608 c13d
00000330: 5a3e ddbd 8d5f 4b3d fd41 b0bd 6ecc 38bd
00000340: 8729 81bd 18e9 4d3b 12a5 163d b261 9e3d
00000350: 1c6e 5fbd f50e 2b3d ce25 b83d dfbb e03b
00000360: caa4 a9bd 6931 343d 51a8 25bd 4c34 253d
00000370: 7852 36bd 113d 7fbd a54c 13bd 6d50 253c
00000380: 07df 4ebd 3e4b 953c bf09 96bd 2105 033d
00000390: 6a93 a13c b25e 2ebd f3ea 743c 8c7f 99bc
000003a0: 5b29 c0bd bd5a 5cbd 3f53 c2bd d12b 7d3d
000003b0: d022 6f3c d2a7 b53d 1a93 5c3d b332 9b3d
000003c0: 56bd 9d3d 2e9c a1bd 1583 803d 067e a83d
000003d0: 80cb 433d 484e b4bd 48b8 95bd 37a5 c1bc
000003e0: 93ed a5bc 9e47 3abd 3c88 303d f34e b63d
000003f0: c20a 6c3c 259c d4bd 50f3 92bd b73b ad3d
-0.07824857 -0.06178507 -0.016134558 -0.080417685 -0.032573592 0.016793612 -0.009384916 0.06340022
0.04959188 -0.040725358 -0.021843769 -0.07472419 -0.04829727 0.082744926 -0.030852359 -0.07838172
0.099384025 0.10422143 0.08258365 0.035809066 0.0353214 -0.015225276 0.07087955 -0.08097898
0.0494609 0.009069636 0.016057217 0.08056537 0.110668704 -0.0129579855 0.056678183 -0.06554418
0.0406407 0.020008346 0.018583477 -0.07058392 -0.035839017 -0.09457382 -0.034404386 -0.102779046
-0.09042793 -0.085603915 0.0356748 0.03496495 0.03674952 0.009787007 -0.028914675 0.1113593
-0.08747571 -0.004023297 0.06281702 -0.061762467 0.051696073 0.08917534 -0.026046973 -0.015419168
0.08241137 -0.037417732 0.094820015 -0.08425535 0.01726474 -0.045232233 -0.05140744 -0.028629368
-0.038527057 0.08255996 0.06897624 -0.09398863 -0.07186095 0.02264842 0.09359746 -0.036962636
-0.050061017 -0.053417165 0.07534522 -0.032299306 0.078061216 0.027833682 0.07013433 -0.059115313
0.008116151 0.089936055 0.045708228 0.068571754 -0.08800572 -0.069041945 -0.062458433 0.06311335
-0.03802401 -0.0077862684 -0.06927209 0.04285286 0.01715196 0.019107567 -0.070095874 -0.09098657
-0.018319234 0.014022167 0.01357721 -0.012347002 0.090809286 0.09352159 0.07885808 -0.04939582
-0.06107799 -0.06712534 -0.016923642 0.05385939 0.025324667 -0.03568628 0.04551513 -0.041471496
0.01836295 0.04266776 -0.08906297 -0.077041924 0.05142629 0.010745074 -0.002745676 -0.094679825
0.08177449 -0.06294648 0.10693861 -0.08356956 -0.0714151 0.084999174 0.045828067 0.07079382
-0.091367595 0.07943375 0.018432496 -0.08675408 0.07619448 -0.0015834018 0.054518063 0.019351568
-0.111088805 -0.030625628 0.07998119 0.029396288 0.06907362 -0.028821692 0.11348798 0.016580787
0.07643454 0.09093696 0.0361792 -0.07175473 0.017200563 -0.07060626 -0.046896435 0.030245978
0.10126462 -0.02295705 -0.06027673 0.046570763 -0.054968473 0.0033162627 -0.09477114 -0.06807553
0.07856455 -0.0260809 0.03845723 -0.08354849 0.029763997 0.01602657 0.03988875 -0.04288178
-0.033603027 0.08873116 -0.04308057 -0.014321159 0.087573804 -0.009277065 -0.0020611456 -0.10565035
-0.08750189 0.0492894 -0.010772565 0.041637313 -0.006994897 0.10484797 -0.014328956 0.088157505
-0.030433735 -0.04706212 0.04681402 0.10066124 -0.06852611 -0.060098086 -0.06446535 -0.036859505
0.026564756 -0.03042131 0.029561153 -0.09441999 -0.09013319 0.026600532 0.056041747 0.108581685
0.01723966 -0.005537343 0.041853007 0.09425382 -0.10802908 0.04965167 -0.08606336 -0.045116834
-0.06306749 0.0031419452 0.036778517 0.07733478 -0.054548368 0.04176231 0.08991586 0.0068583335
-0.08283384 0.043992434 -0.040443722 0.040333077 -0.044512242 -0.062314097 -0.035961766 0.010089976
-0.050505664 0.018224355 -0.07326078 0.031987313 0.019723613 -0.042570777 0.014948594 -0.018737577
-0.09382888 -0.053797472 -0.09488534 0.061809365 0.014595702 0.088699 0.053851224 0.075780295
0.077021286 -0.07891117 0.06275002 0.08227162 0.047801495 -0.088039935 -0.073105395 -0.02363835
-0.020254886 -0.045478456 0.043098673 0.08901777 0.014406862 -0.10381345 -0.071753144 0.08458655

fc2.bias f4 [84]
00000000: 471c abbb d982 b13d e7c7 9ebd ef0d 26bd
00000010: 6ccb 063e 6aad a13d ad04 bd3d 672f d43d
00000020: 7aa6 39bd 3819 c2bc a7ef ff3c d83c de3a
00000030: 6cd0 f73b 2603 9e3d 99d7 b2bd 46a9 d23d
00000040: 8ed7 0a3d f560 dc3d 21ac cf3d 8550 8e3d
00000050: 5d34 833c b438 43bd 5acb 6fbd fad6 8c3d
00000060: f7b5 7e3d 9b67 623d 22f1 2f3d e533 04bd
00000070: 33ad e2bc 5846 0a3e 89ae 223b 21cd 983c
00000080: 583e 993d 4a72 9cbd 36ce 1b3e f23d f53b
00000090: 7908 143d 997b 2f3e ebb6 863d e28d edbc
000000a0: 1384 e5bb b851 ee3d 7565 8cbd fd9b 163e
000000b0: 2086 60bd 4555 0e3e 45b3 00bd a5fb 833d
000000c0: 2084 a63c 4c68 c93d 7f77 693d 6cdc adb8
000000d0: 416d 323d 5b7f b83d 6285 de3d 40da 3bbc
000000e0: d870 4ebd 9e2b 31bd c872 91bc dd5c 863c
000000f0: 1589 963c 5ac8 b9bc 0a34 bd3d dc4a 013e
00000100: d088 803b 96e6 95bd dafd fcbc 53a0 863d
00000110: c16a 44bc cd34 1fbc 92e3 eb3d 26bc 5b3c
00000120: 463d 973d c041 49bc 6a02 c63b ce6d e5bb
00000130: 9c33 bbbc 95f4 9cbb 2e35 4a3d 798a 1cbd
00000140: 42db fc3c d062 893d ceb0 303d 10f5 36bc
-0.005221877 0.08667535 -0.07752972 -0.04054063 0.13163537 0.07894404 0.092294075 0.10360604
-0.04532478 -0.023693666 0.031242205 0.0016955389 0.0075626876 0.07715444 -0.08732528 0.102861926
0.033896975 0.107606806 0.10140253 0.06948952 0.01601618 -0.0476615 -0.05854354 0.06876941
0.062185254 0.055274587 0.04295457 -0.032276053 -0.027670478 0.13503397 0.002482327 0.0186525
0.07482594 -0.076389864 0.15215382 0.007484191 0.036140893 0.17136993 0.065778576 -0.028998319
-0.00700427 0.1163668 -0.06855289 0.14707942 -0.05481541 0.13899715 -0.031420965 0.06444482
0.020326674 0.09834346 0.056998726 -8.2903396e-05 0.043561224 0.09008666 0.108652845 -0.011465609
-0.050400585 -0.043254487 -0.017754927 0.016401703 0.018375913 -0.022678543 0.09238441 0.12626213
0.0039225593 -0.073193714 -0.030882765 0.06573548 -0.011988343 -0.0097171785 0.11518015 0.013411557
0.07384734 -0.012283742 0.0060427682 -0.007001615 -0.022851758 -0.0047898986 0.049367122 -0.038217995
0.030866269 0.067083 0.043137364 -0.011166826

fc3.weight f4 [2, 84]
00000000: a4bf 223e 91f4 78bd 357d 80bd 7fb4 b9bd
00000010: df85 953e d40e 58bd afaa 823d 5107 01be
00000020: 23ff b9bd e9a8 423d dbe8 b9bd bffc 95be
00000030: 9cb0 1e3e dbba 1abe 3cff dc3d 99b6 81be
00000040: 3982 b4bc 9bd2 823e 91d3 2f3e da18 8d3d
00000050: 00d1 5abe dedc 1e3e 74d6 8cbe 08f6 ddbe
00000060: 0156 96be c4bf 1b3e 9d5b acbc ba44 c63d
00000070: 305c 443e 9ed9 3bbe dba3 0bbd 2ba8 553e
00000080: 0531 8dbe e78e 263d 91cc 8d3e c19b 413e
00000090: 826c b9bd 4ae8 3dbd 568e 7e3e 53f5 d73c
000000a0: ee2a 08bd 5ae8 de3d 1848 b4bc cd07 9f3d
000000b0: b712 1fbe ce35 a2be 9624 d33d f4bc 823e
000000c0: 6c40 9cbd f2b1 953d 6aed 683e cf2f 823d
000000d0: 6e58 dcbd 9e05 9d3e fd95 543e 96b4 98bd
000000e0: e6e5 42be d7d5 edbd 5418 923e 1d8d 95be
000000f0: c70c ebbd 4d53 32be 2816 573e 7466 a93e
00000100: 7bfa abbd b2a8 1c3c 8380 873d c7ed df3d
00000110: af47 1dbe 472a a43d 19e7 d53e bcad 9cbd
00000120: 0e85 4f3e b691 aabe b4fb 1fbc 6268 923d
00000130: 35af c5bd 2935 f43d efa9 0abe 220a 0f3d
00000140: 2ad4 30bd 717a 72be 5b7d 273d 8c99 5f3e
00000150: b930 0e3e b4ae 8d3e bfdc aabd 7c51 883b
00000160: 8704 07bd 232e 81be e5ce 943c 53dc 89bd
00000170: f654 ff3c 10ad 52be b4af 14be dbc7 a5bd
00000180: 2621 70be 90b3 6f3e 9c25 36bd 7818 88bd
00000190: 3785 77be 7c42 df3d eef6 88be 20df ae3d
000001a0: 3f05 9ebd ffbb d3bd 4bd1 bcbd fba6 81bd
000001b0: 3178 ccbc 737b aabd ebf3 1b3e cec2 123e
000001c0: ebf6 2ebe c39d b6be da2d 57bd c55d af3d
000001d0: f214 54be a1aa 3fbd 6791 38be 7873 4abe
000001e0: 4183 853e f52c efbe e35f a1bd 3cdd 07be
000001f0: 667d 0bbe 5bfc 65be bd9a 463d a1d0 a63e
00000200: 8212 b13d a300 1d3d 3a2a c83c 0b3e 75be
00000210: b056 353d 1e8b 823e bbd2 3bbe 575d bebd
00000220: b928 843c b4f4 c93d c8b4 c83e 56a0 383e
00000230: e8a5 363e a4b7 87be ca20 13be eac2 d83d
00000240: b8d3 313e 9f5d 663e 1813 2bbd 0ff4 d33e
00000250: b993 b43d 50e7 f63c 1ce9 48bc de01 d13d
00000260: eab4 363e f914 a93d 3a62 a53e 0a12 4cbe
00000270: 0782 06be ea39 253e f4fa 583e fe89 053e
00000280: 7ca8 073e fe0b 0d3e 3c82 a73e 0d92 01be
00000290: b820 1b3e f9f0 8bbe 5bd5 c93d 3d33 783e
0.15893418 -0.06078011 -0.06273881 -0.0906763 0.29203698 -0.052748516 0.063802116 -0.12600447
-0.090818666 0.047524367 -0.09077617 -0.29294392 0.15497059 -0.15110342 0.107908696 -0.25334623
-0.022034751 0.25551304 0.1717055 0.06889506 -0.2136879 0.15513942 -0.27507365 -0.4335177
-0.2936249 0.15209872 -0.021039778 0.09681077 0.19175792 -0.18344733 -0.03409181 0.20864932
-0.2757646 0.040663626 0.27695134 0.18907072 -0.09053899 -0.046364106 0.24858984 0.026362097
-0.033244066 0.10884161 -0.022007033 0.0776516 -0.15534483 -0.31681675 0.103097126 0.25534785
-0.07629475 0.07309331 0.22746816 0.06356775 -0.10759054 0.30668348 0.20760341 -0.07456319
-0.19033012 -0.11613052 0.28534186 -0.29209223 -0.114770465 -0.17414589 0.21004546 0.33085978
-0.08397385 0.0095617045 0.066163085 0.10934024 -0.15359376 0.08015876 0.41777876 -0.07650325
0.202656 -0.33314294 -0.009764601 0.07148816 -0.09652559 0.11924202 -0.13541387 0.034921773
-0.043171085 -0.2367952 0.040891033 0.21835917 0.13885774 0.2767235 -0.08342885 0.0041601043
-0.032963302 -0.25230512 0.018165061 -0.06731477 0.031168442 -0.2057383 -0.1452015 -0.0809476
-0.23450145 0.23408341 -0.04446946 -0.06645292 -0.24171911 0.10901353 -0.26750892 0.085386515
-0.07715844 -0.10338592 -0.09219607 -0.06330677 -0.024959655 -0.08324327 0.15229766 0.14332125
-0.17086379 -0.35667238 -0.05253396 0.08562807 -0.20711115 -0.046793584 -0.18024217 -0.1977061
0.260767 -0.46713987 -0.07879617 -0.13267988 -0.13622054 -0.22459547 0.048487414 0.32581046
0.08646108 0.038330685 0.024434198 -0.23949449 0.044272125 0.25496763 -0.18342106 -0.09295147
0.0161327 0.098611265 0.39200425 0.18029913 0.17836726 -0.26507294 -0.14367977 0.10584052
0.1736592 0.22496651 -0.041766256 0.4139714 0.08817238 0.030139595 -0.012262609 0.10205434
0.1784245 0.08255953 0.32301503 -0.19928756 -0.13135539 0.16135374 0.21189481 0.13040921
0.13247865 0.13774106 0.32716548 -0.1265337 0.151492 -0.27332285 0.098551475 0.24238296

fc3.bias f4 [2]
00000000: 69cd 82bc 10cd 893d
-0.015967088 0.06728566
