src/models/dagger-fix-3.onnx (onnx, 336968 bytes, 10 tensors)

conv1.weight f4 [6, 5, 5, 5]
0.082839906 0.19173925 0.20820653 0.054689597 0.1573759 0.10473644 0.12983227 0.096919894
0.2276839 0.06438579 0.090253055 0.090570845 0.12554693 0.12363348 0.12380858 0.07986908
0.070692636 0.23443934 0.0654272 0.16530514 -0.030462123 0.008501836 0.121689476 0.16857733
0.14903001 0.12604693 0.15698521 0.18286441 0.07969499 0.13249621 0.002360252 0.16907461
0.21605049 0.140933 0.2104755 0.1066693 0.103759214 0.20031297 0.21128121 0.14716402
0.097599976 0.079396576 0.2335961 0.23145503 0.11709281 -0.0021446932 0.125861 0.06037606
0.14828193 0.11719069 0.08864162 0.05209422 0.21105564 0.08709975 0.038142554 0.11010796
0.17149274 0.16074711 0.16059038 0.15611637 0.10794687 0.14289063 0.100643545 0.12960427
0.20916189 0.024608843 0.08998006 0.24707235 0.17186986 0.12462115 0.09933329 0.011300995
0.11054861 0.14775997 0.13070837 0.08204447 0.18729463 0.097478114 0.16334699 0.13866194
0.15666127 0.14721914 0.26391625 0.20929813 0.11710982 0.063828744 0.20714605 0.19512282
0.2491434 0.2368588 0.036420498 0.15091357 0.24068125 0.159767 0.15119182 -0.008104313
0.09304111 0.21277718 0.19386832 0.18299145 0.15285008 0.165698 0.1293636 0.11357638
0.17299637 0.02452478 0.08294184 0.16100433 0.09144523 0.15127508 0.028444286 0.19624369
0.285156 0.26512718 0.23132676 0.028278137 0.17466281 0.2571346 0.12120099 0.15268157
0.042650633 0.10466186 0.123697236 0.05472044 0.050292928 -0.07020286 0.06381472 0.052037735
-0.09444764 -0.052357625 0.053169817 -0.058424365 -0.06838801 0.002441008 -0.000785162 -0.057874043
0.023396086 -0.006475243 -0.088283546 0.03863459 0.012663772 -0.006311076 0.016889762 -0.046846043
-0.025025487 -0.08789236 -0.089592345 -0.046510544 -0.0026031015 0.042347502 -0.06786578 0.06433744
0.010545339 -0.03848931 -0.032905135 0.035301905 -0.058340274 0.049386226 0.07632319 -0.013141967
0.013119034 0.029621165 -0.052386772 0.07207036 -0.04918073 -0.025536992 0.08000953 -0.06317275
0.030251045 0.036962174 -0.08461835 0.004782699 0.008743354 0.038999178 0.08666529 -0.04279874
0.077194564 -0.08813496 -0.083085634 -0.08360542 -0.08054088 -0.050438568 -0.04796511 0.076999515
-0.009595332 0.055215288 0.06327297 -0.08457088 0.06848938 -0.04621932 -0.07897291 -0.05527248
0.022371268 -0.04026834 -0.032818835 0.086985484 -0.08719146 0.007490881 -0.042533126 0.0824714
0.022736315 0.046551317 -0.043720756 -0.08628312 0.018361904 -0.05014949 0.06483824 0.023745662
0.049806688 0.0850574 -0.020762287 -0.044516325 -0.0802914 -0.058703598 0.0535202 0.00077775435
0.056862462 -0.06539833 -0.004953641 0.050480142 0.045084804 0.047309786 -0.00911963 0.048120674
-0.029835317 -0.015191083 -0.0111468 -0.06347659 0.03921406 -0.02247117 0.033927385 0.05543057
0.028684018 -0.014726288 -0.030561095 0.062180564 0.031337377 0.041648902 0.06904039 0.053195577
0.08033874 -0.061455447 0.039245035 0.049277533 0.032406505 -0.01941451 0.054457724 0.0025892674
0.03856409 0.045355055 0.021903988 0.007036209 -0.0052165305 0.018528149 0.048373397 0.046704315
00000000: f8a7 a93d 4b57 443e 1834 553e 3302 603d
00000010: 2627 213e 0f80 d63d c0f2 043e f07d c63d
00000020: f825 693e b2dc 833d 98d6 b83d 357d b93d
00000030: 608f 003e 8d33 fd3d 5a8f fd3d 6692 a33d
00000040: 4dc7 903d de10 703e b2fe 853d c045 293e
00000050: b48b f9bc 494b 0b3c 5538 f93d 899f 2c3e
00000060: 539b 183e 7212 013e bbc0 203e cf40 3b3e
00000070: 2037 a33d 16ad 073e 75ae 1a3b e521 2d3e
00000080: 573c 5d3e be50 103e e486 573e 6f75 da3d
00000090: b67f d43d d81e 4d3e 1a5a 583e 2ab2 163e
000000a0: 7fe2 c73d ac9a a23d d133 6f3e 8c02 6d3e
000000b0: 5bce ef3d fb8d 0cbb b5e1 003e e34c 773d
000000c0: 38d7 173e ac01 f03d bd89 b53d c060 553d
000000d0: f81e 583e 5b61 b23d 5e3b 1c3d 4880 e13d
000000e0: cb9b 2f3e e49a 243e ce71 243e f8dc 1f3e
000000f0: 4013 dd3d ec51 123e 341e ce3d fbb6 043e
00000100: 892e 563e 7c98 c93c 7747 b83d 8900 7d3e
00000110: a7fe 2f3e 6039 ff3d 406f cb3d cf27 393c
00000120: 4f67 e23d 644e 173e 6ad8 053e ee06 a83d
00000130: 2aca 3f3e 9ba2 c73d 6f44 273e 65fd 0d3e
00000140: d06b 203e 9dc0 163e 0820 873e 4052 563e
00000150: 46d7 ef3d a5b8 823d 181e 543e 47ce 473e
00000160: 731f 7f3e 1d8b 723e a92d 153d 1689 1a3e
00000170: 2575 763e f699 233e 07d2 1a3e f4c7 04bc
00000180: 568c be3d 43e2 593e 6b85 463e 1c62 3b3e
00000190: bb84 1c3e bdac 293e e477 043e bc9a e83d
000001a0: f625 313e 31e8 c83c 69dd a93d 52de 243e
000001b0: a347 bb3d dbe7 1a3e fe03 e93c 1bf4 483e
000001c0: f8ff 913e c0be 873e ece0 6c3e 8da7 e73c
000001d0: cfda 323e 25a7 833e 3a38 f83d 8f58 1c3e
000001e0: 6eb2 2e3d f558 d63d fa54 fd3d 8a22 603d
000001f0: f5ff 4d3d 84c6 8fbd 4bb1 823d 8525 553d
00000200: c46d c1bd f374 56bd 98c8 593d 634e 6fbd
00000210: 030f 8cbd 52f9 1f3b 54d3 4dba 550d 6dbd
00000220: 26a9 bf3c 462e d4bb 01ce b4bd 4e3f 1e3d
00000230: b67b 4f3c 25cd cebb 665c 8a3c a3e1 3fbd
00000240: 4002 cdbc e900 b4bd 317c b7bd d781 3ebd
00000250: cc98 2abb 9374 2d3d 37fd 8abd 59c3 833d
00000260: 5cc6 2c3c f7a6 1dbd 89c7 06bd bb98 103d
00000270: 36f6 6ebd 3649 4a3d 554f 9c3d 6851 57bc
00000280: 37f1 563c 16a8 f23c 8393 56bd a099 933d
00000290: bc71 49bd f432 d1bc 09dc a33d b760 81bd
000002a0: 0ad1 f73c a665 173d 634c adbd 30b8 9c3b
000002b0: 4940 0f3c 9abd 1f3d 927d b13d bb4d 2fbd
000002c0: 2f18 9e3d 1a80 b4bd cd28 aabd 5239 abbd
000002d0: 9ef2 a4bd ac98 4ebd 1077 44bd ecb1 9d3d
000002e0: bd35 1dbc 6d29 623d 4295 813d 7f33 adbd
000002f0: 2944 8c3d 7850 3dbd 8dbc a1bd 6565 62bd
00000300: f343 b73c 6af0 24bd 0b6d 06bd 7225 b23d
00000310: 7091 b2bd 1076 f53b 3737 2ebd c4e6 a83d
00000320: 8241 ba3c 98ac 3e3d 8914 33bd 34b5 b0bd
00000330: b46b 963c 8d69 4dbd e9c9 843d 4386 c23c
00000340: 1902 4c3d 9332 ae3d ac15 aabc c056 36bd
00000350: d16f a4bd 2f73 70bd ff37 5b3d 36e2 4b3a
00000360: 9de8 683d 8fef 85bd 2752 a2bb 44c4 4e3d
00000370: d8aa 383d e8c7 413d 806a 15bc 2f1a 453d
00000380: 3269 f4bc 05e4 78bc 11a1 36bc 0400 82bd
00000390: ec9e 203d 7615 b8bc 71f7 0a3d 2a0b 633d
000003a0: bffa ea3c 8746 71bc 435b fabc 0cb1 7e3d
000003b0: 9f5b 003d 0a98 2a3d 0c65 8d3d 9be3 593d
000003c0: a388 a43d b5b8 7bbd 67bf 203d 3dd7 493d
000003d0: afbc 043d 2e0b 9fbc 100f 5f3d b3b0 293b
000003e0: 61f5 1d3d 39c6 393d fe6f b33c 0090 e63b
000003f0: 6eef aabb 58c8 973c 2f23 463d 064d 3f3d

conv1.bias f4 [6]
-0.10325891 0.039206408 -0.08323349 0.05920261 0.034348246 -0.059102748
00000000: 6879 d3bd e696 203d 5276 aabd 707e 723d
00000010: bfb0 0c3d b915 72bd

conv2.weight f4 [16, 6, 5, 5]
0.08375647 -0.04063004 0.008714676 -0.048296005 0.05549156 -0.036483433 0.10331103 0.07075536
0.037912384 -0.044546295 -0.04286508 0.09068535 -0.04320942 0.056191575 0.010837867 0.0041718846
-0.04770852 -0.013524361 -0.072899304 -0.02687394 -0.04076694 -0.082617015 0.008886625 0.014783098
0.031672996 0.07019627 -0.058655728 0.0237673 0.049782168 -0.062252052 0.04026374 -0.023578295
-0.025766427 -0.04580333 -0.055558052 -0.013869711 0.07398762 -0.06576789 0.02690365 -0.07894861
0.00401607 0.036641326 -0.04655365 0.023444809 -0.050562933 0.04855953 -0.041299857 0.03617847
0.040445853 -0.07573668 0.052846957 -0.06467151 -0.06466686 -0.021168264 0.063285716 0.009965014
0.031172682 0.061609685 -0.01602152 0.018546795 -0.044769682 -0.00011290288 -0.0029532344 0.02496395
0.013647913 -0.07494892 0.07043393 0.019752728 -0.05090519 -0.006806135 0.07286951 0.07205626
-0.019692937 -0.030743556 -0.010239951 -0.024602458 -0.027762378 0.017778281 -0.022602472 -0.024686469
0.0025246316 0.01876913 -0.0647385 -0.018794585 0.033639025 -0.03955263 0.027760185 0.06714314
-0.045860726 -0.03668673 0.02835197 0.052490275 -0.07555917 0.040860318 0.049598925 0.015121566
0.065625705 0.037193507 0.021258287 0.00142237 0.008129925 0.03703829 0.0148803685 0.0018285239
0.04356346 0.03771758 -0.062253356 -0.039771378 -0.013147844 0.007979775 0.052103397 -0.017419325
-0.06886005 0.0041981195 0.07193073 -0.07157311 0.07301842 0.045243904 0.06084372 -0.052932646
-0.08009251 -0.018273259 0.009976811 -0.019413855 0.03025424 -0.07706148 -0.08070014 -0.019863563
0.0016561687 0.067591436 0.041203633 0.042518433 0.073254496 -0.019618774 0.053481642 0.013915989
-0.0029439216 0.020722546 -0.055996366 -0.03794951 0.015340538 -0.006506142 0.06674794 -0.04361946
0.04702164 0.055160537 0.037669543 -0.033050187 0.07348541 -0.02320039 -0.08516282 -0.15685198
-0.20366238 -0.20744237 -0.18231896 0.13142739 0.106098 -0.06236409 0.0008175314 -0.13691771
0.10766849 0.14094217 0.05330411 0.13243894 0.0130112255 0.060491923 0.12792416 0.028154923
0.13787502 0.088251926 0.10961027 -0.034187824 0.081107914 -0.056781087 0.0058766026 0.0052523706
-0.047029104 -0.032901727 0.010154249 -0.0025520772 0.04644941 -0.07285313 -0.041232463 0.043243397
-0.0013823742 -0.049043473 0.017125783 0.06112593 0.020187272 -0.02801649 -0.029209688 0.05367822
-0.060929183 -0.07110909 0.017527578 -0.01562965 0.060817078 -0.05346169 -0.06564974 0.03129715
-0.07426781 -0.038385775 -0.093419746 -0.031096343 0.032054108 -0.040029712 -0.039656043 -0.029088994
0.031335503 -0.053579837 0.03499388 -0.052640826 -0.053559262 -0.012905364 -0.01836102 0.030965792
-0.053868353 -0.07481544 -0.023266692 0.030905196 -0.034630887 0.058125272 -0.050824266 -0.074384674
0.07423291 0.06886867 0.06425838 0.04946719 -0.004265359 -0.03841517 -0.07463662 0.029700393
-0.033822335 0.0638517 -0.01415166 -0.046203658 0.0012928544 0.019670786 -0.0031391028 0.0066629373
0.03562923 -0.07011086 0.038887776 0.007924079 0.0009850016 -0.06221506 -0.04384597 0.07645401
0.016318792 0.014153474 -0.07204008 0.043386836 -0.009353565 0.008948748 -0.076385565 0.0054927994
00000000: 8388 ab3d af6b 26bd 00c8 0e3c 08d2 45bd
00000010: 1e4b 633d a76f 15bd bc94 d33d 30e8 903d
00000020: 044a 1b3d 2d76 36bd 4b93 2fbd 3eb9 b93d
00000030: 5cfc 30bd 2329 663d 4f91 313c 4eb4 883b
00000040: 026a 43bd 4895 5dbc 3b4c 95bd bd26 dcbc
00000050: 3cfb 26bd 1c33 a9bd 3599 113c cf34 723c
00000060: 8bbb 013d 10c3 8f3d fd40 70bd a4b3 c23c
00000070: 63e8 4b3d 02fc 7ebd 97eb 243d 4527 c1bc
00000080: 1d14 d3bc 469c 3bbd d790 63bd c93d 63bc
00000090: d286 973d 51b1 86bd 0b65 dc3c cfaf a1bd
000000a0: 3d99 833b 3715 163d 0aaf 3ebd 540f c03c
000000b0: 141b 4fbd 5ce6 463d 0a2a 29bd e02f 143d
000000c0: 8daa 253d d51b 9bbd 0d76 583d 7f72 84bd
000000d0: 0f70 84bd 1169 adbc f19b 813d 4c44 233c
000000e0: da5d ff3c 705a 7c3d 903f 83bc 73ef 973c
000000f0: 6a60 37bd 46c6 ecb8 0d8b 41bb 3381 cc3c
00000100: 7f9b 5f3c d27e 99bd aa3f 903d 79d0 a13c
00000110: f681 50bd 0006 dfbb 9c3c 953d 3c92 933d
00000120: 1553 a1bc e9d9 fbbc 78c5 27bc 188b c9bc
00000130: ed6d e3bc c2a3 913c d228 b9bc 473b cabc
00000140: 4a74 253b b8c1 993c 9e95 84bd 1af7 99bc
00000150: 13c9 093d f001 22bd 5469 e33c 5882 893d
00000160: 75d8 3bbd d344 16bd 6442 e83c 0b00 573d
00000170: c4be 9abd 265d 273d 3e28 4b3d 72c0 773c
00000180: c566 863d 3858 183d dc25 ae3c d16e ba3a
00000190: 6033 053c 76b5 173d cacc 733c 15ab ef3a
000001a0: 996f 323d c07d 1a3d 60fd 7ebd 50e7 22bd
000001b0: 0e6a 57bc 9abd 023c 5f6a 553d f9b2 8ebc
000001c0: 7f06 8dbd 6190 893b 6b50 933d ec94 92bd
000001d0: ae8a 953d ac51 393d 4437 793d e7cf 58bd
000001e0: 8b07 a4bd cdb1 95bc c775 233c ce09 9fbc
000001f0: bdd7 f73c 69d2 9dbd 1d46 a5bd e9b8 a2bc
00000200: cd13 d93a 616d 8a3d 24c5 283d cf27 2e3d
00000210: 7406 963d 8db7 a0bc 910f 5b3d e3ff 633c
00000220: cfee 40bb 54c2 a93c 725c 65bd f270 1bbd
00000230: e156 7b3c 7a31 d5bb 25b3 883d 52aa 32bd
00000240: c399 403d 04f0 613d 614b 1a3d a25f 07bd
00000250: 857f 963d bf0e bebc d869 aebd ce9d 20be
00000260: df8c 50be c66b 54be d2b1 3abe e794 063e
00000270: e949 d93d 7d71 7fbd 9b4f 563a 2834 0cbe
00000280: 4c81 dc3d 2553 103e 6955 5a3d 139e 073e
00000290: 092d 553c 61c6 773d 8dfe 023e 27a5 e63c
000002a0: 1c2f 0d3e 6dbd b43d 597b e03d 8808 0cbd
000002b0: e81b a63d 4993 68bd 8490 c03b 141c ac3b
000002c0: 97a1 40bd f6c3 06bd 025e 263c c040 27bb
000002d0: bd41 3e3d 0634 95bd 5fe3 28bd fd1f 313d
000002e0: c830 b5ba cfe1 48bd 5f4b 8c3c 2f5f 7a3d
000002f0: c75f a53c d782 e5bc 2849 efbc b1dd 5b3d
00000300: e190 79bd a4a1 91bd ff95 8f3c c009 80bc
00000310: 541b 793d a5fa 5abd 5f73 86bd 7131 003d
00000320: b919 98bd 673a 1dbd da52 bfbd c2bd febc
00000330: 2b4b 033d 32f6 23bd 606e 22bd 0b4c eebc
00000340: a859 003d 8876 5bbd be55 0f3d e89d 57bd
00000350: f560 5bbd 0571 53bc da69 96bc f9ab fd3c
00000360: 10a5 5cbd d638 99bd ca99 bebc e52c fd3c
00000370: 1ed9 0dbd c414 6e3d 1b2d 50bd fe56 98bd
00000380: 6d07 983d 040b 8d3d e699 833d 1c9e 4a3d
00000390: 6dc4 8bbb 3a59 1dbd 16db 98bd 3d4e f33c
000003a0: 4a89 0abd aec4 823d 5ddc 67bc 0c40 3dbd
000003b0: ff74 a93a a124 a13c 68b9 4dbb c554 da3b
000003c0: f5ef 113d 4896 8fbd ca48 1f3d ffd3 013c
000003d0: 2b1b 813a 38d5 7ebd d597 33bd ec93 9c3d
000003e0: fdae 853c f9e3 673c c089 93bd 65b6 313d
000003f0: b23f 19bc c59d 123c 0970 9cbd f1fc b33b

conv2.bias f4 [16]
0.025523009 0.034003664 0.0016017945 0.024645254 0.061457608 -0.003004462 -0.048710506 0.015499386
0.15671116 -0.060083188 0.11578016 0.20416234 0.009769986 -0.097441144 -0.013402393 0.07383184
00000000: a115 d13c 6d47 0b3d 4ef3 d13a d8e4 c93c
00000010: f9ba 7b3d 82e6 44bb ab84 47bd 23f1 7d3c
00000020: e478 203e ca19 76bd 261e ed3d ef0f 513e
00000030: 4b12 203c 398f c7bd b695 5bbc 2635 973d

fc1.weight f4 [120, 584]
0.035695586 0.039874498 0.01988771 0.0397828 0.034909476 -0.0071666637 -0.018326502 -0.022485694
0.009665957 -0.008360973 -0.01047857 0.0027140311 0.032907855 0.012525427 -0.0025188765 -0.02827523
-0.026292278 -0.0050312635 0.036889523 0.035906404 0.0029804714 -0.0015041452 -0.0037107149 -0.02273015
-0.007517074 0.02087542 -0.008846636 0.018767089 0.030886065 -0.02675951 0.013639187 0.031625353
-0.022683045 -0.03151802 -0.024052583 -0.010342507 -0.024537232 0.014682498 0.005627663 -0.010167261
0.009443605 0.047201473 -0.017296955 0.012065757 -0.014005813 0.02743193 -0.010440562 0.013831451
0.036881424 0.023812069 -0.0045409813 0.016255742 0.021234322 -0.021160187 0.018848423 -0.010339227
-0.0044507226 -0.011630841 -0.04166894 0.023814917 -0.006693544 -0.041105624 -0.03535585 0.0064818417
0.005606999 -0.010173753 -0.0134521695 -0.021681026 0.01896969 -0.003203867 -0.026454836 0.031179212
-0.00993257 -0.051476676 0.023765054 -0.02897952 0.03394047 -0.025288327 0.016898362 -0.02468635
0.042311635 0.019033449 0.020341218 -0.017364325 0.033187672 -0.017282074 -0.020815639 -0.019436646
0.019851943 -0.026582714 -0.028093792 0.041642353 -0.020914882 0.005229837 -0.024604838 -0.013740226
-0.0067720483 -0.0054949205 -0.026006205 -0.03401881 -0.022379946 0.010888778 0.041967537 0.034425773
-0.0024986835 -0.005546716 -0.013815072 -0.038719602 0.015834225 -0.01553109 0.039805636 0.0005005959
0.00846198 -0.008723309 -0.036974106 0.032182917 0.016054919 0.024460196 -0.038250513 -0.02672243
0.007648815 0.037695542 0.028619496 0.01567434 0.017632298 -0.013160563 0.010374578 -0.03560492
-0.0004782584 -0.03898255 0.023514088 -0.044142812 0.054645948 0.047821615 0.042213645 -0.015429321
-0.0561603 -0.03114534 0.03716112 -0.0062616123 -0.0046986355 0.03436649 0.00522865 0.023540286
0.0070793335 0.014169638 0.027211182 -0.010023584 -0.0153596895 0.028788578 -0.0011754759 -0.028141707
-0.006152548 -0.024360094 0.023178905 -0.012203886 0.012260174 0.01701604 0.040332437 0.010566182
0.035986707 0.02555285 0.033224016 -0.019928746 0.037873745 -0.020181132 0.020851228 -0.013724738
0.033265855 0.0084123 -0.02230969 -0.017951414 -0.03828433 -0.012431943 -0.022025313 -0.038048293
-0.027976664 0.018425556 -0.021969091 -0.01785672 0.042762857 0.036388107 -0.016026026 0.0018302737
0.04262964 -0.039906792 -0.016108723 -0.019598123 -0.019227592 0.009637397 0.02758159 -0.04104854
0.007482477 -0.010290677 0.020278614 0.031377517 -0.011758681 -0.0005052349 0.023148326 0.007667231
0.007591611 -0.029489752 0.03415063 -0.024600945 0.025767751 0.00905076 -0.025679015 0.022843428
0.024823701 0.027194148 -0.005737091 0.03322538 0.019657083 0.014137389 0.02460386 -0.012664087
0.0004524611 0.03494344 0.04148889 0.03457536 0.025917899 -0.03413344 0.012869255 -0.019452969
-0.011279314 0.02944099 0.021431873 0.0041216603 -0.006621609 0.0076899524 0.0060114665 -0.04515585
-0.019010132 -0.0008502487 0.0009081127 0.009517811 0.019864673 0.010988532 -0.04443273 0.015373075
0.023017691 0.013912455 -0.019338125 -0.016683843 -0.044805225 -0.008941776 0.052738965 0.033829615
-0.0115721 0.019018179 -0.0127282 -0.004910993 -0.026831366 -0.031171365 0.048161417 0.03371696
00000000: 8935 123d 7153 233d 8deb a23c 4af3 223d
00000010: 3dfd 0e3d 55d6 eabb 7621 96bc eb33 b8bc
00000020: f65d 1e3c 76fc 08bc 4fae 2bbc e3dd 313b
00000030: 63ca 063d 7337 4d3c bc13 25bb 75a1 e7bc
00000040: e762 d7bc 4cdd a4bb 7819 173d 9812 133d
00000050: 0354 433b bd26 c5ba 772f 73bb 9434 babc
00000060: c951 f6bb ee02 ab3c 7bf1 10bc 70bd 993c
00000070: c604 fd3c c336 dbbc e676 5f3c 9689 013d
00000080: cbd1 b9bc 0a19 01bd ec09 c5bc 9e73 29bc
00000090: 4e02 c9bc dc8e 703c 4268 b83b 9594 26bc
000000a0: 5ab9 1a3c 5556 413d 58b2 8dbc 74af 453c
000000b0: a378 65bc edb8 e03c e40e 2bbc 4f9d 623c
000000c0: fa10 173d 8711 c33c 83cc 94bb c32a 853c
000000d0: 9af3 ad3c 2158 adbc 0268 9a3c dc65 29bc
000000e0: 5ed7 91bb 488f 3ebc 0dad 2abd 8017 c33c
000000f0: 8455 dbbb 5f5e 28bd 4cd1 10bd a165 d43b
00000100: ebba b73b d0af 26bc 7d66 5cbc 689c b1bc
00000110: 5366 9b3c f8f7 51bb d0b7 d8bc 8c6b ff3c
00000120: 38bc 22bc 35d9 52bd eeae c23c 7566 edbc
00000130: 2a05 0b3d 7729 cfbc 6f6e 8a3c 073b cabc
00000140: f74e 2d3d 09ec 9b3c a0a2 a63c a13f 8ebc
00000150: ccef 073d 2393 8dbc 8f85 aabc 9a39 9fbc
00000160: 8ba0 a23c fec3 d9bc f424 e6bc 2c91 2a3d
00000170: b055 abbc 0d5f ab3b 1690 c9bc af1e 61bc
00000180: 0fe8 ddbb bc0e b4bb f70a d5bc 4f57 0bbd
00000190: 2656 b7bc d866 323c 27e6 2b3d 0a02 0d3d
000001a0: f4c0 23bb 3ac1 b5bb 9d58 62bc 7298 1ebd
000001b0: c7b6 813c 1d76 7ebc 3c0b 233d 6c3a 033a
000001c0: 1ea4 0a3c 36ec 0ebc 2972 17bd 3cd2 033d
000001d0: 9b85 833c c060 c83c 92ac 1cbd ffe8 dabc
000001e0: e9a2 fa3b a466 1a3d 6f73 ea3c 7967 803c
000001f0: 9c71 903c 679f 57bc 22fa 293c 77d6 11bd
00000200: c1be fab9 2bac 1fbd 9ea0 c03c 18cf 34bd
00000210: 6ed4 5f3d 99e0 433d 37e8 2c3d 43cb 7cbc
00000220: 5808 66bd 8324 ffbc 4236 183d 362e cdbb
00000230: 03f7 99bb e0c3 0c3d 1855 ab3b 8fd7 c03c
00000240: c1f9 e73b c527 683c fce9 de3c f539 24bc
00000250: 35a7 7bbc 06d6 eb3c 6d12 9aba 7089 e6bc
00000260: 509b c9bb d28e c7bc b0e1 bd3c cff2 47bc
00000270: e6de 483c 3965 8b3c a033 253d c81d 2d3c
00000280: cc66 133d 3654 d13c e815 083d 9c41 a3bc
00000290: 8021 1b3d e752 a5bc 32d0 aa3c b9dd 60bc
000002a0: c741 083d bed3 093c d0c2 b6bc d80e 93bc
000002b0: 08d0 1cbd 59af 4bbc 6e6e b4bc 87d8 1bbd
000002c0: 512f e5bc 31f1 963c 86f8 b3bc 4248 92bc
000002d0: 1b28 2f3d b20b 153d 0349 83bc cbe5 ef3a
000002e0: 6b9c 2e3d 4e75 23bd 71f6 83bc 3e8c a0bc
000002f0: 2f83 9dbc 2ce6 1d3c c9f2 e13c 8422 28bd
00000300: 912f f53b 3a9a 28bc 561f a63c b685 003d
00000310: 7ca7 40bc bd71 04ba 8fa1 bd3c 653d fb3b
00000320: 0cc3 f83b 7e94 f1bc 88e1 0b3d ec87 c9bc
00000330: e416 d33c a449 143c cc5c d2bc 2422 bb3c
00000340: 135b cb3c 43c6 de3c 35fe bbbb 5617 083d
00000350: e407 a13c 82a0 673c 098e c93c 087d 4fbc
00000360: 4d38 ed39 da20 0f3d 41f0 293d e59e 0d3d
00000370: c651 d43c 82cf 0bbd 91d9 523c d55b 9fbc
00000380: dfcc 38bc 3b2e f13c e591 af3c fe0e 873b
00000390: 15fa d8bb fffb fb3b d6fb c43b 57f5 38bd
000003a0: 23bb 9bbc 39e3 5eba 690e 6e3a 98f0 1b3c
000003b0: 3dbb a23c 3e09 343c 18ff 35bd 5adf 7b3c
000003c0: 998f bc3c 11f1 633c fd6a 9ebc 8eac 88bc
000003d0: af85 37bd 8780 12bc d004 583d ec90 0a3d
000003e0: e898 3dbc 03cc 9b3c f189 50bc 65ec a0bb
000003f0: 74cd dbbc 175b ffbc e844 453d cc1a 0a3d

fc1.bias f4 [120]
0.048056386 0.045943372 0.123631924 0.054962855 0.034397367 0.049033377 0.037177328 0.09735911
0.01209705 -0.0027800747 0.00949984 -0.010024724 -0.04642939 0.04215451 0.07245608 0.037472926
-0.018383631 0.0267841 0.032395102 0.021240441 0.099782676 -0.022589823 -0.006318619 0.016093856
0.06952104 0.0042178347 0.028842203 0.06909007 0.070931174 -0.007533455 0.096173994 0.0057111625
0.052294157 -0.04011873 -0.03444804 0.020510854 0.025536964 0.05828447 -0.0073480187 0.0058719246
0.056410883 0.024769228 -0.031393196 0.04470984 0.018663729 0.030836519 0.07322355 0.08180664
0.047574457 0.0061537703 0.09611048 0.05827881 0.033213124 0.06707441 0.050153945 0.0032654533
-0.013851952 0.04904034 0.052920796 -0.006161875 0.056834422 -0.022405919 0.03092621 -0.029086238
0.121622026 0.089343034 -0.0112426095 0.016924718 -0.0025842122 0.0036135644 -0.018250998 0.08702655
0.060102765 -0.012675996 0.09426266 0.001168125 0.07155757 0.054447174 0.069583 0.02088329
0.016161973 -0.04140181 0.078349784 0.0419464 0.03277374 0.04508125 0.12050367 -0.016412564
0.027795581 0.026371395 0.023757095 0.08674168 0.02801226 0.024705717 -0.00570728 0.098531
0.05337535 -0.0051316987 -0.012282931 0.0641308 0.019969173 -0.04444418 0.13117898 0.011054919
0.0636287 -0.029912105 0.041660264 0.087540165 0.058087066 0.054216474 0.049119778 0.029337144
0.009139236 0.035286583 0.03490921 0.07509729 0.00768189 0.07342845 0.03362544 0.022657521
00000000: c6d6 443d 1e2f 3c3d bc32 fd3d bb20 613d
00000010: 41e4 0c3d 39d7 483d 4147 183d 3764 c73d
00000020: b532 463c ea31 36bb 38a5 1b3c bd3e 24bc
00000030: be2c 3ebd 35aa 2c3d da63 943d 367d 193d
00000040: 4599 96bc 546a db3c bab0 043d 6f00 ae3c
00000050: dc5a cc3d 4b0e b9bc 6b0c cfbb 43d7 833c
00000060: 0c61 8e3d c335 8a3b 7c46 ec3c 187f 8d3d
00000070: 5d44 913d 33db f6bb dff6 c43d b424 bb3b
00000080: 6632 563d 8a53 24bd 6319 0dbd 6106 a83c
00000090: e532 d13c b2bb 6e3d a6c7 f0bb 4669 c03b
000000a0: 190f 673d d6e8 ca3c 2796 00bd aa21 373d
000000b0: ade4 983c de9c fc3c 3bf6 953d 3d8a a73d
000000c0: 6fdd 423d 91a5 c93b 92d5 c43d c3b5 6e3d
000000d0: 7c0a 083d 4f5e 893d 396e 4d3d 3701 563b
000000e0: 4cf3 62bc 86de 483d 7ac3 583d 8ee9 c9bb
000000f0: 36cb 683d 9e8c b7bc f758 fd3c 4346 eebc
00000100: f814 f93d 7bf9 b63d ec32 38bc b5a5 8a3c
00000110: e35b 29bb 8dd1 6c3b 1e83 95bc fa3a b23d
00000120: 512e 763d fbae 4fbc c80c c13d c51b 993a
00000130: c68c 923d 0004 5f3d 8881 8e3d 6f13 ab3c
00000140: 1d66 843c f294 29bd da75 a03d fdcf 2b3d
00000150: c23d 063d 1ea7 383d a1ca f63d a473 86bc
00000160: 8fb3 e33c d308 d83c 3d9e c23c 9fa5 b13d
00000170: f879 e53c a563 ca3c 2204 bbbb 9fca c93d
00000180: 1ca0 5a3d cf27 a8bb 593e 49bc 0257 833d
00000190: 6496 a33c 1a0b 36bd c853 063e b11f 353c
000001a0: c44f 823d 3b0a f5bc f4a3 2a3d 4248 b33d
000001b0: b4ec 6d3d 1812 5e3d d231 493d 7354 f03c
000001c0: bcbc 153c aa88 103d f6fc 0e3d 9ccc 993d
000001d0: 5db8 fb3b a861 963d d4ba 093d 449c b93c

fc2.weight f4 [84, 120]
-0.037692357 -0.03345635 0.06420993 0.0040662843 0.07315462 0.022520926 0.059390374 -0.039043088
0.076432265 0.093674 -0.002580271 0.056945194 0.068912074 0.08192753 -0.068391204 0.03296851
0.03823828 0.078522645 0.015726704 0.08813218 -0.009464801 0.014552962 0.05279771 -0.016001344
0.07327812 0.10556707 -0.032574046 0.08169064 0.08074204 0.06576924 0.07676615 -0.022235049
0.027724901 0.025893722 0.05184136 0.02240748 0.09249126 0.05826869 -0.0806053 -0.07846387
-0.006517968 -0.045123994 -0.081184864 -0.073365055 -0.017982956 -0.049797624 -0.03101295 -0.0764143
-0.018092142 0.024780784 -0.10994397 0.012373783 0.10408405 0.013108763 -0.075032674 -0.03083772
-0.0680668 -0.012681719 0.018580236 0.08357024 0.09043944 -0.005365458 0.046400886 0.018642949
0.08657106 -0.040812425 -0.057338703 -0.06272059 -0.014730296 0.081060134 -0.034974217 -0.006327302
0.0021107849 -0.026996966 0.04272197 -0.079527736 0.04221012 0.08772899 -0.027928377 -0.014531709
0.07044497 0.11003291 -0.07132226 0.015115325 0.025128746 0.09634302 -0.03403729 -0.024078755
0.009588324 -0.033043243 0.010158626 0.0007993258 0.06678631 0.07060151 0.02442728 0.074941985
0.046562575 -0.058705475 -0.039455973 -0.061407242 -0.009288235 0.035768587 -0.048644777 0.02919996
0.024141382 0.073648036 0.07745686 -0.048274297 0.020477239 0.04560959 0.08974953 -0.08738127
-0.014114581 0.018310087 -0.023165101 -0.038917568 -0.047944903 0.07173445 0.0064222217 -0.0052369493
-0.07878413 -0.041878995 -0.08329496 0.030014284 0.037253372 -0.044006363 -0.09369372 -0.012602202
-0.018657831 0.088292226 -0.0656587 0.06598259 0.058767013 0.044310685 0.07376539 0.06845668
-0.07370628 0.09042649 -0.009870171 0.012332805 -0.07374668 -0.081524834 0.07764484 -0.08317114
-0.08249824 -0.06606106 -0.04823844 0.08130983 0.023641584 0.068283215 -0.07263331 0.062360596
0.02349806 -0.07498749 0.004852226 -0.008493104 -0.009354572 -0.08702012 0.058271285 0.027461672
0.0051972806 -0.07335988 0.07876356 0.019437904 0.0028039396 0.08582038 0.010409831 -0.10002088
0.07396834 0.0946482 -0.02444527 0.052900005 0.042274363 0.053501762 -0.09658185 0.015824873
0.072712936 -0.047919363 -0.00609208 -0.054886546 0.047733475 0.073926225 0.053252857 -0.055404425
0.017730251 0.06979603 -0.10658564 0.0779917 0.040052246 -0.07893321 0.008183439 -0.10124072
-0.012547109 0.04664679 0.0499418 0.070463635 0.07027618 0.0028020374 -0.060152113 -0.054568794
-0.05395682 0.05599841 0.0529577 -0.03563115 0.018351898 0.061236665 0.090413064 -0.04110876
-0.072094485 -0.076784894 0.059695035 -0.05991562 0.08602695 -0.025331864 -0.050796457 0.092289895
0.009995133 -0.06597796 -0.04124433 -0.053285398 0.088635765 -0.07014922 -0.027895285 -0.0037295748
-0.06970427 0.08898429 -0.055417232 -0.011501572 0.011533016 0.012926619 0.0030640452 -0.005799155
0.089359224 0.04809578 0.048084628 -0.08477481 0.017349 -0.0848588 -0.07492281 -0.0112612145
-0.072951816 -0.008201418 -0.055372477 -0.06155734 -0.029550068 0.01791101 0.06671975 0.036087576
0.07167213 -0.06900421 -0.012561622 0.07014873 0.082939684 -0.068161435 0.07603795 0.0034304918
00000000: 4d63 1abd 8709 09bd 7f80 833d 773e 853b
00000010: 17d2 953d ce7d b83c 5243 733d a5eb 1fbd
00000020: 8588 9c3d 27d8 bf3d c419 29bb 5d3f 693d
00000030: c621 8d3d 9fc9 a73d b010 8cbd fd09 073d
00000040: be9f 1c3d 7bd0 a03d 4ad5 803c a57e b43d
00000050: 4112 1bbc 8c6f 6e3c 6942 583d 4015 83bc
00000060: d712 963d 8c33 d83d 5d6c 05bd 6c4d a73d
00000070: 155c a53d 06b2 863d 9237 9d3d 4726 b6bc
00000080: 551f e33c 121f d43c 9b57 543d e48f b73c
00000090: 0f6c bd3d 26ab 6e3d 6414 a5bd aab1 a0bd
000000a0: ae94 d5bb f0d3 38bd 4044 a6bd 6b40 96bd
000000b0: fe50 93bc 98f8 4bbd df0e febc 1a7f 9cbd
000000c0: f935 94bc 1201 cb3c 4e2a e1bd 68bb 4a3c
000000d0: 052a d53d 23c6 563c bbaa 99bd 639f fcbc
000000e0: 9b66 8bbd fcc6 4fbc 9435 983c e026 ab3d
000000f0: 5038 b93d b9d0 afbb db0e 3e3d 19b9 983c
00000100: 2b4c b13d ee2a 27bd fddb 6abd a773 80bd
00000110: 5757 71bc db02 a63d 2041 0fbd 4255 cfbb
00000120: 1855 0a3b be28 ddbc 3bfd 2e3d 70df a2bd
00000130: 85e4 2c3d 42ab b33d 0dca e4bc 6816 6ebc
00000140: 7445 903d ef58 e13d 6811 92bd 45a6 773c
00000150: cdda cd3c 7d4f c53d af6a 0bbd cf40 c5bc
00000160: 5918 1d3c 5a58 07bd 5e70 263c d989 513a
00000170: 43c7 883d 8697 903d b81b c83c 2f7b 993d
00000180: 66b8 3e3d 2775 70bd 969c 21bd 2986 7bbd
00000190: ae2d 18bc 1582 123d bf3f 47bd c134 ef3c
000001a0: 26c4 c53c c8d4 963d b4a1 9e3d 45bb 45bd
000001b0: e2bf a73c 1fd1 3a3d 9ace b73d f4f4 b2bd
000001c0: d840 67bc 09ff 953c bdc4 bdbc 0768 1fbd
000001d0: e061 44bd 83e9 923d 8071 d23b b79a abbb
000001e0: 9359 a1bd 4f89 2bbd 8c96 aabd 84e0 f53c
000001f0: fe96 183d 0440 34bd 7ee2 bfbd 7779 4ebc
00000200: 4fd8 98bc 8ed2 b43d 1278 86bd e121 873d
00000210: aeb5 703d 1f7f 353d 4f12 973d 0433 8c3d
00000220: 51f3 96bd 8631 b93d 7fb6 21bc 890f 4a3c
00000230: 8008 97bd 7ef6 a6bd 4204 9f3d a155 aabd
00000240: d6f4 a8bd 054b 87bd ac95 45bd c585 a63d
00000250: ffab c13c 12d8 8b3d c6c0 94bd d36d 7f3d
00000260: 017f c03c 0b93 99bd 6cff 9e3b a926 0bbc
00000270: eb43 19bc 9b37 b2bd dfad 6e3d 4df7 e03c
00000280: f34d aa3b b43d 96bd ca4e a13d 3d3c 9f3c
00000290: 4dc2 373b 98c2 af3d ff8d 2a3c bfd7 ccbd
000002a0: b77c 973d ead6 c13d 7241 c8bc adad 583d
000002b0: e227 2d3d aa24 5b3d b4cc c5bd 2aa3 813c
000002c0: 85ea 943d 1847 44bd 12a0 c7bb b7d0 60bd
000002d0: 2d84 433d a266 973d ab1f 5a3d c0ef 62bd
000002e0: 083f 913c 39f1 8e3d 9249 dabd 1dba 9f3d
000002f0: d30d 243d bca7 a1bd d513 063c 4b57 cfbd
00000300: 6492 4dbc b410 3f3d c68f 4c3d 3d4f 903d
00000310: f5ec 8f3d 63a2 373b 1062 76bd 8783 5fbd
00000320: d401 5dbd 975e 653d 2cea 583d f8f1 11bd
00000330: b856 963c 4cd3 7a3d 7c2a b93d a961 28bd
00000340: 46a6 93bd 6641 9dbd c882 743d 156a 75bd
00000350: e62e b03d c584 cfbc f20f 50bd 7c02 bd3d
00000360: a0c2 233c 741f 87bd d1ef 28bd ca41 5abd
00000370: ab86 b53d 65aa 8fbd a784 e4bc e26b 74bb
00000380: 1dc1 8ebd 653d b63d 2efd 62bd 1771 3cbc
00000390: faf4 3c3c 2bca 533c 26ce 483b d706 bebb
000003a0: f801 b73d 1500 453d 63f4 443d 6a9e adbd
000003b0: 7d1f 8e3c 73ca adbd 2171 99bd f580 38bc
000003c0: c367 95bd 3e5f 06bc 40ce 62bd 8d23 7cbd
000003d0: fc12 f2bc 1cba 923c 5da4 883d 91d0 133d
000003e0: d6c8 923d 1452 8dbd 43cf 4dbc 23aa 8f3d
000003f0: 48dc a93d 3998 8bbd c9b9 9b3d 1ad2 603b

fc2.bias f4 [84]
0.005956438 -0.025652496 0.11696836 0.119989894 0.024357254 0.09369376 0.004813692 -0.025074525
-0.039409168 0.08678301 0.07233346 0.020674417 0.12143701 0.13147077 0.18804856 0.12240413
-0.08670786 0.110608526 0.19076945 0.09014161 0.12982747 -0.032997955 0.06035119 0.19054066
0.15983717 0.15711235 -0.014974271 0.04301006 -0.017616339 -0.023920398 -0.024645766 0.12507114
0.0013612984 0.11670055 0.15778737 -0.02989873 0.099004745 0.069910094 -0.00212536 0.051384665
0.10103597 0.12838125 0.050957173 0.07627333 0.007788579 0.01302797 0.0035973513 0.06192497
0.026967127 -0.04118047 0.09589422 -0.09134155 0.03805497 -0.05310996 0.0785078 -0.037662018
0.13748914 -0.07772995 0.104348995 0.19300991 0.030532615 0.003824317 0.045740873 0.028523456
0.032728955 -0.11505731 -0.06373673 0.12584284 -0.095009 -0.038885918 -0.034487642 0.08316187
0.062184464 0.06254382 0.14093673 0.0043773917 0.03514149 -0.04884512 0.14910848 0.1571069
-0.033293054 0.06994242 -0.0014506149 0.13055907
00000000: 392e c33b 2f25 d2bc 1c8d ef3d 43bd f53d
00000010: dd88 c73c 84e2 bf3d 2dbc 9d3b 1769 cdbc
00000020: 826b 21bd 4abb b13d 9123 943d 655d a93c
00000030: f8b3 f83d 46a0 063e cd8f 403e 04af fa3d
00000040: e493 b1bd b986 e23d 1159 433e 2a9c b83d
00000050: 7ef1 043e dd28 07bd cf32 773d 171d 433e
00000060: 5bac 233e 0fe2 203e a556 75bc 512b 303d
00000070: 2450 90bc b6f4 c3bc ebe5 c9bc a612 003e
00000080: 986d b23a b300 ef3d 0393 213e 2eee f4bc
00000090: 00c3 ca3d 062d 8f3d a049 0bbb ba78 523d
000000a0: f2eb ce3d 6076 033e 78b8 503d 3135 9c3d
000000b0: 5637 ff3b 4473 553c 8ac1 6b3b 0aa5 7d3d
000000c0: 2aea dc3c daac 28bd 3064 c43d 4711 bbbd
000000d0: 87df 1b3d d489 59bd b3c8 a03d 7d43 1abd
000000e0: f4c9 0c3e e130 9fbd edb4 d53d 64a4 453e
000000f0: 891f fa3c 64a1 7a3b c85a 3b3d 06aa e93c
00000100: cc0e 063d 2ba3 ebbd 6788 82bd f2dc 003e
00000110: 1494 c2bd d746 1fbd ea42 0dbd c550 aa3d
00000120: 23b5 7e3d f916 803d b851 103e 3970 8f3b
00000130: 86f0 0f3d d211 48bd e5af 183e a2e0 203e
00000140: 4c5e 08bd f93d 8f3d 8f22 beba 47b1 053e

fc3.weight f4 [2, 84]
0.08016213 -0.06770351 0.10687846 -0.23864035 0.16313855 -0.06576969 -0.06059258 -0.0794349
-0.07225493 -0.2336567 0.21042955 0.09499732 -0.22763412 -0.22205321 -0.30498573 0.25913927
0.01080513 0.1214481 -0.2204222 0.087110184 0.44842 -0.07070807 0.17261854 -0.29806584
-0.02390106 0.15784849 0.11400547 0.011772352 0.09292691 0.19730365 0.00048320112 0.33071226
0.031194856 -0.31404492 0.073554724 0.026204588 0.078677855 0.35503533 0.13101563 -0.29385522
-0.1302192 -0.1057906 -0.148491 -0.23537427 0.021518162 -0.17080331 -0.084326126 0.07947833
-0.2552665 -0.020598996 -0.015243116 0.12188249 -0.018428002 -0.0037332193 -0.33995155 0.08019024
0.08612268 0.10331859 -0.3464457 0.3609007 -0.0055842493 -0.106526025 0.31963485 0.26949146
-0.037448145 -0.15181875 0.05788304 -0.04299893 -0.07380184 0.030987326 0.07075125 -0.042372145
0.25768808 0.09220488 -0.20031023 0.04598992 -0.10846094 0.111522675 -0.40753344 -0.3109438
0.117252044 -0.09583328 -0.040609114 0.050234713 0.21205075 0.21385022 -0.054613482 -0.082787275
-0.10079326 -0.28114676 -0.004386199 0.109139316 -0.0068112235 0.019166227 0.32055196 0.3192429
0.14603557 0.15378524 0.2016384 -0.14036338 0.02793566 0.15705514 -0.42000225 -0.08771236
0.11786976 -0.0012230973 -0.2500639 0.23160008 -0.3249876 0.37254092 0.07422418 -0.21387902
-0.07963666 -0.07981422 0.052638307 -0.21592826 0.06943725 0.18197237 0.34182215 0.0504158
-0.123334974 -0.010101757 -0.10300659 -0.016021874 -0.2186506 0.37901315 0.0022840134 0.03801058
0.03791174 -0.08693196 -0.08268809 -0.09033402 -0.034151725 -0.08981508 -0.22048487 0.049268294
0.13526428 0.13148205 -0.07446587 0.089568965 -0.30388716 -0.10852939 0.01194608 -0.38683873
-0.033865023 0.09071185 0.2886017 -0.21462795 0.09628733 0.078126036 -0.040234644 0.23526207
0.094046645 -0.10608535 0.08680426 -0.121361874 0.012685253 -0.21528707 -0.18019181 -0.10144775
0.01578257 -0.027760884 -0.10912276 -0.115587234 -0.1157397 0.20955487 -0.21188007 0.19145906
00000000: 0b2c a43d 23a8 8abd 18e3 da3d 235e 74be
00000010: cb0d 273e 42b2 86bd ed2f 78bd c4ae a2bd
00000020: 65fa 93bd b443 6fbe d87a 573e f48d c23d
00000030: eb18 69be eb61 63be 1727 9cbe e7ad 843e
00000040: 0008 313c c8b9 f83d 5bb6 61be d366 b23d
00000050: 4e97 e53e 65cf 90bd eac2 303e 169c 98be
00000060: 28cc c3bc 09a3 213e b37b e93d d3e0 403c
00000070: 7750 be3d f809 4a3e 2856 fd39 1e53 a93e
00000080: 5b8c ff3c 7fca a0be dca3 963d 01ab d63c
00000090: db21 a13d 31c7 b53e f628 063e 3174 96be
000000a0: 2f58 05be bea8 d8bd 060e 18be f405 71be
000000b0: db46 b03c 10e7 2ebe 2db3 acbd 89c5 a23d
000000c0: 4ab2 82be 3abf a8bc 43be 79bc 879d f93d
000000d0: 52f6 96bc 07a9 74bb 210e aebe c83a a43d
000000e0: 1661 b03d b298 d33d 5561 b1be fac7 b83e
000000f0: 14fc b6bb 512a dabd 2ea7 a33e c9fa 893e
00000100: 3a63 19bd 6076 1bbe c416 6d3d a51f 30bd
00000110: 6b25 97bd 22d9 fd3c 08e6 903d 6a8e 2dbd
00000120: b1ef 833e ead5 bc3d 201e 4dbe ed5f 3c3d
00000130: c520 debd 0066 e43d 39a8 d0be 0734 9fbe
00000140: d721 f03d 3d44 c4bd be55 26bd eac2 4d3d
00000150: d523 593e 8dfb 5a3e 63b2 5fbd 608c a9bd
00000160: b26c cebd 78f2 8fbe 1bba 8fbb 6f84 df3d
00000170: af30 dfbb 7e02 9d3c 631f a43e ce73 a33e
00000180: 598a 153e e179 1d3e 4c7a 4e3e 6bbb 0fbe
00000190: 53d9 e43c 10d3 203e 890a d7be 8aa2 b3bd
000001a0: b365 f13d 5650 a0ba 6008 80be 9228 6d3e
000001b0: c664 a6be afbd be3e d902 983d 1a03 5bbe
000001c0: 8c18 a3bd a375 a3bd 449b 573d 4c1c 5dbe
000001d0: 1e35 8e3d f756 3a3e 5003 af3e cc80 4e3d
000001e0: 0c97 fcbd d781 25bc 1ef5 d2bd 4e40 83bc
000001f0: f1e5 5fbe 030e c23e 63af 153b fbb0 1b3d
00000200: 5749 1b3d 6209 b2bd 6058 a9bd 0b01 b9bd
00000210: aee2 0bbd f8f0 b7bd c9c6 61be 8dcd 493d
00000220: b882 0a3e 3ba3 063e 9081 98bd ef6f b73d
00000230: 1997 9bbe a844 debd 7eb9 433c ba0f c6be
00000240: 0db6 0abd 22c7 b93d 9ac3 933e 6ec7 5bbe
00000250: 4b32 c53d 8b00 a03d 15cd 24bd 8ae8 703e
00000260: 879b c03d 4743 d9bd 6fc6 b13d 938c f8bd
00000270: cfd5 4f3c 3774 5cbe 3484 38be d7c3 cfbd
00000280: 734a 813c cb6a e3bc c17b dfbd 00b9 ecbd
00000290: f008 edbd 8d95 563e 17f7 58be d80d 443e

fc3.bias f4 [2]
0.08792494 0.1359265
00000000: fe11 b43d 5130 0b3e
