src/models/dart-ish.onnx (onnx, 336968 bytes, 10 tensors)

conv1.weight f4 [6, 5, 5, 5]
0	0x3dfde147	0.12396484
1	0x3c14b09a	0.009075308
2	0x3b2d3a2d	0.002643238
3	0x3ce83ffd	0.028350824
4	0x3e09f10f	0.13470863
5	0x3c1ff515	0.009763022
6	0x3da91821	0.08256555
7	0x3de91b3d	0.113821484
8	0x3d32c19a	0.043641664
9	0x3d912e88	0.07088953
10	0x3dd6fd3c	0.104975194
11	0x3dcdbf00	0.10046196
12	0x3e325649	0.17415728
13	0x3d897cec	0.0671328
14	0x3e26c17e	0.16284749
15	0x3e145c21	0.1448827
16	0x3d8d34e7	0.06894856
17	0x3d034860	0.032051444
18	0x3e3867e2	0.18008378
19	0x3d55d2e9	0.052203093
20	0x3e07113b	0.13190167
21	0x3c2af030	0.010433242
22	0x3c0e5352	0.008686857
23	0x3dce14f8	0.10062593
24	0x3df8e899	0.121537395
25	0xbcf38b39	-0.029729472
26	0x3ddd427d	0.10803697
27	0x3d658370	0.05603355
28	0x3d5c9913	0.05385692
29	0x3d5f16f8	0.054465264
30	0x3d7fc3f5	0.06244274
31	0x3de414f1	0.11136807
32	0x3ced8e5f	0.028998552
33	0x3d6c2a8b	0.05765776
34	0x3dcc8e0b	0.0998803
35	0x3e0f4562	0.13991311
36	0x3dc2ef64	0.095183164
37	0x3e1eef94	0.1552108
38	0x3e0b6f16	0.13616595
39	0x3c18d474	0.0093279965
40	0x3e02a825	0.12759455
41	0x3e46f397	0.1942886
42	0x3e3e6520	0.18593264
43	0x3e056648	0.13027298
44	0x3e080e76	0.13286766
45	0x3dd098e6	0.10185413
46	0x3d1b5b0e	0.037928633
47	0x3e048a7a	0.1294345
48	0x3ca0312c	0.019554697
49	0x3dadcdea	0.084865406
50	0x3ccb073b	0.024783721
51	0x3e0f64fa	0.14003363
52	0x3d80f7b5	0.06297246
53	0xbc167e51	-0.00918539
54	0x3d4b248d	0.049595404
55	0x3d8d783c	0.069076985
56	0x3e03b4c6	0.12861928
57	0x3e08cdc5	0.13359745
58	0x3de1dae0	0.11028075
59	0x3dfe9348	0.124304354
60	0x3e070aae	0.13187668
61	0x3e508513	0.20363264
62	0x3db0e1dc	0.08636829
63	0x3d8a130d	0.06741915
64	0x3e39176d	0.18075342
65	0x3dfe8f64	0.12429693
66	0x3d0184df	0.031620856
67	0x3dbd49b1	0.09242571
68	0x3e553623	0.20821433
69	0x3dcde339	0.10053105
70	0x3e1430ef	0.14471792
71	0x3d3c5b86	0.04598572
72	0x3e0a5a3c	0.13510984
73	0x3e24acfc	0.16081613
74	0x3df3a179	0.11896033
75	0x3dafe4c6	0.08588557
76	0x3d5ae7a9	0.053443585
77	0x3e24c005	0.16088875
78	0x3cf8c034	0.030365087
79	0x3d9f679f	0.07783436
80	0x3da1ff8d	0.079100706
81	0x3e2775b8	0.163535
82	0x3e445f70	0.19177032
83	0x3dcf1435	0.10111276
84	0x3d39eaed	0.04539006
85	0x3d73bf59	0.059508655
86	0x3d2ca03c	0.042145
87	0x3d75f3c9	0.060046945
88	0x3e46aeb6	0.19402584
89	0x3e16b251	0.1471646
90	0x3e3b626e	0.18299267
91	0x3db4ed90	0.08834374
92	0x3e4ba7a3	0.19888167
93	0x3db65a57	0.0890395
94	0x3e02e120	0.12781191
95	0x3cf3d22b	0.029763302
96	0x3da2012c	0.0791038
97	0x3e427037	0.18988119
98	0x3de01545	0.10941557
99	0x3d3a4cd5	0.04548343
100	0x3d693915	0.056939203
101	0x3e021350	0.1270268
102	0x3d17f868	0.037102133
103	0x3dfcff5b	0.12353393
104	0x3e1a9b5d	0.15098329
105	0x3dd731eb	0.10507568
106	0x3e12e3ce	0.14344713
107	0x3d814f9c	0.063140124
108	0x3df4b02c	0.119476646
109	0x3e20de2d	0.15709753
110	0x3e1ab943	0.15109734
111	0x3e5b90e1	0.21441986
112	0x3e533814	0.20626861
113	0x3db141db	0.08655139
114	0x3dca2e47	0.09872108
115	0x3d0a9059	0.033829067
116	0x3da538fb	0.08067509
117	0x3e438ed0	0.19097447
118	0x3e3986a6	0.1811777
119	0x3d5b5347	0.053546216
120	0xbb7dfcf1	-0.00387555
121	0x3e2fef9c	0.17181247
122	0x3e3de937	0.18545996
123	0x3d36a175	0.04458757
124	0x3d5116fc	0.05104731
125	0xbd0ac6af	-0.033880886
126	0x3b6779a9	0.0035320318
127	0x3db4c3f2	0.08826436
128	0x3db8205a	0.089905456
129	0x3c254557	0.010087333
130	0x3db63698	0.08897132
131	0x3caff645	0.021479735
132	0xbcb470bd	-0.022026414
133	0x3d52774e	0.05138331
134	0xbcf6f33f	-0.030145286
135	0xbcd19a88	-0.025586382
136	0x3ce29750	0.027660042
137	0x3d3e173e	0.046408884
138	0xbb4abc02	-0.0030934815
139	0xbb72e808	-0.003706457
140	0x3dd70ee7	0.10500889
141	0x3d7ef507	0.062245395
142	0x3dac6fbe	0.08419751
143	0x3d1b90a8	0.03797975
144	0xbcb34f98	-0.02188854
145	0x3c8891b3	0.016671037
146	0xbcae5b8f	-0.021283893
147	0x3d9ec9d9	0.07753343
148	0x3d44161b	0.047872644
149	0x3d5cb0a0	0.05387938
150	0xbc3d0c69	-0.011538603
151	0x3ddc712a	0.10763772
152	0x3ce9f201	0.02855778
153	0xbd5734b2	-0.05254049
154	0x3dd4fa2b	0.10399278
155	0x3d23be30	0.0399763
156	0xbd09fa33	-0.033685874
157	0x3ddf0ca8	0.10891086
158	0xbd254c73	-0.04035611
159	0x3c2ada13	0.0104279695
160	0x3dca9a7e	0.09892748
161	0xbc57c910	-0.013170496
162	0xbcae1600	-0.021250725
163	0x3ce27fca	0.027648825
164	0x3d6f64a2	0.05844558
165	0xbcd34078	-0.025787577
166	0xbd09ecbd	-0.033673037
167	0xbd546e49	-0.05186299
168	0xbcc4755c	-0.023981743
169	0x3d979468	0.07401353
170	0xbd76a493	-0.060215544
171	0xbd2504bd	-0.040287722
172	0x3c547cf0	0.012969241
173	0xbd84a618	-0.06476992
174	0x3da6231a	0.08112164
175	0xbc112b24	-0.008860383
176	0xbd4fcea6	-0.050734185
177	0x3dae3060	0.085053205
178	0x3d53bc40	0.0516932
179	0x3dcd999f	0.100390665
180	0x3dd0a3f4	0.101875216
181	0x3e04dd01	0.12974931
182	0x3cd67306	0.026177894
183	0xbd46da57	-0.04854807
184	0x3d9dcb2a	0.07704766
185	0x3dccd959	0.10002393
186	0xbd0c7171	-0.034287874
187	0xbcc7a7c4	-0.02437199
188	0xbc3cfdb9	-0.011535102
189	0xbd1c708d	-0.038193274
190	0xbbf82b5e	-0.007573529
191	0x3d18a1e0	0.03726375
192	0x3ddfb625	0.10923413
193	0xbc525fae	-0.012840195
194	0x3dca0195	0.09863583
195	0x3d72e1d1	0.059297387
196	0xbcbabce9	-0.022795158
197	0xbb10c0fc	-0.0022087684
198	0xbc614d7b	-0.013751383
199	0xbc730229	-0.014832058
200	0x3d8fb770	0.0701741
201	0x3ca57fed	0.020202601
202	0x3dc2adb9	0.09505791
203	0x3dbe26a8	0.09284717
204	0x3d6cf247	0.05784824
205	0x3d81d1c0	0.06338835
206	0x3e04cc59	0.12968577
207	0x3da15d73	0.07879152
208	0x3dbdf6b8	0.092755735
209	0xbd33cb47	-0.043895032
210	0x3d787af5	0.060664136
211	0x3dc2fd45	0.095209636
212	0x3d36fa7f	0.044672485
213	0x3d81380d	0.06309519
214	0x3d036bf1	0.032085363
215	0xbc06bc05	-0.008223538
216	0x3c1543ec	0.009110432
217	0x3ca69956	0.020336788
218	0xbcf0e03b	-0.029403796
219	0x3da036d3	0.07822957
220	0xbd40c52c	-0.047063038
221	0x3d7cef76	0.061751805
222	0x3c7d6e1d	0.015468148
223	0x3d1261ef	0.035737928
224	0xbd55e755	-0.05222257
225	0x3d970d42	0.073755756
226	0x3dea4a7e	0.114399895
227	0x3ddd92c5	0.1081901
228	0x3d9a72b0	0.07541406
229	0xbd431671	-0.047628824
230	0x3d531863	0.05153693
231	0x3ae4494c	0.0017416864
232	0x3e051783	0.1299725
233	0xbc2d7d97	-0.010589025
234	0xbbc2e52a	-0.0059477286
235	0xbcc26531	-0.023729892
236	0xbcd2ce9a	-0.02573328
237	0x3deee79d	0.116652705
238	0x3cedde0e	0.029036548
239	0x3d3bb0f0	0.045823038
240	0xbccd39e5	-0.02505202
241	0x3d79cd66	0.0609869
242	0x3d9ffb37	0.07811587
243	0x3d77849b	0.060429197
244	0xbc905c4c	-0.017622136
245	0x3cc503d0	0.02404967
246	0x3daa13ff	0.08304595
247	0x3d636206	0.055513404
248	0xbcd0ad5e	-0.025473293
249	0x3cc448d9	0.023960518
250	0x3d8d5f08	0.069028914
251	0xbd8a4c68	-0.067528546
252	0x3c190795	0.009340187
253	0xbbfd0aeb	-0.007722249
254	0xbd25a7d1	-0.040443245
255	0x3dbfce18	0.09365481

conv1.bias f4 [6]
0	0x3e0fb26e	0.1403291
1	0x3e35bc8e	0.17747709
2	0xbe4fa33b	-0.20277111
3	0xbdaeecf4	-0.08541289
4	0x3d69968b	0.057028335
5	0x3e642d1d	0.22282834

conv2.weight f4 [16, 6, 5, 5]
0	0xbd92d3be	-0.07169293
1	0xbd795ab2	-0.06087751
2	0xbd5a3ca1	-0.053280476
3	0xbd6b9126	-0.05751147
4	0x3d8b2994	0.0679504
5	0xbcb5d64d	-0.022196913
6	0xbd8f1dac	-0.06988081
7	0x3d5912c6	0.05299642
8	0x3da3e4ef	0.0800265
9	0xbd1764ff	-0.03696155
10	0xbcf490e2	-0.029854242
11	0xbd2631e2	-0.040574916
12	0xbd64f9c7	-0.05590227
13	0xbd5345b5	-0.05158015
14	0xbc272476	-0.010201564
15	0xbd44c527	-0.04803958
16	0xbd4d526c	-0.05012743
17	0xbd9a35c1	-0.07529784
18	0x3c5c83f9	0.013459199
19	0x3d9ad399	0.0755989
20	0xbc533ff4	-0.012893666
21	0xbc72e1fd	-0.014824388
22	0xbcddc9de	-0.027073797
23	0xbd9bb28a	-0.07602413
24	0xbccec567	-0.025240613
25	0xbd0c98db	-0.03432546
26	0xbd5e7562	-0.054311164
27	0xbb564be7	-0.003269905
28	0xbc27d177	-0.010242811
29	0x3d6ac0d8	0.057312816
30	0xbc9b4609	-0.018954294
31	0xbd103219	-0.035204027
32	0xbd548b62	-0.05189074
33	0x3d43fb0b	0.047846835
34	0xbc7fc9a7	-0.0156120425
35	0xbd35b50d	-0.044362117
36	0xbd9d88d4	-0.076921135
37	0x3a042afe	0.0005041807
38	0x3d328007	0.043579128
39	0xbd89fca6	-0.06737642
40	0xbd8dfc12	-0.06932844
41	0x3d31f686	0.043447994
42	0xbd4d9c54	-0.050197914
43	0x3cc2fda8	0.023802593
44	0xbd0862f4	-0.033297494
45	0xbd680f2a	-0.056655087
46	0xbd380ad2	-0.044932194
47	0xbc9c5599	-0.019083785
48	0x3d577542	0.05260206
49	0x3d696757	0.05698332
50	0xbd1d7332	-0.038439937
51	0xbc9e45f8	-0.019320473
52	0xbcc3e0c4	-0.023910888
53	0xbccdf059	-0.02513902
54	0x3d93e650	0.07221663
55	0xbd2a9106	-0.04164221
56	0x3da44524	0.08021
57	0xbd9c21a1	-0.07623602
58	0x3d6da17f	0.058015343
59	0xbd14bde4	-0.036313906
60	0xbcf58252	-0.029969368
61	0xbd7f831b	-0.06238089
62	0x3d633424	0.055469647
63	0xbd58e00e	-0.05294805
64	0x3cfa541f	0.03055769
65	0xbd09f60f	-0.033681925
66	0xba0018be	-0.00048864994
67	0x3d8c545a	0.06852026
68	0xbd06cf83	-0.032912742
69	0x3cb365db	0.021899154
70	0x3d423e40	0.047422647
71	0x3cedbf21	0.029021801
72	0xbd6efcbd	-0.0583465
73	0xbda06edf	-0.07833647
74	0xbd964442	-0.07337238
75	0x3d89588b	0.06706341
76	0xbd822703	-0.06355097
77	0xbc142e47	-0.0090442365
78	0xbd9d6998	-0.07686156
79	0x3d1ef080	0.038803577
80	0x3d9810a5	0.0742505
81	0x3bad5166	0.0052892445
82	0xbc80ad00	-0.015707493
83	0xbcea2265	-0.028580854
84	0xbd843f47	-0.06457382
85	0x3d8f1aea	0.06987555
86	0xbd1a232e	-0.037631206
87	0x3d416dec	0.04722397
88	0x3d46a991	0.048501555
89	0x3d274bbb	0.040843707
90	0x3d4e3cfc	0.050351128
91	0xbd954f64	-0.07290533
92	0x3cf4e10f	0.029892473
93	0xbb1afb6a	-0.002364839
94	0x3cc24028	0.023712233
95	0xbc9b9a96	-0.01899461
96	0xbc02db17	-0.007986805
97	0x3da72806	0.08161931
98	0x3d63a4db	0.05557714
99	0x3d0fe3c2	0.035129316
100	0xbc8d9426	-0.017282557
101	0xbd03efc4	-0.03221108
102	0xbc1000f6	-0.008789292
103	0x3c8148ed	0.015781844
104	0x3c6d20a3	0.014473113
105	0x3cd737ce	0.026271727
106	0xbc920345	-0.017823825
107	0xbd5ea549	-0.054356847
108	0xbd6ed59a	-0.058309175
109	0x3d009b52	0.031398125
110	0x3d5d3fbd	0.054015864
111	0x3c832713	0.016009843
112	0x3d842e72	0.06454171
113	0x3d7061bc	0.058686957
114	0x3d1b8f43	0.037978422
115	0xbc36aa4a	-0.0111489985
116	0x3cc98619	0.024600076
117	0x3d5179ee	0.05114167
118	0xbd8b2460	-0.06794047
119	0x3d0ec573	0.03485627
120	0xbcf63a82	-0.030057196
121	0x3d9b0886	0.07569985
122	0xbbe61fdf	-0.0070228423
123	0xbda6355c	-0.08115646
124	0xbd184743	-0.037177335
125	0xbc3ac298	-0.011398934
126	0xbd8c81dc	-0.06860706
127	0x3d5288a1	0.05139983
128	0xbcbdfdba	-0.023192275
129	0xbcc035be	-0.023463126
130	0x3b277d47	0.002555685
131	0xbd235deb	-0.03988449
132	0x3d869094	0.06570545
133	0xba66b963	-0.00088014285
134	0x3d4c37bf	0.04985785
135	0xbd2e4c1f	-0.042553063
136	0xba8bc94f	-0.0010664853
137	0x3d976572	0.07392396
138	0x3d9a67b8	0.07539314
139	0xbd4ceeed	-0.050032545
140	0xbd96cfbc	-0.07363841
141	0x3d953d4b	0.07287081
142	0x3d4f1bd0	0.050563633
143	0x3c050d10	0.00812079
144	0x3cd3bac8	0.0258459
145	0x3d9ae270	0.07562721
146	0xbd91a909	-0.07112319
147	0xbd77de21	-0.060514573
148	0x3d868467	0.065682225
149	0x3d0949de	0.03351771
150	0xbd8da753	-0.0691668
151	0x3d1cf7fd	0.038322438
152	0xbc49fcf0	-0.012328371
153	0x3a4dd709	0.0007852172
154	0xbd984917	-0.07435816
155	0x3dbf4740	0.09339762
156	0x3d95a5c9	0.07307012
157	0xbb3a4e45	-0.0028428
158	0xbe014e0c	-0.12627429
159	0xbcb83f32	-0.022491071
160	0x3e057722	0.13033727
161	0x3e10deef	0.14147542
162	0xbd228f49	-0.03968743
163	0xbd9871cd	-0.07443581
164	0xbd90b1f0	-0.07065189
165	0x3d3a70d9	0.045517776
166	0x3d6fd203	0.058549892
167	0x3d7554db	0.059895378
168	0xbc36276c	-0.011117797
169	0xbdede0d7	-0.116151504
170	0x3deaeee3	0.11471345
171	0x3d10ef33	0.03538437
172	0x3de0ca30	0.10976064
173	0x3ddb775f	0.107161276
174	0xbd4fd664	-0.05074157
175	0xbd14b217	-0.036302652
176	0xbdb4725d	-0.088108756
177	0x3d4f8d1b	0.050671678
178	0xbd97fe2b	-0.074215256
179	0xbc952d1e	-0.01820999
180	0xbd023406	-0.031787895
181	0x3cf324c3	0.029680615
182	0xbbaba0fe	-0.0052376976
183	0x3d4b0de3	0.04957379
184	0xbd4323ab	-0.047641438
185	0x3d0cc19a	0.03436432
186	0xbd2ccb32	-0.04218597
187	0x3b456fc5	0.0030126434
188	0x3d1dd5fb	0.038534146
189	0xbdb73e6d	-0.08947454
190	0xbce2dcd4	-0.02769319
191	0x3d2b7490	0.04185921
192	0x3c9001ac	0.017578922
193	0xbd6d2b43	-0.057902586
194	0xbd993b30	-0.07481992
195	0x3dd0972f	0.10185086
196	0x3dc72b19	0.09725017
197	0x3d96fd0e	0.07372485
198	0xbd8d8f51	-0.06912101
199	0x3d103eec	0.035216257
200	0xbdac7451	-0.08420623
201	0xbd9be7bd	-0.0761256
202	0xbd8297da	-0.0637662
203	0xbdd1a066	-0.10235672
204	0xbce144c2	-0.027498607
205	0xbd1661ad	-0.036714245
206	0x3d805165	0.06265525
207	0x3d75dfc3	0.06002785
208	0x3b6b1cb5	0.0035875265
209	0xbd127a1a	-0.035760976
210	0x3c32ca61	0.010912509
211	0x3a8ad666	0.001059246
212	0x3d2fa262	0.04287947
213	0x3c7ff1a3	0.0156215755
214	0x3d49537d	0.049151886
215	0xbc8ef762	-0.017451946
216	0x3b00cc4f	0.0019653027
217	0xbd47e59c	-0.048802957
218	0x3d07da13	0.033166956
219	0xbccafc74	-0.024778582
220	0x3ccd8415	0.025087396
221	0x3d956f45	0.072966136
222	0x3d70b45f	0.058765765
223	0x3d543d9b	0.051816564
224	0xbd45e384	-0.04831268
225	0x3d97d9da	0.07414599
226	0x3d4ce20c	0.050020263
227	0xbd99a960	-0.07503009
228	0xbd6d13ab	-0.057880085
229	0x3d902acc	0.07039413
230	0x3b198898	0.0023427363
231	0x3d2905ba	0.041265227
232	0x3d6848ce	0.056710057
233	0x3c9fd7db	0.019512108
234	0x3d63cf63	0.0556177
235	0x3d90b52a	0.07065804
236	0xbd259f4d	-0.040435124
237	0x3cf57296	0.029961865
238	0xbd357d01	-0.044308666
239	0xbb3ca649	-0.0028785637
240	0xbd44f6d0	-0.04808694
241	0x3d8cba8d	0.06871519
242	0xbd2cb0a7	-0.042160656
243	0x3cb15191	0.02164534
244	0xbd2a4530	-0.04156989
245	0xbc793b98	-0.015211962
246	0x3cda0cb3	0.026617384
247	0x3bbb1461	0.0057092165
248	0x3d4799d2	0.04873068
249	0xbd1e343f	-0.038624045
250	0xbd57f40f	-0.052722987
251	0xbce86ee9	-0.028373199
252	0xbca551de	-0.020180639
253	0x3d7c7b25	0.061640877
254	0xbda076d8	-0.07835168
255	0x3c3b7289	0.0114408815

conv2.bias f4 [16]
0	0x3d3258a1	0.043541554
1	0x3e1d6834	0.15371782
2	0x3e50a9b4	0.20377237
3	0xbd1b00e5	-0.03784265
4	0xb9b96206	-0.00035358983
5	0xbd8effc6	-0.06982379
6	0x3e3c37be	0.18380639
7	0xbdb25f85	-0.08709625
8	0x3e2f2193	0.17102651
9	0xbcb5f2b1	-0.02221045
10	0x3d0afd82	0.03393317
11	0x3c6d3ddc	0.01448008
12	0x3da4bf61	0.08044315
13	0x3e01b44a	0.12666431
14	0x3db79bf5	0.08965293
15	0xbe15a9e2	-0.14615586

fc1.weight f4 [120, 584]
0	0x3c936b50	0.017995507
1	0x3c76a31e	0.015053539
2	0x3c8bc3e1	0.017061176
3	0x3c9e6370	0.019334525
4	0xbc9fc50e	-0.019503143
5	0xbc39dbf9	-0.0113439495
6	0x3cd13356	0.025537174
7	0xbbca084a	-0.006165539
8	0xbcaa405c	-0.020782642
9	0xbc43d2bf	-0.011952101
10	0x3ca53fa0	0.02017194
11	0xbb9660ef	-0.004589192
12	0x3cb28a28	0.021794394
13	0x3d1f8833	0.03894825
14	0xbc002d3f	-0.0078232875
15	0x3bf0f6c4	0.0073536355
16	0xbd21d1e7	-0.03950682
17	0x3b364ee0	0.002781801
18	0x3d1cc62c	0.03827493
19	0x3c90b4de	0.01766437
20	0x3bb5f509	0.005552892
21	0x3c8497a0	0.016185582
22	0x3c298152	0.010345774
23	0x3cff3085	0.031151066
24	0xbaccfcd1	-0.001563931
25	0xbca3ef8e	-0.02001169
26	0xbc7e9d21	-0.015540392
27	0xbc31ae02	-0.010844709
28	0x3cc4bfe4	0.024017282
29	0x3d281598	0.04103622
30	0x3c8fb70e	0.017543342
31	0xbd1698e7	-0.036766913
32	0x3bd7da7d	0.006587325
33	0xbc10c82d	-0.008836788
34	0x3bddf344	0.0067733843
35	0xbb2902a4	-0.0025788927
36	0xbd04e74c	-0.032447144
37	0x3c3ed3a9	0.011647143
38	0x3c4b680c	0.012414943
39	0xbd04e21e	-0.032442205
40	0xbc240238	-0.010010295
41	0x3b90634b	0.004406368
42	0x3bad4815	0.005288134
43	0x3c20fdb2	0.009826111
44	0x3d236a6f	0.039896425
45	0xbd1ceb47	-0.038310315
46	0xbc355c85	-0.011069422
47	0xbc127027	-0.008937872
48	0xbcb137d4	-0.021633066
49	0xbd0c7f00	-0.034300804
50	0xbc71daf1	-0.014761672
51	0x3c854de8	0.0162725
52	0x3b0f3ede	0.002185754
53	0xbc3fbbf9	-0.011702531
54	0xbccbabbc	-0.024862163
55	0xbd12e915	-0.035866816
56	0xbbb9e8b8	-0.005673494
57	0xbba41d55	-0.0050083795
58	0xbb606a7a	-0.0034243152
59	0xbb1f602f	-0.0024318804
60	0xbbf2b510	-0.0074068382
61	0x3c95af87	0.018272175
62	0x3c9a52eb	0.018838366
63	0xbcd8c0c1	-0.0264591
64	0xbb9c0cc5	-0.0047622644
65	0x3d312d9b	0.043256383
66	0x3ced4ecb	0.028968235
67	0xbbb3acc3	-0.0054832413
68	0xbb983af0	-0.004645698
69	0x3c7a33b3	0.015271115
70	0x3b4ad2d8	0.0030948427
71	0xbc22bb68	-0.009932376
72	0xbd1414ae	-0.036152534
73	0x3d4958a5	0.049156804
74	0x3d36c977	0.044625726
75	0xbd40f692	-0.047110148
76	0x3aecb52d	0.0018059366
77	0xbcb79cac	-0.022413574
78	0xbd30f64f	-0.04320365
79	0x3cecf81e	0.028926905
80	0xbcc753cc	-0.02433195
81	0xbb9affb5	-0.0047301897
82	0x3ce6a620	0.028155386
83	0x3b037e7b	0.0020064402
84	0xbca8e834	-0.020618536
85	0xbba612f0	-0.0050681755
86	0x3ca4848f	0.02008274
87	0xbbc1eb8f	-0.0059179734
88	0xba8d1fc1	-0.001076691
89	0x3d204d77	0.039136376
90	0xbd1416c5	-0.036154527
91	0xbd05465c	-0.032537803
92	0xbd1b33cc	-0.037891194
93	0x3d2faf8e	0.04289203
94	0xbc499191	-0.012302772
95	0x3c074ef7	0.008258573
96	0xbc25d789	-0.010122188
97	0x3cb3b98c	0.021939062
98	0x3c8e04e4	0.017336316
99	0x3b9fd93a	0.0048781903
100	0x3d14a0f7	0.03628632
101	0xbb55e0fc	-0.0032635322
102	0x3ca10756	0.019656818
103	0x3c6a8436	0.014313748
104	0xbc5220de	-0.012825219
105	0xbc585449	-0.013203689
106	0x3d11ffa4	0.03564419
107	0x3c291414	0.010319728
108	0x3b70e975	0.0036760245
109	0xbcf04d89	-0.029333847
110	0x3cd1fc68	0.025633052
111	0x3d4ccdd9	0.050001
112	0x3d187cb5	0.037228305
113	0x3cbf8622	0.02337939
114	0xbd1a6e75	-0.037702996
115	0x3cf85ab9	0.030316697
116	0x3d28092c	0.041024372
117	0xbb5e489d	-0.0033917793
118	0xbd212a95	-0.03934725
119	0xbcab962a	-0.020945627
120	0xbc33c66a	-0.010972599
121	0xbc9dd32e	-0.019265737
122	0xbcc1cedd	-0.02365821
123	0x3c50a3df	0.012734382
124	0xbd061a24	-0.032739773
125	0x3d300345	0.042971868
126	0xbba4ca9f	-0.005029037
127	0xbc570fbc	-0.01312631
128	0xbc2d5528	-0.010579385
129	0x3c5ca0f6	0.01346611
130	0xbca91aaa	-0.020642597
131	0x3d2ef83b	0.0427172
132	0xbc97a06e	-0.018509116
133	0xbbdf573e	-0.00681582
134	0x3d16ee42	0.036848314
135	0xbc790d17	-0.015200875
136	0xb980f095	-0.0002459331
137	0x3c7132ff	0.014721631
138	0xbd109dc8	-0.035306722
139	0x3be5d16d	0.007013491
140	0xbc29008b	-0.010315071
141	0xbc208a4c	-0.009798598
142	0x3cbbd728	0.022929743
143	0x3d010df4	0.031507447
144	0xbc91fdf0	-0.017821282
145	0x38c9c39b	9.620861e-05
146	0x3d0548ab	0.032540005
147	0xbbcf739d	-0.006330921
148	0xbcd37a40	-0.02581513
149	0xbaf25fa0	-0.0018491633
150	0xbcdc572a	-0.026897032
151	0x3c42f99a	0.01190033
152	0x3cbc523d	0.022988433
153	0xbced79d6	-0.02898876
154	0x3c8b8e8e	0.017035749
155	0x3c6e5e8e	0.014548911
156	0x3d0af507	0.033925083
157	0x39044b30	0.0001261651
158	0x3c8b30d5	0.016991058
159	0x3c6c8bbc	0.014437612
160	0xbb2f0391	-0.0026705007
161	0x3c4e6042	0.012596192
162	0x3ad798e2	0.0016448761
163	0x3916eee1	0.00014394104
164	0x3d16b73a	0.036795832
165	0xbd2a785b	-0.041618686
166	0x3cbc4cd5	0.022985855
167	0x3cbc6d1f	0.023001252
168	0xbd1e9273	-0.038713884
169	0xbd0e264d	-0.034704495
170	0xbd5895a9	-0.052877102
171	0xbcef05a4	-0.029177494
172	0x3c650622	0.013978513
173	0x3c3291a7	0.010898984
174	0xbc4ca836	-0.0124912765
175	0x3baf5785	0.0053510093
176	0x3b97b4cd	0.0046297074
177	0x3cdb2c44	0.026754506
178	0xbc83dad9	-0.016095566
179	0x3bd87497	0.0066056955
180	0x3ce13543	0.027491217
181	0xbc9dda67	-0.019269181
182	0xbcacc2e8	-0.021089032
183	0x3b885e14	0.0041616056
184	0x3cec9b69	0.0288827
185	0x3ce955c0	0.028483272
186	0xbc9082b7	-0.017640455
187	0x3c55c714	0.013047952
188	0x3c3765fc	0.011193749
189	0x3d1cc0db	0.03826986
190	0xbc9fcf31	-0.019507976
191	0x3cf8cc01	0.030370714
192	0xbd1d2964	-0.03836955
193	0xbd0cadcb	-0.03434543
194	0xbcdd970f	-0.02704957
195	0x3d087417	0.033313837
196	0x3cc228eb	0.023701152
197	0x3ce81716	0.02833132
198	0xbc4853c5	-0.012227003
199	0x3d0f52ad	0.034990955
200	0x3d046e4b	0.032331746
201	0x3cc31b71	0.023816796
202	0xbb29f9f0	-0.0025936328
203	0x3caa3e7c	0.020781748
204	0x3b406e2f	0.002936255
205	0x3c968852	0.01837555
206	0x3c333280	0.010937333
207	0xbcb1c8b7	-0.021702154
208	0x3c043ed0	0.008071616
209	0x3bea1fc8	0.007144902
210	0x3d01eea8	0.03172174
211	0x3cf458c5	0.029827485
212	0x3be0b1c1	0.0068571274
213	0xbd0fc740	-0.03510213
214	0xbce0ab96	-0.027425569
215	0xbc70bdba	-0.014693672
216	0x3aa13b1d	0.0012300942
217	0xbb137f4a	-0.002250629
218	0x3c81feed	0.015868628
219	0x3d481bf8	0.048854798
220	0x3d075b63	0.033046138
221	0x3d309152	0.04310734
222	0x3c8ce577	0.017199261
223	0xbcde41f9	-0.027131068
224	0x3d15f954	0.03661473
225	0x3c245972	0.010031091
226	0xbc3916bd	-0.011296925
227	0x3d14a06c	0.036285803
228	0x3ce9cdb4	0.02854047
229	0x3a60cc64	0.00085753785
230	0x3d0b6876	0.03403517
231	0xbb2c0fc8	-0.0026254524
232	0xbc51e2c0	-0.012810409
233	0x3d58d5af	0.05293816
234	0xbb1c68d4	-0.0023866193
235	0x3c92d8c0	0.01792562
236	0x3d138e5b	0.036024433
237	0xbb958ae9	-0.0045636785
238	0xbcd4a483	-0.025957352
239	0x3d006ce2	0.03135384
240	0x3d0c49f7	0.034250226
241	0xbc559289	-0.013035425
242	0x3bed81ec	0.007248154
243	0xbcd44a96	-0.025914472
244	0xbc60b2da	-0.013714517
245	0xbcad488d	-0.021152759
246	0xbba760d3	-0.005107978
247	0xbce85e88	-0.028365389
248	0x3d209065	0.039200205
249	0x3c8b1d10	0.016981632
250	0xbd0778a8	-0.03307405
251	0xbc65fc53	-0.01403721
252	0xbd16015a	-0.036622383
253	0xbcdb6f17	-0.02678637
254	0xbb66ff76	-0.0035247481
255	0x3ce2d684	0.02769018

fc1.bias f4 [120]
0	0x3cb26bf8	0.02178
1	0x3d3b2cff	0.04569721
2	0x3b9c2c41	0.0047660177
3	0x3d6408e0	0.055672526
4	0x3c129bfe	0.008948324
5	0xbc9198a2	-0.017772976
6	0xbd39fe7d	-0.045408715
7	0x3d34516f	0.044022974
8	0x3dbdd8a7	0.09269839
9	0x3b53b1d4	0.0032302039
10	0xbc014958	-0.007891022
11	0x3cb27866	0.021785926
12	0xbcb8bb6d	-0.02255031
13	0x3d363032	0.044479556
14	0x3cf778e7	0.030209018
15	0x3b6fd277	0.0036593953
16	0x3da1b009	0.07894904
17	0x3d04b561	0.03239954
18	0x3d68bea0	0.05682242
19	0x3d42015b	0.047364574
20	0x3d4cbc17	0.049984064
21	0xbd11aa0f	-0.03556257
22	0x3da1cc61	0.0790031
23	0x3dd1e451	0.10248626
24	0x3d0a2f48	0.033736497
25	0x3d91b964	0.071154386
26	0xbd5406b1	-0.051764194
27	0x3d2c70af	0.04209965
28	0x3de7b441	0.113136776
29	0x3be50926	0.006989616
30	0x3d16da12	0.03682906
31	0xbbcf1e68	-0.0063207634
32	0x3d7b3a76	0.06133505
33	0x3d244efc	0.040114388
34	0xbd4d8a08	-0.050180465
35	0x3ce52bf7	0.027975066
36	0x3cc39eb3	0.023879385
37	0x3de46227	0.111515336
38	0xbb69cd51	-0.0035675357
39	0xbd14883d	-0.03626274
40	0xbd647751	-0.05577785
41	0x3dc226fb	0.09480091
42	0x3d9e51af	0.07730424
43	0x3dc22a42	0.09480716
44	0x3d514815	0.051094133
45	0xbcb41ab9	-0.021985399
46	0x3d9112f4	0.07083693
47	0x3d9e6760	0.07734561
48	0x3d274ba0	0.040843606
49	0x3c76b593	0.015057939
50	0x3cb4ed72	0.022085879
51	0x3d91da5e	0.07121728
52	0xbbb5a2ef	-0.005543105
53	0x3d857162	0.06515767
54	0x3da3c564	0.07996634
55	0x3c702d69	0.014659264
56	0x3c89c612	0.01681808
57	0xbc4bb378	-0.012432925
58	0x3c7faaeb	0.015604715
59	0x3d8f58cf	0.06999361
60	0x3ba599d3	0.0050537377
61	0x3c85a369	0.016313272
62	0x3b8d6554	0.004315058
63	0x39996c2b	0.00029263025
64	0xbd6b8123	-0.0574962
65	0x3dd016a8	0.10160571
66	0x3cde0105	0.027100096
67	0x3ce225ae	0.027605858
68	0x3c8e261c	0.017352156
69	0x3d54374f	0.05181056
70	0x3d68e6c0	0.056860685
71	0x3d41090f	0.04712778
72	0x3c723194	0.014782328
73	0x3d1283b4	0.035770133
74	0x3c905398	0.017617986
75	0x3dc47fd6	0.09594695
76	0x3d6c0200	0.057619095
77	0x3d1e88a5	0.038704533
78	0x3da7228b	0.081608854
79	0x3d0eca32	0.034860797
80	0x3d145e72	0.036222883
81	0x3c735c03	0.01485348
82	0x3aee38a3	0.0018174838
83	0x3d9baed2	0.07601704
84	0x3d00c219	0.031435106
85	0x3d320c5e	0.043468826
86	0x3d754b1a	0.059886076
87	0x3c1440c0	0.009048641
88	0x3ded321f	0.115818255
89	0xbc09ab2f	-0.00840263
90	0x3c81c7f1	0.01584241
91	0x3d45f88e	0.048332743
92	0x3d6750f5	0.05647369
93	0xbb241b84	-0.0025040815
94	0x3bc28065	0.005935716
95	0x3d124833	0.035713386
96	0x3d13d4c8	0.036091596
97	0x3d8f8949	0.07008607
98	0x3d3d5048	0.04621914
99	0x3d5377db	0.051627975
100	0xbba28f55	-0.004960934
101	0xbcf081dc	-0.029358797
102	0x3d032875	0.032021005
103	0x3d895556	0.0670573
104	0x3cef5123	0.029213494
105	0x3c549c7d	0.012976763
106	0x3d56cd1f	0.052441712
107	0x3d3e77f3	0.04650111
108	0xbc691078	-0.014225118
109	0x3d926c47	0.071495585
110	0x3dafcd74	0.08584109
111	0x3cc9c157	0.024628324
112	0x3cf7832d	0.030213917
113	0x3c9b9d2f	0.01899585
114	0x3d219cbe	0.03945612
115	0x3c9ed887	0.019390358
116	0xbcbed3c4	-0.023294337
117	0x3da7fb1f	0.082021944
118	0x3cbe1541	0.023203494
119	0x3dd3b453	0.103371285

fc2.weight f4 [84, 120]
0	0x3d0d2d72	0.03446717
1	0xbdc68b49	-0.09694535
2	0x3d2a1148	0.041520387
3	0xbdb738c0	-0.08946371
4	0xbdc38e81	-0.09548665
5	0x3bac7aba	0.0052636536
6	0x3bbf3376	0.005834992
7	0x3bb3125d	0.0054648356
8	0x3d0b63c4	0.03403069
9	0x3d6136ec	0.05498402
10	0x3d5b9454	0.053608254
11	0x3d4067c4	0.04697396
12	0x3d610e6b	0.05494539
13	0x3d5a959a	0.053365327
14	0x3b71afa0	0.0036878362
15	0x3d91a597	0.07111662
16	0x3d430b98	0.04761848
17	0xbd0fdac3	-0.035120737
18	0x3ba599d6	0.005053739
19	0x3a538ad7	0.00080697
20	0xbc7bb524	-0.0153630115
21	0x3c85e62c	0.016345106
22	0x3a650d4a	0.0008737637
23	0xbdacf4be	-0.08445118
24	0xbd93e982	-0.072222725
25	0xbcb5ad5c	-0.02217739
26	0xbd837417	-0.06418627
27	0x3c690a7a	0.014223689
28	0xbd66c213	-0.056337427
29	0x3d1ba0e5	0.037995238
30	0x3c9d7648	0.01922144
31	0x3dacf458	0.08445042
32	0x3dbaa423	0.09113338
33	0x3d690a2a	0.05689446
34	0x3d1b3c8f	0.03789955
35	0xbdbeaadc	-0.093099326
36	0xbd2cd488	-0.042194873
37	0x3cf8db70	0.030378073
38	0x3bd62e12	0.0065362537
39	0x3bf688a5	0.0075236135
40	0xbcbce384	-0.023057707
41	0x3db0f7ba	0.08641
42	0x3d6e947d	0.05824708
43	0xbd98f764	-0.07469061
44	0xbd4c51f7	-0.049882855
45	0x3d61ecea	0.05515758
46	0xbd03ae7d	-0.032148827
47	0xbba3771f	-0.0049885656
48	0xbd4ee36c	-0.050509855
49	0x3d8a3b1d	0.06749556
50	0xbca2ea2d	-0.019887054
51	0x3c89ead8	0.016835615
52	0xbd36f728	-0.0446693
53	0xbc94f27a	-0.018182028
54	0xbd1c3403	-0.03813554
55	0xbdabb1f9	-0.08383555
56	0x3d88224a	0.06647165
57	0x3d87e3a2	0.066352144
58	0xbd677012	-0.056503363
59	0x3d3099c4	0.043115392
60	0x3c636e23	0.013881239
61	0xbcc82a12	-0.024434123
62	0xbd62c623	-0.05536474
63	0x3cff99a9	0.0312012
64	0xbcff823f	-0.031190036
65	0x3d469fdc	0.048492298
66	0xbd1f7135	-0.038926322
67	0x3cef763a	0.02923118
68	0x3ce2e3c9	0.027696507
69	0xbc48b20c	-0.012249481
70	0x3bcbb994	0.006217191
71	0xbc54ee59	-0.01299628
72	0x3d9c1e36	0.0762295
73	0x3ca524e8	0.0201592
74	0x3b837869	0.0040121567
75	0xbde14351	-0.10999168
76	0xbcd17fc4	-0.025573619
77	0xbdad8545	-0.08472685
78	0xbd5838c4	-0.05278851
79	0xbd68d40e	-0.056842856
80	0xbd8e3417	-0.06943529
81	0x3d1774c0	0.036976576
82	0x3c845f16	0.016158622
83	0x3ddbf0ef	0.10739314
84	0xbc79f1ff	-0.01525545
85	0x3c49571f	0.012288838
86	0x3dadfc94	0.08495441
87	0xbdaae706	-0.083448455
88	0xbacde0ad	-0.0015707217
89	0xbd9cccc0	-0.076562405
90	0xbd12e686	-0.035864376
91	0xbd60b8a1	-0.054863576
92	0x3ab35ef9	0.001368492
93	0x3cca547b	0.024698487
94	0xbda4bc04	-0.08043674
95	0xbda87876	-0.08226101
96	0xbd881244	-0.06644109
97	0xbd60935d	-0.054828037
98	0x3da331e7	0.079685025
99	0x3d92cc4f	0.07167875
100	0xbda6186a	-0.08110125
101	0x3c8b5220	0.017006934
102	0x3d808833	0.06275978
103	0x3dbd3f7c	0.09240624
104	0xbd5c06c6	-0.053717397
105	0x3d569126	0.052384518
106	0xbd521ae8	-0.05129519
107	0x3b699d5c	0.0035646772
108	0xbd0decff	-0.034649845
109	0xbcfda1ac	-0.03096088
110	0x3da15bc3	0.0787883
111	0x3d925a8c	0.07146177
112	0xbb733bcd	-0.0037114501
113	0xbd2cdd90	-0.042203486
114	0xbcd07377	-0.025445683
115	0xbd8b1b22	-0.067922845
116	0xbc66d711	-0.014089362
117	0xbc5e069c	-0.0135513805
118	0x3d5848f5	0.052803952
119	0xbd5a42e4	-0.053286448
120	0x3cfca002	0.030838016
121	0xbdc8021b	-0.097660266
122	0xbd6124d5	-0.054966766
123	0x3da3ea36	0.080036566
124	0x3da0711a	0.078340724
125	0xbac6b3aa	-0.0015159745
126	0x3d36980d	0.0445786
127	0x3e04e9d4	0.12979823
128	0xbdac43f6	-0.084114
129	0xbca47768	-0.020076469
130	0x3ca77b41	0.020444514
131	0xbdab93ad	-0.08377776
132	0x3d210f58	0.039321274
133	0xbda42fa1	-0.08016897
134	0x3d25dc77	0.040493455
135	0x3d04fbdc	0.032466754
136	0xbcb9ddbd	-0.02268874
137	0x3dc264b7	0.09491866
138	0xbc8a3d9b	-0.016875079
139	0x3d9103db	0.070808135
140	0x3d0c978d	0.034324218
141	0xbbc85f1a	-0.0061148526
142	0x3da252f2	0.07925977
143	0xbd6fb8e0	-0.05852592
144	0x3d8b368a	0.06797512
145	0xbd4ae709	-0.04953674
146	0x3c0656b2	0.008199381
147	0x3c3aa000	0.011390686
148	0xbbe5c07a	-0.0070114704
149	0xbdab1b5a	-0.08354826
150	0xbd94c7f2	-0.07264699
151	0x3d6b2f20	0.05741799
152	0xbd5a0c3d	-0.053234328
153	0xbda88e74	-0.08230296
154	0xbcd51199	-0.026009368
155	0x3d5a4ef6	0.05329796
156	0xbdbdd14e	-0.09268437
157	0x3d0a7333	0.03380127
158	0xbdbe9d16	-0.093073055
159	0x3be38241	0.0069430177
160	0xbd1fe91b	-0.039040666
161	0x3bc7becb	0.0060957423
162	0xbd31a668	-0.043371588
163	0x3dbcc549	0.09217317
164	0x3c967eb1	0.018370958
165	0x3d175562	0.03694666
166	0xbcc95682	-0.024577383
167	0x3dce292a	0.10066445
168	0xbcd7d058	-0.026344463
169	0x3d9989a1	0.07496954
170	0x3d94f6f1	0.07273663
171	0xbc8e5468	-0.017374232
172	0xbd9adb5a	-0.07561369
173	0x3daffa27	0.08592635
174	0xbddb6c3b	-0.10714003
175	0x3d789d96	0.06069716
176	0x3c528d0e	0.012851013
177	0x3d7234f5	0.059132535
178	0xbcbe7923	-0.023251122
179	0xbcf77991	-0.030209335
180	0xbd611bc2	-0.054958113
181	0x3da4c0e9	0.08044607
182	0x3d8491dd	0.06473134
183	0xba867dcf	-0.0010260883
184	0x3d727ad8	0.059199184
185	0xbd5f2a15	-0.054483492
186	0xbbd88467	-0.0066075805
187	0xbd85e387	-0.06537538
188	0x3d5094a6	0.050923012
189	0x3cd2902d	0.025703514
190	0x3d7ea6bc	0.06217073
191	0xbc85ee50	-0.016348988
192	0x3d8c5e35	0.06853906
193	0x3bc3b731	0.005972766
194	0x3d59cf05	0.053175945
195	0xbcb191e5	-0.021676013
196	0x3cfc5e99	0.030806826
197	0x3d599734	0.053122714
198	0xbdeb94ff	-0.11503028
199	0xbd29107b	-0.041275483
200	0x3c8d28d4	0.017231382
201	0x3d25f817	0.0405198
202	0xbd39828f	-0.045290526
203	0xbb8c6e12	-0.0042855823
204	0x3bc1e16f	0.0059167664
205	0x3d3ed907	0.046593692
206	0xbda7ed16	-0.081995174
207	0x3b8ffc8d	0.00439412
208	0xbd34fb23	-0.044184815
209	0x3b49fd4f	0.003082115
210	0x3d0e431e	0.034731977
211	0x3c13fd1b	0.009032513
212	0x3d7f520f	0.062334117
213	0xbcc45098	-0.023964211
214	0x3d2bf9aa	0.041986145
215	0xbdbc562f	-0.09196126
216	0x3b415b89	0.0029504022
217	0xbd2cef4b	-0.042220395
218	0x3d70cc3b	0.05878852
219	0x3da0c04e	0.07849179
220	0xbd8b6d79	-0.068079896
221	0x3d1bcb01	0.038035396
222	0x3d620fdf	0.055190917
223	0x3d9170e8	0.07101613
224	0x3c473935	0.012159635
225	0x3c646601	0.013940335
226	0xbde33cc9	-0.11095578
227	0x3d112b54	0.03544171
228	0x3c9d35a5	0.019190619
229	0x3dd64481	0.10462285
230	0x3de040d0	0.10949862
231	0x3dbb83e9	0.09156019
232	0x3d7d3df6	0.06182667
233	0x3d0ee06e	0.034882
234	0xbdbdfc59	-0.09276647
235	0x3d425d34	0.047452167
236	0x3b9e6855	0.0048342147
237	0x3dc49f18	0.09600657
238	0x3c69765e	0.014249412
239	0xbd913fb6	-0.0709223
240	0x3d61a808	0.055091888
241	0xbd86df1f	-0.06585526
242	0x3d66550b	0.056233447
243	0xbc296bdd	-0.010340658
244	0xbd92f0d1	-0.07174838
245	0xbd9c60a4	-0.0763562
246	0x3cf53d87	0.029936565
247	0x3d8cddba	0.068782285
248	0x3cd6be24	0.026213713
249	0x3d9f3712	0.07774176
250	0x3c800b0c	0.015630268
251	0xbd584d35	-0.052808005
252	0x3cff6e53	0.031180536
253	0xbd8d9fe9	-0.06915266
254	0xbc20ad42	-0.009806933
255	0xbd45be27	-0.048277047

fc2.bias f4 [84]
0	0x3da7b3d8	0.08188599
1	0x3c816705	0.015796194
2	0x3e1a4971	0.15067078
3	0xbce1b89f	-0.027553855
4	0x3dd161fa	0.10223766
5	0xbb9873cd	-0.0046524764
6	0xbdb00984	-0.08595565
7	0x3cd2d4e1	0.025736274
8	0x3d50b116	0.050950132
9	0xbcff79de	-0.03118604
10	0x3de846dc	0.1134164
11	0x3d06fa03	0.032953274
12	0x3dc56183	0.096377395
13	0x3d7f42b1	0.06231946
14	0xbd1c8a84	-0.038218036
15	0x3d168aef	0.03675359
16	0x3d2446dc	0.04010664
17	0xbd923175	-0.071383394
18	0x3cb53d3b	0.022123924
19	0x3cd0402a	0.02542122
20	0x3df63a9b	0.12022897
21	0x3e1a55b5	0.15071757
22	0x3e003812	0.12521389
23	0x3e0704f4	0.13185483
24	0x3c9dca21	0.019261422
25	0x3b4c1a25	0.0031143513
26	0x3e05e4e3	0.13075595
27	0x3d756696	0.059912287
28	0x3e165dc7	0.1468421
29	0x3e146e5b	0.14495222
30	0xbd18b46f	-0.03728145
31	0x3dc4472d	0.09583888
32	0x3dd77bb5	0.10521642
33	0x3d8948c2	0.067033306
34	0x3ca2a9fd	0.019856447
35	0xbd89a277	-0.06720441
36	0x3dccf126	0.10006933
37	0x3ab40a0b	0.0013735903
38	0xbd9fdcb1	-0.078057654
39	0xbca3de1a	-0.020003367
40	0xbd8c68ca	-0.068559244
41	0xbc49d54a	-0.0123189185
42	0xbd6181f8	-0.05505559
43	0xbd5e28dd	-0.05423819
44	0x3da48d15	0.08034722
45	0xbc843dbf	-0.016142724
46	0xbdb8a42c	-0.09015688
47	0x3cf804e4	0.03027577
48	0x3d976a53	0.073933266
49	0x3dc0a86c	0.09407124
50	0xbd3b3c83	-0.045712005
51	0xbd22e967	-0.03977337
52	0x3daa94bf	0.08329152
53	0x3d1da0bc	0.038483366
54	0x3dd7c4e9	0.105356045
55	0x3b87978a	0.004137938
56	0xbcbd2fd7	-0.0230941
57	0x3dbefb86	0.09325318
58	0xbd2bac5d	-0.041912425
59	0x3cae9978	0.021313414
60	0x3d634823	0.055488717
61	0x3da282ea	0.07935126
62	0x3d9680c3	0.07348778
63	0x3cb2467e	0.021762129
64	0xbd1b2d26	-0.037884854
65	0x3e12c534	0.1433304
66	0x3d6f880f	0.058479365
67	0xbb9cfade	-0.004790648
68	0xbcc36c50	-0.023855358
69	0x3dc96093	0.09832873
70	0x3d993b1e	0.07481979
71	0xbcc68a79	-0.02423595
72	0x3d57499b	0.05256043
73	0xbbf2e948	-0.007413063
74	0xbd77f577	-0.060536828
75	0x3d001ca6	0.03127732
76	0x3bb4d73d	0.0055188225
77	0xbc97e7d2	-0.018543158
78	0xbd819b16	-0.063284084
79	0xbda46416	-0.080269024
80	0x3de15759	0.11002988
81	0xbdb8a24b	-0.0901533
82	0xbcf87d08	-0.030333057
83	0x3cb36abb	0.021901479

fc3.weight f4 [2, 84]
0	0xbb857bb4	-0.0040735845
1	0x3e9743ef	0.29544017
2	0xbe81f389	-0.25381115
3	0xbd0fb47b	-0.03508423
4	0xbe458820	-0.19290209
5	0xbe69b265	-0.22821958
6	0x3b086a4f	0.0020815318
7	0x3e31fbb4	0.17381173
8	0x3da6ae63	0.081387304
9	0xbd92bf08	-0.071653426
10	0x3e79de42	0.24401191
11	0x3cf1f736	0.029536825
12	0xbe2e4a6a	-0.17020574
13	0xbe2898bc	-0.16464514
14	0x3b0fd959	0.0021949618
15	0x3e2f9f68	0.17150652
16	0x3d09539e	0.03352701
17	0xbd538471	-0.051639978
18	0xbd6ecea9	-0.058302555
19	0xbc8c0ce1	-0.017095985
20	0x3e790fc2	0.24322417
21	0x3e9cf5f6	0.30656403
22	0x3eb30b22	0.3496943
23	0xbd2cfb42	-0.042231806
24	0xbe52b372	-0.20576265
25	0x3df43f35	0.11926118
26	0x3ea4f820	0.32220554
27	0xbe7f60da	-0.2493929
28	0x3ec1ebd2	0.3787523
29	0x3e71667f	0.23574255
30	0x3df27022	0.11837794
31	0xbd6f1f99	-0.058379743
32	0x3d8c2e1a	0.06844731
33	0xbe63ccba	-0.22246066
34	0xbe8b0def	-0.27159068
35	0xbdcb2bc6	-0.099204585
36	0xbb833941	-0.004004628
37	0x3d96972f	0.07353055
38	0xbd22b08e	-0.039719157
39	0x3d8c307d	0.06845186
40	0xbdc76c73	-0.09737482
41	0x3e2177a6	0.15768299
42	0x3e2e9054	0.17047244
43	0x3c0270f3	0.0079614995
44	0xbd3f6971	-0.046731416
45	0x3ddcf398	0.10788649
46	0x3dab9907	0.08378797
47	0xbe742c01	-0.23844911
48	0xbe73f16a	-0.23822561
49	0xbeaf2caa	-0.34213763
50	0x3cd8b9a1	0.026455702
51	0x3c343db0	0.011001036
52	0xbe7ea2c5	-0.24866779
53	0x3e8e732b	0.2782224
54	0xbe5dc7a0	-0.21658182
55	0xbe71292e	-0.23550865
56	0xbb70b9a8	-0.0036731753
57	0xbe77ec7d	-0.24211307
58	0x3e2aa248	0.16663468
59	0xbbaf791f	-0.005355015
60	0xbe85f633	-0.26164398
61	0x3e5a0d01	0.21294023
62	0x3e079a37	0.13242422
63	0x3d03e29a	0.032198526
64	0x3e42e77c	0.19033617
65	0xbe67d8a7	-0.2264124
66	0x3e1f7aa8	0.15574133
67	0x3d831e7e	0.064023
68	0xbcb3c5ab	-0.021944841
69	0xbe42fbb0	-0.19041324
70	0xbe5dc3cb	-0.2165672
71	0x3d9c9fa2	0.07647635
72	0x3dd7b353	0.1053225
73	0x3de224cd	0.110421754
74	0xbb4ae4de	-0.003095917
75	0x3e545749	0.20736422
76	0xbe1b8725	-0.15188272
77	0x3df896f0	0.12138164
78	0x3de89a3c	0.11357543
79	0x3d889280	0.06668568
80	0xbd80deeb	-0.06292518
81	0xbd879339	-0.06619877
82	0x3cea67a7	0.028613878
83	0x3d251b60	0.04030931
84	0x3e420590	0.18947434
85	0x3d9efb2e	0.077627525
86	0xbe4769a9	-0.194739
87	0xbd30e305	-0.043185253
88	0xbea26cd7	-0.31723663
89	0x3e89d100	0.26917267
90	0xbd7fabe0	-0.062419772
91	0xbda62eab	-0.0811437
92	0x3e812046	0.25219935
93	0xbcb04f2a	-0.021522123
94	0xbea09f8e	-0.3137173
95	0x3e9b123a	0.30287343
96	0x3e58b0d4	0.21161205
97	0xbeb399bd	-0.3507823
98	0xbe72885b	-0.23684828
99	0x3d34f166	0.044175528
100	0x3ce43b2c	0.027860247
101	0x3dd742db	0.105107985
102	0xbdbabf7e	-0.091185555
103	0x3da4c14f	0.08044683
104	0x3dc94d96	0.098292515
105	0xbeb12050	-0.34594965
106	0xbe459739	-0.19295968
107	0x3e652648	0.22377884
108	0x3d01a4fc	0.031651482
109	0xbd8419af	-0.06450211
110	0x3e826014	0.25463927
111	0xbe6c19bb	-0.2305669
112	0xbb6915f5	-0.0035566066
113	0x3e8679fc	0.26264942
114	0x3df6a673	0.120434664
115	0xbe0ccd65	-0.13750227
116	0xbdfdaa6f	-0.12386023
117	0xbe74d6de	-0.2391009
118	0x3ea73d85	0.32664123
119	0xbd9388e4	-0.07203844
120	0xbe9aa520	-0.30204105
121	0x3ddc7285	0.1076403
122	0xbd47549a	-0.048664667
123	0xbe230acf	-0.15922092
124	0xbb023c36	-0.0019872314
125	0x3d5e5725	0.054282326
126	0xbd7becf6	-0.06150528
127	0xbd4940d8	-0.049134105
128	0xbe6e6466	-0.23280486
129	0xbe8b4087	-0.27197668
130	0x3e00f434	0.12593156
131	0x3d2e5413	0.04256065
132	0x3e8d0a42	0.2754689
133	0x3d57c7ca	0.052680768
134	0x3d2fa103	0.042878162
135	0xbe099254	-0.13434726
136	0xbe1c227f	-0.15247534
137	0x3e3577fb	0.1772155
138	0x3d4444b6	0.04791709
139	0xbe28564a	-0.16439167
140	0x3dd9989c	0.10624811
141	0xbd4c77d5	-0.04991897
142	0xbe019a83	-0.12656598
143	0x3eae46d2	0.34038407
144	0x3e688042	0.22705176
145	0xbe0f8caa	-0.14018503
146	0x3ea88902	0.3291703
147	0xbcd8220a	-0.026383419
148	0xbdca07d6	-0.09864776
149	0x3e87cf4b	0.2652534
150	0x3d970a43	0.07375004
151	0xbe1e3dec	-0.15453309
152	0xbdfbe5f5	-0.1229972
153	0xbe1ff16e	-0.15619442
154	0x3bf7cfed	0.0075626285
155	0x3d5f0c4a	0.05445508
156	0x3dad4e4d	0.084622
157	0x3d23ff2d	0.040038276
158	0x3c952229	0.018204765
159	0x3c14d94f	0.0090850135
160	0xbdbb60a9	-0.09149296
161	0xbd771e18	-0.060331434
162	0xbd351746	-0.04421165
163	0x3e5d13ab	0.21589534
164	0xbe75732d	-0.23969717
165	0xbdf5624b	-0.119816385
166	0xbdd13767	-0.10215645
167	0x3e0bb636	0.13643727

fc3.bias f4 [2]
0	0xbbfcc5b7	-0.007713999
1	0x3dc999ec	0.098438114
