src/models/data-aug.onnx (onnx, 336968 bytes, 10 tensors)

conv1.weight f4 [6, 5, 5, 5]
0	0xbd5c08a1	-0.053719167
1	0x3cad2efb	0.021140566
2	0xbcab3d60	-0.02090329
3	0x3d89b638	0.067242086
4	0x3ccab535	0.02474461
5	0xbd75f516	-0.060048185
6	0xbd259b5a	-0.040431358
7	0xbd216ec5	-0.03941228
8	0xbdacf729	-0.084455796
9	0x3d9a2e40	0.07528353
10	0xbdb4cb92	-0.088278905
11	0x3d4c9e6d	0.049955774
12	0xbd923192	-0.07138361
13	0xbd8f627a	-0.07001205
14	0x3ca93e50	0.020659596
15	0xbb6a5fe4	-0.0035762722
16	0xbca00ca4	-0.019537278
17	0x3d208675	0.03919073
18	0x3c925a8f	0.017865447
19	0xbcc38447	-0.023866786
20	0xbd4a33ce	-0.04936581
21	0x3bb9e29b	0.0056727654
22	0x3d4b508f	0.049637374
23	0x3cbfd029	0.023414688
24	0xbd1df371	-0.038562242
25	0xbd90585f	-0.070481054
26	0x3d4d300e	0.050094657
27	0x3da9bad7	0.0828759
28	0x3cfa0368	0.030519202
29	0xbd93688e	-0.071976766
30	0x3d96aef5	0.07357589
31	0xbcc8aa8a	-0.024495382
32	0x3d45d238	0.048296183
33	0x3d2d8e40	0.04237199
34	0xbdb3f718	-0.08787364
35	0x3cb6b41c	0.02230268
36	0xb7da2190	-2.6003254e-05
37	0x3d8cddff	0.0687828
38	0xbca06cef	-0.019583194
39	0xbda75b3d	-0.08171699
40	0xbb9ed1f1	-0.0048468043
41	0xbcfa9cd3	-0.030592358
42	0xbc8777ec	-0.016536675
43	0x3d082408	0.033237487
44	0xbd7fcfce	-0.062454037
45	0x3d12a34a	0.035800256
46	0xbd800e84	-0.06252769
47	0xbd14a592	-0.036290713
48	0x3d80be53	0.062863015
49	0x3d596e9e	0.05308401
50	0xbd4203a5	-0.047366757
51	0xbd346e24	-0.04405035
52	0xba684161	-0.000885984
53	0xbd8fc0e8	-0.07019216
54	0xbd0442a9	-0.032290135
55	0x3dab888f	0.08375656
56	0x3d0f5ec8	0.0350025
57	0x3ce3f9d5	0.02782909
58	0x3d5b3438	0.053516597
59	0xbce0cf20	-0.027442515
60	0xbdad9d95	-0.08477322
61	0x3da82851	0.08210815
62	0x3c81777c	0.015804045
63	0xbc84e411	-0.016222032
64	0x3cd020bd	0.025406236
65	0xbb3ab1fa	-0.002848743
66	0xbd8773d2	-0.06613888
67	0xbd005701	-0.031332973
68	0xbd422408	-0.047397643
69	0x3d79bd00	0.06097126
70	0x3a9f9e99	0.0012178003
71	0x3d1a4824	0.037666455
72	0x3d93b99e	0.07213138
73	0xbd717419	-0.05894861
74	0xbd0a1fd0	-0.033721745
75	0xbd638aa0	-0.055552125
76	0x3cc1e990	0.023670942
77	0xbc78ca1b	-0.015184904
78	0x3d3c0a31	0.045908157
79	0xbdac565d	-0.0841491
80	0x3d0cefa9	0.034408245
81	0xbc851266	-0.016244125
82	0xbb077c92	-0.0020673615
83	0xbdabb153	-0.08383431
84	0xbd47ba04	-0.048761383
85	0xbc7b20f3	-0.01532768
86	0x3d6548b5	0.055977542
87	0x3d880216	0.06641023
88	0xbd46dea0	-0.048552155
89	0xbcbb8284	-0.022889383
90	0xbd9ed179	-0.077547975
91	0xbd36a7b2	-0.04459352
92	0xbce46651	-0.02788082
93	0x3dae851a	0.08521481
94	0x3d57714c	0.052598283
95	0x3da3f3b3	0.08005466
96	0x3d80ff13	0.062986515
97	0xbd87d4ef	-0.06632411
98	0xbd1be28d	-0.038057853
99	0x3d17f12c	0.037095234
100	0x3d5c3179	0.05375812
101	0x3ce2fb0f	0.027707605
102	0xbd5022ff	-0.050814625
103	0x3d6c9aaf	0.057764705
104	0x3d73d228	0.059526592
105	0x3da9e73c	0.082960576
106	0x3d7b4945	0.061349172
107	0xbcef67ac	-0.02922424
108	0xbd805168	-0.06265527
109	0x3dae6fe7	0.085174374
110	0xbbee3120	-0.0072690398
111	0xbb9d56f5	-0.004801626
112	0x3d0b11de	0.033952586
113	0x3d04c4d0	0.032414258
114	0xbda41494	-0.080117375
115	0xbcc13572	-0.023585055
116	0x3cf6d3d6	0.030130308
117	0xbbcd7d19	-0.0062710163
118	0x3b80f6d3	0.0039356737
119	0x3cd29985	0.02570797
120	0xbcd4e0d5	-0.025986115
121	0x3d4c6199	0.049897764
122	0xbda762c8	-0.08173138
123	0x3cc7d882	0.024395231
124	0x3a472d60	0.0007598009
125	0x3d570202	0.05249215
126	0x3d59fa4d	0.05321722
127	0x3d69baa9	0.05706278
128	0x3b9f3d51	0.0048596044
129	0x3d7b4517	0.061345186
130	0x3d9947d2	0.07484402
131	0x3c8ffb25	0.01757581
132	0x3d81efb9	0.063445516
133	0xbda727bc	-0.081618756
134	0xbd459d46	-0.04824569
135	0x3cc35cde	0.023847993
136	0xbcdae1d6	-0.026719015
137	0xbd916134	-0.07098618
138	0x3daafa10	0.08348477
139	0xbd2c4ee9	-0.042067442
140	0x3d9a6d93	0.07540431
141	0x3d1b45d2	0.037908383
142	0x3d8d351e	0.06894897
143	0xbd842736	-0.064527914
144	0xbd4fd52f	-0.050740417
145	0xbd189ac4	-0.03725697
146	0xbda88d78	-0.08230108
147	0xbccc427e	-0.02493405
148	0x3b5ed7cd	0.003400314
149	0xbc9429e6	-0.018086385
150	0x3cad45f4	0.02115152
151	0x3d0ba7b0	0.034095466
152	0xbad882f6	-0.0016518522
153	0xbd8951ed	-0.06705079
154	0xbd80739f	-0.06272053
155	0xbb04a700	-0.0020241141
156	0x3d86ab8b	0.06575688
157	0xbbe6f11a	-0.0070477845
158	0x3d0051be	0.031327955
159	0x3d735858	0.059410423
160	0xbd52fc2a	-0.051510014
161	0xbbbf1110	-0.0058308914
162	0x3d13eeef	0.036116537
163	0xbd4b3e81	-0.049620155
164	0x3d0e368a	0.03471998
165	0x3ca7b819	0.020473527
166	0xbcc4e394	-0.024034299
167	0x3d5bd439	0.05366919
168	0x3d9e3b51	0.077261575
169	0xbd64d688	-0.055868655
170	0xbda75598	-0.081706226
171	0x3da8aa03	0.08235552
172	0x3d8eafce	0.06967126
173	0x3cc21b07	0.023694528
174	0x3ca96cbd	0.020681733
175	0x3d60e7e7	0.05490866
176	0xbc0be9c2	-0.008539619
177	0xbccfbc95	-0.025358478
178	0x3d6485d3	0.055791687
179	0xbdae3670	-0.08506477
180	0x3c35c815	0.011095067
181	0x3dab02b8	0.08350128
182	0xbbafd7ad	-0.0053662867
183	0x3d8a6fe7	0.06759625
184	0x3a07e021	0.0005183239
185	0x3cf0e905	0.029407987
186	0x3d1e45d8	0.038640827
187	0xbccddff3	-0.025131201
188	0x3d00f102	0.031479843
189	0x3d13e36a	0.03610555
190	0xbcaa9db2	-0.020827148
191	0x3d625bc1	0.055263285
192	0x3db3b6fd	0.087751366
193	0xbb80df2e	-0.003932855
194	0xbd5626ab	-0.05228297
195	0xbb4bacb5	-0.0031078283
196	0x3cc780ad	0.02435335
197	0x3d9581e8	0.07300168
198	0x3d9d27d8	0.07673615
199	0xbd6d5e8e	-0.057951503
200	0x3d8fd3bb	0.07022806
201	0xbd49997b	-0.049218636
202	0xbd773871	-0.06035656
203	0xbd34f406	-0.04417803
204	0xbc1ae20f	-0.009453311
205	0xbd99d63a	-0.075115636
206	0xbda770f6	-0.081758425
207	0x3d126fa6	0.035751007
208	0x3d60d418	0.05488977
209	0x3ae22329	0.001725291
210	0x3d93bcdd	0.07213757
211	0xbcffbe00	-0.031218529
212	0x3d74dbc6	0.059779905
213	0xbd8472ab	-0.06467184
214	0xbd0a1203	-0.033708584
215	0xbc9b55f7	-0.01896189
216	0xbd475859	-0.04866824
217	0x3d1f7513	0.03893001
218	0xbce39594	-0.027781285
219	0x3db17b49	0.08666093
220	0x3d7a93d2	0.06117613
221	0xbd4adb2c	-0.049525425
222	0x3c1fea8a	0.009760508
223	0xbd53d39b	-0.051715475
224	0xbcfe54ad	-0.031046236
225	0x3d1b0887	0.03784993
226	0x3c0896e1	0.008336754
227	0xbd244938	-0.04010889
228	0x3d59ad34	0.053143695
229	0x3cb4640c	0.022020362
230	0xbc7d1026	-0.015445745
231	0xbd8cc042	-0.06872608
232	0xbcc59c67	-0.02412243
233	0x3d6e9a9b	0.058252912
234	0x3cd421e3	0.025895065
235	0xbd15120f	-0.036394175
236	0xbd014bcc	-0.031566426
237	0xbd476939	-0.048684333
238	0xbd1b1028	-0.037857205
239	0x3c82c7a2	0.015964333
240	0xbd04ee69	-0.03245393
241	0xbc915b00	-0.017743587
242	0x3cb6a16c	0.022293769
243	0xbbf5c86b	-0.0075006983
244	0x3d5d1373	0.053973626
245	0x3b2a5916	0.002599304
246	0x3d22a692	0.039709635
247	0x3d7ec12f	0.062195953
248	0x3a8ff216	0.0010982181
249	0x3c365d3d	0.011130628
250	0x3d2dc988	0.042428523
251	0x3cef1355	0.029184023
252	0xbd90b3d6	-0.07065551
253	0xbd8ce6cb	-0.06879958
254	0x3d9bc379	0.07605643
255	0x3b04efe0	0.0020284578

conv1.bias f4 [6]
0	0xbd826c2d	-0.06368289
1	0x3da57c08	0.08080298
2	0x3da88a7c	0.08229539
3	0x3d90479b	0.07044908
4	0x3dafbdc8	0.0858112
5	0x3ce76729	0.028247433

conv2.weight f4 [16, 6, 5, 5]
0	0x3d979a9f	0.074025385
1	0x3d8f067d	0.069836594
2	0xbb329e41	-0.0027254971
3	0xbcfec8b0	-0.031101555
4	0xbbd403bd	-0.006470172
5	0x3d0caa09	0.034341846
6	0xbd98decc	-0.0746437
7	0xbcff4735	-0.031161884
8	0x3d52b420	0.05144131
9	0xbda61416	-0.081093
10	0xbce697d9	-0.028148578
11	0xbda2413e	-0.079226
12	0x3b60c901	0.0034299495
13	0xbcd7d4b5	-0.026346544
14	0xbd8cd6c7	-0.06876903
15	0xbd68d25c	-0.05684124
16	0x3c3d97a4	0.0115717985
17	0x3d45e057	0.04830965
18	0xbaee08ac	-0.0018160543
19	0xbd3a2ff7	-0.0454559
20	0x3cba43f7	0.022737486
21	0xbd8402a7	-0.064458184
22	0x3d58c124	0.05291857
23	0x3d482078	0.04885909
24	0x3d4557ec	0.048179552
25	0xbaa00c1d	-0.0012210641
26	0xbd58ce55	-0.05293115
27	0x3d499723	0.0492164
28	0xbd480d50	-0.04884082
29	0x3c0189d2	0.007906394
30	0x3d98c636	0.07459681
31	0xbd75c27b	-0.059999924
32	0x3d6d99fe	0.058008187
33	0x3d30ac92	0.043133326
34	0x3d46c85a	0.048530914
35	0x3d175f34	0.036956027
36	0xbd77beea	-0.060484804
37	0x3c058616	0.008149644
38	0x3d9a6a4e	0.07539807
39	0xbd8c066e	-0.06837164
40	0x3d3357ee	0.04378503
41	0xbd8781b7	-0.06616538
42	0xbd9260a6	-0.071473405
43	0xbd923aab	-0.07140096
44	0xbd91a953	-0.07112374
45	0x3d33e8aa	0.043923058
46	0xbd537caf	-0.05163258
47	0x3d23040b	0.039798778
48	0xbd083d6a	-0.033261694
49	0x3caea74d	0.02132001
50	0x3d951b2a	0.07280572
51	0x3d72cdfa	0.059278466
52	0xbcc1a1a5	-0.023636648
53	0xbc2363a2	-0.009972485
54	0x3d3ca470	0.046055257
55	0xbca2ff61	-0.019897165
56	0x3aac6911	0.0013153871
57	0x3d0085ff	0.03137779
58	0xbbf18127	-0.0073701325
59	0xba44e6ce	-0.0007511199
60	0xbd816269	-0.063175984
61	0x3b6e31fe	0.0036345716
62	0x3da29d3b	0.079401456
63	0xbd3fd1d9	-0.046830986
64	0xbd47395d	-0.04863869
65	0xbca430da	-0.020042825
66	0x3cd6ed8a	0.026236314
67	0x3d448fd4	0.047988728
68	0x3cad9f38	0.021194085
69	0x3da01eae	0.07818352
70	0xbd10845b	-0.035282474
71	0x3d9d533a	0.0768189
72	0xbbbeba65	-0.00582056
73	0xbc713e41	-0.014724315
74	0x3d16e022	0.036834843
75	0x3d3a0306	0.04541304
76	0x3d5f4e93	0.054518294
77	0xbd1a4980	-0.03766775
78	0x3b97edf5	0.004636521
79	0xbd329dd0	-0.043607533
80	0xbda0cba1	-0.07851339
81	0xbd7a3ab8	-0.061091155
82	0xbd371f79	-0.04470775
83	0x3c8385d6	0.016055029
84	0x3c37b8c4	0.011213485
85	0x3c6b138c	0.014347922
86	0xbcdd95a8	-0.0270489
87	0x3d38baeb	0.045100134
88	0xbb8e1431	-0.004335903
89	0xbc032a32	-0.008005666
90	0xbc975402	-0.018472675
91	0x3d29b1f1	0.041429464
92	0xbd95af1e	-0.073087916
93	0x3d5d4a51	0.05402595
94	0xbb7fd21b	-0.0039035145
95	0x3d208143	0.039185774
96	0x3d40b227	0.0470449
97	0x3d4079e6	0.04699125
98	0xbd0c25ac	-0.034215614
99	0x3cb63e73	0.022246575
100	0x3d602c89	0.054729972
101	0xbc56bd25	-0.013106619
102	0xba24f7eb	-0.0006293046
103	0x3d40de05	0.047086734
104	0xbcfe2216	-0.031022113
105	0xbd997732	-0.07493438
106	0x3d9a0036	0.075195715
107	0x3ca92be2	0.020650808
108	0xbd586bf6	-0.052837335
109	0x3b872277	0.0041239816
110	0x3c98397d	0.0185821
111	0x3d3180b1	0.04333562
112	0x3b175702	0.0023092632
113	0x3cca92f3	0.024728274
114	0x3d088280	0.03332758
115	0x3c51ff9f	0.0128172925
116	0xbd4ce742	-0.050025232
117	0x3d1009b0	0.03516549
118	0xbc828113	-0.015930688
119	0xbbfe288d	-0.007756299
120	0xbd7bf147	-0.061509397
121	0x3c9d67e7	0.019214584
122	0xbc3f7ece	-0.011687947
123	0xbd8e2e3e	-0.06942414
124	0x3d9b8d85	0.07595352
125	0x3d8c0f29	0.06838829
126	0xbd3e2662	-0.046423323
127	0xbc9e1631	-0.019297691
128	0x3d8190a2	0.06326415
129	0xbd9b0b6e	-0.075705394
130	0xbd4bf2fe	-0.049792282
131	0xbd86e215	-0.065860905
132	0xbcc8b100	-0.024498463
133	0xbd054058	-0.032532066
134	0xbd5bbd09	-0.053647075
135	0xbda603c7	-0.08106189
136	0xbd22b4c3	-0.03972317
137	0xbd9a2f4d	-0.07528553
138	0x3d62b66d	0.055349756
139	0xbd8de6f1	-0.06928814
140	0x3a503f82	0.0007944034
141	0xbd220f63	-0.039565455
142	0x3d601754	0.054709747
143	0xbcf2e60a	-0.029650707
144	0xbd9d4b21	-0.07680345
145	0xbd92d78d	-0.07170019
146	0x3d74c880	0.059761524
147	0xbd5754d0	-0.052571118
148	0x3d83f531	0.06443251
149	0x3d337420	0.043811917
150	0x3d952efe	0.07284354
151	0x3c0e135e	0.00867161
152	0x3d43965e	0.047750823
153	0x39b840dc	0.0003514354
154	0x3d67368b	0.0564485
155	0xbd022f8e	-0.031783633
156	0xbd808131	-0.06274641
157	0x3d0fac0b	0.035076182
158	0x3ca81cc0	0.020521522
159	0x3d186344	0.037204042
160	0xbd2a38bf	-0.041558024
161	0xbc330a7e	-0.0109277945
162	0xbc06616b	-0.008201937
163	0x3b5cfbe6	0.003371948
164	0xbd9df066	-0.07711868
165	0x3da5687b	0.08076569
166	0xbc8fef43	-0.017570144
167	0xbda43175	-0.08017246
168	0x3ca22afe	0.01979589
169	0x3ca0085b	0.019535234
170	0x3d592f7a	0.053023793
171	0x3d5bb57c	0.053639874
172	0xbd199ba4	-0.037501946
173	0xbd9e6536	-0.07734148
174	0xbd8b1609	-0.06791312
175	0xbd0b9912	-0.034081526
176	0x3cdb3203	0.026757246
177	0xbd80000e	-0.062500104
178	0x3c5833c9	0.01319594
179	0xbce16335	-0.027513126
180	0x3ab8f4b7	0.0014111017
181	0x3d8371e8	0.0641821
182	0xbb267e0f	-0.0025404727
183	0xbda3699c	-0.07979128
184	0xbd00e84d	-0.03147154
185	0x3d62849c	0.055302247
186	0xbd72a19b	-0.05923615
187	0x3d11e369	0.035617266
188	0x3d59f620	0.05321324
189	0xbd190415	-0.03735741
190	0x3d977e6f	0.07397162
191	0x3d833699	0.06406898
192	0xbd8b0985	-0.06788925
193	0x3d980a58	0.07423848
194	0xbc69bc31	-0.01426606
195	0x3d73deb5	0.05953856
196	0x3c8cded2	0.017196093
197	0x3d3c8e75	0.046034295
198	0x3d1247b7	0.035712924
199	0xbd9aa241	-0.07550479
200	0xbc8d43dd	-0.017244274
201	0x3c1682d8	0.009186469
202	0xbd739529	-0.059468422
203	0xbd22a48d	-0.03970771
204	0x3c8526f3	0.016253924
205	0x3da01bca	0.078178
206	0x3d6b986f	0.05751842
207	0x3d9aa328	0.07550651
208	0x3c7f77d9	0.015592539
209	0x3ac67ab4	0.001514277
210	0xbd80746e	-0.06272207
211	0x3c2e83e3	0.010651561
212	0xbb984d74	-0.004647905
213	0xbc20f8b7	-0.009824923
214	0x3cc79f52	0.024367962
215	0xbd3b856e	-0.045781545
216	0x3cba4401	0.022737505
217	0xbcdffd44	-0.027342446
218	0x3da01c81	0.07817937
219	0xbd3fc985	-0.046823043
220	0xbd05093a	-0.032479502
221	0xbc7613c5	-0.015019362
222	0x3da73b18	0.08165568
223	0xbc0e7f22	-0.008697303
224	0xbbcd2f73	-0.00626176
225	0x3d720b19	0.059092615
226	0xbcd7df5f	-0.026351629
227	0x3d2b4f7e	0.041823857
228	0x3b85725b	0.00407247
229	0xbc51631f	-0.01277998
230	0xbc8a8e0d	-0.016913438
231	0x3d07f936	0.03319665
232	0x3d9e6996	0.07734983
233	0xbd329679	-0.043600533
234	0xbd8e1799	-0.06938095
235	0xbcdd9a4a	-0.02705111
236	0xbd7aba42	-0.061212786
237	0xbc9f01a3	-0.01940996
238	0x3d41efae	0.047347717
239	0x3d805562	0.062662855
240	0xbd8611f5	-0.06546394
241	0x3d4a7716	0.049429975
242	0x3d9a1613	0.075237416
243	0x3cb4a59b	0.022051623
244	0x3c2435c5	0.010022585
245	0x3d9fa0cb	0.07794341
246	0x3d8f0659	0.069836326
247	0xbbc3ee87	-0.0059793624
248	0xbd4a2705	-0.04935362
249	0xbd3f5d36	-0.046719752
250	0xbd8eefe7	-0.069793515
251	0x3db03907	0.08604627
252	0xbd4dc2e1	-0.05023468
253	0x3da4c3fc	0.080451936
254	0xbd6edb1c	-0.058314428
255	0xbd26093f	-0.04053616

conv2.bias f4 [16]
0	0xbd90238a	-0.070380285
1	0xbbcd9f89	-0.0062751216
2	0x3d40309d	0.04692136
3	0x3d0b02ea	0.033938326
4	0xbcc6915c	-0.024239235
5	0x3d8b651f	0.06806397
6	0x3d0ac192	0.03387601
7	0x3dfb9928	0.122850716
8	0x3b9f5bec	0.004863253
9	0x3d86427b	0.06555649
10	0x3db191fb	0.08670422
11	0x3e018403	0.12648015
12	0xbd2859af	-0.041101154
13	0x3d8950c1	0.06704856
14	0xbd8d928d	-0.06912718
15	0x3c3ca4f2	0.011513935

fc1.weight f4 [120, 584]
0	0xbc0e2f29	-0.008678236
1	0x3c8208e8	0.015873387
2	0xbd1b2bb3	-0.03788347
3	0xbcb95ef9	-0.022628294
4	0xbc46b6ee	-0.012128575
5	0x3cc8245e	0.024431404
6	0xbcb671cb	-0.022271058
7	0xbb76661f	-0.003759749
8	0x3b338bbb	0.0027396518
9	0x3cac863f	0.021060107
10	0xbcc5ef96	-0.024162095
11	0xbc9eb39b	-0.019372752
12	0x3ca654ef	0.020304171
13	0xbc03702a	-0.008022347
14	0xbb8cacdf	-0.004293069
15	0xbcfdb883	-0.030971771
16	0x3cd4d7d5	0.025981823
17	0xbce394b3	-0.027780866
18	0x3d16d17e	0.03682088
19	0xbcdbe548	-0.026842728
20	0x3cdce5b4	0.026965
21	0x3c9f0fa6	0.019416641
22	0xbc12b2dd	-0.008953777
23	0xbd0985e1	-0.033574942
24	0xbbccacdb	-0.006246192
25	0xbc2c2140	-0.010505974
26	0xbc899b5f	-0.01679772
27	0xbca0f157	-0.01964633
28	0x3cbf9a88	0.023389116
29	0xbca5fb29	-0.020261364
30	0x3cd150f1	0.025551291
31	0xbc99ef66	-0.018790912
32	0xbd0a30fd	-0.033738125
33	0x3c403810	0.011732116
34	0xbc84c06c	-0.016205035
35	0x3cba9004	0.02277375
36	0x3cbf0836	0.023319345
37	0xbcfd5dfe	-0.030928608
38	0x3c0ba9ba	0.008524353
39	0x3bfde3c9	0.0077481014
40	0xbce0dafb	-0.027448168
41	0x3c16966b	0.009191136
42	0x3cfaf4d3	0.03063432
43	0xbd1aa1be	-0.037751906
44	0x3d0d8c16	0.034557424
45	0xbc5d5c00	-0.013510704
46	0x3d25d451	0.040485684
47	0x3bac932f	0.005266569
48	0xbd10b68d	-0.035330344
49	0xbc61ed5c	-0.013789501
50	0xbd088769	-0.033332262
51	0x3cd7056d	0.026247704
52	0x3c8baded	0.017050708
53	0xbce2b0af	-0.02767214
54	0x3a805bcf	0.0009792986
55	0xbc98eb33	-0.01866684
56	0x3d12f043	0.035873663
57	0xbd27c7eb	-0.04096214
58	0xba4a95c2	-0.0007728004
59	0xbc12e74f	-0.008966281
60	0x3c9a8122	0.018860403
61	0x3d214f35	0.03938218
62	0x3b240eb3	0.0025033175
63	0xbc8814f9	-0.016611563
64	0x3c5c64e3	0.013451788
65	0x3ad949fe	0.0016577838
66	0x3b7e5b18	0.003881162
67	0xbcdd11a6	-0.026985954
68	0xbd0299ad	-0.031884838
69	0x3c13d2e6	0.00902245
70	0x3b8d3c5d	0.0043101744
71	0x3b077849	0.002067106
72	0xbd23bcf1	-0.03997511
73	0xbca476b2	-0.02007613
74	0x3ce54101	0.027985098
75	0x3d28fdcd	0.04125767
76	0x3c131b87	0.008978731
77	0xbcd3fcbf	-0.025877355
78	0x3c21df04	0.009879831
79	0x3c2f2277	0.010689369
80	0x3cf35425	0.02970321
81	0xbce0c1f9	-0.027436243
82	0x3d274f20	0.040846944
83	0xbd0a5a74	-0.03377767
84	0x3d02e7a9	0.03195921
85	0x3cccff0a	0.025023956
86	0x3c8eff87	0.01745583
87	0x3c91cc6f	0.017797677
88	0x3ca7f20f	0.020501165
89	0xbd142ae7	-0.036173727
90	0x3cbeabec	0.023275338
91	0x3cb21607	0.02173902
92	0x3c58fa08	0.013243206
93	0xbd04a972	-0.03238816
94	0xbcddeb5f	-0.027089773
95	0xbcfa43d0	-0.030549914
96	0x3c16b689	0.009198793
97	0x3d164d46	0.036694787
98	0xbc956a2d	-0.018239105
99	0x39e631f6	0.00043906242
100	0x3d0da10f	0.034577426
101	0x3d11d24e	0.035600953
102	0x3c90e66f	0.017688004
103	0x3c0a7a8b	0.008452068
104	0xbc88350a	-0.016626853
105	0x3d1323b0	0.035922706
106	0x3c62f1cd	0.013851595
107	0x3b5265da	0.0032104165
108	0xbc712f4b	-0.014720748
109	0xbc942539	-0.018084155
110	0xbcda9f27	-0.026687218
111	0x3d19e6d6	0.037573658
112	0xbd040cb2	-0.03223867
113	0x3cb7bf40	0.022430062
114	0x3c51a715	0.012796183
115	0x3cd5f1e8	0.026116326
116	0x3c81bd57	0.015837355
117	0x3bbd7f43	0.005782993
118	0xbd182bea	-0.037151255
119	0xbc199b16	-0.009375354
120	0x3c8c501f	0.017128048
121	0x3c4e96f8	0.012609236
122	0xbd08aa34	-0.033365443
123	0xbced5ee5	-0.028975913
124	0xbc8bb730	-0.017055124
125	0x3cb55012	0.022132907
126	0x3d16c580	0.036809444
127	0xbcc80b44	-0.024419434
128	0x3b0b1e6c	0.002122785
129	0x3bd6c912	0.006554731
130	0xbc710b34	-0.014712144
131	0xbb38f64c	-0.0028222976
132	0xbcdf676b	-0.027270993
133	0x3c622879	0.013803595
134	0x3bb7eb25	0.005612748
135	0x3ca8dc87	0.020612968
136	0x3d0251e4	0.03181638
137	0x3ceca1e5	0.028885791
138	0x3d0be38f	0.034152564
139	0x3ca596b2	0.020213459
140	0xbd098ca1	-0.03358138
141	0xbbc3958d	-0.0059687556
142	0x3b38ea17	0.00282157
143	0xbca267de	-0.019824918
144	0xbc454004	-0.012039188
145	0x3bbddd40	0.0057941973
146	0x3ce38491	0.027773174
147	0xbcf3eb39	-0.029775249
148	0xbbd6d79d	-0.006556465
149	0x3cc8df37	0.0245205
150	0xbcc41a44	-0.023938306
151	0xbb980df7	-0.0046403366
152	0x3b809051	0.003923454
153	0x3c847446	0.016168725
154	0xbc91fb0f	-0.01781991
155	0xbb8b02ae	-0.004242263
156	0x3c17dd14	0.009269018
157	0x3b70e240	0.003675595
158	0xbc44222c	-0.011971038
159	0x3bccfcae	0.0062557077
160	0xbb9fec6d	-0.004880479
161	0xbcc9e545	-0.024645457
162	0x3cab610c	0.020920299
163	0xbd067ea7	-0.03283563
164	0x3d08cc13	0.033397745
165	0xbcfa70e0	-0.030571401
166	0xbd23f935	-0.040032584
167	0x3cb0c0a2	0.02157623
168	0xbc853656	-0.016261261
169	0xbc9b35d8	-0.018946573
170	0x3c688f14	0.014194269
171	0xbbc68b5c	-0.0060590934
172	0x3d04a2cb	0.032381814
173	0xbd018205	-0.031618137
174	0xbd1c32b9	-0.03813431
175	0x3cc08103	0.023499018
176	0xbc9cf347	-0.019158972
177	0x3b85d6ba	0.0040844353
178	0x3a748575	0.0009327748
179	0x3c58b0c4	0.013225738
180	0x3beddc97	0.0072589624
181	0x3d1946a2	0.037420876
182	0xbc9aa9df	-0.018879829
183	0xbc40b946	-0.011762923
184	0x3d2e6347	0.042575147
185	0xbc7f1f88	-0.0155714825
186	0xba011e62	-0.0004925487
187	0xbcc9f65d	-0.024653608
188	0xbca51758	-0.020152733
189	0xbcd1b7d6	-0.025600355
190	0xbc88a31f	-0.016679345
191	0x3c67d136	0.014149001
192	0xba20323a	-0.0006111
193	0xbcc15628	-0.023600653
194	0xbc29682d	-0.010339779
195	0x3c5496ee	0.012975438
196	0xbc9cebe7	-0.019155456
197	0xbc83107f	-0.015999077
198	0xbc6c2cdf	-0.014414995
199	0x3d1736a8	0.03691736
200	0xbc684623	-0.014176878
201	0x3ca287e8	0.019840196
202	0x3ca1ca86	0.019749891
203	0x3d05b931	0.032647315
204	0xbce46be6	-0.027883481
205	0x3cad6a3f	0.021168826
206	0x3c1cf269	0.009579279
207	0xbaaa5d6f	-0.0012997816
208	0xbc7a6c19	-0.015284562
209	0xbc4f0cdb	-0.012637342
210	0x3d2700e4	0.040772334
211	0xbb801af6	-0.003909464
212	0x3b9f7d45	0.004867228
213	0xbbbef2b5	-0.005827273
214	0x3c936a35	0.01799498
215	0x3cc916c3	0.024546986
216	0x3cf51571	0.02991745
217	0xbcaf6509	-0.021410482
218	0x3d1e3918	0.038628668
219	0x3beff4bc	0.007322876
220	0xbc6e7737	-0.01455479
221	0xbd0848f5	-0.033272702
222	0x3c0467b7	0.008081368
223	0x3d112f77	0.035445657
224	0xbc5387ad	-0.012910766
225	0x3b4d6b0a	0.0031344318
226	0x3cfb1ba6	0.030652832
227	0x3ceb54e9	0.028727012
228	0xbc05e578	-0.008172385
229	0xbc09a6d7	-0.008401594
230	0xbc793373	-0.01521002
231	0xbc43ac25	-0.011942898
232	0x3ca4c407	0.020113004
233	0xbd06498d	-0.032784987
234	0x3cfd21b4	0.03089986
235	0x3c68776a	0.014188627
236	0xbb4ec2a3	-0.0031549118
237	0xbbcd18b2	-0.0062590474
238	0x3bf2a4ca	0.0074048983
239	0xbb86aed9	-0.004110199
240	0x3d3033f1	0.043018285
241	0xbc62e086	-0.013847476
242	0xbd11b211	-0.035570208
243	0xbcb155ff	-0.021647451
244	0x3c2904cb	0.010316084
245	0x3c713b64	0.0147236325
246	0xbcfbfc91	-0.030760081
247	0xbceb4553	-0.02871958
248	0x3d140b23	0.036143433
249	0xb954a7b6	-0.00020280373
250	0x3c8b034d	0.016969347
251	0xbc0f687b	-0.008752937
252	0xbbdc89c9	-0.0067302925
253	0x3d0b0380	0.033938885
254	0x3c8a0ed1	0.016852768
255	0x3bf9116f	0.007600955

fc1.bias f4 [120]
0	0xbb3a3f37	-0.0028419027
1	0xbd0be54d	-0.034154225
2	0xbcd8db4d	-0.026471758
3	0xbcecbcf4	-0.028898694
4	0xbb6e806f	-0.003639247
5	0x3bab587f	0.0052290554
6	0x3c68e5f4	0.014214981
7	0xbd124fc9	-0.03572062
8	0x3d09274f	0.033484753
9	0x3cc7aff8	0.0243759
10	0x3ce4c0f1	0.027924033
11	0x3c48659e	0.012231259
12	0xbcc1f9f9	-0.023678767
13	0x3ce3a25e	0.027787384
14	0xbca0d2bd	-0.019631738
15	0x3bca5aa0	0.006175354
16	0x3cad2274	0.021134593
17	0xbc285d36	-0.0102761295
18	0x3cdc590c	0.02689793
19	0x3ced3bef	0.028959243
20	0x3cff3bf1	0.031156512
21	0x3d35bdba	0.04437039
22	0x3d1ecfea	0.0387725
23	0x3c98a4de	0.018633302
24	0xbcaf0fed	-0.021369899
25	0x3d20570e	0.03914552
26	0xbcf1596d	-0.029461587
27	0xbd100fd0	-0.03517133
28	0xbd119123	-0.035538804
29	0xbb9ef642	-0.0048511336
30	0x3d42c433	0.04755039
31	0xb8e7734c	-0.00011036414
32	0x3c93aa0c	0.01802542
33	0xbcbc3483	-0.022974258
34	0x3c753c9e	0.014968066
35	0x3cdf8708	0.027286068
36	0x3d3ad33e	0.045611612
37	0xbc2ba119	-0.01047542
38	0x3d3c61cc	0.045991704
39	0xbbe514c1	-0.0069909994
40	0x3b922242	0.0044596503
41	0xbd081cf2	-0.03323073
42	0xbb7fe674	-0.0039047273
43	0xbd051c8c	-0.032497928
44	0xbcfae34b	-0.03062596
45	0x3d086444	0.033298746
46	0x3bfa3291	0.0076354225
47	0xbca55da0	-0.020186245
48	0x3c258b8e	0.010104073
49	0x3d1dd14f	0.03852969
50	0xbbd170e5	-0.006391632
51	0x3d41bacd	0.047297288
52	0xbcc93952	-0.024563465
53	0xbcb97955	-0.022640863
54	0xbcc7cc6e	-0.024389472
55	0xbcd4d236	-0.025979143
56	0x3d2f2bed	0.0427665
57	0x3cb6ce94	0.022315301
58	0x3b99241a	0.004673493
59	0xbbbdae33	-0.0057885884
60	0xbd0db74d	-0.034598637
61	0x3d521c98	0.0512968
62	0xbcdd3e4d	-0.027007246
63	0xbcc9f72b	-0.024653992
64	0xb87b6e53	-5.994581e-05
65	0xbcb99d3c	-0.022657983
66	0x3bbc9ddd	0.0057561235
67	0x3bb25250	0.0054419413
68	0x3d0b66a3	0.03403343
69	0xbca16da9	-0.01970561
70	0xbd1390b7	-0.036026683
71	0xbc87f821	-0.01659781
72	0x3911491e	0.00013855516
73	0xbb0c2936	-0.0021386868
74	0x3d2fcc73	0.042919587
75	0xbba6a5ec	-0.0050856974
76	0x3c6a9354	0.014317352
77	0x3ce9bce9	0.028532462
78	0x3d056c16	0.032573782
79	0xba843cef	-0.001008896
80	0xbc565737	-0.013082317
81	0xbbddf2fe	-0.0067733517
82	0x3c30f04f	0.0107994815
83	0xbc0fcd37	-0.008776954
84	0x39550a9a	0.00020317212
85	0x3c7db271	0.015484438
86	0x3ca3ffba	0.0200194
87	0x3ce7a585	0.028277168
88	0x3cec760d	0.028864885
89	0x3d0d5854	0.034508064
90	0x3c6cd61f	0.014455347
91	0x3d110497	0.035404768
92	0xbbf2d88f	-0.0074110697
93	0x3c897ac9	0.016782181
94	0xba3d69b2	-0.00072255277
95	0x3a486c4f	0.0007645534
96	0x3d162e29	0.036665116
97	0x3c56808f	0.013092174
98	0x3c986cf2	0.018606637
99	0xbcebdf05	-0.028792867
100	0xba1e817e	-0.00060465175
101	0x3aa528ad	0.0012600623
102	0x3ce90a61	0.028447332
103	0xbd0f68e6	-0.03501215
104	0x3c4903d6	0.012268981
105	0x3d3ab464	0.04558219
106	0x3c70a1f9	0.014687055
107	0xbc7da18e	-0.015480412
108	0x3d09e559	0.03366599
109	0xbca08ce7	-0.019598437
110	0x3d3907f2	0.045173593
111	0x3d00ade9	0.031415854
112	0xbc96a788	-0.018390432
113	0x3c8b5980	0.01701045
114	0x3c95e63f	0.018298266
115	0x3c32cbbf	0.010912835
116	0xbcb2a8a0	-0.021808922
117	0x3cb9d2c0	0.022683501
118	0xbb8c385b	-0.004279179
119	0x3bdc3d4c	0.0067211743

fc2.weight f4 [84, 120]
0	0x3df01640	0.11722994
1	0x3d9bc97b	0.07606789
2	0x3cdc3cdb	0.026884487
3	0x3d57130a	0.05250839
4	0x3db5cb2c	0.088766426
5	0x3d03766a	0.03209535
6	0x3d8850eb	0.06656059
7	0x3d678674	0.05652471
8	0xbcaa4c0f	-0.02078822
9	0xbc21b6bf	-0.00987023
10	0xbd73bbc0	-0.059505224
11	0x3d811e68	0.06304628
12	0x3da6cb80	0.08144283
13	0x3c55e017	0.013053915
14	0x3c2428dc	0.010019507
15	0xbd8cd8e8	-0.06877309
16	0x3db3c779	0.08778281
17	0xbdae78ac	-0.0851911
18	0x3cb90063	0.022583192
19	0x3cdb8d58	0.026800796
20	0x3db19209	0.08670432
21	0xbc9f843f	-0.01947224
22	0x3c43a485	0.01194108
23	0x3cffa83f	0.031208156
24	0xbd40fde0	-0.047117114
25	0x3db305bc	0.08741328
26	0xbc23081f	-0.009950667
27	0x3dc9d1b3	0.0985445
28	0xbd009761	-0.031394366
29	0x3d660a60	0.056162238
30	0x3d24de32	0.040250964
31	0x3a3df94a	0.0007246925
32	0x3d1fe295	0.039034445
33	0x3d36033f	0.04443669
34	0x3d3afbd8	0.045650333
35	0x3d46bb20	0.0485183
36	0x3e0fd564	0.14046246
37	0x3d51b73e	0.051200144
38	0xbbb6021c	-0.0055544507
39	0xbcda501a	-0.026649524
40	0xbcfa39f7	-0.030545218
41	0x3d8519a0	0.06499028
42	0xbd71a5d4	-0.058996037
43	0x3d974315	0.07385842
44	0xbd00a20f	-0.03140455
45	0xbd8978b4	-0.067124754
46	0x3db3235f	0.08746981
47	0x3c8c9812	0.017162357
48	0x3db9cff3	0.09072866
49	0xbd94ae46	-0.072598025
50	0xbd81ed66	-0.06344108
51	0xbd845404	-0.06461337
52	0xbd096af8	-0.03354928
53	0x3d91fb48	0.07128006
54	0xbcf4ef95	-0.029899398
55	0xbd8cf6d9	-0.0688302
56	0xbab70b8a	-0.0013965231
57	0x3b44fb5a	0.0030057044
58	0x3c85dfe5	0.016342113
59	0xbc43d2d5	-0.011952122
60	0x3daf78cf	0.08567964
61	0x3d293f55	0.041320164
62	0x3d16b105	0.036789913
63	0x3d48158d	0.048848677
64	0x3d4fee0f	0.05076414
65	0xbc6154b9	-0.01375311
66	0x3d82e669	0.063916035
67	0xbd945c01	-0.07244111
68	0xbdc1795e	-0.09446977
69	0xbd96b66e	-0.073590145
70	0xbd6adb17	-0.057337847
71	0xbd5ae362	-0.053439505
72	0xbd91d46f	-0.071205966
73	0xbbf91c4f	-0.0076022516
74	0x3d208d00	0.039196968
75	0xbd10d5cd	-0.035360146
76	0x3da18a82	0.078877464
77	0x3d1c61c8	0.03817919
78	0xbdba9d1a	-0.09111996
79	0xbca51446	-0.020151269
80	0x3dfe3747	0.12412887
81	0xbcbedc9f	-0.02329856
82	0xbd2170af	-0.039414104
83	0x3d89ac88	0.06722361
84	0x3c567e8a	0.013091693
85	0x3d19b0c7	0.037522104
86	0xbc5c33b4	-0.013440061
87	0x3d8bb5c9	0.06821782
88	0xbc047253	-0.008083898
89	0xbdab8e63	-0.083767675
90	0x3d1ed4d5	0.03877719
91	0x3d73a81d	0.059486497
92	0xbd4ba9ad	-0.049722362
93	0xbdbecbb9	-0.09316201
94	0x3b20e70d	0.002455178
95	0xbb640d06	-0.0034797802
96	0x3d580e13	0.052747797
97	0x3d063848	0.032768518
98	0x3d80749f	0.06272244
99	0x3ab45ebe	0.0013761146
100	0xbdb45918	-0.08806056
101	0xbd803d94	-0.06261745
102	0x3d73ef3f	0.059554335
103	0xbc76b413	-0.0150575815
104	0xbbc65fcc	-0.0060539003
105	0x3c00cdaf	0.007861539
106	0xbbe97edd	-0.007125719
107	0xbc3a7863	-0.0113812415
108	0xbd91ba38	-0.071155965
109	0xbdb172a8	-0.08664447
110	0x3dbc1f6e	0.09185682
111	0x3d681401	0.056659702
112	0xbd69ed66	-0.057111166
113	0x3d9dd541	0.077066906
114	0xbb50a393	-0.003183578
115	0x3db571f6	0.08859627
116	0x3d910cf5	0.070825495
117	0x3d471f16	0.04861363
118	0xbc9578bc	-0.018246047
119	0x3caff0ad	0.021477068
120	0x3d914362	0.070929304
121	0x3db0cad9	0.0863244
122	0x3d7854b3	0.06062765
123	0x3d634fc1	0.05549598
124	0xbd39ce78	-0.04536292
125	0x3d5f2a70	0.05448383
126	0xbc1df162	-0.00964007
127	0x3ca5ffe0	0.020263612
128	0x3c7fdfae	0.015617294
129	0xbd86632d	-0.06561885
130	0x3d47a582	0.048741825
131	0x3caf674c	0.02141156
132	0xbcae4819	-0.021274613
133	0xbd49bc67	-0.04925194
134	0x3da9bf0b	0.08288392
135	0x3cbb597c	0.022869818
136	0xbda3f21e	-0.080051646
137	0x3d7c3593	0.06157453
138	0x3d9ab8df	0.075547926
139	0x3d95f789	0.07322604
140	0xbd86abc9	-0.06575734
141	0xbca05fd8	-0.019576952
142	0xbcd82961	-0.026386919
143	0xbda3e1b9	-0.080020376
144	0x3a692838	0.00088942377
145	0xbda7381f	-0.08165001
146	0xbd1794ae	-0.037007026
147	0xbd024911	-0.031807963
148	0xbd9c3788	-0.07627779
149	0xbb3c8693	-0.0028766736
150	0xbd37e22f	-0.04489344
151	0xbd41c6c3	-0.047308695
152	0x3d864068	0.06555253
153	0x3d44b850	0.048027337
154	0x3d7c66cf	0.061621483
155	0xbd8d9133	-0.0691246
156	0xbd92a4c2	-0.07160331
157	0xbdb4eee1	-0.08834625
158	0x3d7e42d2	0.062075444
159	0x3d16d52a	0.036824383
160	0xbcfe97a1	-0.031078162
161	0xbd7c6b79	-0.06162593
162	0x3dab9814	0.08378616
163	0xbd4086b3	-0.04700346
164	0xbc92fb19	-0.017941998
165	0xbce4214e	-0.027847912
166	0xbd54c229	-0.051942978
167	0xbcb914dc	-0.022592954
168	0x3cbea1b4	0.023270465
169	0x3d99cacf	0.07509386
170	0x3d319892	0.043358393
171	0xbd043b6f	-0.032283243
172	0xbd884b84	-0.066550285
173	0xbd46e977	-0.048562493
174	0x3d8b97ef	0.068160884
175	0x3d07f0f2	0.033188768
176	0x3bfce120	0.0077172667
177	0x3d8338b7	0.06407302
178	0xbd7be41d	-0.061496843
179	0x3cdd0fd6	0.02698509
180	0xbdbd267f	-0.09235858
181	0xbcca9871	-0.024730893
182	0xbdaf9e62	-0.08575131
183	0xbcef4f22	-0.029212538
184	0xbcf3c24e	-0.029755738
185	0x3b5de61a	0.0033859075
186	0xbd1fb714	-0.038992956
187	0xbca16080	-0.019699335
188	0x3c5eb822	0.013593705
189	0x3d6c892e	0.057748012
190	0xbd70c8d7	-0.058785286
191	0xbd59a61f	-0.05313694
192	0x3d6d88bb	0.057991724
193	0xbb71239e	-0.003679491
194	0x3c6028c0	0.013681591
195	0xbc2ddf6c	-0.01061235
196	0x3d79d14b	0.060990613
197	0xbb62dd0c	-0.0034616617
198	0x3d91c591	0.07117761
199	0xbd1daf3d	-0.0384972
200	0x3db65c6f	0.08904349
201	0xbd79fdf4	-0.061033204
202	0xbb4c0723	-0.0031132184
203	0x3bc3835f	0.0059665884
204	0x3d6dd7db	0.058067184
205	0x3b47f797	0.0030512565
206	0x3cb651a0	0.022255719
207	0xbd835f60	-0.06414676
208	0x3d55b3cf	0.052173432
209	0x3bf9562f	0.007609151
210	0xbd9695df	-0.073528044
211	0x3c3156b4	0.010823894
212	0xbc75aa70	-0.014994249
213	0x3d1ce42e	0.038303547
214	0x3d513d92	0.05108411
215	0x3d93f0c3	0.07223656
216	0xbb58ccbf	-0.0033081023
217	0x3cea10a2	0.028572384
218	0x3d39bcca	0.04534606
219	0x3b80e876	0.0039339615
220	0x3c221aed	0.009894115
221	0x3c792b1b	0.015208031
222	0x3dafc420	0.0858233
223	0xbb97fc0f	-0.004638202
224	0xbc0afe95	-0.008483549
225	0xbd970cad	-0.073754646
226	0xbb0ef967	-0.0021816136
227	0xbd435b05	-0.047694225
228	0xbd065cf5	-0.032803494
229	0x3c74655a	0.014916742
230	0xbda17a8c	-0.07884702
231	0xbd83e95e	-0.06440996
232	0xbd00925b	-0.031389575
233	0xbb97ed5a	-0.004636449
234	0xbd215da0	-0.03939593
235	0x3d64f0d3	0.05589373
236	0x3d6be6e4	0.05759324
237	0xbd2e9f4e	-0.042632394
238	0x3d633803	0.05547334
239	0xbd7b2b48	-0.061320573
240	0x3d7b30ac	0.061325714
241	0x3ba437f0	0.005011551
242	0xbc5cf7a8	-0.01348678
243	0xbd95b528	-0.073099434
244	0xbda151f3	-0.07876959
245	0xbd07174e	-0.03298121
246	0x3c61e191	0.013786689
247	0x3cf08b6c	0.029363357
248	0x3d6d9df9	0.058011983
249	0x3d76aeb9	0.060225222
250	0x3d26ca69	0.040720377
251	0x3da87378	0.08225149
252	0xbd87c82d	-0.066299774
253	0xbd4c7114	-0.049912527
254	0xbd6938d1	-0.05693895
255	0xbd001170	-0.03126663

fc2.bias f4 [84]
0	0x3d751abb	0.059839945
1	0x3d02962d	0.0318815
2	0x3cdd11f6	0.026986104
3	0x3d1f1e1a	0.038847066
4	0x3cd7cdc6	0.026343238
5	0xbd8e31f4	-0.069431216
6	0x3d9f2fe0	0.07772803
7	0x3c8b280b	0.016986867
8	0xbd4af5ca	-0.04955081
9	0xbabe3f44	-0.0014514704
10	0xbcabf6c5	-0.020991692
11	0x3ce87858	0.028377697
12	0x3d3f5bb0	0.0467183
13	0x3d3ac682	0.045599468
14	0xbc43f851	-0.011961059
15	0x3d74d47d	0.059772957
16	0x3daab636	0.08335535
17	0xbc967629	-0.01836689
18	0x3d957229	0.07297165
19	0xbd81e223	-0.0634196
20	0xbd88c582	-0.066782966
21	0xbd6efa12	-0.058343954
22	0x3da368e4	0.07978991
23	0xbd01fd07	-0.031735446
24	0x3dab5f31	0.08367766
25	0xbda8b060	-0.08236766
26	0x3c84cf86	0.016212236
27	0xbcdd01cf	-0.026978401
28	0x3dccaf0f	0.09994327
29	0x3d1747fa	0.036933877
30	0x3db686fd	0.08912466
31	0xbc61e9ed	-0.013788682
32	0x3d73c8fc	0.059517846
33	0x3d82266c	0.06354985
34	0x3c08996d	0.008337361
35	0x3cf93b64	0.030423827
36	0x3d9df335	0.07712404
37	0x3c96b142	0.01839507
38	0xbd7b526c	-0.0613579
39	0x3daf0079	0.08545012
40	0xbcc67e1f	-0.024230061
41	0x3ca735bb	0.020411363
42	0x3c2bac10	0.010478035
43	0x3c65b5d0	0.014020398
44	0x3d932a20	0.07185769
45	0x3d8e71bf	0.06955289
46	0x3d4d465e	0.050115936
47	0x3dc0e591	0.09418786
48	0x3db9ff32	0.09081878
49	0xbd35957a	-0.044332005
50	0x3db7aa1a	0.08967991
51	0x3d4ce5d1	0.050023858
52	0x3d743814	0.059623793
53	0xbd38132a	-0.04494015
54	0x3bcb377f	0.006201684
55	0x3b760194	0.0037537562
56	0x3d130ad7	0.03589901
57	0x3ce6310c	0.02809956
58	0x3c4586ba	0.012056047
59	0xbd59dccf	-0.053189095
60	0x3dc86dfb	0.09786602
61	0x3d86a1a7	0.065738015
62	0x3b84ca07	0.004052404
63	0xbd687f1c	-0.056761846
64	0xbc16f954	-0.009214718
65	0x3dc8912d	0.09793315
66	0xbd374ca5	-0.04475083
67	0xbd9d9e59	-0.07696218
68	0xbce0dd88	-0.027449384
69	0xbd7f959f	-0.06239855
70	0xbd917285	-0.07101921
71	0xbcc4f222	-0.02404124
72	0x3d153b9a	0.036433794
73	0xbbea7bb3	-0.0071558594
74	0xbd329839	-0.043602202
75	0xbd85aa9d	-0.065266825
76	0xbd51a689	-0.05118421
77	0xbd88d000	-0.06680298
78	0xbd28d8a7	-0.04122224
79	0xbd1a9293	-0.03773744
80	0x3dd89864	0.10575941
81	0x3da1d787	0.07902437
82	0xbd6ddbf4	-0.05807109
83	0x3d575483	0.05257083

fc3.weight f4 [2, 84]
0	0x3e491de3	0.19640307
1	0x3de4133f	0.111364834
2	0xbe515aab	-0.20444743
3	0x3cee6698	0.029101655
4	0x3e30ad73	0.17253666
5	0x3d916407	0.07099157
6	0x3ea12409	0.31472805
7	0x3dda325f	0.10654139
8	0x3c9fcf00	0.019507885
9	0x3d1afe07	0.037839916
10	0xbecda006	-0.4016115
11	0x3e78ed00	0.24309158
12	0xbc0349b5	-0.008013179
13	0xbea4cdee	-0.32188362
14	0xbe347266	-0.17621765
15	0x3e67f135	0.22650607
16	0x3def032d	0.116705276
17	0xbc43e133	-0.011955547
18	0xbdefc238	-0.11706966
19	0x3db19734	0.08671418
20	0x3e2cab21	0.16862155
21	0x3d85db11	0.06535924
22	0xbddb02c5	-0.106938876
23	0xbb1dafa0	-0.002406098
24	0xbdba79bc	-0.0910525
25	0xbd3bb095	-0.0458227
26	0xbc6fe37e	-0.014641641
27	0x3da7eb90	0.08199227
28	0x3e6148e2	0.22000459
29	0x3e44182c	0.19149846
30	0x3daebd79	0.08532233
31	0xbc8055af	-0.015665857
32	0x3e308084	0.17236525
33	0x3e1b3fd7	0.15161072
34	0x3cfe3f29	0.031035976
35	0x3e3600f7	0.17773806
36	0x3d237d63	0.0399145
37	0xbd95f0f8	-0.07321352
38	0x3e108ec9	0.14116968
39	0xbe9db7d0	-0.308043
40	0xbe572307	-0.21009456
41	0xbded236a	-0.1157902
42	0x3dfd5c19	0.12371082
43	0x3dbec82e	0.09315525
44	0xbcea412b	-0.028595528
45	0xbbf44934	-0.0074550156
46	0xbe36a2cd	-0.17835541
47	0xbe9aa942	-0.30207258
48	0x3c817ed6	0.01580755
49	0xbd81e87e	-0.063431725
50	0x3e267618	0.16255987
51	0x3dfed44e	0.12442838
52	0x3ce2ead2	0.027699862
53	0x3d597ff6	0.05310055
54	0x3e1e405a	0.15454236
55	0x3d158c4b	0.036510747
56	0x3b32e82a	0.0027299025
57	0xbe85f20d	-0.26161233
58	0x3e2ffe8a	0.17186943
59	0xbd2611d7	-0.040544357
60	0xbe4d98d3	-0.20077829
61	0x3cc45e4f	0.023970751
62	0x3dad6bee	0.084678516
63	0xbdaf20fe	-0.08551215
64	0x3e4f33e2	0.20234635
65	0x3d2f0c91	0.042736594
66	0xbde80a22	-0.11330058
67	0x3e6a8393	0.22901754
68	0x3d7a6289	0.061129127
69	0x3da4aed4	0.08041158
70	0xbe64d527	-0.22346936
71	0xbe8805af	-0.26566836
72	0xbe418848	-0.18899643
73	0x3e46748d	0.19380398
74	0x3da22255	0.079167046
75	0xbc360c8c	-0.01111139
76	0x3dca47e7	0.098769955
77	0x3d63466b	0.055487078
78	0xbda867b5	-0.082229055
79	0x3ccf524f	0.025307802
80	0xbe180825	-0.14846857
81	0xbe335aee	-0.17515156
82	0x3e697b89	0.22801031
83	0x3dc75f8d	0.09735022
84	0xbe49f0b9	-0.19720735
85	0xbd042b62	-0.032267936
86	0xbd7b6f8e	-0.061385684
87	0xbd832454	-0.064034134
88	0x3e4dd11d	0.20099302
89	0xbc6a9889	-0.014318594
90	0xbe590c49	-0.21196093
91	0x3d194774	0.03742166
92	0xbe9cc01a	-0.30615312
93	0x3d6199ac	0.055078194
94	0xbca0f0bf	-0.019646047
95	0x3cafbd61	0.021452608
96	0x3e138cf3	0.14409237
97	0xbe5322de	-0.2061877
98	0x3d20f2a4	0.0392939
99	0x3e182950	0.1485951
100	0xbde8c83c	-0.11366317
101	0xbe3aa036	-0.18225178
102	0x3e6f46f7	0.23366915
103	0xbe37a0cc	-0.17932433
104	0xbe46890e	-0.1938822
105	0xbba87e88	-0.005142037
106	0xbe359a8b	-0.17734735
107	0x3d7e16a2	0.062033303
108	0xbd82bec7	-0.06384044
109	0x3d966b1f	0.073446505
110	0xbca9afb7	-0.02071367
111	0x3e4f071f	0.2021756
112	0xbe391271	-0.18073441
113	0xbe2935a2	-0.16524366
114	0x3d983948	0.074328005
115	0xbe5aec40	-0.21379185
116	0xbcc1aaa0	-0.02364093
117	0x3e8ef0fd	0.27918234
118	0xbe395317	-0.18098103
119	0xbd7fa77e	-0.062415592
120	0x3e7389b7	0.23783003
121	0x3dab653a	0.08368917
122	0x3db64b52	0.08901085
123	0x3e8f863b	0.28032097
124	0x3c27e41d	0.010247258
125	0x3cdd0067	0.02697773
126	0xbe7b8d8b	-0.24565713
127	0x3e885d4a	0.26633674
128	0x3dbbbedb	0.09167262
129	0xbe8f2027	-0.27954218
130	0xbe2344ac	-0.15944165
131	0xbd51473a	-0.051093318
132	0x3e510eeb	0.20415847
133	0x3e8ad1ea	0.27113277
134	0x3e21fff2	0.15820292
135	0xbe2bee09	-0.16790022
136	0x3d0f9c19	0.035060976
137	0x3d023750	0.03179103
138	0xbcf1d976	-0.029522639
139	0x3d003afc	0.031306252
140	0x3b95cf3b	0.004571823
141	0xbd6b0be8	-0.0573844
142	0x3e84b230	0.25917196
143	0x3dc5356a	0.096293285
144	0xbe63c708	-0.22243893
145	0x3e8c638e	0.27419704
146	0x3c504ee3	0.012714121
147	0x3dcf500d	0.1012269
148	0x3df2df32	0.118589774
149	0xbe47d5a4	-0.19515091
150	0x3e3a12b4	0.18171197
151	0x3dbd6e4f	0.09249555
152	0x3cf43069	0.02980824
153	0x3e0ca245	0.13733776
154	0x3d84502e	0.064606056
155	0x3d1eae59	0.03874049
156	0x3e8d982a	0.27655154
157	0x3e375b50	0.17905927
158	0xbd2645f8	-0.04059407
159	0x3e2deebc	0.16985601
160	0x3d89ece1	0.06734634
161	0xbc906fce	-0.017631438
162	0xbca1fd42	-0.019774083
163	0xbd232879	-0.03983352
164	0xbe5f851b	-0.2182812
165	0x3bc7de89	0.0060995263
166	0xbdd7424e	-0.105106935
167	0x3e0dff8a	0.13867012

fc3.bias f4 [2]
0	0x3d1b4801	0.037910465
1	0xbcbf0783	-0.023319012
