src/models/mix-noise-w-lagassist-noise.onnx (onnx, 336927 bytes, 10 tensors)

conv1.weight f4 [6, 5, 5, 5]
000000 4e d4 6a bd 6f 07 35 3a bd 43 2d bd 5f 9e 7a 3d
       -0.057331376 0.000690571 -0.04230093 0.06118619
000010 6b 92 90 3c d0 25 5a bc 9e ca 82 3d 8f e0 fc 3d
       0.017647943 -0.013314679 0.063863024 0.12347519
000020 b0 42 ba 3d 0f 68 d4 bc 42 1c f6 bc d9 a1 33 3c
       0.09094751 -0.025928525 -0.030042771 0.01096388
000030 d8 11 8d 3d 2f b6 4a 3d 04 23 11 3e 8b 19 35 bd
       0.06888169 0.04949015 0.14173514 -0.044213813
000040 f0 6b 37 3d c7 66 90 bc 89 e8 c8 3d df bc 7b bc
       0.04478067 -0.017627133 0.098099776 -0.015364855
000050 dc 6f a8 3d e1 d8 b2 3d cc a8 b3 3d 15 6b f1 3d
       0.082244605 0.087327726 0.0877243 0.117880024
000060 80 2c 00 3e 42 f6 bc 3d 6f 55 c5 3d d6 e0 16 3d
       0.12516975 0.092266575 0.09635436 0.036835514
000070 24 e4 e4 3d 59 89 d6 3b fa 79 43 bd 1c 7d 8e 3d
       0.11176327 0.006547135 -0.047723748 0.069574565
000080 27 03 6f bc fa a9 d6 3d 5f 17 0e 3e aa b5 b8 3d
       -0.014588154 0.10481639 0.13876103 0.09019025
000090 65 d6 1a 3e 48 77 29 3e 81 05 a9 3b 2e 14 e3 3d
       0.15120848 0.16549408 0.005158127 0.11087833
0000a0 ef af b0 3c 2a 87 05 3d 4d a2 cf bb 81 0a 1f 3e
       0.021568267 0.032599606 -0.0063364864 0.1553135
0000b0 46 31 1e bc 93 af 95 bb e8 e1 b2 3b 5a fb dd ba
       -0.009655302 -0.004568049 0.005459059 -0.001693587
0000c0 ce b3 cb 3d 71 ff fe bc 21 c9 ca 3b be 80 a2 3d
       0.099464044 -0.031127663 0.006188527 0.07934712
0000d0 f6 b9 19 3e f7 ec 12 3d 03 db 97 3d 04 e8 5e bc
       0.15012345 0.03587052 0.0741482 -0.0136051215
0000e0 50 cd bc 3d fb ef 2d 3e f3 03 0e 3e 51 6e 5d 3d
       0.09218848 0.16986077 0.13868694 0.054060284
0000f0 7f af 12 3e cf a4 ac 3d 79 3a 87 3d 04 d2 12 3e
       0.14324759 0.08429872 0.0660295 0.14337927
000100 5b df 14 3e 21 43 2b 3c d6 37 04 3b ea 2b 82 3d
       0.14538328 0.0104530165 0.0020174882 0.06356032
000110 84 4d ad 3b 3c b3 a3 3d c1 77 38 3d e5 55 5c bc
       0.0052887816 0.079931706 0.04503608 -0.013448213
000120 5f b9 86 bc be cb b9 3c 8e bc c2 3d ec 91 b8 bb
       -0.016445814 0.02268016 0.0950862 -0.0056326296
000130 7d 29 01 3e 5b 30 cd 3d d9 29 61 3d 88 7d 98 3d
       0.12613483 0.10018989 0.05497155 0.07445818
000140 15 45 0f 3e f5 6a 0a 3e 03 52 04 3e 13 2f 1f 3e
       0.13991196 0.13517363 0.1292191 0.15545301
000150 4e b3 9e 3c 24 1d d2 3d a4 5a 06 3e b7 9e 08 3e
       0.019372609 0.102594644 0.13120514 0.13341795
000160 1c 01 0d 3e 98 c8 d1 3d a3 3a d8 3b 83 31 bd 3d
       0.13769954 0.10243338 0.006598787 0.09237959
000170 45 0d ab 3d 0c 2b 65 3d da a1 23 3e ad 25 d9 3d
       0.0835214 0.055949256 0.1597971 0.10602889
000180 81 30 15 3e b8 61 95 3c f5 2d ee 3d c1 65 85 bc
       0.14569284 0.018235072 0.11629859 -0.016283872
000190 37 b2 5d 3d 8d b0 31 bc 3c ce c3 3d 72 2f ce 3d
       0.054125037 -0.010845316 0.095608205 0.10067643
0001a0 7e f5 b4 3d 75 e0 ee 3d 01 a4 ef 3c 76 26 70 3d
       0.088358864 0.116639055 0.029253008 0.05863043
0001b0 ec dd d7 3d 61 ac 14 3e ba 88 86 3d 93 15 e8 3d
       0.10540375 0.14518882 0.06569047 0.1133224
0001c0 5e 39 9f 3d 3b 95 df 3d 43 c8 3c 3e 31 42 1a 3d
       0.07774614 0.10917135 0.18435769 0.03766078
0001d0 ce 92 37 3e 16 a4 dd 3c 11 fb 84 3d 01 ca f4 3c
       0.17927095 0.027055781 0.064931996 0.02988148
0001e0 30 1f d5 3d ef cd a7 3d 18 cb 9a 3d cb 66 13 3e
       0.10406339 0.081935756 0.07558268 0.14394681
0001f0 ec 6e 00 3e ec a1 20 bd 73 6b b8 3d f2 b0 cb 3d
       0.12542313 -0.03921692 0.09004869 0.09945859
000200 ed 22 e0 3d 2e 27 22 bd 20 ab ff 3d c8 85 9f 3d
       0.109441616 -0.039588146 0.124838114 0.077891886
000210 79 0f 04 3e fb be cd 3c c9 c1 d7 3c e7 25 01 3e
       0.12896527 0.02511548 0.026337521 0.12612115
000220 b6 b4 06 3e 9b 20 04 3d b4 ac 98 3a f6 71 6f 3d
       0.13154873 0.032257657 0.0011648149 0.05845829
000230 c1 5a 15 3d 49 23 5f 3d a4 47 cc ba ac 56 4f 3d
       0.036463503 0.05447701 -0.0015585315 0.050619766
000240 aa 3d 08 3e 79 5e e4 bc ac 80 76 3d 89 25 4f 3d
       0.13304773 -0.02787708 0.060181305 0.050572906
000250 a8 66 61 bc 46 9f 8a 3c 3c 54 b6 3d d8 6d 10 3e
       -0.013757385 0.01692165 0.08902785 0.14104402
000260 ac 9a e3 3d 77 e8 45 3d 78 24 b5 3c 61 1d 81 3d
       0.11113486 0.0483174 0.022112116 0.06304432
000270 7a 37 93 3d c0 01 3f 3d c3 7a 8f 3c 92 11 f6 3d
       0.07188316 0.04663253 0.017514592 0.1201507
000280 09 49 f0 3c c2 7f 2c 3e a3 6f a6 3d 56 49 2c 3e
       0.0293317 0.1684561 0.08126762 0.1682485
000290 46 27 04 3e 05 c9 14 3e 17 46 26 3e 76 eb 22 3e
       0.12905607 0.14529808 0.16237675 0.15910134
0002a0 50 65 86 3d 3b 44 d2 3d 49 0a 95 3d 4c 03 9f 3d
       0.065622926 0.1026692 0.07277352 0.07764301
0002b0 7e 5c 08 3e c0 24 ed 3d 4f 1c a6 3d 52 c7 74 3b
       0.13316533 0.11579275 0.08110868 0.003735025
0002c0 e1 21 a2 3d bd 48 f0 3d d2 e7 81 3d e3 d7 7b 3c
       0.07916618 0.11732624 0.06343044 0.015371296
0002d0 85 64 a6 3d f5 39 2a 3e 5f 25 1c 3e 99 dd 5f 3d
       0.08124641 0.16623671 0.15248631 0.05465469
0002e0 ba b7 9b 3d 17 7c 06 3e c4 cd 10 3e 91 7b 9a 3d
       0.076034024 0.13133274 0.14140993 0.075431
0002f0 d9 ca 0a 3e aa 54 fc 3d d0 7d 24 3e 87 1c 2f 3e
       0.13553943 0.12320836 0.16063619 0.17100726
000300 5f d8 c1 3d 8c 12 a9 3c 71 60 0b 3e 66 80 ed 3d
       0.09465098 0.020638727 0.13611008 0.11596756
000310 2e 64 29 3d 97 9e ea 3c 10 30 dd 3b 88 b0 21 3d
       0.041355304 0.028640075 0.0067501143 0.039474994
000320 9f 71 70 3d bd 0b e7 3d a3 b3 89 3d 15 76 3c 3d
       0.058702108 0.11281536 0.06723716 0.04601105
000330 b4 f9 0a 3e 9c 79 55 3d e5 79 aa 3d 82 b5 8a 3d
       0.13571817 0.05211793 0.08324031 0.06772901
000340 38 dc 6d 3d 29 f5 13 3e 4c f4 b3 3c 4b 45 27 3d
       0.058071345 0.1444899 0.021967076 0.040837567
000350 3a c4 55 3e c9 37 f9 3d 6d 9e 9e 3d 86 cc ed 3c
       0.20875636 0.12168843 0.07745061 0.029028188
000360 4d 93 21 3e 93 86 47 3d a5 43 c9 3d c8 c7 3f 3d
       0.15778847 0.048712324 0.09827355 0.046821386
000370 3f 03 a6 3b 4f c2 f4 3d f5 bd 33 3d 84 bb ea 3d
       0.005066305 0.11951124 0.04388233 0.11461547
000380 7f 67 1b 3e 93 7a 01 3e ce 0c a7 3d 67 00 37 3e
       0.151762 0.12644415 0.08156739 0.17871247
000390 8d 2f a8 3c 23 d5 a8 3d b8 e9 45 3d 40 a9 88 3d
       0.020530486 0.082437776 0.048318595 0.06672907
0003a0 5d a9 3e 3e f0 6c 00 3e 0a 5e f9 3d 39 db a9 3d
       0.18619294 0.12541556 0.1217614 0.082937665
0003b0 51 ba 56 3e 0e a1 51 3e 10 f6 71 3d bc 04 77 3d
       0.20969512 0.20471594 0.059072554 0.06030725
0003c0 a8 93 10 3e 95 28 4e 3e 34 04 06 3e 77 5b 3c 3e
       0.14118826 0.20132668 0.13087541 0.18394266
0003d0 03 c3 ef 3d 1e 14 1d 3e cb 58 38 3d d0 1f 4e 3e
       0.117071174 0.15339705 0.045006555 0.20129323
0003e0 a9 f0 3d 3e c9 96 fe 3d b9 15 d7 bc 71 bd 49 3d
       0.18548836 0.12431104 -0.026255475 0.04925293
0003f0 55 79 94 3d f0 4b 5d bd a7 35 33 3d 37 eb c4 3c
       0.07249705 -0.054027498 0.04375234 0.02403794

conv1.bias f4 [6]
000000 65 7a 8d bd 56 93 d1 3d 89 fb 51 3d 12 c9 11 bc
       -0.069081105 0.1023318 0.051265273 -0.008898037
000010 0b 0e 42 3e 00 82 46 3d
       0.1895067 0.04846382

conv2.weight f4 [16, 6, 5, 5]
000000 43 33 f3 bd c7 72 25 bd 21 6b 80 bb 3a 7e 19 3a
       -0.11875012 -0.040392663 -0.0039190208 0.0005855296
000010 9d ae cd bd c5 f0 a6 bc 6a dc 19 3d 74 1b 2c 3c
       -0.100430705 -0.02037848 0.03756372 0.010504592
000020 07 d3 28 bd 3b 6c 12 3d 97 ca b3 3c 62 07 be 3d
       -0.041216876 0.035747748 0.021947188 0.09278752
000030 a2 ae 30 3e 18 95 cb 3d 26 2b 66 3d 0f 79 b7 bd
       0.17254117 0.09940547 0.056193493 -0.08958637
000040 f4 b6 be 3d ee 21 1d 3d 25 eb f1 3d 29 1f 1f bb
       0.09312239 0.038362436 0.118124284 -0.0024280048
000050 7d 99 d2 bd 6a e0 ce bc 3d ae 01 bd 8d 35 77 3a
       -0.10283182 -0.025253493 -0.031660307 0.0009430282
000060 80 ff 46 bd 5c 66 dc bd ab cc 29 bd aa b5 ab 3d
       -0.048583508 -0.10761711 -0.041454952 0.08384259
000070 ae e1 c5 3c fc 08 1a be f7 21 fc bd e8 d5 e9 3d
       0.024155464 -0.1504249 -0.12311166 0.114177525
000080 85 c0 32 3e 10 9b 0c 3e f1 76 e2 3c 95 43 90 bd
       0.17456253 0.13731027 0.027644606 -0.0704414
000090 cf d7 17 3e be 4f 8b 3d 74 48 36 3e f9 0d 3b bd
       0.14828418 0.06802319 0.17801076 -0.045667622
0000a0 60 bc e3 bd 31 0f b5 3d c9 75 40 3d 91 ed 05 3e
       -0.11119914 0.08840788 0.04698733 0.13078906
0000b0 97 f2 10 3d 4b 9b 34 be e6 ba 09 be 8c c2 38 3d
       0.0353876 -0.17637365 -0.13450202 0.04510741
0000c0 3c 26 43 bc 84 4c c6 bd 2e 4b fc 3a 76 09 16 bd
       -0.011910971 -0.09682563 0.001924848 -0.036630116
0000d0 ce bd 7f 3d 5d 5a 54 bd ae 63 3b 3d b5 81 0f 3d
       0.06243687 -0.05184399 0.04574936 0.035035808
0000e0 18 48 e5 bc 68 fd 50 bd 55 a5 c2 bc cd b3 8d 3c
       -0.027988479 -0.051022917 -0.023760477 0.01729765
0000f0 cb f3 68 bd d2 34 62 bd 75 23 20 bc 0a 7e ad bd
       -0.056873124 -0.055226155 -0.009774079 -0.08471306
000100 46 ba 9d 3d 5e 94 d4 3c f3 cf 57 bd 0f 99 85 bd
       0.077015445 0.025949653 -0.05268855 -0.06523334
000110 89 86 3c 3d 9c 9d c9 bc 26 7d 17 bc 1d 97 a4 bd
       0.04602674 -0.024611287 -0.009246146 -0.08036635
000120 ac c6 c7 3c 34 c7 b0 bd bc 2e 9f bd 82 b9 4e be
       0.024386726 -0.08631745 -0.07772586 -0.20187953
000130 24 03 a2 3c 58 b8 a9 3d a8 f6 26 bd 16 79 38 be
       0.019776888 0.08287114 -0.040762573 -0.1801494
000140 c7 dc 37 3c 32 26 d6 3d b5 d4 9e 3d ed 6b 0e 3d
       0.011222071 0.10456504 0.077554144 0.034770895
000150 f4 1b 0f 3d 49 6f 25 bd e0 ce cb 3c 3a 8f 0e 3e
       0.034938768 -0.040389333 0.02487892 0.13921824
000160 14 bd 28 3e 38 36 4a 3d 0b 5c 7c 3c 50 e4 7a 3d
       0.16478378 0.049368113 0.015402804 0.061252892
000170 f4 2f b6 3c 35 e3 05 3e 4c 5a 4e 3d 52 94 99 bd
       0.022239663 0.13074954 0.050379083 -0.07498993
000180 01 e3 af bd d3 da 03 3d dc 3f 8f bd 79 97 1b be
       -0.085882194 0.03219111 -0.06994602 -0.15194501
000190 72 3b 0e bd e4 c3 f0 3b 3e f7 eb 3c 35 ce 8b bd
       -0.03472466 0.0073475707 0.028804418 -0.0682644
0001a0 81 c5 5c bd d1 0b 9a bd fa 1d b8 bd d5 33 71 bd
       -0.053899292 -0.07521785 -0.089900926 -0.05888732
0001b0 61 33 dc bb 06 44 54 bd db 99 9a bd 09 a4 0e bc
       -0.006719992 -0.051822685 -0.07548877 -0.008706101
0001c0 20 d6 09 3c de c2 2e 3d 7f 72 1a 3d ad 99 35 3c
       0.008412868 0.04266631 0.03770685 0.011084002
0001d0 82 10 b9 3c db 07 82 bd c1 c9 a2 bc 8d 71 0e ba
       0.02259088 -0.063491546 -0.019871594 -0.00054337905
0001e0 11 c9 b0 bc 16 2e 80 bc e0 8d 7d bc d3 39 e9 3c
       -0.021580251 -0.015646975 -0.01547572 0.028469956
0001f0 40 f3 84 bc a0 5d 9c 3b f9 b9 57 3d 0b b0 51 bd
       -0.016229272 0.004771903 0.05266759 -0.05119328
000200 4b 75 97 3c 49 43 d2 bc fe b5 b1 3c 8b bc 1b 3d
       0.018488547 -0.02566685 0.021693226 0.038021605
000210 25 5c d8 3c cf da b6 3b 73 7a 00 3a 53 84 82 bb
       0.026411125 0.0055802832 0.0004901059 -0.0039830594
000220 a7 c3 1f 3d fa e5 4f 3d 21 a2 0b 3d b6 9f 4a 3d
       0.039004948 0.050756432 0.034090165 0.04946872
000230 ac d2 96 3d d4 73 49 ba 79 5b 72 3d ce 2d 9f 3b
       0.07364401 -0.0007684801 0.059169266 0.0048577553
000240 59 c4 04 bd 75 0e 27 3c 8d 29 4a 3a 68 23 68 3d
       -0.032413814 0.010196318 0.000771188 0.05667439
000250 41 50 1b 3b 88 07 af bb ed 74 ce 3c e0 8d 46 3d
       0.0023698958 -0.005341474 0.025202239 0.048475146
000260 fd 3d a8 bb ae 7b 41 3d 1d 7c 9d 3d 78 15 9f bd
       -0.0051343427 0.04723709 0.07689688 -0.07767767
000270 6c 67 a4 3d 54 89 11 bc a9 b5 18 3d 4c c1 8e 3d
       0.08027539 -0.008882839 0.03728262 0.06970462
000280 3e 99 f3 3b fa 4f 3d bd b8 59 3b 3d ee 0a ce bc
       0.0074340394 -0.04621885 0.04573986 -0.025151696
000290 28 d0 ba 3c ec 59 8c bd fc 80 4c bc 8b de 74 bd
       0.022804335 -0.06853089 -0.012481924 -0.059782546
0002a0 e3 e2 24 bc e8 d3 b4 3a 6c 7e 03 3d f9 22 69 3d
       -0.01006386 0.0013796063 0.032102987 0.05691812
0002b0 ac db ea 3c d5 ca 5b bd 45 32 1b bd 8d a4 55 3d
       0.0286692 -0.053660233 -0.037889738 0.05215888
0002c0 3e 96 1e 3d 4e 21 3b bd 68 f4 a0 bd cf 6e 1a bd
       0.0387175 -0.04568606 -0.07859117 -0.03770333
0002d0 76 ce 9e bd 73 cd 49 3d 84 f6 81 bd 58 26 1d bd
       -0.07754223 0.049268197 -0.06345847 -0.038366646
0002e0 58 c8 70 bd d2 92 25 bc b8 2c 11 bd d4 d5 a6 bd
       -0.058784813 -0.0101058055 -0.035443038 -0.08146253
0002f0 09 83 6e bd 9f 7d 98 bd 3b ab 48 3d 5e 60 62 3c
       -0.058230434 -0.07445835 0.048991423 0.013816921
000300 b7 32 8c bd 14 db 3f 3d 6f f7 c7 3b e0 c1 69 bd
       -0.068456106 0.04683979 0.0061024944 -0.05706966
000310 e1 91 e7 bc 33 6a 3b 3d dc 4a 0c bd 99 fb 11 3d
       -0.028267803 0.045755576 -0.03425108 0.035640333
000320 3c 11 33 bd 77 a7 80 3d 83 51 b3 bc f3 05 92 3d
       -0.043717608 0.062819414 -0.021889454 0.07130041
000330 a2 45 34 bd 7e b0 c4 bc 67 e3 05 3d 8d 2d 89 3d
       -0.04401172 -0.02400994 0.03268757 0.06698141
000340 5c f7 0a 3d 90 2b 21 bc 2a 3d 44 bd fe bd e9 bb
       0.033927307 -0.009837046 -0.047909893 -0.0071332445
000350 32 bd 14 bd 19 17 e1 3c ea 31 9a 3d 59 13 a0 bd
       -0.036313243 0.027476834 0.075290516 -0.0781619
000360 ef 02 a6 bd 4c 4b 24 3d 20 b9 d7 3c e0 cd a2 bd
       -0.08106028 0.04011087 0.026333392 -0.07949424
000370 1c 0e 84 3c 13 10 96 3d b5 8b 6e 3b e0 db 9f 3d
       0.01612001 0.07327285 0.003639919 0.0780561
000380 c6 ae 21 bd a6 45 28 bc 22 e9 61 bd 62 a8 1c 3c
       -0.039473318 -0.010270512 -0.055153973 0.00956163
000390 35 c2 8a 3d bc 75 82 bd 8f 75 4c bd 24 23 a6 3d
       0.06775323 -0.06370112 -0.0499168 0.08112171
0003a0 08 54 20 3d d0 f7 68 bc 42 58 1e 3d ee 44 a3 bd
       0.03914264 -0.014219239 0.038658388 -0.07972132
0003b0 99 97 2d 3d ca 66 a5 3d 5f 69 fd 3c 9f a1 73 3d
       0.042380903 0.08076246 0.030934034 0.059480306
0003c0 44 68 73 3d 11 d1 58 bc 5a 94 91 bd d0 55 97 bb
       0.059425607 -0.013233439 -0.07108374 -0.004618384
0003d0 4f 8b 20 bd c6 10 ef 3c 70 07 a7 bd 26 ea 93 bc
       -0.039195355 0.029182803 -0.081557155 -0.018055987
0003e0 3f 51 71 bc b7 63 14 3d a9 e9 52 bc b4 3c a6 3d
       -0.014728843 0.036227908 -0.012873092 0.08117047
0003f0 06 d3 35 bd b5 b6 07 3d 3d a8 1b 3c 87 02 28 bd
       -0.0443907 0.033133227 0.00950056 -0.041018035

conv2.bias f4 [16]
000000 70 e6 0e bd d9 22 a8 3c 0f 61 43 3d f3 a3 87 3e
       -0.03488773 0.02052443 0.047699984 0.2649227
000010 1d af 1e 3e 6d 05 94 3d cf 0a 81 3d 24 9c 93 3d
       0.15496488 0.072275974 0.0630089 0.07207516
000020 8a 20 f6 3c 59 b1 0b 3d 4b 0a e9 bc 17 b7 93 3c
       0.030044813 0.03410468 -0.02844729 0.01803164
000030 c8 14 b1 bd af 7b bf 3d 59 26 0b 3e 5f d4 9f bd
       -0.08646542 0.09349763 0.13588847 -0.078041784

fc1.weight f4 [120, 584]
000000 31 2f bb bc d1 d1 14 3c 0a ef a7 3a 46 76 54 3c
       -0.022849651 0.009083227 0.0012812328 0.012967652
000010 65 ec 25 3c 06 5b 36 3c ae 9f d4 b9 71 6c 19 3d
       0.010127162 0.0111301 -0.00040554762 0.037456933
000020 f6 7c 03 3d b5 8e 8e 3d 3d 79 42 3d 0d b6 52 3d
       0.032101594 0.06960813 0.047478903 0.05144315
000030 cc e2 57 bd c7 1a 03 3c 22 d5 5f bb 76 97 12 3d
       -0.052706525 0.00800199 -0.0034154137 0.035788976
000040 22 e9 a6 b8 3a 8b 33 3d 9c cc f5 3c ca 56 55 3c
       -7.958921e-05 0.04383395 0.030004792 0.01302118
000050 b3 e8 ac 3c 77 3e 8e 3c a6 c4 69 bd de 9e 7c bd
       0.021107053 0.01736377 -0.057072304 -0.061674945
000060 df c1 95 3c 86 13 a9 3c 24 40 60 3b b7 76 d5 3b
       0.018280922 0.020639192 0.0034217918 0.006514396
000070 d8 a1 90 bc 74 91 a1 ba e8 cb c9 3c d9 4b 7b bc
       -0.017655298 -0.0012326674 0.024633363 -0.015337908
000080 a1 bc 53 3b 7d 98 bb 3c 62 98 32 bd f7 e8 2e bd
       0.0032308477 0.02289986 -0.043602355 -0.04270264
000090 3f f2 ee 3c fc 8d d3 3c 3c fd bf 3c 28 6e aa bc
       0.029168246 0.02582454 0.023436181 -0.02080448
0000a0 c8 7c e2 3c 55 88 a9 3b 0c 4b 17 3d c1 a9 1e 3d
       0.027647391 0.0051737227 0.036936805 0.03873611
0000b0 73 bb e8 3b ed bd 03 3d 92 40 1b bd bc b6 40 3b
       0.007102424 0.03216355 -0.037903376 0.0029405793
0000c0 48 4c cb bc 68 1e 16 3d 4c 3e ee 3c 88 e0 16 3d
       -0.024816647 0.03665009 0.02908244 0.036835223
0000d0 d5 dd 42 3c 99 3e 1c 3c 4c 98 0e 3d c0 ee 21 bb
       0.011893709 0.009536409 0.03481321 -0.0024708956
0000e0 11 61 10 3d 28 6b 07 bd 52 87 1d bd 75 2e ba 3c
       0.03524882 -0.033061177 -0.03845913 0.02272723
0000f0 04 76 72 3c 66 4a 81 bc 44 91 3c bc eb bc 16 bd
       0.014798645 -0.015782546 -0.011509243 -0.03680126
000100 d1 7a 24 3d f6 82 f5 3b d6 62 0b 3d ea 61 19 3d
       0.04015619 0.0074924184 0.034029804 0.037446894
000110 38 eb c1 3c 2b 4b 24 bd f9 8f 5c 3c 2a 79 10 3d
       0.023671731 -0.04011075 0.01346206 0.0352718
000120 8e 38 09 bd 67 97 20 3c 06 e9 90 bb a5 b5 29 bc
       -0.0335012 0.009801722 -0.00442231 -0.010358249
000130 2a 7c d6 ba e3 bc 44 bd 3a 6d 15 bc f1 0a 3a 3d
       -0.0016363908 -0.0480317 -0.00912028 0.04542059
000140 3a b8 d5 3c b2 cd 58 3c 8d 13 5e bb 62 ae 6f 3c
       0.026088823 0.013232635 -0.0033886165 0.014628978
000150 e9 00 aa bc 54 e9 03 3d 3c d6 62 3d b4 21 77 3b
       -0.020752387 0.03220494 0.05538009 0.0037709298
000160 9a d9 88 3c a2 c3 91 bc 12 ab 6c bc 08 b9 21 3d
       0.016705323 -0.01779348 -0.014445083 0.0394831
000170 6d 29 5c 39 43 13 12 3c d1 59 83 bb e9 78 b3 bb
       0.00020996267 0.008915725 -0.0040085097 -0.00547706
000180 15 05 92 bc 31 75 81 bc 2a 4b ad 3c f5 5d 01 3d
       -0.017824689 -0.015802952 0.021154005 0.031583745
000190 b9 1d 62 3c b1 0e 96 bc f0 d8 d0 bc 7b 52 21 3d
       0.013801032 -0.018317552 -0.025494069 0.0393853
0001a0 ae 7b d8 bc 45 3e f3 bc 85 3a 33 3d 64 a7 31 3d
       -0.026426163 -0.029692778 0.04375698 0.043372527
0001b0 a2 20 22 3c 2d d5 f6 3c 9f ca 2e 3c 11 9c e2 3c
       0.009895476 0.030130947 0.010668426 0.027662309
0001c0 d5 37 83 ba 9d 1d 38 bd 12 3e 37 3c 79 ef f4 3c
       -0.0010011146 -0.044950116 0.011184232 0.029899346
0001d0 b1 0c 0c bb f5 79 2e bc b6 a5 94 3c 5c 18 a3 3c
       -0.002136987 -0.010649194 0.018145423 0.019909076
0001e0 19 0a 4c bd ce 2e 83 bc f9 5e 2d 3d 82 87 3a 3d
       -0.049814317 -0.01601353 0.0423269 0.045539387
0001f0 0e b5 34 bd 27 ff 43 3b dd a8 86 3c 39 45 90 bc
       -0.04411798 0.0029906721 0.016437942 -0.017611133
000200 01 a1 05 bc c9 fa 34 3d 9a 2b 8d bd 0e a9 99 3b
       -0.008156062 0.04418448 -0.06893082 0.0046893423
000210 6b 40 c3 3c 0c 3b 48 3d 7f 4a 85 bc c8 0d 14 bd
       0.023834428 0.048884436 -0.016270874 -0.036145955
000220 ee 23 9f bc de 78 39 bc 78 9d c2 3c 39 ba 11 3d
       -0.019426312 -0.011320321 0.023756728 0.035577986
000230 d2 e2 6a 3d c7 89 2d bd a9 05 ab 3c 18 df 9d 3b
       0.05734522 -0.042367723 0.020876722 0.0048178546
000240 6c 97 18 3c 0e 89 0b 3c 07 07 d1 3c d4 0e c4 3c
       0.009313446 0.008516563 0.025516046 0.023932852
000250 da 56 39 39 65 a1 92 bc 9e 39 b3 3b 01 a3 17 bd
       0.0001767533 -0.017899225 0.005469515 -0.037020687
000260 f5 cd c9 3c ba c8 8e 3d 83 bf 06 bd ff 66 42 3d
       0.02463434 0.06971879 -0.032897484 0.047461506
000270 c4 a3 b5 bc 46 95 8a bb ea 1e 48 bd aa 94 af bc
       -0.022172816 -0.0042292206 -0.048857607 -0.021433193
000280 04 b9 02 bd 3b 75 6a 3c 79 34 8c bc c5 91 01 bd
       -0.031914726 0.0143101765 -0.017114865 -0.031633157
000290 a0 bd 2f 3b d7 a4 50 3d a0 fa 7b bb 7b 25 7a bd
       0.0026815906 0.050938454 -0.0038448945 -0.0610709
0002a0 a0 57 0a bd 5e 2e 25 3c e1 6e 5c 3d 70 f4 a3 3c
       -0.033774972 0.010081856 0.05381668 0.020014018
0002b0 c6 cb a5 bd c3 57 b4 3b 03 d5 51 bd b1 27 06 bd
       -0.08095507 0.005503626 -0.051228534 -0.032752696
0002c0 8d 32 c2 3c ff 69 d8 bc c7 47 38 bd 8b 79 17 3c
       0.023705745 -0.02641773 -0.044990327 0.009245287
0002d0 8b e5 93 bc 4d 3a 1b 3d 74 5c 8e 39 1a 8e 09 bb
       -0.01805379 0.037897397 0.00027153234 -0.002098924
0002e0 46 bc 41 39 40 4e 59 bd 20 cc a6 bc b0 b8 a1 3c
       0.00018476052 -0.05305314 -0.020361006 0.019741386
0002f0 74 0c ad 3c b7 ce 7b 3b 76 4f 66 3c 5a 45 87 3c
       0.021124102 0.0038422772 0.014057031 0.016512562
000300 9f 09 0f bd 4b f2 d3 bb 24 bc 3b 3d da 3a 5a bc
       -0.034921285 -0.0064680926 0.04583372 -0.013319695
000310 ba 2b 6b bc 12 2d 5e 3c b7 35 17 3d 0b 51 90 b9
       -0.014353687 0.01356055 0.03691646 -0.00027526202
000320 37 42 22 bd 07 a8 a3 3c 22 25 42 bd 06 a1 0c 3d
       -0.03961393 0.019977583 -0.047398694 0.03433325
000330 99 e4 ea 3c e9 a1 28 bc 30 91 e4 3c 60 d9 2f ba
       0.028673457 -0.010292509 0.027901262 -0.00067081116
000340 0e 4e b2 bc 57 b6 0e 3d 70 25 c4 bc c2 14 e0 bc
       -0.021765735 0.03484186 -0.023943633 -0.027353648
000350 16 41 82 3c bb ce 1d bd ee 96 22 bd a7 0e 84 3b
       0.015900176 -0.03852723 -0.03969472 0.004030067
000360 84 32 12 3d 57 78 4c bc ff d8 8e 3c a4 0f 16 bc
       0.035692707 -0.012479863 0.017437456 -0.009159002
000370 c0 ba ec 3b 7c 8a 36 3c c7 4a 0f bd c8 b4 ab bc
       0.007224411 0.011141416 -0.034983423 -0.020960227
000380 71 ac b4 bc 9b 0f 40 bd ab a4 4e 3c 01 8b 18 bd
       -0.022054883 -0.046889883 0.012612502 -0.03724194
000390 61 fb a5 3b c4 8a 1c 3d 8a 36 04 bb 06 33 13 bd
       0.005065367 0.038218275 -0.002017411 -0.03593733
0003a0 12 82 18 bd 60 ce f3 3c 95 70 7e 3c 0f da cf 3c
       -0.03723342 0.029761493 0.015529771 0.025372533
0003b0 5c 1d 3c 3d 24 9b 44 3d a8 2f 08 bd 5b 39 b7 bc
       0.045926437 0.047999516 -0.033248574 -0.022366216
0003c0 40 4e 2f b8 9b 28 25 3b d4 bf 16 bd 74 65 f7 bc
       -4.1796127e-05 0.0025201205 -0.036804035 -0.030199744
0003d0 e1 2b 65 3c 5c 27 93 bc e3 1e ea bc 62 12 31 3d
       0.013987512 -0.017963104 -0.028579181 0.04323042
0003e0 c8 f8 1a 3c 3b b1 e4 3b 1d a0 fb bc 6b d1 da bc
       0.009458728 0.0069791353 -0.030715996 -0.026711186
0003f0 ca e8 d8 bc 0f 8e 4d 3c 38 c7 ca 3c 87 89 4c bb
       -0.02647819 0.012546076 0.024753198 -0.0031209902

fc1.bias f4 [120]
000000 b4 98 14 3d 20 ff 4d 3c 36 6f 75 3d fe 8b 4a 3d
       0.03627844 0.012573034 0.059920512 0.049449913
000010 cb e8 0c bb f6 69 39 3b 3d b6 3f 3d 75 9f 63 bc
       -0.002150106 0.0028291917 0.046804655 -0.013892998
000020 99 ab 17 bd fb f9 4a 3d 9b 12 cf 3b e4 57 1b 3d
       -0.037028883 0.049554806 0.0063193566 0.037925616
000030 45 43 65 3d 20 14 9c 3d bd 4b 83 3d 67 da 77 3d
       0.055972356 0.07621026 0.0641093 0.06051102
000040 16 9c 36 3d 28 e8 4f 3d a3 2c 60 bc 92 68 8c 3d
       0.04458245 0.05075851 -0.013682517 0.06855883
000050 e6 bc 96 3d 91 9d 9b 3c 7e 5b 36 3d 5d e4 12 bd
       0.07360248 0.018996032 0.044520847 -0.035862315
000060 59 8a 2b 3d 2c 80 34 3d 0e b0 93 3b dc c6 26 3d
       0.041879985 0.044067547 0.0045070713 0.04071699
000070 5c d8 81 3d 4f c0 45 3d 77 04 ae bc fb 8e ca 3d
       0.063400954 0.048279103 -0.021242363 0.098905526
000080 67 3e 4c 3c fc b9 cf 3d ce 2d 8b 3d 93 32 34 3d
       0.01246605 0.101428956 0.06795846 0.043993544
000090 bb 7e a3 3c bd ff 91 bc 49 ef 5a 3d 50 d5 b5 3c
       0.01995789 -0.01782214 0.053450856 0.022196442
0000a0 0b a5 8a bc 6f a2 12 3d 27 a0 e7 3c 4d be 83 3b
       -0.016924402 0.03579944 0.028274609 0.0040204884
0000b0 1a c2 0c bd 4d 5c 21 bc 9f 60 fc bb a9 c8 6c 3d
       -0.034364797 -0.009848666 -0.007701948 0.057808552
0000c0 ff 10 9a 3b 21 ee 61 bc 59 0d 21 3d 2d 7f a2 3d
       0.004701733 -0.0137896845 0.03931937 0.07934413
0000d0 14 34 62 bb b6 a6 33 3d 5d 95 98 3c db 42 13 3c
       -0.0034515904 0.04386016 0.01862591 0.008988108
0000e0 7e 4f 64 bc f5 ea 77 3d 29 af aa bc 53 09 19 3d
       -0.013934968 0.060526807 -0.020835476 0.037362408
0000f0 0c 13 32 3d f7 cf 50 bc 88 e1 d7 3b d1 ea a4 3c
       0.043475196 -0.012744895 0.0065881647 0.0201315
000100 f0 c4 20 3d 71 00 25 3c c7 ba 90 3d d0 69 2a 3c
       0.039250314 0.010070906 0.07066875 0.010401204
000110 24 ef a6 3d 00 af 83 3b b7 88 e4 3c df 1b ef 3c
       0.08151081 0.0040186644 0.027897222 0.029188095
000120 20 3f 3a bc 0f 49 9a 3d 5f 76 3b bb 6f ac 2d 3d
       -0.011367589 0.07533466 -0.002860449 0.042400774
000130 26 75 4b 3d 1d 13 8d bc b4 bb 09 3d 56 8c 7f 3d
       0.04967227 -0.017221028 0.033626273 0.062389694
000140 fb 25 3a 3d 65 ac cb 3c 8b b0 99 3c 18 5a a8 3c
       0.045446377 0.024862478 0.01876094 0.020550773
000150 d4 9b a0 bb 42 ac 8e 3d 49 3c fb bc b4 b8 8b 3c
       -0.0049013887 0.06966449 -0.030668395 0.017055847
000160 b2 70 f5 bc da c0 2d 3d 44 96 73 3d 73 85 11 3d
       -0.029960964 0.042420246 0.059469476 0.035527658
000170 b9 73 6d 3d c3 e7 3f 3d 52 ac 5c 3c 06 cc af ba
       0.05797169 0.046851885 0.013468819 -0.0013412244
000180 18 07 68 3d 64 09 82 3d 0a b3 60 3d 7b 20 85 3c
       0.05664739 0.06349447 0.054858245 0.01625084
000190 3a 8b 1a 3d 71 fb 07 bd f0 69 55 bb 8e 01 29 3d
       0.037730433 -0.033198778 -0.0032564364 0.04126125
0001a0 0c 4b 33 3c 88 4f aa 3c 0a 28 32 3d 11 1d 9b 3c
       0.010943186 0.020789877 0.043495215 0.018934758
0001b0 5e 2f 0e 3d ad 16 3b bc af 2d e9 3c c8 9b 33 3d
       0.03471314 -0.011418981 0.028464166 0.043849736
0001c0 5b 99 2d 3d 31 77 79 3d 2f 15 95 3d c2 00 42 3d
       0.04238258 0.060904685 0.07279431 0.047364004
0001d0 23 05 1a 3d 4d 92 98 3c 77 b3 94 3c 9c a9 8d 3d
       0.037602555 0.01862445 0.018151982 0.06917116

fc2.weight f4 [84, 120]
000000 6d 32 93 3d ad b2 e0 3b 29 b1 83 3b 8b a0 f4 3c
       0.07187352 0.0068572373 0.004018922 0.02986171
000010 5a d8 ed bd 86 28 bd bd 62 63 28 3d 86 b9 21 3a
       -0.116135314 -0.09236245 0.041110404 0.0006169308
000020 04 24 a6 bc 81 40 d3 3d e5 90 bb bd 88 a8 23 bd
       -0.020280845 0.103150375 -0.09158496 -0.039955646
000030 ff a9 9d bb 52 05 2c bc 2d 29 81 3d 21 e9 dc bb
       -0.004811525 -0.010499315 0.06306682 -0.0067416583
000040 3a 5e 10 3d 95 2f 37 3d 0e 7b d6 bc b5 e4 b5 3d
       0.03524611 0.044723112 -0.026181724 0.08881513
000050 8c 1d ad bd 64 d7 9b bd 0b 0b 9b bd 09 cd 86 3d
       -0.08452901 -0.07609442 -0.07570466 0.06582076
000060 ed 91 7a bd b0 9a 18 3d df 85 aa bd 57 2f ac bd
       -0.061174322 0.037256896 -0.08326315 -0.08407467
000070 3e 43 fa bd 3c 75 a6 bd 88 a1 a7 3b 08 6f b7 bd
       -0.12219857 -0.081278294 0.0051156916 -0.089567244
000080 84 cc c7 bc 74 19 9e bd b3 b4 18 3d 94 e5 e2 bc
       -0.024389513 -0.077196985 0.037281703 -0.027697362
000090 b8 88 53 3d a6 11 d5 3d 77 16 a7 3c ac 6a 67 3d
       0.051644057 0.10403757 0.020396454 0.056498215
0000a0 aa dc 3c b8 f5 a2 d9 bd 0d 59 66 bd 78 df 14 bd
       -4.5028202e-05 -0.10626785 -0.05623727 -0.03634593
0000b0 c9 37 ba 3d 3d a0 2c 3c 78 aa a0 3d 43 1c 3f bd
       0.090926714 0.010536251 0.07845014 -0.04665781
0000c0 af d4 96 bd 4b a2 62 bc 49 e3 6c bd 84 53 99 3d
       -0.07364785 -0.013832639 -0.057833944 0.074866325
0000d0 65 0d 79 3d 03 01 8e bd f7 9f 37 3d 33 df 94 3d
       0.06080379 -0.06933787 0.04483029 0.07269134
0000e0 57 95 85 3d 0a 80 40 bd cc d7 15 bd ac a7 af 3d
       0.06522625 -0.046997108 -0.036582753 0.08576903
0000f0 75 52 2b bd e3 f2 de bd 5e 30 8e bd 62 7c be 3c
       -0.041826684 -0.10886171 -0.06942819 0.02325267
000100 cf 19 c9 bd 1d 0c 27 3d 08 5a 96 3d 64 f8 4e 3d
       -0.09819376 0.040783037 0.07341391 0.050529853
000110 a6 b8 cf 3d a4 dd f3 bc d8 ef f7 bc 58 f0 ab 3d
       0.10142641 -0.029768772 -0.030265734 0.08395451
000120 38 19 fd bc 75 a3 44 bd 6e d1 57 3d 03 d2 94 bd
       -0.030895814 -0.048007447 0.052689962 -0.07266619
000130 e0 a7 47 bd c0 a6 bf bc be 31 02 bd 91 3a 2a 3d
       -0.048744082 -0.023394942 -0.03178572 0.04155976
000140 95 8c 90 3d 38 e5 95 3b a2 35 a8 3d 3d 92 53 3d
       0.07058064 0.004574444 0.08213355 0.051653136
000150 d3 75 a1 3d e8 01 68 3d ca bd e2 ba b0 25 2b bc
       0.07883801 0.056642443 -0.0017298993 -0.010445997
000160 14 87 a5 3d 85 66 1e 3d 52 e8 76 3d e1 f2 29 3d
       0.08082405 0.03867199 0.06028015 0.041491393
000170 fa 01 79 3d 34 9f fd 3d cc 48 97 3d 4d 24 5d 3c
       0.0607929 0.12383881 0.07386932 0.013497424
000180 66 21 8c bd 5d c2 73 3d 2c bd 89 3d a5 66 a1 3d
       -0.06842308 0.05951153 0.06725535 0.07880906
000190 f3 eb ab 3c 76 27 4b 3d 9f 94 02 be 51 06 04 3d
       0.020986533 0.04959818 -0.12752007 0.032232586
0001a0 29 a8 af bb 3a cb 81 bd 29 e3 5a 3c 86 df ac bd
       -0.0053606224 -0.063375905 0.013359823 -0.08441071
0001b0 cf 59 b0 3c 0f 45 07 bd 79 9f 4e ba 03 25 d7 bd
       0.0215272 -0.033024844 -0.00078820396 -0.10505106
0001c0 11 56 bd bc b7 5f 65 3d d7 05 b9 bd cf 26 8a 3d
       -0.023112329 0.055999484 -0.09034317 0.067456834
0001d0 16 18 99 bc a2 99 f1 bd f7 da 67 3d 89 d5 c7 3d
       -0.018688243 -0.11796881 0.056605306 0.097575255
0001e0 7e 2a 73 3d 9f 44 c9 bd 5d 22 59 3d ca f9 dc ba
       0.059366696 -0.098275416 0.053011287 -0.0016859111
0001f0 50 0a 3f bd 3c b1 d4 3d 9d 05 91 3d c9 00 20 3d
       -0.046640694 0.10385367 0.07081149 0.03906325
000200 62 24 ac bb 8f ba fd 3d 09 8e 7b 3d 09 56 d8 bd
       -0.0052533606 0.12389099 0.061414752 -0.10563285
000210 35 ab 96 bd c6 ec 26 bd 61 03 e2 3d 36 c7 16 be
       -0.07356874 -0.04075315 0.11035801 -0.1472443
000220 09 15 4a 3d 2f 7d 9c 3d 54 59 75 bd bc 41 8f bd
       0.049336467 0.076410644 -0.059899643 -0.0699496
000230 02 f0 bf 3c c8 aa f1 bd 44 1e 04 be 7d 28 34 3d
       0.023429874 -0.11800152 -0.1290217 0.043983925
000240 10 48 50 bd 74 b7 8d bc f8 5c c5 bd 63 a2 ca bd
       -0.050849974 -0.017299391 -0.09636873 -0.09894254
000250 de ba 28 be 17 67 91 3c b4 1c 87 bd 51 44 81 3d
       -0.16477534 0.017749352 -0.065972716 0.063118584
000260 e0 59 c9 ba a2 4f 10 3d 57 06 ed 3d 2a 69 29 3d
       -0.0015361868 0.035232194 0.11573475 0.041360058
000270 49 17 9f 3d 88 c8 8c 3d 9f 43 9b 3d 89 15 04 bd
       0.07768113 0.06874186 0.07581257 -0.0322471
000280 7c 04 e0 bd 2f 70 e6 3d 33 d1 d2 bd 54 55 a0 3d
       -0.10938355 0.11251866 -0.10293808 0.07828775
000290 d5 47 6e bd 11 cf 84 bd f9 a0 50 3d 06 bf 57 3d
       -0.058173973 -0.06484807 0.050934765 0.05267241
0002a0 76 3a 49 3d 47 0f 59 bd 0f 0c 94 3d 62 af 6f 3d
       0.04912802 -0.052993085 0.072288625 0.058516867
0002b0 92 1b d1 3c 19 7f 05 bd fb 0b 0e bd ca 60 6f 3d
       0.025525842 -0.032591913 -0.034679394 0.058441915
0002c0 df f7 80 3c ab eb af 3d 6d 2d 56 bd f4 1b bd bd
       0.015743194 0.08589872 -0.052289415 -0.09233847
0002d0 72 c5 83 bd 75 f9 ce 3c 14 ee 28 3d fd d9 b1 3d
       -0.06434144 0.025265435 0.041242674 0.08684156
0002e0 7d 3f 11 3d de e0 91 bd 5c 97 55 bc 12 11 b0 bd
       0.035460938 -0.07122968 -0.013036575 -0.08597006
0002f0 9d 32 5a 3d 7e 2d 76 bd 21 59 65 bd 6f 45 4b 3c
       0.053270925 -0.06010198 -0.055993203 0.012406691
000300 7d fe ad bd fd 3c 27 3d c4 52 3e 3d d2 0f 52 3d
       -0.084958054 0.040829647 0.04646565 0.05128462
000310 39 c4 9f 3d 26 e5 86 3b 58 cd 1f be 71 c5 51 3d
       0.078010984 0.004116672 -0.15605676 0.051213685
000320 14 f8 87 3d b3 36 a5 3d a7 a0 f7 bc 90 7c 89 3c
       0.06639114 0.08067074 -0.030227972 0.016783029
000330 98 9e 07 bd 9a 74 09 3e 7a ae 6a bd bd 1e e9 bd
       -0.03311023 0.13423386 -0.0572953 -0.11382816
000340 76 75 96 bd 0a 64 e8 bc b9 0d 8e bd bb c7 d7 3d
       -0.07346623 -0.028368015 -0.06936211 0.105361424
000350 cd 00 f0 3c 6b b1 f0 bd 36 ce 12 3c 40 d0 cc bd
       0.029297257 -0.1175259 0.008960297 -0.10000658
000360 cf da 60 3b ac b5 f0 bd ec 7e 8c 3d 89 d9 5e 3d
       0.0034310108 -0.11753401 0.06860146 0.054406676
000370 43 c8 2e bc ec 0a 70 bd 91 58 98 3d d0 92 8d 3d
       -0.010667863 -0.058604166 0.07438768 0.06912768
000380 4a 33 a3 bd 6f 3f 10 bc f0 65 5c bc 9b 22 c6 bc
       -0.07968767 -0.008804186 -0.013452038 -0.024186423
000390 93 26 76 3d dd e4 9c 3d 81 b7 cf 3b 11 91 d7 bd
       0.06009538 0.0766084 0.006339014 -0.10525716
0003a0 69 49 db 3d 9c df a0 bc f9 ef 2a 3c cd 87 cb 3c
       0.10707361 -0.019637875 0.0104331905 0.024845028
0003b0 c1 e6 39 bd 6d ba b3 3d 34 1b 57 3d 9c c8 92 3d
       -0.04538608 0.08775792 0.052516177 0.071671695
0003c0 42 83 a4 bd 02 e4 ac bd 36 0f 38 bd dc 01 3e 3c
       -0.08032848 -0.084419265 -0.04493638 0.011597123
0003d0 76 e9 51 3b 9a 56 30 bd 63 db 15 3d 54 b5 6d bd
       0.0032030023 -0.04305134 0.036586177 -0.058034256
0003e0 03 29 a5 bd cd 0e 68 bb 3f 8f c5 bc 3c 4b 10 bc
       -0.08064463 -0.0035409213 -0.024116157 -0.008807
0003f0 a4 42 c5 bc c3 26 9f 3d 50 58 3c 3d b3 78 08 bd
       -0.024079628 0.07771065 0.04598266 -0.033318233

fc2.bias f4 [84]
000000 77 46 00 bd ad 9d 9e 3d a9 1e dd 3c cd 40 16 3e
       -0.0313172 0.07744918 0.026992159 0.14673157
000010 25 03 30 bc 34 ec f4 3c aa 73 cc 3d e4 1a a4 bd
       -0.010742937 0.029897787 0.09982999 -0.080129415
000020 c2 5b ef 3d ab 36 c2 3d e5 7f e8 3d 0d 87 9a bb
       0.11687423 0.09483083 0.11352519 -0.0047158063
000030 b1 8d b6 bb 29 aa 0f 3e ce 57 1e 3c fc 1d d2 3d
       -0.00557109 0.14029755 0.009664489 0.10259625
000040 fc b0 cd 3d bc 41 d4 3d e3 b7 3b bc 7d d7 08 3d
       0.10043523 0.103641 -0.011457416 0.03340863
000050 ae 3f 13 bd 7a f9 1f 3e 28 c0 6c 3d 14 10 b8 3d
       -0.0359494 0.15622512 0.057800442 0.08987442
000060 64 94 c6 3c 7a 22 69 3d 85 16 42 bd 5c 0b 38 bd
       0.02424068 0.056917645 -0.047384758 -0.04493271
000070 fd 17 64 3d a5 46 43 bc 3b 06 37 bd 4f 74 4c bd
       0.05568694 -0.011918698 -0.044683676 -0.049915608
000080 79 4e 0b 3e 09 18 2e 3e 2c a0 9c 3d a6 4e a4 3d
       0.13604154 0.17001356 0.07647738 0.080228135
000090 51 a4 26 3e 01 75 b6 3b d6 be 46 3d 60 a4 90 bd
       0.16273619 0.005568147 0.04852184 -0.07062602
0000a0 1e 0f b4 3c 5d 52 4f 3c e0 e7 05 3e 8f 43 01 bd
       0.021979865 0.012653914 0.13076735 -0.03155857
0000b0 53 f5 95 bc 49 94 17 3e 50 01 1a 3e cb a5 0b 3e
       -0.018305456 0.1480266 0.15039563 0.13637464
0000c0 68 ed 38 bd 9c 2d 35 3d b6 6a ef 3d 87 bc 91 3d
       -0.045148283 0.04423295 0.11690275 0.07116037
0000d0 88 e6 0c bd a4 17 10 bd 59 9a 94 3d b7 42 53 bd
       -0.03439954 -0.035178795 0.07256002 -0.051577296
0000e0 13 e2 d1 3d ed b1 d4 3d 65 6b b9 3d 4c c0 ab 3d
       0.10248198 0.10385499 0.09053687 0.08386287
0000f0 3f 59 03 3e da 09 c0 3c 70 17 b4 3d d3 21 49 3d
       0.12827013 0.023442198 0.08793533 0.049104523
000100 1b d0 3c 3d 22 48 03 3e 3e cd a8 bd 94 91 22 3e
       0.046096902 0.12820485 -0.08242272 0.15875846
000110 f0 a9 35 3e 1b 18 86 3d 34 a3 9c 3d ca cf a4 3d
       0.17740607 0.065475665 0.07648316 0.08047445
000120 7a d9 0a 3e b1 4f 11 3e f8 3b 6a 3d d6 cf 64 3d
       0.13559523 0.14190556 0.057186097 0.05586227
000130 7d 87 c2 bc 10 c1 7e 3c ff c5 d4 3b db aa 56 3c
       -0.023746246 0.015548959 0.0064933295 0.013102259
000140 fb 97 f2 3d b1 43 84 bd 79 d5 8c 3d 9d 9d 0b 3e
       0.11845394 -0.064582236 0.06876654 0.13634343

fc3.weight f4 [2, 84]
000000 47 c3 b5 bd 67 bb 04 3f 71 5b 0a 3e 9a 14 68 3d
       -0.08875137 0.51848453 0.13511445 0.056660272
000010 f4 12 ee 3c 01 c7 81 3e 3d 9b 87 be 7d cb d5 bb
       0.029061772 0.2534714 -0.26485625 -0.006524502
000020 3e 0c 08 3e d3 e6 c7 3d 13 79 42 bd 7d 33 b0 3e
       0.1328592 0.09760823 -0.047478747 0.34414282
000030 d1 fe 14 3e 61 f9 bf be ac 00 b6 be a6 44 c0 3c
       0.1455033 -0.37494949 -0.35547388 0.023470234
000040 b5 d3 57 3e 56 78 1d 3e 31 f8 a8 3d 26 ac 9c 3d
       0.21076854 0.15377936 0.08250464 0.07650022
000050 65 c9 b7 3d aa 67 8c be 69 c6 19 3e 4e ba 83 3d
       0.0897396 -0.2742284 0.15017094 0.06432019
000060 8e 14 5d 3e 66 1c 03 3d 02 a5 eb 3d 8c dc d6 bd
       0.21589872 0.032009505 0.11506082 -0.10491285
000070 e3 ac 1f be 5e 5d 0d be b1 8c cd bc 51 f1 94 3a
       -0.15593295 -0.13805148 -0.025091501 0.0011363422
000080 68 f3 cd 3e 6a 26 bd bd 0b a3 6d be f2 78 db 3c
       0.40224767 -0.092358425 -0.23206727 0.02679107
000090 23 56 cb bd 3d c0 ac b8 08 fe 4d bc bf 5b 71 3d
       -0.09928539 -8.237406e-05 -0.012572773 0.058925387
0000a0 2f 49 9f bd a5 ca 02 3e 6a e4 61 3e 81 a6 a3 bd
       -0.077776305 0.12772615 0.2205979 -0.079907425
0000b0 51 10 cc 3d ea 9d 2c be b4 a9 9c bd d7 dd 5c 3e
       0.099640496 -0.16857114 -0.07649556 0.21569
0000c0 e0 04 89 bd 44 10 19 be 81 56 8e 3e eb 90 9a be
       -0.06690383 -0.14947611 0.27800372 -0.3018869
0000d0 36 26 ac 3d b4 28 10 3e bd e2 a9 bc 48 79 36 3e
       0.08405726 0.14078027 -0.020738 0.17819703
0000e0 ce 47 dc 3d f4 c0 94 be be f4 85 be 58 d8 c7 3d
       0.10755883 -0.29053462 -0.26163286 0.09758061
0000f0 a0 5f 71 3e c1 e9 bd 3d c6 a2 c7 3d b7 a6 97 3e
       0.23571634 0.09273101 0.097478434 0.2961938
000100 0d c1 88 bd 47 42 8c be 16 9f 36 3e 89 6f cf be
       -0.066774465 -0.27394316 0.17834124 -0.40514782
000110 e7 6d e3 be 97 f6 75 3e 56 df e3 be 9b 31 cc bd
       -0.44419786 0.24019848 -0.4450633 -0.09970399
000120 3e 8f 29 be aa 35 05 be 3d 48 ce 3d fb bf 49 bd
       -0.16558549 -0.13008752 0.10072372 -0.049255352
000130 71 09 10 3e 03 8e c1 3d 1c e8 5f 3d 58 61 13 3e
       0.14066102 0.09450915 0.054664716 0.14392602
000140 f6 9b 87 bd 1f 6d c5 bd f4 7b 2d 3e 43 2b 70 3e
       -0.06621544 -0.09639954 0.16941816 0.23454003
000150 32 19 88 be 74 54 3e bd c9 77 e3 bd 28 76 a9 be
       -0.26581722 -0.04646726 -0.111068316 -0.3309796
000160 3e 2d ea 3d 2d a1 cc bd 89 07 99 3e 66 97 7e 3c
       0.114344105 -0.09991679 0.2988856 0.015539026
000170 ac aa 46 be ed 31 cb 3e ed 30 22 3e 1e d4 8a be
       -0.19401044 0.39686528 0.15838976 -0.27114958
000180 71 d3 ea 3c e4 15 a7 bd 15 7e 5f be 60 b9 5c 3e
       0.028665276 -0.08158472 -0.2182544 0.2155509
000190 d9 17 52 3e 4a f2 00 bd c3 97 2e 3d 13 84 85 3d
       0.2051691 -0.031481065 0.0426252 0.06519332
0001a0 07 e3 32 3c 01 05 52 bd 01 59 d2 3c 1b 5f 8c 3e
       0.010918385 -0.051274303 0.025677206 0.2741631
0001b0 5e 7c 40 be ff 2c c1 bd 58 c1 b1 3d a8 43 f7 bd
       -0.18797442 -0.094324104 0.086794555 -0.12073451
0001c0 de ba 2c 3e 7e e4 8c bd 95 69 28 be a1 19 ef bd
       0.16868159 -0.06879519 -0.16446526 -0.1167481
0001d0 2f 1a 08 3e 2c 93 b3 3e 4d af 80 bd 40 bd 49 be
       0.13291238 0.3507322 -0.06283436 -0.197011
0001e0 6f 8e b0 3e 03 c1 7e bc c7 e3 2d be 50 71 22 be
       0.34483668 -0.015548947 -0.16981421 -0.15863538
0001f0 8b d9 8d bc 17 bc 48 be 89 90 37 be eb 56 a8 3c
       -0.017315647 -0.19603 -0.1792623 0.020549258
000200 11 9c 75 3e ad f1 b9 be 5a da bc 3e 2d dc 36 3e
       0.23985316 -0.36317196 0.3688534 0.17857428
000210 35 e1 5d bd f4 f6 09 be 99 cd 8c 3e 72 de 14 3d
       -0.054169852 -0.13473111 0.2750061 0.036344953
000220 89 94 e7 bc ac 63 1a 3e 24 e8 3e be 57 ce 1a bc
       -0.02826907 0.15077084 -0.18643242 -0.009448609
000230 f9 1e be 3d 03 7f 0e be 07 8d 70 be 01 37 78 be
       0.09283251 -0.13915639 -0.23491298 -0.24239732
000240 41 c5 13 3e 43 37 b0 bd 76 8d 86 bd 34 67 92 3e
       0.14430715 -0.0860429 -0.0656995 0.28594363
000250 ff 7e c7 be 0c 79 64 3e a8 4c 80 3d fa ed ac 3e
       -0.38964078 0.223118 0.06264621 0.33775312
000260 88 3e 51 3e 7b f5 1b 3e 10 86 a2 3d 36 ca 8e 3d
       0.2043401 0.15230362 0.07935727 0.069721624
000270 35 b8 6b be 05 77 87 3e 97 b6 84 bd cd 38 66 be
       -0.23019488 0.26457992 -0.06480139 -0.22482605
000280 d0 e5 ee bd e7 e2 9b be 72 80 d1 bd 22 0e 92 bc
       -0.11664927 -0.3044655 -0.10229577 -0.017829005
000290 1a c4 ab be c4 cd f0 bd d9 91 8f be 66 e3 70 3e
       -0.3354805 -0.11757997 -0.2804096 0.23524246

fc3.bias f4 [2]
000000 a2 8e 3e 3d 65 9d a4 3b
       0.046522744 0.0050236457
