src/models/random.onnx (onnx, 336968 bytes, 10 tensors)

conv1.weight f4 [6, 5, 5, 5]
000000 6f f3 91 3d 00 91 12 ba 9e a7 38 3d fe c6 0b bd
       0.071265094 -0.00055910647 0.045081727 -0.03412532
000010 f6 e6 0a bd 18 e2 65 3c 54 c1 90 bd 0f d5 46 bd
       -0.033911668 0.014030956 -0.070681244 -0.048543032
000020 d5 ad 89 bd df 90 a8 bd 6e 16 72 3d 7e 3f 4b bd
       -0.06722609 -0.08230757 0.059103422 -0.049621098
000030 f2 f1 54 3d a6 d3 37 3d 60 11 ba 3c 7a aa 6e 3d
       0.05198855 0.044879578 0.022713363 0.058268048
000040 ec e4 8a bd 1e 39 67 3d b4 4a 9c bd 60 1e 5a 3b
       -0.06781945 0.056450956 -0.07631436 0.0033282265
000050 81 7f aa 3d 07 62 8d bd 8a 49 08 3d 10 cd 77 bc
       0.08325101 -0.06903463 0.033273257 -0.015124574
000060 50 7c 01 3d f9 72 86 3d 3b 73 8c 3d 6e ab 0c 3d
       0.031612694 0.06564898 0.06857916 0.034343176
000070 86 8a 9e bd 31 77 90 3d 40 86 08 3b a8 8c 7c bc
       -0.07741265 0.07053984 0.0020831972 -0.015414394
000080 58 b3 ae bc c4 8e 82 bd 04 bb 84 bc 30 ed 5c bc
       -0.021325752 -0.06374887 -0.016202457 -0.013484284
000090 90 2c d8 bc 44 54 ad bd 75 7f 53 bd c9 2f 84 3d
       -0.026388437 -0.08463338 -0.051635224 0.06454427
0000a0 36 85 26 3d 41 c6 b4 3d 50 3b f8 bc a0 85 0a bd
       0.040654384 0.088268764 -0.03030172 -0.03381884
0000b0 a8 dd 77 3c 72 b8 1e 3d 26 2e 41 3d b7 a8 89 3d
       0.015128531 0.03875012 0.04716315 0.06721633
0000c0 c6 4d 95 bd 4e 87 96 bd df 11 80 3d 33 19 88 bd
       -0.07290225 -0.07350026 0.06253409 -0.06645431
0000d0 84 60 ef bc d2 e1 5e 3d d0 73 b6 bd 20 f6 67 3b
       -0.029220827 0.054414578 -0.08908808 0.0035394505
0000e0 ec 3f fc bc 40 43 9b 3b 59 77 93 bd 70 23 f6 bb
       -0.0307922 0.0047382414 -0.07200498 -0.0075115487
0000f0 8a f8 ac bd 92 ae 27 3d 2b 28 ac 3d 3f 1e 9a 3d
       -0.084458426 0.040937968 0.08406099 0.075253
000100 f6 7f 8f bd ce b7 34 3d 9a 41 4d 3d ba e8 51 3d
       -0.070068285 0.044120602 0.05011139 0.051247336
000110 96 80 0f 3d af cd 89 3d 18 ff 3a 3c e1 2b 81 3d
       0.03503474 0.06728684 0.011413358 0.06307197
000120 bc 51 d4 3c 62 c3 9f bd c7 43 a1 3d 7c cf de 3c
       0.02591788 -0.07800938 0.078742556 0.027198546
000130 f6 68 35 3d b8 b9 f2 bc 12 1d b7 bd 98 fb 2e bc
       0.04428955 -0.029629573 -0.089410916 -0.010680102
000140 41 55 98 3d 2a 1c 81 bd fa c0 32 bd 76 4d 40 3d
       0.07438136 -0.063042 -0.043641068 0.046948873
000150 e1 58 91 3d b4 23 8d bd 05 1f af bd 52 97 4b 3d
       0.070970304 -0.068915755 -0.085508384 0.049704857
000160 44 b5 b3 bd 84 cd 8a bd 48 2a 48 3c 48 1b 51 3c
       -0.08774808 -0.0677748 0.012217112 0.012762852
000170 3d 99 06 bd 6b a1 5e bd 2a 30 85 bd 4d 9e 99 bd
       -0.032860983 -0.05435316 -0.06503327 -0.075008966
000180 de a9 24 3d ea 73 77 3d d0 3b 4b bc 58 de 7d 3c
       0.04020106 0.06041328 -0.012404397 0.015494905
000190 79 07 a3 bd 9d 07 af 3d 50 ef db 3b b4 9c b0 bd
       -0.0796041 0.08546374 0.006711878 -0.08623639
0001a0 32 fa 75 3d fb e2 88 3d 3c f7 9c bd f0 3c f2 bb
       0.060053058 0.06683918 -0.07664344 -0.007392518
0001b0 fc 7e 06 3d 41 c7 90 bd 0a 58 95 bd ae c5 34 3d
       0.032835945 -0.07069255 -0.07292183 0.044133835
0001c0 08 cf c8 bc 30 32 40 3c 30 c7 46 bc b1 c5 9b 3d
       -0.024512783 0.011730716 -0.012132451 0.07606066
0001d0 12 0e f7 bc b8 57 75 3c 14 04 4f bd a0 ba 73 3c
       -0.030158076 0.014974527 -0.050541 0.014876038
0001e0 b3 4f a5 3d 18 d0 ad 3c 51 7d 84 3d 86 66 2e 3d
       0.08071842 0.02121739 0.06469215 0.042578243
0001f0 e7 70 ad 3d a0 90 cb bb b8 06 22 3c d9 d3 62 bd
       0.084688 -0.006212309 0.009889297 -0.055377815
000200 70 41 e1 bb 2f 77 ae 3d 1d 69 6a bd a8 d3 ea 3c
       -0.006874256 0.08518826 -0.05722915 0.028665379
000210 d1 f8 6f bd 48 6f 18 3c 59 30 8b bd da 6c 24 3d
       -0.0585869 0.009303875 -0.06796331 0.04014287
000220 04 cb 8b 3c ec 1d 05 bd 26 86 12 3d 31 89 97 3d
       0.017064579 -0.03249924 0.035772465 0.07399214
000230 39 53 85 3d 2a aa a0 bd 19 2b b2 3d b0 18 a5 bc
       0.06510014 -0.07844956 0.086996265 -0.020153373
000240 5a 3b 5b bd 35 bb 50 bd 8f 4f 8e bd 00 50 86 ba
       -0.0535234 -0.050959785 -0.06948768 -0.001024723
000250 c4 10 8a bd 40 29 a6 3a d2 f4 1b 3d 2c fd b2 3c
       -0.06741479 0.0012677088 0.038075276 0.021849237
000260 fe 8f e6 bc c0 5e 52 3c 9e ec 96 bd 00 93 d5 b9
       -0.028144833 0.012839973 -0.0736935 -0.0004073605
000270 36 7e 0a bd 4e 84 f6 bc e4 e7 80 3c c0 aa 0a bc
       -0.03381177 -0.030092385 0.015735574 -0.008463562
000280 55 2c b5 bd 97 cc 18 bd 6b ef a7 3d 4a 63 3d bd
       -0.08846346 -0.037304487 0.08199962 -0.046237268
000290 5e 48 62 3d a5 0f b4 bd c7 e5 99 3d 26 0f 12 3d
       0.055244796 -0.087920465 0.0751453 0.035658978
0002a0 fe 84 57 3d 68 96 8e bd c6 71 44 3d b6 2a 28 3d
       0.052617066 -0.069622815 0.047960065 0.041056357
0002b0 0c 95 a5 bc 44 90 ac bd d4 6c b6 bd a2 b2 48 3d
       -0.020212673 -0.08425954 -0.08907476 0.048998483
0002c0 04 c2 de bc 0f bd ac bd 2e b7 63 3d 78 6e 85 bd
       -0.027192123 -0.084344976 0.055594616 -0.06515211
0002d0 ec 17 5b bd 69 c3 8a 3d 7e 36 51 bd b5 f0 61 bd
       -0.05348961 0.06775553 -0.05107736 -0.055161197
0002e0 10 7d 82 3b 4a 93 3e 3d 9f d2 b1 bd e1 97 96 3d
       0.003982194 0.046527185 -0.08682751 0.07353187
0002f0 5c 05 05 bd de 69 45 bd 10 a4 e0 bb 10 5f 72 bd
       -0.032475814 -0.048196666 -0.0068554953 -0.05917269
000300 44 64 c4 3c 46 c0 1e 3d cc 24 98 3c 38 10 4d 3c
       0.023973592 0.038757585 0.018572234 0.012516074
000310 87 2b 86 bd 34 9a 00 3d c2 9c 34 3d 5a b1 90 bd
       -0.06551271 0.03139706 0.04409481 -0.07065077
000320 0e 79 26 3d a4 c3 df 3c a4 90 ab bc f0 52 c0 3c
       0.04064279 0.027314968 -0.020942993 0.023477048
000330 eb 07 96 3d 69 db 19 bd c0 ed d0 3b bd 31 6c bd
       0.07325729 -0.03756276 0.0063759983 -0.05766462
000340 3a c0 59 3d 40 c1 f2 ba ba 24 7d 3d 66 4d 81 bd
       0.053161837 -0.0018520728 0.061802603 -0.06313591
000350 b6 3c 96 bd c6 e4 12 bd 5a 27 1c 3d 20 61 b4 bd
       -0.073357984 -0.035862707 0.038123466 -0.088075876
000360 ee 9a 5f bd f9 5e a5 bd 2a 61 36 3d bf 60 0f bd
       -0.05459111 -0.08074755 0.044526257 -0.035004374
000370 74 f0 95 3c aa 06 17 3d 1f 3f a0 bd 30 fe 3e 3c
       0.018303134 0.03687159 -0.078245394 0.011657283
000380 76 7e 4c 3d 57 58 9a 3d 70 db c8 bc 67 66 24 bd
       0.04992529 0.07536381 -0.024518698 -0.04013672
000390 41 f4 b4 bd 6c 83 aa bc f8 f1 47 bc e0 81 df bc
       -0.0883565 -0.02081462 -0.012203686 -0.027283609
0003a0 da e7 0e 3d f6 92 ad bd a0 cf 1d bb 04 a8 e1 bc
       0.03488908 -0.08475296 -0.0024080053 -0.027545936
0003b0 e0 4f 50 bd 81 73 a0 3d 6e 90 56 3d 4f 79 7a bd
       -0.050857425 0.078345306 0.052383833 -0.061150845
0003c0 0e 49 a9 bd 8f c7 a0 3d 9e ca 5b bd 38 ff 6d 3c
       -0.08265887 0.07850563 -0.053660028 0.014526181
0003d0 bb ca 9a bd 36 1d 7e bd 7b 64 9a bd a6 62 49 3d
       -0.07558199 -0.062039576 -0.075386964 0.049166344
0003e0 64 76 06 bd 59 99 34 bd 20 c9 48 3b c8 4b c6 3c
       -0.03282775 -0.044091556 0.0030637458 0.024206057
0003f0 fe 0a 42 3d 3b 9b 35 bd 3c 45 79 bd aa f4 e4 bc
       0.047373764 -0.044337492 -0.060857043 -0.027948696

conv1.bias f4 [6]
000000 ea 75 5b 3d 95 46 8f 3d 80 93 19 3a ac 3f b6 bd
       0.05357925 0.06995884 0.0005858466 -0.08898863
000010 80 73 1d 3c 78 eb b5 bc
       0.009610057 -0.022207007

conv2.weight f4 [16, 6, 5, 5]
000000 48 25 5b 3d e8 b8 b4 bc ec f1 7e 3d 08 01 a5 3c
       0.05350235 -0.022060826 0.062242433 0.020142093
000010 6e f2 1b 3d 80 f7 fe 3a e6 43 14 3d 79 ca 18 bd
       0.038072996 0.0019452423 0.036197565 -0.037302468
000020 47 3d 3e bd 47 34 0a bd 0e b8 94 3d 7c 3a 50 3d
       -0.046445157 -0.03374126 0.07261668 0.050837025
000030 de 65 23 bd 80 ad 07 bb a0 6e 8d 3c d7 18 9c bd
       -0.03989207 -0.002070278 0.017264664 -0.07621925
000040 a0 46 27 3b 80 f8 6d ba a4 86 fd 3c 28 fc 50 bd
       0.0025524274 -0.0009077862 0.03094799 -0.051021725
000050 2a 23 8f 3d 86 4e 27 3d f0 3a ee bb 1d cb 2c bd
       0.06989129 0.04084637 -0.0072702095 -0.04218589
000060 96 34 a0 3d 36 76 91 bd 24 64 3d 3d 48 87 7d bc
       0.0782253 -0.07102625 0.04623808 -0.015474148
000070 e4 11 da 3c 94 a4 5a 3d a8 b3 e0 3c e8 d8 85 bd
       0.026619859 0.05337961 0.027429417 -0.06535512
000080 0a 24 95 bd 69 79 30 bd d6 5e bf bc 80 fc 9a 3a
       -0.072822645 -0.043084536 -0.023360651 0.0011824518
000090 4e 43 f5 bc 0c b3 61 3d a4 c0 1f 3d 54 2e 00 3d
       -0.02993932 0.055102393 0.039002076 0.031294182
0000a0 50 07 55 3c f6 92 62 bd 54 41 9b bd ae cd 83 3d
       0.013002232 -0.055315934 -0.0758082 0.06435715
0000b0 ee 03 96 bd a6 d1 93 bd c8 5c 68 3d c6 0b 89 3d
       -0.07324968 -0.07217722 0.056729108 0.06691699
0000c0 10 a6 de bb 0a 12 3c bd e4 22 04 3d 02 9a 1a bd
       -0.0067946985 -0.04591564 0.032259837 -0.03774453
0000d0 06 1a 80 3d 80 13 e1 bb d8 4c e5 bc 31 3c 4a bd
       0.062549636 -0.0068687797 -0.027990744 -0.04937381
0000e0 8f bc 4b bd 64 9f 93 bd 10 d5 37 bc b0 11 35 3c
       -0.04974037 -0.07208136 -0.011220232 0.01105158
0000f0 42 76 35 bd 77 bd 93 bd 80 94 a8 3a 1c 04 8f 3c
       -0.044302233 -0.07213872 0.0012861639 0.017458014
000100 a3 dd 1a bd fa bb 8a 3d 50 87 5a 3d 8c 53 d7 bc
       -0.037809025 0.06774135 0.0533517 -0.026284955
000110 24 80 8a 3c 44 c9 2d bd c0 c8 bd ba f8 9c 3f 3d
       0.016906805 -0.04242827 -0.0014479384 0.046780556
000120 cc bd 74 3d 75 59 66 bd fc 62 86 3c 2e 0c 8b bd
       0.059751317 -0.056237657 0.016404621 -0.067894325
000130 5a 2e e7 bc 34 97 60 bd 0e e7 8b 3d a2 ae a3 3d
       -0.028220344 -0.0548317 0.068311796 0.07992293
000140 d8 b4 9a bd 2f 12 8c bd ec 99 bb bc 00 f6 57 39
       -0.075540245 -0.06839406 -0.022900544 0.0002059564
000150 48 3d 8e 3c ca 49 a3 bd 20 03 fa 3c f0 28 d0 3c
       0.017363206 -0.079730585 0.030519068 0.025410146
000160 40 83 4f bb d2 c4 d1 bc a0 b1 9b 3c 00 d4 31 3d
       -0.0031663924 -0.025606547 0.019005597 0.04341507
000170 0a 9f 68 bd 1a 7c 9a 3d 59 3b 1b bd 12 31 a3 bc
       -0.056792296 0.07543202 -0.037898395 -0.01992086
000180 54 4e 37 3d b3 16 a2 bd d9 8a 4d bd 64 8d 9f 3d
       0.044752434 -0.07914486 -0.050181244 0.0779064
000190 2a f5 f1 bc e2 d1 87 3d 6c 67 8b 3d 9e cd 49 bd
       -0.029535849 0.06631829 0.068068355 -0.049268357
0001a0 02 77 93 3d 08 7b 9b 3c 9c 20 e7 bc cc 42 61 bd
       0.07200433 0.018979564 -0.028213792 -0.054995343
0001b0 58 24 3e bc 8c 14 8d 3c 6c dc 5f 3d 80 4b 93 3d
       -0.011605345 0.017221712 0.05465357 0.07192135
0001c0 a8 a4 1e 3c fe 58 11 3d 70 61 9d bb fc cf 5a 3d
       0.009682812 0.03548526 -0.004802875 0.053421006
0001d0 9a 64 53 bd a0 76 7d bc 90 0a 28 bc f4 f0 f7 3c
       -0.051609613 -0.015470177 -0.010256425 0.030266263
0001e0 c8 01 71 3d a6 fd 08 3d 2a d3 8f 3d 28 41 81 bd
       0.05883959 0.033445023 0.07022698 -0.06311256
0001f0 29 b9 82 bd da 99 d3 bc 10 36 8f bb 1c 13 20 3d
       -0.06382973 -0.025830198 -0.0043704584 0.039080724
000200 30 34 c3 bb b5 3d 0d bd 35 fd 7d bd 40 03 86 3a
       -0.005957149 -0.034482677 -0.062009055 0.0010224357
000210 70 e0 45 3c 30 48 89 3d 65 b6 98 bd 28 29 64 3d
       0.012077436 0.06703222 -0.07456664 0.055703312
000220 54 a8 7d 3d 70 ac ae bc 54 b8 72 bd 68 fa 21 3c
       0.06192811 -0.021322459 -0.05925782 0.009886362
000230 84 13 b0 3c f0 79 8f bc 8c 1d 2d 3d 5c 63 9f bc
       0.02149368 -0.017514199 0.042264506 -0.019456558
000240 a0 9c 84 3c ff ff 56 bd 26 ea 7a bd 10 e7 19 3d
       0.016187966 -0.05249023 -0.061258458 0.037573874
000250 ec f4 a1 3c 3c df b2 3c 14 43 a8 bc 8a 30 90 3d
       0.019770108 0.021834962 -0.020539798 0.07040508
000260 10 c9 ba bc d0 09 1b 3c c4 05 8b 3c 48 00 4a 3c
       -0.022800952 0.009462789 0.016970523 0.012329169
000270 78 84 45 3d fe d4 2f 3d 7c c1 57 3d a0 2b 9e bd
       0.048222035 0.042927735 0.052674755 -0.077231646
000280 a8 58 8a bc 94 ce 7b bd 4b 4d 3b bd e8 e7 5d 3d
       -0.016887978 -0.061476305 -0.04572801 0.05417624
000290 84 ae ac 3c 21 c9 7f bd 30 d0 3b bd f5 e8 47 bd
       0.02107931 -0.06244767 -0.04585284 -0.04880615
0002a0 60 5c 98 bd f4 2c d5 3c a4 03 4b 3d a2 62 f5 bc
       -0.07439494 0.026022412 0.04956402 -0.029954258
0002b0 68 e2 a9 3c 58 c8 7b 3d 02 66 58 bd 80 59 9e 3a
       0.020737842 0.06147036 -0.052831657 0.0012081116
0002c0 4b f4 86 bd 00 06 a5 bd b5 e2 8f bd e5 28 a7 bd
       -0.06589564 -0.08057785 -0.07025663 -0.08162097
0002d0 88 e8 e5 3c 8a 84 cf bc 9c 7d 58 3d 6a 65 84 3d
       0.028064981 -0.025331754 0.052854165 0.06464656
0002e0 e0 35 25 bb d2 29 c2 bc b0 2c 54 bc de c6 0c 3d
       -0.0025209114 -0.023701582 -0.012950107 0.034369342
0002f0 80 81 53 ba 80 b2 d3 3c f0 91 8a 3d ab 51 9e bd
       -0.0008068308 0.025841951 0.067661166 -0.07730421
000300 22 04 1a bd b0 73 a0 bd 80 85 2c 3a 10 24 e5 3c
       -0.037601598 -0.07834566 0.00065811723 0.027971298
000310 20 f2 2a bd 35 ff 20 bd b0 c8 60 bc 1c 23 bf bc
       -0.041734815 -0.039305884 -0.013719723 -0.023332171
000320 60 5b 14 bc ce 8a 23 3d 82 32 35 bd e6 ad d1 bc
       -0.009054989 0.039927296 -0.04423762 -0.025595617
000330 24 1b 68 3d d3 2f 96 bd 9e 1a de bc 90 4f 56 3d
       0.05666651 -0.073333405 -0.027112301 0.05232197
000340 88 81 07 3d 72 51 42 bd bc b2 92 bc 58 45 25 bc
       0.033082515 -0.047440954 -0.017907493 -0.010087334
000350 ba f7 a1 3d c8 bf 2d bc ee ac 93 3d b0 3f 4a 3d
       0.07908578 -0.010604806 0.07210718 0.049377143
000360 a8 56 03 bd b6 aa 1f 3d 0e c5 1b 3d 40 74 39 3d
       -0.032065064 0.038981162 0.038029723 0.04527688
000370 80 11 33 3c 00 37 93 3d 70 16 eb bb b0 0d 99 bc
       0.010929465 0.07188225 -0.0071743056 -0.018683285
000380 38 30 4f 3c ba 86 af bc 68 74 61 3d 94 43 31 3d
       0.012645774 -0.021426547 0.055042654 0.04327734
000390 12 05 82 3d 4e 90 3a bd a4 62 c6 3c 20 ff 78 bd
       0.06348623 -0.045547776 0.024216957 -0.06079018
0003a0 a0 54 c5 bb 80 d4 0c ba 27 1e 02 bd 0e a2 8e bd
       -0.006022051 -0.0005372241 -0.031767037 -0.06964503
0003b0 42 22 8c bd 08 5b b4 3c 64 49 30 bd 80 0c 7a 3a
       -0.06842472 0.022016063 -0.04303874 0.0009538606
0003c0 25 cf 50 bd 3a 7d 73 bd e0 fd c6 3c 28 0d 19 bc
       -0.0509788 -0.059445597 0.024290979 -0.009341516
0003d0 3a 81 30 3d e8 01 79 3c c0 c7 ad ba 06 02 9d bc
       0.04309199 0.015198208 -0.0013258383 -0.019166004
0003e0 e0 8a 22 3d 5f cb 20 bd 28 4e 32 3c 24 c6 74 3d
       0.039683223 -0.03925645 0.010882892 0.059759274
0003f0 fd 45 10 bd 7a d7 bc bc 30 70 6c bc 70 e9 62 bc
       -0.035222996 -0.023051966 -0.014431044 -0.013849601

conv2.bias f4 [16]
000000 b2 cb 09 bd 78 1d 93 bd 08 d8 1e bc 91 05 4d bd
       -0.033641525 -0.07183355 -0.009695061 -0.050054137
000010 cc 15 71 3d 4e 8a a6 bd 9b a4 24 bd 00 db 5f ba
       0.058858678 -0.08131848 -0.040196043 -0.00085394084
000020 4c 60 43 bd 50 a4 32 3d 62 35 85 bd e7 67 33 bd
       -0.047699258 0.04361373 -0.065043226 -0.04380026
000030 e6 01 58 bd 38 60 38 3d 1c 8c 86 3c c6 38 7a bd
       -0.052736185 0.045013636 0.016424231 -0.0610893

fc1.weight f4 [120, 584]
000000 2c 80 c7 3c 98 af 12 3d a0 05 15 3d 6e 68 1c bd
       0.02435311 0.03581199 0.036382318 -0.03818553
000010 8d 82 b5 bc f8 3b b0 3c 00 0e 19 bb 4f 44 b4 bc
       -0.022156978 0.02151297 -0.0023354292 -0.022005228
000020 ce 74 80 bc 24 b6 f2 3c d0 65 3d 3c f8 f0 71 bc
       -0.015680697 0.029627867 0.0115599185 -0.014766924
000030 30 25 cf 3b e8 f9 da 3c e8 c9 23 bc c8 6e 62 3c
       0.006321572 0.026730493 -0.009996869 0.013820358
000040 08 16 e6 3c c0 d3 18 3d b1 ae c7 bc a0 3c c6 bb
       0.028086677 0.037311316 -0.024375292 -0.0060497075
000050 20 3d 71 3b 90 1a bd 3c 8c da 98 3c 12 21 14 3d
       0.0036810115 0.023083955 0.018658899 0.03616435
000060 14 b0 2f 3c 1c 41 8c 3c 30 7e f5 bc f1 17 c7 bc
       0.010723133 0.01712089 -0.029967397 -0.024303408
000070 b8 c1 d5 3c 90 1e 97 3c e0 2a 2d bc b0 24 1d 3c
       0.026093349 0.01844719 -0.010569304 0.0095912665
000080 58 a4 00 3c 0a 4d 03 3d 4e fd 14 3d ea 19 20 3d
       0.007851683 0.032055892 0.036374383 0.039087214
000090 4a 1e dc bc 6c 80 d0 bc 00 16 fc b8 b6 35 a5 3c
       -0.026869912 -0.025451861 -0.00012020394 0.020167213
0000a0 6e 3a 20 3d d2 60 11 bd 1c 5a 5c bc 00 6d 8d b9
       0.039118223 -0.035492726 -0.013449218 -0.00026974827
0000b0 4c 25 af bc b8 f2 d1 3b 80 9a f3 3c d7 43 9d bc
       -0.02138009 0.006407108 0.029736757 -0.019197388
0000c0 80 00 70 3a 20 cd c8 3c 3e 39 ec bc b2 88 6d bc
       0.0009155348 0.024511874 -0.028835889 -0.014497923
0000d0 28 5c 01 bc 8a be 86 3c 6e a6 20 3d 3c 16 ac 3c
       -0.007895507 0.016448278 0.03922122 0.021006696
0000e0 04 48 0e bd cc 25 01 3d 4e f4 08 3d 86 00 b5 bc
       -0.03473665 0.031530187 0.033436112 -0.022094976
0000f0 50 58 24 bd b8 25 35 bc 9e df 24 3d 90 82 46 bc
       -0.040123284 -0.011056356 0.04025232 -0.012116089
000100 e0 26 41 3b 8e f4 38 bc 14 06 cd 3c 9e 38 0b 3d
       0.0029472634 -0.011288775 0.025027312 0.03398954
000110 b8 d1 18 3d 94 95 11 bc 14 ac 17 3d f0 81 11 3b
       0.03730938 -0.00888576 0.03702934 0.0022202693
000120 2b b1 9a bc 7c 48 86 3c 36 a8 06 bd c0 60 a3 bc
       -0.018883308 0.016391985 -0.032875262 -0.019943595
000130 00 cc 4f 38 03 22 d0 bc 18 e7 5a 3c 9e 4f 48 bc
       4.9542636e-05 -0.025406843 0.013360761 -0.0122260135
000140 c8 7c 14 3d 70 06 00 bb 8c 6b f9 3c d0 78 72 bb
       0.036251813 -0.0019535087 0.03044679 -0.003699828
000150 e8 4a 82 bb 10 f3 76 bb 38 97 e7 3c 78 2d 3f bc
       -0.0039762147 -0.0037681498 0.028270349 -0.011668555
000160 30 4e 05 3d 73 f7 9d bc 60 16 fb bb 0e 9c a7 bc
       0.03254527 -0.019283032 -0.0076625794 -0.020460155
000170 6c 93 12 bd b5 7c 09 bd 2f 37 15 bd 06 83 6c bc
       -0.035785124 -0.033566196 -0.03642958 -0.014435535
000180 00 15 23 3b d8 95 ce 3c 52 80 17 3d 98 d5 99 3c
       0.0024884343 0.025217935 0.03698761 0.018778607
000190 c7 21 8a bc f8 14 5f 3c 8a 2a b2 bc 67 39 b7 bc
       -0.01686181 0.013615839 -0.0217488 -0.022366239
0001a0 c4 a4 0f bd 40 cf 66 bb 80 ec cd 3c ac 42 28 3c
       -0.035069242 -0.0035218745 0.025137186 0.010269802
0001b0 28 01 e8 bc 08 27 ce 3b 04 a7 59 3c 69 22 0a bd
       -0.028320864 0.006291274 0.0132844485 -0.033724222
0001c0 20 6f b8 bb c0 90 96 bc 88 e8 6b 3c 8b d9 24 bd
       -0.0056284815 -0.018379569 0.0143987015 -0.040246528
0001d0 46 e5 5b bc 00 35 6e bc d8 3e 01 3d 8e cd 86 3c
       -0.013421362 -0.014539003 0.031554073 0.016455438
0001e0 65 8a 0d bd 04 64 98 3c ac 11 64 bc dc 29 f6 3c
       -0.03455581 0.018602379 -0.013920229 0.030049257
0001f0 ba 16 c3 bc 00 06 fd bc 20 37 fb 3c dc f1 16 3d
       -0.023814548 -0.03088665 0.030665934 0.03685175
000200 82 0a 9e bc 92 24 71 bc 5c 10 5a 3c 38 73 e0 3b
       -0.01929212 -0.014718192 0.013309564 0.0068496726
000210 1a 1c 08 bd 2e d5 f3 bc 4a fc d5 bc 98 3f 15 bd
       -0.033229925 -0.029764738 -0.026121277 -0.0364376
000220 8c 0d 4f bc 88 aa 17 bc 2c d2 bd 3c 58 8d 6b 3c
       -0.012637507 -0.009256966 0.023171507 0.014376961
000230 bc 41 10 bc 22 be 1d bd 60 4e 46 3c 7a 3f 06 bd
       -0.008804735 -0.038511403 0.012103647 -0.03277538
000240 30 7f a0 3b d0 2c 08 3b 60 47 aa 3b 8c 2d c4 bc
       0.0048979744 0.0020778663 0.005196497 -0.0239475
000250 80 1b c6 3a 7e 0d 5f bc 8c a9 20 3c e6 35 1e 3d
       0.0015114397 -0.013614057 0.009806048 0.03862562
000260 c8 77 b9 bc bc 9c 9e bc 46 67 2a bc 92 f6 dc bc
       -0.022640124 -0.019361846 -0.010400599 -0.026973043
000270 53 db da bc 20 1d 32 3c 2b 8b 9d bc 70 60 b9 3c
       -0.02671591 0.010871202 -0.0192314 0.022628993
000280 3f 62 a7 bc 1c 60 f2 3c 10 30 a6 3b d3 bd 02 bd
       -0.02043259 0.029586844 0.0050716475 -0.03191931
000290 44 17 c0 3c f0 d7 28 bb ac d3 44 3c 56 e0 ca bc
       0.023448594 -0.0025763474 0.012013357 -0.024765175
0002a0 f5 3d bc bc e0 30 d1 bc c1 ce 9e bc 88 43 27 3d
       -0.022978762 -0.025536 -0.019385697 0.040835887
0002b0 c2 28 d7 bc 81 a2 d5 bc 74 66 07 bc 42 5f 33 bc
       -0.026264552 -0.026078464 -0.008264173 -0.010948004
0002c0 3a 3c 28 3d 00 4f d1 bb b9 83 c2 bc 98 e8 c9 3c
       0.04107306 -0.0063875914 -0.02374445 0.024647042
0002d0 e2 2c 13 bd 0c d9 02 3d b4 de 02 3d 05 a2 93 bc
       -0.035931475 0.031945273 0.031950668 -0.018021593
0002e0 48 57 ca bc 5e d2 fb bc 78 94 3e 3c d4 b2 13 bc
       -0.024699822 -0.03073996 0.011632077 -0.009014804
0002f0 a0 99 80 bc 34 5f ac 3c 3b 2c 07 bd b8 0f 22 3d
       -0.015698254 0.02104149 -0.033001166 0.03956577
000300 de f1 1e 3d fc fd 28 3d 66 98 e8 bc 58 21 97 3b
       0.03880488 0.041257843 -0.028392982 0.004612129
000310 b6 2a a8 bc f8 1d ef 3c 4a 3c 9a 3c bc 91 ae bc
       -0.020528179 0.029189095 0.018827576 -0.021309726
000320 e2 93 0e 3d 65 cf 92 bc 7a fe e6 bc 52 00 e5 bc
       0.034809 -0.017921159 -0.028197516 -0.027954254
000330 40 2d 9a bc b8 8a f9 bb 90 9b 55 3c 80 94 06 3d
       -0.018820405 -0.0076154135 0.013037577 0.032856464
000340 5c 6d d6 3c ac fd d5 bc f8 2e e5 3b 34 50 c9 3c
       0.026175193 -0.026121937 0.0069941245 0.024574377
000350 ec 96 12 3d 38 d6 9d 3c 50 b2 0b 3d 37 df e6 bc
       0.03578846 0.019267187 0.0341056 -0.028182609
000360 b0 f7 6c bb d8 b4 1c 3c 08 50 b8 3c ca 97 2e bc
       -0.0036158375 0.009564601 0.0224991 -0.0106563065
000370 c8 5a af bc 32 e0 0b 3d b4 64 d9 3c da a5 17 3d
       -0.021405593 0.034149356 0.026537277 0.037023403
000380 42 30 8d bc 90 94 a5 bb 96 7d e8 bc 59 4b 95 bc
       -0.017234925 -0.0050531104 -0.028380197 -0.018224405
000390 61 41 da bc e3 88 19 bd de 73 2e bc 64 f4 1f bd
       -0.026642503 -0.03748406 -0.010647742 -0.03905143
0003a0 0c 9d b2 bc ec d3 1d bd 4c 16 25 3d 06 cd 5f bc
       -0.021803401 -0.038532183 0.040304467 -0.013659721
0003b0 c0 10 19 ba 70 13 ea bb 48 ff b5 bc 7c 1b 61 3c
       -0.0005838983 -0.0071434304 -0.022216454 0.013739463
0003c0 c5 a9 22 bd 60 a7 f8 3c 98 75 8f 3b 40 e4 ab 3a
       -0.039712686 0.030353248 0.004378032 0.0013114288
0003d0 fe bf 07 3d 62 58 20 3d f0 a9 e6 3c 54 ca 14 bc
       0.033142082 0.03914679 0.028157204 -0.009081442
0003e0 4c 11 32 3c 99 44 ff bc ac 61 8b 3c 50 ed bc 3c
       0.010868382 -0.03116064 0.017014347 0.023062378
0003f0 83 52 da bc 98 88 56 3c 9a 68 8b bc 9f 59 bd bc
       -0.026650673 0.01309409 -0.017017651 -0.023114024

fc1.bias f4 [120]
000000 5b be 25 bd f0 b9 04 3c a8 2a d1 3c c0 50 a8 bc
       -0.04046474 0.008100972 0.025533035 -0.020546317
000010 00 83 90 3a 3c e9 1b 3d 80 a6 42 ba 00 d1 18 3d
       0.0011025369 0.038064227 -0.0007425323 0.037308693
000020 14 d1 b6 3c fa b1 67 bc 00 b6 e8 ba 98 4e c2 3c
       0.022316493 -0.014141554 -0.0017754436 0.023719117
000030 7a 0b 93 3c e8 c6 c3 3b 5c 8d 86 3c 32 cd 9c 3c
       0.017949808 0.005974639 0.016424827 0.019140813
000040 a0 0c 71 3c 40 63 36 ba 48 ab 5f bc 80 53 e7 bb
       0.014712483 -0.00069575384 -0.0136516765 -0.0070595145
000050 58 97 ba bb 2a 0c 9b bc 10 05 96 3c 00 ff 6a 3c
       -0.005694311 -0.018926699 0.01831296 0.014343023
000060 86 5a 28 bd 48 23 09 bd 04 f1 1d bd 30 af 8c 3b
       -0.041101955 -0.033480912 -0.03855993 0.004293345
000070 34 e0 29 bc e2 c9 a6 3c 28 e0 df bb 7c 33 84 3c
       -0.010368396 0.020359937 -0.0068321414 0.01613783
000080 50 c0 a5 3b 40 8d 66 bc 04 84 04 3c cc 20 2d bc
       0.005058326 -0.014071763 0.008088116 -0.010566901
000090 cc 57 5c bc 55 30 0d bd 68 0f e2 3c d0 a0 23 bc
       -0.013448667 -0.03446992 0.027595237 -0.009987071
0000a0 0f eb b6 bc a5 50 1e bd 20 bc d3 3c 90 e6 4f 3b
       -0.022328882 -0.038651127 0.02584654 0.003172312
0000b0 40 8d 3d 3b 46 e5 22 3d f0 59 54 3c 56 44 8e bc
       0.0028923303 0.039769433 0.012960896 -0.01736657
0000c0 90 5d f2 3b 05 d1 cd bc b0 a9 18 bc ac fa 1c 3d
       0.0073964074 -0.025124082 -0.0093178 0.038324997
0000d0 60 df 7a 3c 51 8d 1c bd 1a 8a 1e bd 92 31 14 bd
       0.015312046 -0.038220707 -0.038705923 -0.036180086
0000e0 a6 62 1a 3d a8 5a 34 3c 86 43 02 3d 68 2a 2a 3c
       0.037691735 0.011007942 0.031802677 0.010386087
0000f0 74 7e f9 bc 5e c4 00 3d 71 eb c0 bc d8 c2 be 3b
       -0.030455805 0.03143727 -0.023549767 0.005821567
000100 d0 b7 28 3d dc 44 88 bc 07 01 ee bc 82 67 27 3d
       0.041190922 -0.016634397 -0.029053224 0.040870197
000110 00 fd 5e ba d4 c8 b5 bc 8b 00 c4 bc f0 b2 b7 bb
       -0.0008506328 -0.022190489 -0.02392604 -0.005606048
000120 4c 8f bf 3c 58 7e 24 bd 44 aa ed bc 46 f5 0a bd
       0.023383759 -0.040159553 -0.029011853 -0.033925317
000130 30 35 04 3d b0 28 6b 3b 56 a7 a1 3c 48 19 de bc
       0.032277286 0.0035882406 0.019733112 -0.027111664
000140 b4 c0 01 3d e0 0a fb 3a 1c 1e 34 3c e4 39 14 bd
       0.031677917 0.0019153021 0.010993507 -0.03618802
000150 d4 25 29 3c 9e 35 0b 3d c0 d0 0c bd b0 c2 24 3c
       0.01032396 0.03398668 -0.034378767 0.010056183
000160 70 e7 87 bb e0 98 83 3c 2e a2 14 3d dc 5a 11 bc
       -0.0041474625 0.016064107 0.03628748 -0.00887176
000170 e8 61 be bb 00 1d 1f 39 d5 94 8e bc d4 41 55 3c
       -0.005810011 0.00015174225 -0.017404953 0.013016183
000180 8c cf ad 3c 30 e2 1a 3c 78 79 c5 3b c0 1a bd 3c
       0.02121713 0.009453341 0.006026443 0.023084044
000190 d6 16 dd bc b8 4f d8 3c 2c 57 a3 3c 8a 56 6b bc
       -0.026988428 0.0264052 0.019939028 -0.014363894
0001a0 31 65 91 bc a3 20 29 bd 83 3e 24 bd 80 29 42 3b
       -0.017748447 -0.04129089 -0.04009868 0.0029626787
0001b0 03 5c b1 bc c0 62 a0 3c 28 45 f6 bb f9 56 af bc
       -0.02165032 0.019578338 -0.0075155683 -0.021403776
0001c0 f2 a9 6e bc b4 c7 41 3c d0 fc dd 3c d0 c7 83 3c
       -0.014566885 0.011827398 0.02709809 0.016086489
0001d0 e2 95 04 3d 4c 25 b6 3c 9c 9b 18 bc 90 f3 94 3b
       0.032369502 0.022234581 -0.009314444 0.0045456365

fc2.weight f4 [84, 120]
000000 10 e2 d8 bc 7c 8a 9d bd b0 ae 5b 3c 6c 95 2a 3d
       -0.026474983 -0.076924294 0.013408348 0.041646406
000010 e1 50 7a bd 6d df 2a bd 10 da 47 3d 90 96 99 3d
       -0.06111229 -0.04171698 0.048791945 0.07499421
000020 b3 85 b1 bd e8 f6 86 bc 08 70 9f 3c 50 0e f3 bb
       -0.08668079 -0.016475156 0.0194626 -0.0074174777
000030 8e a1 3b bd 40 47 10 3c c1 95 a1 bd b8 b6 82 bc
       -0.045808367 0.00880605 -0.078898914 -0.015956268
000040 80 6c 57 ba 90 79 49 3d 88 0a 5b 3d 50 41 fe 3c
       -0.0008217767 0.049188197 0.05347684 0.031037003
000050 40 4d dc ba e0 5a 2c 3c 2b 12 6d bd 6e b0 b3 3d
       -0.001680769 0.010519713 -0.057878654 0.08773886
000060 52 27 80 3d ba 33 8b bd 50 1b 37 3d 49 98 b8 bd
       0.062575 -0.067969754 0.04470378 -0.09013421
000070 00 0e eb bb 26 d5 b0 bd 06 00 5b bd e8 b5 d0 3c
       -0.0071733 -0.08634405 -0.05346682 0.025477365
000080 90 5c 86 3d 04 c4 aa 3d 8c 2e 99 3d 90 01 9e 3b
       0.06560624 0.08338168 0.07479581 0.0048219636
000090 14 c2 c3 3c 08 87 c7 3c e8 95 49 3d d6 4f ba 3d
       0.023896255 0.02435638 0.049215227 0.09097259
0000a0 b0 2c 81 bb d4 2f 91 bc 20 2c 6c 3d 03 58 92 bd
       -0.0039420947 -0.017723002 0.05765927 -0.07145693
0000b0 a9 b3 39 bd d8 0e 91 bd 8c 0c 2b 3d a5 49 48 bd
       -0.045337353 -0.07082909 0.041760013 -0.048898358
0000c0 ba 59 a5 bd 55 ba b0 bd 08 8c b8 3d 80 ec a3 3d
       -0.080737546 -0.0862929 0.09011084 0.08004093
0000d0 9c 9d a1 3c 04 fa c8 bc f4 69 b4 3d 84 eb 36 3d
       0.019728474 -0.02453328 0.088092715 0.0446582
0000e0 6c 08 91 3d be 7e a5 3d 20 84 e7 bb 52 dd a0 bd
       0.070816845 0.08080815 -0.007065311 -0.078547135
0000f0 58 59 d8 bc c1 75 9e bd 30 f5 c5 3b 44 00 b9 3d
       -0.02640979 -0.077373035 0.0060411915 0.09033254
000100 e4 35 48 bd ac 10 8f bd 40 63 9e 3a bb 42 62 bd
       -0.04887952 -0.06985602 0.0012084022 -0.05523942
000110 88 06 b2 3d 5e 8d a3 3d 20 e1 7b bd ee 0e 9b bd
       0.08692652 0.07985948 -0.061493993 -0.07571207
000120 c0 20 d4 bc 80 14 a6 3d cc a8 b3 bd 35 1e aa bd
       -0.025894523 0.08109379 -0.0877243 -0.08306543
000130 b4 26 b6 bc 58 8f 5e 3d 00 e6 d4 bc cc d9 af bc
       -0.022235252 0.054335922 -0.025988579 -0.021466158
000140 68 74 b2 3d d0 f6 a2 3c f0 91 b5 3d c8 7d 7d bd
       0.08713609 0.01989308 0.08865726 -0.061887532
000150 c7 7e 6d bd 68 a6 40 3d 24 13 8a 3d bc 27 8a 3d
       -0.057982232 0.047033697 0.06741932 0.0674586
000160 9c 53 a0 bc ac 10 44 3d f5 6b a9 bd e2 2a 8e 3d
       -0.019571118 0.047867462 -0.08272544 0.06941773
000170 af 2e 2a bd 20 fe 85 bd 04 3e 96 3c 00 5a 57 3a
       -0.041548427 -0.06542611 0.018340118 0.000821501
000180 40 1d d9 bb 1a 76 84 3d 4a 11 85 3d 26 75 84 bd
       -0.0066258013 0.064678386 0.06497438 -0.06467657
000190 9c 9b b1 3d ba 35 0b bd f8 e6 d6 bc 60 6c 3a bc
       0.08672258 -0.033986785 -0.026233181 -0.011378378
0001a0 dc 2c f2 3c 5c ec 9e bc 00 b4 3f bb a0 ae 2f bb
       0.029562406 -0.019399814 -0.0029251575 -0.0026806965
0001b0 e8 38 6a bc dc 4f 4b 3d 44 2e 90 3d d6 1a 95 bd
       -0.014295794 0.049636707 0.070400745 -0.07280509
0001c0 2c 42 5a 3d da 72 f1 bc 81 2f 38 bd 99 c6 35 bd
       0.053285763 -0.02947371 -0.04496718 -0.04437885
0001d0 38 84 1d 3d fe db fa bc ce 58 01 bd de 2e 8a 3d
       0.03845617 -0.030622479 -0.03157883 0.067472205
0001e0 e0 ab 07 3d 98 a6 54 3d ba 06 7f bd 8a fc 96 bd
       0.033122897 0.05191669 -0.062262274 -0.07372387
0001f0 a2 49 8a bd d8 96 28 bc 8a f7 b5 3d 6b 0b 41 bd
       -0.067523256 -0.01028987 0.08885105 -0.04713003
000200 f0 26 98 3d d2 f1 7e bd 60 cf b4 bb d7 6e 98 bd
       0.07429302 -0.062242337 -0.005517885 -0.07443016
000210 b8 6a 84 bd 3a ad 96 3d 78 dd 55 3c 90 ad a2 3b
       -0.064656675 0.07357259 0.013053291 0.004964538
000220 10 7d 7e bd b1 b8 af bd 6c dc 26 3d d0 96 fb 3b
       -0.062130988 -0.08580149 0.040737554 0.0076778904
000230 24 99 8d bc 8c 84 b8 bd 1c 5a 87 bd e8 73 6b 3d
       -0.017284937 -0.09009656 -0.06608984 0.057483584
000240 c4 2f 96 3c 8d b5 9c bd d0 ed fa 3b 14 60 7f 3d
       0.018333323 -0.076518156 0.007657744 0.062347487
000250 07 60 60 bd 70 03 cc 3c 34 92 4d 3d 7a f0 9b 3d
       -0.05477908 0.024903983 0.05018826 0.07614227
000260 cc 89 89 bd 84 c0 49 3d 79 6b 2e bd 4a 1f 8f 3d
       -0.06715736 0.049255863 -0.042582963 0.0698839
000270 b6 15 f2 bc d8 1f cd 3c 6a 3e 95 3d 28 63 be bc
       -0.029551368 0.025039598 0.07287295 -0.02324064
000280 88 ea 45 3d e8 07 35 3d 00 ea 72 bd e8 fb 2b 3d
       0.04831937 0.044196993 -0.05930519 0.041988283
000290 ce 8c 47 bd 84 0f 8c bd a8 5e be bc 3c 91 50 3d
       -0.048718266 -0.06838897 -0.023238495 0.050919756
0002a0 94 c2 32 3d d0 af b1 3c d0 1e 7c 3d 8a bd 90 3d
       0.043642595 0.02169028 0.061552823 0.07067402
0002b0 28 34 4f 3c e0 54 1b 3d 42 08 96 bd 20 bf c4 bc
       0.012646712 0.03792274 -0.07325794 -0.024016917
0002c0 8e ba aa 3d 3a dc b7 3d 3a cf 47 bd 23 87 25 bd
       0.08336364 0.08977552 -0.04878161 -0.04041208
0002d0 00 a0 61 b8 10 4c 6c 3d 33 ae 06 bd 50 e9 12 bd
       -5.3793192e-05 0.057689726 -0.032880973 -0.035867035
0002e0 48 27 3b 3d 53 5e 83 bd e0 7f 82 3b 60 4b 2a 3b
       0.04569176 -0.06414475 0.003982529 0.0025984868
0002f0 10 df 58 bc 04 3c d7 bc a2 ab a6 bd 6c fb aa 3d
       -0.013236776 -0.026273735 -0.08138205 0.08348736
000300 98 99 88 bd e4 35 ad bc f6 a9 ae 3d 24 45 12 3d
       -0.06669921 -0.021143861 0.08528511 0.03571047
000310 94 01 fb bc 92 d1 41 bd c4 48 70 3d 20 a6 f6 bb
       -0.030640401 -0.047319002 0.058663145 -0.007527128
000320 14 cf a0 bd fc 5f 57 3d 54 85 a5 3d 1e 53 87 3d
       -0.07851997 0.052581772 0.08082071 0.0660765
000330 36 5f 25 bd 2c 29 ef 3c 06 a2 98 3d bc 41 ab 3d
       -0.040374003 0.029194437 0.074527785 0.08362147
000340 30 3e bf bc 3c 83 7a 3d 6a d0 6b bd a4 bd a7 3d
       -0.023345083 0.06116031 -0.057571806 0.08190468
000350 00 ec 0e bb 30 15 19 3c a6 5c 3c bd 20 c7 c1 bb
       -0.0021808147 0.00934343 -0.045986794 -0.00591363
000360 5a 67 b4 3d 60 15 74 3d 44 77 a8 3c 8a d2 83 3d
       0.08808775 0.059590697 0.020564683 0.064366415
000370 f8 ad 6b bc d0 27 55 3c 4b 56 0e bd 3d 60 25 bd
       -0.014384739 0.01300998 -0.034750264 -0.040374983
000380 2c 90 e4 3c 1c d7 b7 3c 58 24 b5 bd 91 4c 33 bd
       0.027900778 0.02244144 -0.08844823 -0.04377419
000390 0c 4d a7 3c 10 e7 8f bb 9a 4f 97 3d 00 aa 2c 3c
       0.020422481 -0.0043915585 0.0738823 0.010538578
0003a0 d8 a8 7f 3d 98 65 b0 3d bc 48 b0 3d 28 3c 93 bd
       0.06241688 0.086131275 0.08607623 -0.07189208
0003b0 98 b7 a1 3d 38 62 2c 3c c0 e6 cb bc c4 f9 b6 3d
       0.07896346 0.010521464 -0.024890304 0.08934358
0003c0 58 bc 0d 3d c0 0e a9 3b 5c ac 4c bd 90 ad ac bb
       0.034603447 0.005159229 -0.049969062 -0.0052697137
0003d0 e8 2c 4e bc e8 83 56 3d e2 9a aa 3d 80 7d 97 3c
       -0.012583949 0.05237189 0.08330323 0.01849246
0003e0 26 f6 93 bd d0 04 23 3c 42 32 b0 bd 79 8d 02 bd
       -0.072246835 0.009949878 -0.08603336 -0.0318732
0003f0 c9 99 3e bd 00 3c 0e 3c 8b 6f af bd 60 c4 62 bb
       -0.04653338 0.008681297 -0.08566197 -0.0034601912

fc2.bias f4 [84]
000000 7c 57 93 3d d8 c3 9e bc 5d 48 85 bd 48 39 08 3c
       0.07194421 -0.019380495 -0.06507943 0.008314438
000010 70 6f 2e 3d 62 41 10 bd 68 47 f6 3c c4 01 ad bc
       0.042586744 -0.035218604 0.030063346 -0.021119006
000020 96 3e fa bc 70 7b 42 3d 5a fc 8c 3d 5c 13 e9 bc
       -0.030547421 0.047481 0.0688407 -0.028451614
000030 70 f4 4e bc 88 6a c4 bc 78 6d 13 3d 9d 2a 9b bd
       -0.012631521 -0.02397658 0.03599307 -0.07576487
000040 e4 72 d4 3c 77 b5 a5 bd 30 fc a6 bb 67 43 0c bd
       0.02593369 -0.08091252 -0.005095981 -0.034243967
000050 35 a7 4d bd 7e 6f a2 3d 6c bb bf bc f8 7d 3e 3d
       -0.05020829 0.07931422 -0.0234048 0.046506852
000060 85 93 02 bd a0 ab 6c 3d fc b3 ee 3c b6 98 81 bd
       -0.031878967 0.05778086 0.029138558 -0.063279554
000070 00 37 5e 3c 2c 76 62 bd 60 3b 18 3b 29 db 00 bd
       0.013562918 -0.05528848 0.002322875 -0.031459007
000080 e0 12 18 bc eb de 04 bd a5 1f 8a bd a7 21 5b bd
       -0.009281844 -0.032439154 -0.06744317 -0.05349889
000090 4a 57 99 3d 6c ca e6 3c 08 12 84 3d 40 a4 31 3b
       0.07487352 0.028172694 0.06448752 0.0027105957
0000a0 00 78 94 39 5e 23 9f 3d 90 0a e4 3b ca 9f 54 bd
       0.00028318167 0.07770418 0.006959267 -0.0519102
0000b0 51 68 25 bd 28 3a ac 3d f8 68 59 3d d0 37 9e bc
       -0.040382687 0.0840953 0.05307862 -0.019313723
0000c0 44 b4 d7 bc b8 78 09 bc 98 f0 35 bc 00 bf 8f 3b
       -0.026331075 -0.008390598 -0.011104725 0.0043867826
0000d0 18 7f 87 3d 65 fa 6a bd 57 e4 01 bd 96 22 6c bd
       0.06616038 -0.0573677 -0.031711902 -0.05765017
0000e0 95 e9 b4 bd 90 dd a7 bd da 25 8e 3d 0c 8c af bd
       -0.08833615 -0.081965566 0.06940813 -0.08571634
0000f0 13 65 64 bd 20 11 e9 3b f8 5a 7d bc 00 8b cb 39
       -0.055760454 0.007112637 -0.015463583 0.0003882274
000100 8c c8 0a bd 48 a0 aa 3c 44 20 5d bd 60 a8 b4 3d
       -0.033882663 0.020828381 -0.05398585 0.088211775
000110 48 93 4c 3d 84 30 09 bd aa e1 ae bd b1 24 8d bd
       0.049945146 -0.033493534 -0.08539136 -0.06891764
000120 b7 82 2a bd 2a 73 36 bd 80 37 09 ba f4 bf 23 3d
       -0.041628566 -0.044543423 -0.00052344054 0.039977983
000130 c8 33 b9 bc 20 5e 30 3c d0 6c b9 3b 80 4d 82 3b
       -0.022607699 0.010764629 0.0056587234 0.003976524
000140 25 86 7d bd 6e 6b 94 3d b2 17 36 bd 0b 9f 6b bd
       -0.06189551 0.07247053 -0.04445619 -0.057524722

fc3.weight f4 [2, 84]
000000 49 ce c0 3d a3 00 a8 3d 60 95 a9 3b 42 79 6a 3d
       0.09414346 0.082032464 0.0051752776 0.057244547
000010 12 f8 77 3d 9e 5e 4f bd fd a7 66 bd 64 62 be bc
       0.060539313 -0.050627343 -0.05631255 -0.023240276
000020 23 0a 92 3d dc 18 79 bd 86 68 7e bd 7f fb a4 3d
       0.0713084 -0.060814723 -0.0621114 0.080557816
000030 03 61 80 3d c8 a1 db bc c7 ec b1 bd 39 9e 94 bd
       0.062685035 -0.026810542 -0.0868774 -0.07256741
000040 34 ef 84 3c 5c 05 48 bd fd 15 ad 3d 0a 79 9e bd
       0.016227342 -0.048833236 0.084514596 -0.0773793
000050 74 7b a3 bd 9e 90 87 bd 00 43 c7 b9 ee c1 a0 bd
       -0.07982531 -0.066193804 -0.00038006157 -0.07849489
000060 0d b2 a1 3d ca ec 1c 3d f2 3d 0b bd 40 12 c7 ba
       0.078952886 0.038311757 -0.033994623 -0.0015187934
000070 5a 66 2d 3d 5b fe bf 3d c9 ae ab 3d ea 5a 02 bd
       0.04233394 0.09374686 0.08382947 -0.031824984
000080 69 f4 c8 3d ae ee 9a bd b4 90 9a 3c 27 64 d0 bd
       0.098122425 -0.07565056 0.018867828 -0.101753525
000090 a1 fc 7c bd c5 d1 4f bd 94 01 cc bc 62 31 7e 3d
       -0.061764363 -0.05073716 -0.024903096 0.062058814
0000a0 75 a6 c2 bd 49 35 d7 3d c6 1d 49 3d 24 e4 85 bd
       -0.095044054 0.1050821 0.04910066 -0.06537655
0000b0 ac b1 c6 3c 7e e2 59 3d 13 41 a1 3d ef 3e ca 3d
       0.024254642 0.053194515 0.0787374 0.09875285
0000c0 e5 1c c7 3d 00 64 80 38 78 c5 78 3c 0a d9 21 3d
       0.09722308 6.122142e-05 0.015183799 0.039513625
0000d0 f4 70 c0 bd 29 88 9c 3d 75 74 b7 3d 44 4a 07 bd
       -0.09396544 0.07643158 0.08957759 -0.03302981
0000e0 c7 00 67 bd d0 56 df bb 77 08 92 3d 8f ab 89 3d
       -0.056397226 -0.006815769 0.07130521 0.06722175
0000f0 bd 35 d9 3d b4 65 fc 3c d4 56 ab bd 84 8c 99 3c
       0.10605953 0.030810215 -0.083661705 0.01874376
000100 21 17 8a bd de 12 6e 3d ca a5 4e 3d fe ea a3 bd
       -0.06742693 0.058123462 0.050451078 -0.080038056
000110 06 73 05 3d 8b 90 73 bd 15 f1 9d 3d 02 fd a2 bd
       0.032580398 -0.05946402 0.077119984 -0.07958414
000120 bd 80 85 3d 80 13 a8 bd e1 87 b8 bd 52 2a 9c bd
       0.065186955 -0.08206844 -0.09010292 -0.076252595
000130 4a a4 c0 bd c1 ef d8 3d 75 94 c3 3d 55 fb 8d 3d
       -0.09406336 0.105926044 0.095498 0.069327034
000140 80 48 c1 3b b1 21 d4 3d a0 77 d5 bb 1f ee d2 bd
       0.0058985353 0.103579886 -0.0065145046 -0.10299324
000150 06 84 51 3d 40 ee dd bc 94 b6 91 3c 27 39 dc 3d
       0.051151298 -0.027091146 0.017787255 0.107530884
000160 bc ab 16 bd 46 08 69 bd 14 66 69 bd fd dd b3 3d
       -0.036784872 -0.056892656 -0.056982115 0.08782575
000170 d3 44 9f 3d 3c 51 c3 bd e0 d5 57 bb c3 ef b0 bd
       0.07776799 -0.095369786 -0.0032933876 -0.08639481
000180 94 38 c2 bd 7a 96 73 bd fe 2c 84 bd f0 28 dd bc
       -0.09483448 -0.059469678 -0.06453894 -0.02699706
000190 d3 7b d7 3d b6 34 db bd cb 64 d1 3d fa d8 42 3d
       0.105216645 -0.10703413 0.10224303 0.047570206
0001a0 7c 1c e2 3c e1 b9 d1 3d 72 81 73 bd 86 5a be bd
       0.027601473 0.10240532 -0.05944962 -0.0929461
0001b0 80 ab 50 3a 94 24 ed bc 83 40 a2 3d b6 b3 a7 bd
       0.0007960126 -0.028948106 0.07922461 -0.08188574
0001c0 83 9c c1 3d f2 99 29 bd 0a 12 33 bd a6 76 23 bd
       0.0945368 -0.04140658 -0.043718375 -0.039908074
0001d0 25 8d 90 3d 6e d9 62 3d 97 63 81 3d d9 5a ba 3d
       0.07058171 0.05538314 0.063178234 0.09099359
0001e0 86 e3 3a bd 22 37 63 3d 74 03 da 3c 10 9b 0f bc
       -0.04562714 0.0554725 0.026612975 -0.008764997
0001f0 cb d7 c5 3d 53 25 da 3d 8a f0 4a bd 01 e2 9b bd
       0.096603 0.1065165 -0.049545802 -0.07611466
000200 6c 88 a7 3c c3 73 99 bd 9a c8 73 3d 00 88 87 3b
       0.020450793 -0.07492783 0.05951748 0.0041360855
000210 9d 6a d8 bd 7c 9b d1 3c d4 42 95 bd 46 6a a7 bd
       -0.1056721 0.025586836 -0.07288137 -0.08174567
000220 fa eb 4a 3d 18 37 27 bc 9c 16 ff 3c 6a 3c 0a 3d
       0.04954145 -0.0102060065 0.03113871 0.03374902
000230 ec 2a 66 bd 1c 38 bb bd dd 55 c9 3d 1b ea de 3d
       -0.056193277 -0.091415614 0.0983083 0.10884496
000240 da 8d d7 bd b4 1d 51 bd 10 7f 9c 3b b6 e0 39 3d
       -0.10525103 -0.051053718 0.004775889 0.045380317
000250 44 0e da 3c a4 d3 db 3c 50 2d 4d bc 03 3e 5b bd
       0.02661813 0.026834317 -0.01252301 -0.053525936
000260 09 d7 99 3d b0 01 49 bc 80 99 ca 3a 7e 26 5e 3d
       0.07511718 -0.012268469 0.0015457124 0.054235928
000270 37 c0 aa bd 0c ec cc 3c 9e 1e 2f 3d 40 6e 1d bb
       -0.08337443 0.0250149 0.04275381 -0.0024022013
000280 42 61 2a 3d be 88 17 3d 9b fe af 3d c0 fa b4 ba
       0.04159666 0.036995642 0.08593484 -0.001380764
000290 d9 f7 ab 3d 32 1e 29 bd 10 e0 81 bd 58 42 5c 3c
       0.083968826 -0.041288562 -0.06341565 0.013443552

fc3.bias f4 [2]
000000 ff fc c4 3d 3b 1e a2 3d
       0.09618568 0.07915922
