src/models/sup-edit.onnx (onnx, 336968 bytes, 10 tensors)

conv1.weight f4 [6, 5, 5, 5]
0	0x3d293651	0.041311566
1	0x3d78e162	0.060761817
2	0x3c78a1ec	0.015175324
3	0xbd16054b	-0.03662614
4	0x3d51268d	0.051062156
5	0x3d128c6e	0.035778455
6	0xbdac02d7	-0.08398979
7	0x3b5592d9	0.0032588749
8	0x3d0a513f	0.03376889
9	0xbd90197b	-0.0703611
10	0x3d05ed1e	0.032696836
11	0x3d8f29fb	0.06990429
12	0xbc115a23	-0.008871588
13	0xbd8968b6	-0.06709425
14	0xbcb3b6ff	-0.021937845
15	0xbcba0bc8	-0.022710696
16	0x3d823118	0.0635702
17	0xbd8dc43a	-0.06922193
18	0xbcbd3ecf	-0.023101239
19	0xbd21ff03	-0.03954984
20	0x3c1505e9	0.009095647
21	0xbd56371a	-0.052298643
22	0xbda63317	-0.08115213
23	0xbb77da08	-0.0037819166
24	0x3d8f2889	0.06990153
25	0xbcfa30a6	-0.030540776
26	0xbc0ab44c	-0.008465838
27	0xbd92474b	-0.07142504
28	0x3dadfda6	0.08495645
29	0x3d9836b7	0.07432311
30	0x3ca2df65	0.019881913
31	0xbc809faa	-0.015701134
32	0x3db33db0	0.08752
33	0xbcc58d44	-0.024115212
34	0x3d8579b3	0.06517353
35	0xbdb6e216	-0.08929841
36	0x3d611e59	0.054960582
37	0xbd4a9f7a	-0.049468495
38	0xbd38e0d0	-0.045136273
39	0xbd87d16c	-0.06631741
40	0xbd8f0304	-0.06982997
41	0x3cc0ba43	0.023526317
42	0x39a8d980	0.00032205507
43	0x3d4f52e1	0.05061615
44	0xbd54898f	-0.051889
45	0xbd6754e4	-0.056477442
46	0x3b7c95f8	0.0038541537
47	0x3beb7acb	0.007186269
48	0xbd021785	-0.03176071
49	0x3b3e207c	0.0029011061
50	0x3c8899f4	0.016674973
51	0x3da7c863	0.081925176
52	0xbdb00c1a	-0.08596058
53	0x3d1d1a1f	0.03835499
54	0xbd96bbe7	-0.07360058
55	0xbb87ce51	-0.004144468
56	0x3d052aee	0.032511644
57	0xbc4d1f2a	-0.012519637
58	0xbaf66206	-0.0018797524
59	0xbc7b8f39	-0.015353971
60	0x3d51bcf6	0.051205598
61	0xbd9a864c	-0.07545146
62	0x3d188fe7	0.03724661
63	0xbdb846ba	-0.08997865
64	0xba87e1ff	-0.0010367035
65	0xbd690317	-0.056887712
66	0xbdadfd7b	-0.08495613
67	0x3d7af8f3	0.061272573
68	0x3db18b94	0.086692005
69	0xbda32f21	-0.079679735
70	0xbd04429d	-0.03229009
71	0xbd31c37d	-0.043399323
72	0x3ba72110	0.005100377
73	0x3d911e11	0.07085813
74	0xbd58fbc2	-0.05297447
75	0xbd75d542	-0.06001783
76	0xbd36d982	-0.044641025
77	0x3d20d906	0.03926947
78	0xbd8bf899	-0.068345256
79	0xbd8e4a72	-0.06947793
80	0xbd9b6120	-0.075868845
81	0xbd90b643	-0.07066014
82	0xbd0264da	-0.03183446
83	0x3da27ad7	0.07933586
84	0x3cf7bce9	0.030241447
85	0x3cd07238	0.025445089
86	0xbd1ef624	-0.038808957
87	0x3db25c8e	0.0870906
88	0x3cdb17f7	0.026744826
89	0x3d89e143	0.067324184
90	0x3d68228b	0.056673568
91	0x3d8fb9c9	0.070178576
92	0x3b83e300	0.0040248632
93	0x3d92b490	0.07163346
94	0x3d426881	0.047462944
95	0x3d431f97	0.04763755
96	0xbd5e2ad9	-0.05424008
97	0x3d92100c	0.07131967
98	0x3c1943b2	0.009354519
99	0xbd618969	-0.055062685
100	0xbd426666	-0.047460936
101	0xbd6d3e2b	-0.057920616
102	0xbd8be02d	-0.068298675
103	0xbc69c254	-0.014267523
104	0x3be00e1f	0.006837621
105	0x3d927259	0.07150716
106	0x3d941aa8	0.07231647
107	0x3d4629cc	0.048379704
108	0xbd69f1a5	-0.057115216
109	0xbc96abad	-0.018392408
110	0x3cc866b7	0.02446304
111	0x3b9ae2c3	0.004726739
112	0x3d070bc2	0.032970197
113	0xbcd2e941	-0.02574599
114	0x3d7f093a	0.06226466
115	0x3d6a2e5a	0.05717311
116	0x3cccbe7f	0.02499318
117	0xbd9def4e	-0.07711659
118	0xbd4dd286	-0.0502496
119	0x3d518e9a	0.051161386
120	0xbd24aeda	-0.040205814
121	0xbd738409	-0.05945209
122	0x3d03461f	0.032049295
123	0x3b22394a	0.0024753385
124	0xbd690792	-0.056891985
125	0x3dea6761	0.11445499
126	0x3d736fc2	0.059432752
127	0x3db600a2	0.088868394
128	0x3d579e13	0.052640986
129	0x3de05d8e	0.10955344
130	0x3d9109e1	0.070819624
131	0x3d229ea5	0.039702076
132	0x3de76500	0.11298561
133	0x3de73777	0.11289876
134	0x3e0f3834	0.13986284
135	0x3d150957	0.03638586
136	0x3e068658	0.13137186
137	0x3e45e2d5	0.19324811
138	0x3d1f911f	0.038956758
139	0x3de6f8f2	0.11277951
140	0x3e0bb9b0	0.13645053
141	0x3c84b5bc	0.016199939
142	0x3de30b08	0.110860884
143	0x3e04e2a7	0.12977086
144	0x3c145e80	0.009055734
145	0xbd37ddf9	-0.044889424
146	0x3d3d2e4b	0.046186727
147	0x3d0ed78f	0.03487354
148	0x3df4b2d4	0.11948171
149	0xbd861e64	-0.06548765
150	0x3e0aab53	0.13541918
151	0x3d7efe58	0.06225428
152	0x3c5c6ba8	0.013453402
153	0xbcacf39f	-0.021112261
154	0x3e018189	0.1264707
155	0xbc49d50f	-0.0123188635
156	0x3de63468	0.112404644
157	0x3e07237a	0.13197127
158	0x3d835dbe	0.06414364
159	0xbc28a1f7	-0.010292522
160	0x3dcb40a0	0.099244356
161	0x3dc45dbc	0.09588191
162	0x3d895725	0.067060746
163	0x3e08d6b0	0.13363147
164	0x3dceaa75	0.10091106
165	0x3db9ee80	0.090786934
166	0x3be7447c	0.0070577245
167	0x3ddb156e	0.10697447
168	0x3d6c9dd8	0.05776772
169	0x3d35a59f	0.0443474
170	0x3dc88d24	0.097925454
171	0xbc9af1b8	-0.018914089
172	0x3d9b0fa0	0.075713396
173	0x3b017b13	0.0019757196
174	0xbd80a083	-0.06280615
175	0x3d8e4dde	0.06948446
176	0x3e0570a6	0.13031253
177	0x3ddb7155	0.10714976
178	0x3cac15bd	0.02100646
179	0x3de09bd9	0.109672256
180	0x3e1a3337	0.150586
181	0x3d0339ae	0.03203743
182	0x3e313113	0.17303877
183	0x3dd8a694	0.10578647
184	0x3db0adf3	0.08626928
185	0xbc21a005	-0.009864812
186	0x3c3241ae	0.010879917
187	0x3dbe82cc	0.09302291
188	0x3d8e6eaa	0.06954701
189	0xbb211017	-0.002457624
190	0x3dfcc3c1	0.123420246
191	0x3d64a752	0.05582363
192	0x3d189b53	0.037257504
193	0x3cbabb2a	0.022794325
194	0x3cd0c86d	0.025486195
195	0x3de09f94	0.10967937
196	0x3df446bc	0.11927554
197	0x3e0506fd	0.12990947
198	0xbc057739	-0.008146101
199	0xbd64bbfa	-0.05584333
200	0x3d1ecc05	0.038768787
201	0x3d0aaaeb	0.033854406
202	0x3e045775	0.12923987
203	0x3d5b9b9e	0.053615205
204	0x3d848ca4	0.064721376
205	0x3b17ab68	0.0023142938
206	0x3e04160a	0.12899032
207	0x3d5765be	0.052587263
208	0x3e2482bf	0.160655
209	0x3df5f43e	0.12009476
210	0xbc8847e4	-0.016635843
211	0x3ccb4930	0.024815172
212	0x3da9281c	0.082596034
213	0x3dcbca12	0.09950651
214	0x3c2eddfb	0.010673041
215	0x3dc1b1c5	0.09457735
216	0x3e0417e6	0.12899742
217	0x3de35a14	0.111011654
218	0x3ca222b0	0.01979193
219	0x3ddba70e	0.107252225
220	0xbd02a0f6	-0.031891786
221	0xbd36d9c2	-0.044641264
222	0xbcbfe2ff	-0.02342367
223	0xbc27fad3	-0.010252672
224	0x3dcad095	0.09903065
225	0x3dc05b7f	0.093924515
226	0x3df22af2	0.118245974
227	0x3e0aade8	0.13542902
228	0x3df35d87	0.11883073
229	0x3d847188	0.06466967
230	0x3dbcd94b	0.09221133
231	0x3d8748fb	0.06605717
232	0x3e367c64	0.17820889
233	0x3e05a3d3	0.13050775
234	0x3c4282f6	0.011872044
235	0xbbbc35be	-0.0057437113
236	0x3d2ee337	0.042697158
237	0x3e3e2fb1	0.1857288
238	0x3c8aaac3	0.016927129
239	0x3e0e8a90	0.13920045
240	0xbd09b624	-0.03362097
241	0x3e0b184e	0.1358349
242	0x3dcba19e	0.099429354
243	0x3d6eec90	0.058331072
244	0xbc25a6b9	-0.010110551
245	0xbccc93c0	-0.024972796
246	0xbd11b65d	-0.035574306
247	0xbbfe6af9	-0.007764217
248	0xbd332772	-0.04373879
249	0x3d8771f0	0.06613529
250	0xbd64bacf	-0.055842217
251	0xbc8f49a5	-0.017491171
252	0x3d3ca461	0.0460552
253	0x3da91e29	0.08257706
254	0xbd7807d9	-0.06055436
255	0xbd2452c5	-0.040117998

conv1.bias f4 [6]
0	0x3c6afb51	0.014342145
1	0x3da722e5	0.081609525
2	0xbe2f63aa	-0.17127863
3	0x3ca58868	0.020206645
4	0x3caea419	0.021318482
5	0x3c5d03af	0.013489648

conv2.weight f4 [16, 6, 5, 5]
0	0x3d85cadf	0.06532835
1	0xbc6f2bda	-0.014597857
2	0x3be5b0b0	0.007009588
3	0xbcfed412	-0.031106982
4	0x3d5a4ab3	0.053293895
5	0x3d9f3b27	0.07774954
6	0x3b9c1d2e	0.0047642207
7	0x3d96edfd	0.073696114
8	0xbd39def2	-0.045378633
9	0xbc1b2cf9	-0.009471172
10	0x3d4144fa	0.04718492
11	0x3d34e1f2	0.04416079
12	0xbd91f6ba	-0.071271375
13	0xbd39a315	-0.045321543
14	0xbd60203d	-0.054718245
15	0xbd9c2719	-0.07624645
16	0x3da33890	0.07969773
17	0x3d4f1d18	0.050564855
18	0x3d086c23	0.033306252
19	0xbda67eed	-0.08129678
20	0xbda67567	-0.081278615
21	0xbd14f7a2	-0.036368974
22	0x3d67518d	0.056474257
23	0xbc8811ca	-0.016610045
24	0x3d540c30	0.051769435
25	0x3e0d7479	0.13813962
26	0x3dd6640b	0.104683004
27	0x3dfb6024	0.12274197
28	0x3dd97332	0.10617675
29	0xbbaeff0f	-0.005340464
30	0x3e20a309	0.15687193
31	0x3d563e84	0.052305713
32	0x3db6fad1	0.08934558
33	0x3cfff610	0.031245261
34	0x3df0de22	0.117611185
35	0x3d11e85e	0.035621993
36	0x3c9a4b0f	0.018834619
37	0xbc71d3fc	-0.014760014
38	0x3c8316cc	0.016002081
39	0x3d886e14	0.06661621
40	0xbe09ceda	-0.13457814
41	0xbe13bcdc	-0.14427513
42	0xbd954ced	-0.07290063
43	0x3c74c56e	0.014939649
44	0xbdf12171	-0.117739566
45	0xbe0b7bdb	-0.13621466
46	0xbe34074b	-0.17580907
47	0xbd9eeff8	-0.07760614
48	0xbdfdda0d	-0.123951055
49	0x3caeb100	0.021324635
50	0x3d9cfc12	0.07665266
51	0x3df0cf5b	0.117583
52	0x3dc5035f	0.096197836
53	0x3df11da1	0.117732294
54	0xbd655166	-0.05598583
55	0x3d8e3f96	0.06945722
56	0x3d66df8e	0.056365542
57	0x3dc3cebf	0.09560918
58	0x3cc89af6	0.024487954
59	0x3cb799e0	0.02241224
60	0xbdce8e7b	-0.1008577
61	0xbd8089d8	-0.062762916
62	0xbdab63c1	-0.08368636
63	0x3d5098f1	0.050927106
64	0xbdd40a00	-0.1035347
65	0xbd118511	-0.035527293
66	0xbe01c697	-0.12673412
67	0xbccc37b1	-0.0249289
68	0xbd726818	-0.059181303
69	0xbd002e7a	-0.031294324
70	0xbddc71e3	-0.1076391
71	0xbd53e1a1	-0.05172885
72	0xbde4953c	-0.11161277
73	0xbd8d9420	-0.06913018
74	0x3d929ae9	0.07158453
75	0x3e863353	0.26211032
76	0x3e8d9568	0.2765305
77	0x3e57e17c	0.21082109
78	0x3dbef8e7	0.09324818
79	0x3e2d71d2	0.1693795
80	0x3e39675b	0.18105833
81	0x3e5693b6	0.20954785
82	0x3e073cea	0.1320683
83	0x3dc62cfe	0.0967655
84	0x3d46a76a	0.048499502
85	0xbcad4f86	-0.021156084
86	0x3cfb50df	0.03067821
87	0x3d28a6e7	0.041174795
88	0x3cff1f8a	0.031142969
89	0xbd5783b7	-0.052615847
90	0xbe89d4e8	-0.26920247
91	0xbe943863	-0.2894927
92	0xbe702ddb	-0.23454992
93	0xbe20c3d0	-0.15699697
94	0xbda7d5c4	-0.081950694
95	0xbe7a0dd1	-0.24419333
96	0xbe348da1	-0.17632152
97	0xbdcc3d39	-0.09972615
98	0xbe012a1a	-0.12613717
99	0xbcf19a49	-0.029492514
100	0xbdb97993	-0.090563916
101	0x3c9d9834	0.019237615
102	0xbce5b7b4	-0.028041698
103	0xbc854799	-0.016269492
104	0x3c1bddd7	0.00951334
105	0x3d6c3e4f	0.05767661
106	0x3d199d34	0.037503436
107	0x3d89b877	0.06724637
108	0xbc00ea01	-0.007868291
109	0xbd16ffbf	-0.036864992
110	0x3d8458db	0.0646226
111	0xbda064dc	-0.078317374
112	0xbb945e26	-0.004527825
113	0xbbd70347	-0.00656167
114	0xbc2cb89a	-0.010542059
115	0xbd4351aa	-0.047685303
116	0xbd8082d9	-0.06274957
117	0x3d2ed631	0.042684738
118	0xbd3b7b57	-0.045771923
119	0x3d9079c6	0.070544764
120	0xbd8df4c8	-0.06931454
121	0xbdb8d054	-0.090241104
122	0xbd798dbe	-0.06092619
123	0xbda3c618	-0.07996768
124	0xbd9d79ae	-0.07689224
125	0x3d5f5712	0.054526396
126	0xbd468e3d	-0.048475493
127	0x3cbc5475	0.022989491
128	0xbcd172b0	-0.025567383
129	0x3c4aa01d	0.012367276
130	0xbb97a3ab	-0.004627665
131	0xbc11a5be	-0.008889614
132	0x3d283494	0.041065767
133	0xbca2f94e	-0.019894268
134	0xbda0f2c6	-0.07858805
135	0x3c667810	0.014066711
136	0xbd2a2df9	-0.04154775
137	0x3d446051	0.047943417
138	0xbda65ebf	-0.0812354
139	0x3bf56fab	0.0074901185
140	0xbce61927	-0.028088165
141	0xbd7f5963	-0.062341105
142	0xbd1a5f2e	-0.037688427
143	0xbcec1f0a	-0.028823394
144	0xbda6dc34	-0.08147469
145	0x3cf804ca	0.030275721
146	0x3d8e7d80	0.06957531
147	0x3d14fa65	0.036371607
148	0x3b32819c	0.0027237898
149	0x3a4241f9	0.00074103434
150	0xbd431750	-0.047629654
151	0x3ca489f6	0.020085316
152	0xbd83481e	-0.0641024
153	0x3d206c6b	0.039165895
154	0x3ca6023c	0.020264737
155	0x3d352465	0.04422416
156	0x3d89e4a5	0.067330636
157	0x3da46e23	0.080288194
158	0x3cd1cf82	0.025611643
159	0xbd94d7e5	-0.07267741
160	0x3d95c203	0.073123954
161	0x3d856d03	0.06514933
162	0xbc6dd8f7	-0.0145170605
163	0x3cc7b1ce	0.024376776
164	0xbd17ab71	-0.037028734
165	0xbd75ce06	-0.060010932
166	0xbd80fe1a	-0.06298466
167	0xbc918dbd	-0.017767781
168	0xbcc5292f	-0.02406749
169	0x3d73f9c6	0.059564374
170	0x3d2700ae	0.040772133
171	0xbd0f686b	-0.03501169
172	0x3b8650ba	0.004098979
173	0x3d93461e	0.07191108
174	0xbcf5e4a4	-0.03001625
175	0xbd89e331	-0.067327864
176	0xb877b918	-5.906177e-05
177	0x3cccc1cb	0.024994751
178	0x3d61c3b2	0.05511827
179	0xbd2fd398	-0.0429264
180	0x3b3dbe81	0.002895266
181	0x3dcc5afa	0.0997829
182	0x3d53e6b0	0.051733673
183	0x3e09573e	0.13412187
184	0x3dc1eb92	0.094687596
185	0xbd88292f	-0.0664848
186	0xbcf4488e	-0.029819753
187	0x3c18627c	0.009300824
188	0x3d8f92ec	0.07010445
189	0x3dae7b98	0.085196674
190	0x3c1ead26	0.0096848365
191	0xbd8134cd	-0.06308899
192	0xbc06833c	-0.00821
193	0xbd0f9623	-0.03505529
194	0x3c341889	0.010992178
195	0xbe04ea2f	-0.12979959
196	0xbe056884	-0.13028151
197	0xbcc0f1d4	-0.023552813
198	0xbd638258	-0.055544227
199	0xbde116e3	-0.109906934
200	0x3dc3e0ea	0.09564383
201	0xbcd98919	-0.026554631
202	0xbbe1b0eb	-0.0068875453
203	0x3d7aeb9e	0.06125986
204	0x3cec9849	0.028881209
205	0x3d93e5de	0.07221578
206	0xbd1cf5ad	-0.038320232
207	0x3d9529c1	0.072833546
208	0x3d63372c	0.055472538
209	0xbd0a302a	-0.03373734
210	0xbd8a489d	-0.06752131
211	0x3ddf4552	0.10901894
212	0xbb91487f	-0.004433691
213	0x3d3f5ed7	0.046721306
214	0xbd7cd896	-0.06172999
215	0x39398c3f	0.0001769522
216	0xbdbfee53	-0.093716286
217	0xbd8a0f3d	-0.06741188
218	0x3d00a259	0.031404827
219	0xbd649cb2	-0.0558135
220	0x3c9df0b7	0.01927982
221	0xbd1ee7e9	-0.038795386
222	0xbe0cae31	-0.13738324
223	0xbd158ddd	-0.036512244
224	0xbdaaf923	-0.083483
225	0x3da661e7	0.08124142
226	0x3d9e55ad	0.07731185
227	0x3e3a4373	0.18189792
228	0x3e189432	0.14900282
229	0x3de751aa	0.11294873
230	0x3cdd69ab	0.027027925
231	0x3e1aeaf4	0.1512869
232	0x3e53045a	0.20607129
233	0x3e425af0	0.18980002
234	0x3d307870	0.04308361
235	0x3d56c2b7	0.05243179
236	0x3e1331e3	0.14374499
237	0x3d345eb7	0.04403564
238	0x3e129b22	0.14316991
239	0x3d9ca710	0.07649052
240	0xbd32f6fa	-0.043692566
241	0xbd79c4dd	-0.06097876
242	0x3c14a885	0.009073381
243	0xbd782ca7	-0.06058946
244	0xbe1b06ca	-0.15139309
245	0xbe40ade1	-0.1881633
246	0xbe6c7de0	-0.23094893
247	0xbe8275f2	-0.2548061
248	0xbe5deba1	-0.21671917
249	0xbe58d5f2	-0.21175364
250	0xbd955fc0	-0.072936535
251	0xbafe401b	-0.0019397767
252	0xbd24de59	-0.04025111
253	0x3d4c0600	0.04981041
254	0x3d758452	0.059940644
255	0xbdb26a6a	-0.08711703

conv2.bias f4 [16]
0	0x3cbd535f	0.023111043
1	0xbd8fb7e4	-0.07017496
2	0x3c867aa6	0.016415905
3	0x3e300109	0.17187895
4	0x3d5a6c67	0.053326037
5	0xbce53fbb	-0.02798449
6	0x3d8c3879	0.06846709
7	0xbc790073	-0.015197861
8	0xbc85ee03	-0.016348844
9	0x3de54ed6	0.111966774
10	0x3d24dd35	0.040250022
11	0x3d71b481	0.059010033
12	0x3e2b8a79	0.16752042
13	0x3df3637c	0.118842095
14	0x3e21cd4a	0.15800968
15	0x3e347c5b	0.17625563

fc1.weight f4 [120, 584]
0	0x3cda630d	0.02665856
1	0xbd20e56a	-0.039281286
2	0x3ba2b276	0.004965122
3	0xbd003e7f	-0.0313096
4	0xbcc9e772	-0.024646495
5	0xbcda3a29	-0.026639061
6	0x3cef883c	0.029239766
7	0x3cba3f7f	0.022735355
8	0xbd6509a3	-0.055917393
9	0xbced4b7d	-0.02896666
10	0xbcc7d3b6	-0.024392944
11	0xbd05f404	-0.032703415
12	0xbd505496	-0.050861917
13	0xbcf90fc2	-0.030403022
14	0x3c2d3e61	0.010573954
15	0x3cd22394	0.02565173
16	0x3c3db200	0.011578083
17	0xbc4b378f	-0.012403383
18	0x3c3c3660	0.011487573
19	0xbd07ec94	-0.033184603
20	0xbcec3080	-0.02883172
21	0xbb925604	-0.0044658203
22	0xbd682219	-0.056673143
23	0xbbab8de3	-0.00523542
24	0x3d381e4b	0.044950765
25	0x3d0b1799	0.03395805
26	0x3d4cf0b7	0.05003425
27	0x3cd01f83	0.025405651
28	0xbd007be8	-0.031368166
29	0x3c8135ab	0.015772661
30	0xbd41c370	-0.047305524
31	0xbc09bd4f	-0.008406951
32	0xbce61c7d	-0.028089756
33	0xbc8f181a	-0.017467547
34	0x3d0e928d	0.03480773
35	0x388822be	6.4914566e-05
36	0x3ba59af2	0.0050538713
37	0xbcd738a9	-0.026272135
38	0xbb0284a2	-0.001991548
39	0xbb807c3c	-0.00392106
40	0xbc9f6a50	-0.019459873
41	0x3a897614	0.001048746
42	0xbb07383c	-0.0020632884
43	0x3bd3a5be	0.006458967
44	0xbd05709c	-0.032578096
45	0x3c739c4b	0.014868806
46	0xbb68e620	-0.0035537556
47	0xbd3155d8	-0.043294758
48	0x3c87236f	0.016496388
49	0xbcca2dd4	-0.024680056
50	0x3ce0dc68	0.027448848
51	0xbc904c2a	-0.017614443
52	0xbd0719db	-0.032983642
53	0xbd81ae15	-0.06332032
54	0xbd0def9b	-0.034652334
55	0xbca684c4	-0.02032698
56	0xbc9f3dcc	-0.019438647
57	0xbd115e30	-0.035490215
58	0xbd6ba7a7	-0.057532933
59	0x3c5a1914	0.013311643
60	0xbbf983e3	-0.007614599
61	0x3c0d84d3	0.008637625
62	0xbd2d0839	-0.04224417
63	0xbb5d20c0	-0.0033741444
64	0x3c78aeed	0.015178424
65	0x3d6b42af	0.05743664
66	0x3c666007	0.014060981
67	0xbd87b1f1	-0.066257365
68	0xbbe75788	-0.007059995
69	0xbd0e93bb	-0.034808856
70	0x39692ae0	0.00022236584
71	0x3bc416b3	0.0059841513
72	0x3b3df88e	0.0028987261
73	0x3c343480	0.010998845
74	0xbc4552f1	-0.012043701
75	0x3d2fa14a	0.042878427
76	0x3d2962e6	0.041354083
77	0xbd0e17af	-0.034690555
78	0x3b843cc6	0.004035565
79	0x3c14233b	0.009041603
80	0x3a744651	0.0009318339
81	0x3bd8cb83	0.0066160574
82	0x3c527396	0.012844941
83	0xbcd1a52f	-0.025591461
84	0x3ce182bf	0.027528165
85	0xbc67f9a9	-0.014158645
86	0x3bb169d8	0.005414229
87	0xbbc7a1ef	-0.006092302
88	0x3d09093c	0.033456072
89	0xbd1c72c1	-0.038195375
90	0x3ce89e6a	0.02839585
91	0x3c09b985	0.008406048
92	0x3cb9fa67	0.022702409
93	0x3c0944b1	0.008378194
94	0x3d4335bd	0.04765867
95	0x3cbc1bc3	0.022962457
96	0x3cd15960	0.025555313
97	0xbcd4511d	-0.025917584
98	0xbc4c6bb8	-0.012476854
99	0xbca94070	-0.020660609
100	0x3c4fdaae	0.012686415
101	0x3c666f95	0.014064689
102	0x3c12656e	0.008935316
103	0xbc8423dd	-0.016130382
104	0x3ba4c9eb	0.0050289533
105	0x3ba24143	0.0049516275
106	0x3cc546a0	0.024081528
107	0xbd07ece7	-0.033184912
108	0x3d0c59ca	0.034265317
109	0x3cbfc39f	0.02340871
110	0x3d8527fc	0.06501767
111	0x3d25943c	0.04042457
112	0x3c8fd093	0.01755551
113	0xbbfa5de4	-0.007640587
114	0xbc08918d	-0.008335483
115	0xbd07bfb8	-0.03314182
116	0x3c1a546d	0.009419543
117	0xbd19fdbb	-0.03759549
118	0xbc1b411d	-0.009475973
119	0x377462e4	1.4566558e-05
120	0x3d3e5128	0.046464115
121	0xbcfe44ad	-0.031038607
122	0x3cd611d4	0.026131548
123	0x3d437942	0.047723062
124	0xbc93bdd5	-0.018034855
125	0x3d6e5b04	0.058192268
126	0xbcf30f70	-0.029670447
127	0xbccac33a	-0.024751294
128	0xbc83b2a8	-0.0160764
129	0xbc03bf62	-0.008041235
130	0x3d0ed25b	0.03486858
131	0xbaaa7d43	-0.0013007302
132	0xbcd16da0	-0.025564969
133	0x3b5afc17	0.0033414417
134	0xbc742db0	-0.014903471
135	0xbb903c01	-0.0044016843
136	0x3d4c7948	0.04992035
137	0x3c0fa18f	0.008766546
138	0x3d2216fb	0.039572697
139	0xbc7d1a6e	-0.015448196
140	0xbca62212	-0.020279918
141	0x3c09c7fd	0.008409497
142	0x3cc0dc9f	0.0235427
143	0x3c9f3489	0.01943423
144	0x3cad5992	0.021160875
145	0xbd3f1085	-0.046646614
146	0xbc35ea8a	-0.011103282
147	0x3d031d5a	0.032010414
148	0xbd11c332	-0.035586543
149	0xbd9be9c5	-0.076129474
150	0x3c0636a8	0.008191742
151	0xbc177332	-0.009243773
152	0xbc2e3143	-0.010631862
153	0xbc889953	-0.016674673
154	0xbc970311	-0.01843408
155	0xbbe1bba6	-0.0068888245
156	0x3b34fc7d	0.0027616315
157	0x3967710c	0.0002207199
158	0x3d3ba994	0.04581602
159	0xbc9a1358	-0.018808052
160	0x3d212fef	0.039352354
161	0x3d912790	0.07087624
162	0xbbfbaa7f	-0.007680237
163	0x3bf51bae	0.0074801063
164	0x3a1338d7	0.0005616075
165	0x3ce405f6	0.027834874
166	0x3d190ebb	0.037367564
167	0x3d15f346	0.036608957
168	0x3d31f743	0.043448698
169	0x3d311b99	0.04323921
170	0xbc410ee7	-0.011783338
171	0x3c9c95fb	0.019114485
172	0x3cfacaea	0.030614335
173	0x3cf1b479	0.029505001
174	0x3d092424	0.033481732
175	0xbc31b5fc	-0.010846611
176	0x3d5dfcb6	0.054196082
177	0x3c22804b	0.009918283
178	0xbd38df30	-0.045134723
179	0xbbcf7214	-0.006330738
180	0xbc82e3f7	-0.015977843
181	0x3cd5e3db	0.026109627
182	0xbca72bed	-0.020406688
183	0x3d3a4ac3	0.045481455
184	0xbc809056	-0.015693825
185	0xbbdd18a1	-0.0067473208
186	0x3cff79f3	0.03118608
187	0xbd058e6c	-0.032606527
188	0x3ce87a2a	0.028378565
189	0xbd1073fb	-0.035266858
190	0x3cbc38d8	0.022976324
191	0x3cf4bc1e	0.029874858
192	0x3d2a493f	0.04157376
193	0xbc5a2cad	-0.013316316
194	0xbbe6a17f	-0.007038295
195	0xbc96c2b9	-0.018403398
196	0x3d1c8fa2	0.038222916
197	0x3d223828	0.039604336
198	0x3b92736e	0.0044693267
199	0xbd1db0f0	-0.03849882
200	0x3d32ecb0	0.043682754
201	0x3cef545d	0.029215032
202	0x3c8f6b71	0.017507287
203	0x3d03edc9	0.03220919
204	0xbca66cb0	-0.020315498
205	0xbc23701a	-0.009975458
206	0xbd039457	-0.03212389
207	0x3c43c691	0.011949197
208	0xbc8d181f	-0.017223416
209	0x3b525b28	0.003209779
210	0x3d1c54e1	0.038166884
211	0xbd025df3	-0.03182788
212	0xbd164163	-0.03668345
213	0xbc2699f2	-0.010168539
214	0x3c8e881d	0.017398888
215	0xbcc7946b	-0.024362763
216	0x3d0b008d	0.033936072
217	0xbcd3e463	-0.02586574
218	0x39a67fdc	0.0003175725
219	0x3d1ebb79	0.038753007
220	0xbcb605bc	-0.022219531
221	0xbc39950e	-0.011327041
222	0x3bf951db	0.007608635
223	0xbc44131a	-0.011967445
224	0xbcb72a89	-0.02235915
225	0x3b2e3d3b	0.002658679
226	0xbd079c0b	-0.0331078
227	0xbb95596e	-0.00455778
228	0xba863bc1	-0.0010241197
229	0xbb9c3c17	-0.0047679055
230	0x3ca7c602	0.02048016
231	0xbce49c3f	-0.027906535
232	0x3cddd16e	0.027077403
233	0xbd100b1c	-0.035166845
234	0xbd2add98	-0.041715235
235	0xbcb798cc	-0.022411726
236	0xbc02029f	-0.007935195
237	0x3d442cc0	0.04789424
238	0xbc9ddaf8	-0.019269451
239	0x3c76651d	0.015038756
240	0xbce88c9e	-0.028387364
241	0x3adfc31b	0.0017071696
242	0x3cce86fb	0.025210848
243	0x3d4da738	0.0502083
244	0xbad8a1c7	-0.0016527706
245	0xbce51955	-0.02796618
246	0xbcb66fde	-0.02227014
247	0xbc80c56b	-0.015719136
248	0xbccf3a2c	-0.025296293
249	0xbc08e68c	-0.008355748
250	0xbd216a48	-0.039408
251	0x3bb90597	0.0056464183
252	0x3a05e748	0.0005108011
253	0x3d186878	0.037209004
254	0xb8d013db	-9.921911e-05
255	0x3c7ccb9d	0.015429405

fc1.bias f4 [120]
0	0x3d578dbe	0.05262541
1	0xbb2e7c09	-0.0026624224
2	0xbc921e45	-0.0178367
3	0x3dba774d	0.09104786
4	0x3d0e36c6	0.034720205
5	0x3d3f367b	0.046682816
6	0x3da416b9	0.080121465
7	0x3d22af93	0.039718222
8	0x3d483171	0.048875276
9	0x3d2e620c	0.042573974
10	0x3bb5c379	0.005546984
11	0xbae69a3b	-0.0017593572
12	0x3db6160a	0.08890922
13	0x3d94e77d	0.072707154
14	0x3d730812	0.05933387
15	0x3ac56571	0.0015060139
16	0x3df2ee36	0.118618414
17	0x3d961ab7	0.07329314
18	0x3d9daa9f	0.07698559
19	0x3c27f9bc	0.010252412
20	0xbbbc3f3f	-0.005744844
21	0xbcf378cd	-0.029720688
22	0x3cfac7bf	0.030612824
23	0x3c5db7f9	0.013532632
24	0x3d84db22	0.06487109
25	0x3d64d3fa	0.05586622
26	0x3d79b7b7	0.06096622
27	0x3dc85823	0.09782436
28	0x3cf3ae72	0.029746268
29	0xbc7e3adb	-0.015516962
30	0x3d34490d	0.04401498
31	0x3cf21bb4	0.029554226
32	0xbd18c53d	-0.037297476
33	0x3c031de3	0.008002731
34	0x3b4747b6	0.0030407733
35	0x3db11abe	0.08647679
36	0x3d5e3963	0.054253947
37	0x3dc2c0dc	0.09509441
38	0x3de24684	0.11048606
39	0x3d89b6f9	0.067243524
40	0xbd19bb88	-0.03753236
41	0x3d8c4c18	0.06850451
42	0x3da9e6c9	0.08295972
43	0x3dc2349f	0.09482693
44	0x3d2bcd01	0.041943554
45	0x3d328a03	0.04358865
46	0x3c8c2c16	0.017110866
47	0x3d8c91d0	0.06863749
48	0x3e029b5c	0.12754577
49	0x3d21cda7	0.039502766
50	0x3d8d2ae0	0.068929434
51	0x3dd52b26	0.104086205
52	0x3d9f9eba	0.077939466
53	0x3d835683	0.06412985
54	0x3df9d7ce	0.121993646
55	0xbcc41b5c	-0.023938827
56	0x3d6f1e05	0.05837824
57	0x3e034288	0.12818348
58	0x3d1426e3	0.036169898
59	0x3cef88ed	0.029240096
60	0x3da33df2	0.079707995
61	0x3b9f2c52	0.0048575783
62	0x3ce9341c	0.02846723
63	0x3cc42d4f	0.023947386
64	0x3d34df6d	0.044158388
65	0x3de3a81b	0.11116048
66	0x3d477b80	0.048701763
67	0x3deadb1b	0.11467572
68	0x3d82ef83	0.063933395
69	0x3cf66126	0.03007562
70	0x3c110b7b	0.008852835
71	0x3c2979ff	0.010344028
72	0x3d36eaee	0.04465764
73	0x3cf8c38b	0.03036668
74	0x3c9a370b	0.018825075
75	0xbc89597b	-0.0167663
76	0x3d303744	0.043021455
77	0x3d34ce44	0.044142023
78	0x3b7a7ba8	0.0038220678
79	0x3db2d44b	0.08731898
80	0x3d870257	0.06592243
81	0x3c8e9699	0.017405795
82	0xbca8f305	-0.020623693
83	0x3d637b29	0.055537377
84	0x3d32161e	0.043478124
85	0x3d287901	0.041131023
86	0x3dae5897	0.08512991
87	0x3d87c01a	0.06628437
88	0xbd342c04	-0.04398729
89	0x3c9e347c	0.019312136
90	0x3dec7a64	0.11546782
91	0x3d70c18c	0.05877833
92	0x3d09a25d	0.033602107
93	0x3dc0364b	0.093853556
94	0x3c68db67	0.014212466
95	0x3d88aef7	0.06673997
96	0xbca14298	-0.019685075
97	0xbd60ebe1	-0.05491245
98	0xbb8f2d86	-0.0043694405
99	0xbc801d5d	-0.015639002
100	0x3d97eb0a	0.07417877
101	0x3cc16a73	0.02361033
102	0x3db9e722	0.09077288
103	0x3d40493b	0.046944838
104	0x3df75f5a	0.12078734
105	0x3d7e1807	0.062034633
106	0x3bcd2fbf	0.0062617953
107	0xbba95639	-0.0051677492
108	0x3dbab289	0.09116084
109	0x3c2d2f76	0.010570398
110	0x3d682626	0.056677006
111	0xbbf1e3a4	-0.007381873
112	0x3da1031a	0.0786192
113	0x3dbef647	0.093243174
114	0x3d1b0ecd	0.037855912
115	0x3af8b326	0.0018974289
116	0x3d829bda	0.063773826
117	0x3df84e99	0.12124366
118	0x3d034035	0.032043654
119	0x3dc51bcd	0.09624443

fc2.weight f4 [84, 120]
0	0x3bfbc513	0.007683405
1	0xbc847538	-0.016169176
2	0xbd60a07a	-0.054840542
3	0x3dab6f57	0.08370846
4	0x3d16b32b	0.03679196
5	0xbd65ffa1	-0.05615199
6	0x3d037234	0.032091334
7	0xbd7cd737	-0.061728682
8	0x3d8666f9	0.06562609
9	0xbb3137f1	-0.00270414
10	0xbd94be0d	-0.07262812
11	0xbc5524e4	-0.013009284
12	0xbc8be20f	-0.017075567
13	0xbcd9b215	-0.026574174
14	0x3d2c37c7	0.04204538
15	0xbd639289	-0.05555967
16	0x3d8185f9	0.063243814
17	0xbba34855	-0.004982988
18	0x3d50fbb8	0.051021308
19	0x3dc08f30	0.09402311
20	0x3d85765b	0.06516715
21	0xbd0f8e3e	-0.035047762
22	0x3cd1e81d	0.025623376
23	0xbd8181f1	-0.063236125
24	0x3dc6110c	0.0967122
25	0x3d164481	0.036686424
26	0xbc934ec4	-0.017981894
27	0xbde0593b	-0.10954519
28	0xbd7ffcbb	-0.062496882
29	0xbd744e24	-0.059644833
30	0xbdb2b996	-0.08726804
31	0x3ac31db3	0.001488617
32	0xbdb30b51	-0.08742393
33	0xbde2abf5	-0.110679545
34	0xbd9f053b	-0.077646695
35	0xbcf892d0	-0.030343443
36	0x3d4ee111	0.05050761
37	0x3ccd74b5	0.025080064
38	0x3d62f569	0.055409823
39	0x3cc3fa18	0.023922965
40	0x3d3aaf40	0.045577288
41	0x3cb3a379	0.021928536
42	0xbd83d87f	-0.06437778
43	0x3d060eed	0.032729078
44	0xbd47cf8f	-0.048781928
45	0xbd56232a	-0.05227963
46	0xbdbd651d	-0.092478015
47	0xbd967dce	-0.07348214
48	0x3d985c25	0.0743945
49	0x3c81de37	0.01585303
50	0x3d1c6d3b	0.038190108
51	0xbd45b3c9	-0.04826716
52	0x3d13a64f	0.036047276
53	0x3d03af1e	0.032149427
54	0x3d6cf542	0.057851084
55	0xbd0c3db9	-0.03423855
56	0x3d8446c4	0.0645881
57	0xbd4024be	-0.04691004
58	0x3db8e2ed	0.09027658
59	0x3d677f87	0.056518104
60	0xbce9037c	-0.028444044
61	0x3cf6a279	0.03010677
62	0xbd4307ed	-0.04761498
63	0xbd79ee70	-0.061018407
64	0x3d6fb9aa	0.058526672
65	0x3c5e2164	0.013557766
66	0xbcf63dac	-0.030058704
67	0xbc8041ec	-0.015656434
68	0x3cd24397	0.025666995
69	0xbc0d559c	-0.008626368
70	0x3d8b9748	0.06815964
71	0x3d0adfab	0.033904713
72	0x3d6631f3	0.05619998
73	0xbcdda000	-0.027053833
74	0x3d0b4262	0.033998854
75	0xbc800268	-0.015626147
76	0xbd25ac55	-0.04044755
77	0xbcb3ccc2	-0.021948222
78	0x3c6418a5	0.013921891
79	0x3b538589	0.0032275638
80	0x3a689cb4	0.0008873448
81	0x3d5e150f	0.0542193
82	0xbd9d8b92	-0.076926365
83	0x3c888225	0.01666362
84	0x3d0f3964	0.03496684
85	0x3ce778a5	0.02825577
86	0x3c9c8658	0.019107029
87	0xbd2ffe38	-0.04296705
88	0x3d9b6f3f	0.07589578
89	0x3d26bc3f	0.04070687
90	0x3d017eba	0.031614996
91	0x3c5d6496	0.013512751
92	0xbd78f798	-0.060783
93	0x3d92702d	0.07150302
94	0x3d1c67a0	0.038184762
95	0xb9849da8	-0.00025294465
96	0xbcb9fe55	-0.022704283
97	0x3db935df	0.09043478
98	0xbc359a76	-0.01108419
99	0xbc655ccc	-0.013999175
100	0xbd86cbc3	-0.06581833
101	0xbd6063a7	-0.054782536
102	0x3bffef6a	0.007810523
103	0xbd549fdf	-0.051910277
104	0x3a92ae04	0.0011190777
105	0x3cf31c93	0.029676711
106	0x39c55ba6	0.00037643051
107	0x3d5a10e4	0.053238764
108	0xbd810b59	-0.063009925
109	0x3db59e51	0.08868087
110	0xbd788f83	-0.06068374
111	0x3c01ca9b	0.00792184
112	0x3d73a823	0.05948652
113	0x3d70dc09	0.058803592
114	0x3bc52ba1	0.006017164
115	0x3d1c894d	0.038216878
116	0x3da46834	0.08027688
117	0xbd2b7a73	-0.041864824
118	0xbd376319	-0.04477224
119	0xbd84fc6e	-0.0649346
120	0xbc960af0	-0.018315762
121	0x3d928899	0.0715496
122	0x3dbac5cf	0.0911976
123	0xbd3aada9	-0.04557577
124	0xbd5a8221	-0.053346757
125	0xbb49bea7	-0.0030783804
126	0x3daf199b	0.08549806
127	0x3d4dd671	0.050253335
128	0xbdb22b77	-0.086996965
129	0x3d78b67f	0.060720917
130	0x3da79cde	0.08184217
131	0xbc705563	-0.014668795
132	0xbd74aa01	-0.05973244
133	0xbb29e512	-0.002592389
134	0x3d4bb0d3	0.04972918
135	0x3d885d8d	0.066584684
136	0x3db26029	0.08709747
137	0xbd829358	-0.0637576
138	0x3bc139cc	0.0058967825
139	0x3d31d8c0	0.0434196
140	0x3da6ee80	0.08150959
141	0xbd6c5dc5	-0.057706613
142	0xbd01dcba	-0.031704642
143	0xbd4f2386	-0.050570987
144	0xbdb3a2a0	-0.08771253
145	0x392a340a	0.0001623185
146	0xbd6e97ed	-0.058250356
147	0xbc2e118f	-0.0106243035
148	0x3cb6b2cc	0.022302054
149	0xbd630279	-0.05542228
150	0x3c3dcfc7	0.0115851825
151	0xbc179e62	-0.00925407
152	0xbd181332	-0.03712768
153	0x3b93c27e	0.0045092693
154	0xbd70ed7e	-0.05882024
155	0xbcedb1ba	-0.02901541
156	0x3ce12c54	0.027486958
157	0x3d01a28b	0.031649154
158	0xbd810fb1	-0.06301821
159	0x3c27bd68	0.010238029
160	0x3d1b9229	0.037981186
161	0xbd8d9fd9	-0.06915254
162	0x3da0cb4d	0.078512765
163	0xbd744425	-0.0596353
164	0xbda35734	-0.07975617
165	0x3d37880d	0.044807483
166	0x3dc18d8c	0.09450826
167	0x3d4ca7ca	0.049964704
168	0xbd559fc2	-0.05215431
169	0x3b88e18f	0.0041772793
170	0xbda8a616	-0.082348034
171	0xbd99c128	-0.07507545
172	0x3cb9f244	0.022698529
173	0xbd25f4fb	-0.040516835
174	0x3d07f118	0.03318891
175	0x3d07ef41	0.033187155
176	0xbcf87696	-0.030329984
177	0x3d10781d	0.0352708
178	0xbdaa362d	-0.083111145
179	0x3d31d0d6	0.043412052
180	0xbdad54b1	-0.08463419
181	0xbccada0a	-0.024762172
182	0x3cd3dd84	0.025862463
183	0xbbaeb25a	-0.0053313198
184	0xbd3224a3	-0.04349197
185	0xbd9520d9	-0.07281656
186	0x3d20aa67	0.03922501
187	0xbda9c972	-0.08290376
188	0xbd8e27cd	-0.06941185
189	0x3d050cf3	0.032483052
190	0xbbc83801	-0.006110192
191	0xbc923cd6	-0.017851274
192	0x3d97f8d2	0.074205056
193	0xbc9e473e	-0.01932108
194	0x3d8269aa	0.0636781
195	0x3d21f5f2	0.039541192
196	0x3cf20bd4	0.029546656
197	0x3d9f25c5	0.07770876
198	0x3ceebe3f	0.02914345
199	0x3cae963a	0.021311868
200	0xbd8a4a77	-0.06752484
201	0x3d104d18	0.035229772
202	0xbcbe4ef8	-0.023231015
203	0x3c9dd5d6	0.019267004
204	0x3d2f015a	0.0427259
205	0x3d9512ce	0.07278977
206	0xbd54f35b	-0.051989894
207	0x3cca9cfb	0.024733057
208	0x3da8b9c7	0.08238559
209	0x3bff97df	0.007800087
210	0xbc964e51	-0.018347891
211	0xbc371694	-0.011174817
212	0xbdb2ce14	-0.087307125
213	0xbd88d578	-0.06681341
214	0x3db94a31	0.09047354
215	0x3b60612f	0.0034237613
216	0xbd279fcc	-0.04092388
217	0xbcd3d38b	-0.025857707
218	0xbd0a2992	-0.03373105
219	0xbd8a0dc0	-0.06740904
220	0xbd866a0a	-0.06563194
221	0x3b0dd1ae	0.0021639871
222	0xbbd4a7f1	-0.0064897467
223	0x3c6c1b8b	0.014410864
224	0xbd94a9e9	-0.0725897
225	0xbd46a397	-0.048495855
226	0x3c2aaa19	0.010416531
227	0x3dbd87b2	0.092543975
228	0xbd3e06f4	-0.04639335
229	0x3d9fc217	0.078006916
230	0x3cf1c705	0.029513845
231	0x3dac2144	0.084047824
232	0x3b02494f	0.001988012
233	0x3d17225d	0.036898006
234	0xbd87b884	-0.066269904
235	0x3da974f7	0.082742624
236	0xbda0519e	-0.07828067
237	0x3d3a1e25	0.045438904
238	0x3d8c4918	0.06849879
239	0xbc9cb295	-0.019128123
240	0xbd37ff25	-0.04492106
241	0x3d4e5cd5	0.0503815
242	0x3d11efa3	0.035628926
243	0xbd239906	-0.039940856
244	0xbc9a83c7	-0.018861664
245	0x3dbbe817	0.09175127
246	0xbdb5a1e1	-0.088687666
247	0xbd4bac15	-0.049724657
248	0xbcca0c8f	-0.024664192
249	0x3d2fe602	0.042943962
250	0x3d92989f	0.071580164
251	0xbdc049e5	-0.09389094
252	0x3dc53c80	0.0963068
253	0x3c12c0c7	0.0089570945
254	0x3d53c30a	0.051699676
255	0x3c045b1b	0.008078362

fc2.bias f4 [84]
0	0xbd25dc8c	-0.040493533
1	0xbd635a19	-0.055505846
2	0x3dfe177d	0.12406824
3	0x3c143c03	0.009047511
4	0x3de6547d	0.112465836
5	0x3e1b4401	0.1516266
6	0x3e697f48	0.2280246
7	0x3da69240	0.08133364
8	0x3de6afa8	0.112639725
9	0xbca9c58e	-0.020724084
10	0x3dbd1e2e	0.09234272
11	0xbd6ff1d6	-0.058580242
12	0x3ce496e2	0.027903978
13	0x3d37fe72	0.044920392
14	0xbc239c00	-0.009985924
15	0x3d1f66ad	0.03891628
16	0x3e4345c7	0.19069587
17	0x3e0dd31d	0.13850065
18	0x3e3a5879	0.18197812
19	0x3dc1834a	0.094488695
20	0x3d303de4	0.043027773
21	0x3e298248	0.16553605
22	0xbd4203ec	-0.04736702
23	0x3d3f043c	0.046634898
24	0x3d615211	0.055009905
25	0x3da2ff27	0.07958823
26	0xbd6c1c63	-0.05764426
27	0x3be91c0f	0.0071139405
28	0x3e1f5b6d	0.1556222
29	0x3e058e98	0.13042676
30	0xbbbd1977	-0.005770858
31	0xbd0174a5	-0.03160538
32	0x3d2f5eb9	0.042814944
33	0x3d9bd452	0.07608856
34	0xbd001c3a	-0.03127692
35	0xbd02fd73	-0.03197999
36	0xbbab24b2	-0.0052228803
37	0xbc652c17	-0.013987563
38	0x3d65a64e	0.056066804
39	0x3d465c9e	0.04842817
40	0xbd6e2420	-0.05813992
41	0x3e9d49ab	0.30720267
42	0xbbb97544	-0.005659731
43	0x3d18dad0	0.03731805
44	0x3d3abc1b	0.045589548
45	0xbd8a520b	-0.0675393
46	0xbbd21360	-0.006411001
47	0x3e5782c3	0.21045975
48	0x3deb8cad	0.11501441
49	0x3dd8a180	0.10577679
50	0xbbcffbe1	-0.006347165
51	0x3e4a215d	0.1973929
52	0xbc5b9eab	-0.013404529
53	0xbcc69964	-0.024243064
54	0x3db5cd40	0.08877039
55	0x3da26e0d	0.07931147
56	0xbcc2a747	-0.023761405
57	0x3e17031b	0.14747278
58	0x3dd4b2b3	0.10385647
59	0x3db2e6b2	0.08735408
60	0xbbe23f4c	-0.006904518
61	0x3e7c4490	0.2463553
62	0x3d962d1f	0.07332825
63	0xbcb0d468	-0.021585658
64	0x3e025e53	0.12731294
65	0x3e36ac88	0.17839253
66	0x3e0d4a3a	0.13797846
67	0x3d982a19	0.074299045
68	0x3dd85538	0.10563129
69	0x3e113820	0.14181566
70	0xbcf0cf97	-0.029395862
71	0x3e6b69d4	0.22989589
72	0x3e4effc7	0.20214759
73	0x3da7fcc6	0.082025096
74	0x3e3b67b0	0.18301272
75	0x3c4e3b60	0.012587398
76	0x3e4bb711	0.19894053
77	0x3de5508b	0.11197003
78	0x3e92867d	0.2861823
79	0x3e640c4c	0.22270316
80	0x3d1ade8e	0.0378099
81	0x3e381f56	0.17980704
82	0x3d8566b7	0.06513732
83	0xbd5939d7	-0.053033676

fc3.weight f4 [2, 84]
0	0xbd4a8e8e	-0.049452357
1	0x3b84d25a	0.004053396
2	0x3e12ae14	0.14324218
3	0x3c92aa03	0.017903334
4	0xbe03086b	-0.1279618
5	0x3e98f1e8	0.2987206
6	0xbda3b510	-0.07993519
7	0xbd0718f6	-0.03298279
8	0xbe6e1661	-0.23250724
9	0x3d983834	0.07432595
10	0x3ebaee49	0.36509922
11	0x3cd6315a	0.02614658
12	0xbe9b1726	-0.30291098
13	0xbe4a4953	-0.19754533
14	0xbddc5cb2	-0.10759868
15	0x3e376cf5	0.17912658
16	0xbec84eb3	-0.39122543
17	0xbe8c7599	-0.2743347
18	0x3e6bba65	0.23020323
19	0x3d7f9d44	0.06240584
20	0xbc970b68	-0.018438056
21	0x3e813f62	0.2524367
22	0x3be90716	0.0071114404
23	0x3eacea1a	0.33772355
24	0x3e8b6165	0.27222744
25	0x3e09303a	0.13397303
26	0x3cf413ff	0.029794691
27	0x3ddcf6de	0.10789274
28	0x3edd3b58	0.43209338
29	0xbe8a58e8	-0.27020955
30	0x3dd7745c	0.10520241
31	0xbe3d217c	-0.18469805
32	0xbcb9ad8d	-0.022665763
33	0xbe5a2e7a	-0.21306792
34	0x3e8786cc	0.2647003
35	0xbd85a102	-0.065248504
36	0xbd05093c	-0.03247951
37	0xbe98598a	-0.29755813
38	0xbd7d1a67	-0.061792757
39	0xbe487a73	-0.1957796
40	0x3ca29c06	0.019849788
41	0x3eebdfbb	0.4606913
42	0xbea5aefc	-0.32360065
43	0x3e4b482c	0.1985175
44	0x3e5894b5	0.21150477
45	0x3e34b0a6	0.17645511
46	0xbe016e8c	-0.12639827
47	0x3d07a18e	0.033113055
48	0xbe9acaf2	-0.3023296
49	0xbddf1b47	-0.108938746
50	0x3d8e8e04	0.06960681
51	0x3e491ad3	0.19639139
52	0x3d839e5a	0.064266875
53	0xbd06a982	-0.0328765
54	0x3be46b74	0.006970817
55	0x3e14c0f4	0.14526731
56	0x3dbf7d1e	0.09350036
57	0xbeddd4d8	-0.4332645
58	0x3e9b7cad	0.30368558
59	0x3e141f6a	0.14465109
60	0xbdccebcc	-0.10005912
61	0xbec209ad	-0.37898007
62	0x3dd40657	0.10352772
63	0xbe33a778	-0.17544353
64	0x3bda93d4	0.0066704545
65	0xbe922fd1	-0.28552106
66	0x3e2bae22	0.16765645
67	0xbe0f5ac6	-0.13999471
68	0x3ec4f6da	0.38469583
69	0xbe8687b7	-0.26275417
70	0x3e1fe771	0.15615632
71	0xbee6080f	-0.44928023
72	0xbeb2d51f	-0.34928223
73	0x3e081538	0.13289344
74	0xbe2cdbc5	-0.1688071
75	0x3dfa65d1	0.12226451
76	0x3e626aa4	0.22110993
77	0x3e8caddd	0.27476397
78	0x3efefe04	0.49803174
79	0x3e9e3f1a	0.30907518
80	0xbe0d7af0	-0.13816428
81	0xbe93cf65	-0.28869167
82	0xbd69137a	-0.05690334
83	0xbe2d4a6e	-0.16922924
84	0x3db02e90	0.08602631
85	0xbd90351c	-0.0704138
86	0xbeddc8e1	-0.4331732
87	0xbe3a6ca5	-0.18205507
88	0x3e08e050	0.13366818
89	0x3d52adab	0.051435154
90	0xbf056f62	-0.5212308
91	0x3ea9a1b8	0.33131194
92	0x3e227c41	0.15867712
93	0xbd22ef34	-0.039778903
94	0x3d9278dd	0.07151959
95	0x3ccebaef	0.025235621
96	0xbe40af59	-0.1881689
97	0x3b1c2bd4	0.0023829835
98	0xbdcc6c9a	-0.099816516
99	0xbd118822	-0.035530217
100	0x3db27abe	0.087148175
101	0x3d0b3203	0.03398324
102	0x3dd47fad	0.10375915
103	0xbe768c8d	-0.24077053
104	0xbdc8e650	-0.098095536
105	0x3e883278	0.26601005
106	0x3d804c4c	0.062645525
107	0xbe016823	-0.12637381
108	0x3e841bd9	0.25802496
109	0x3e3743c1	0.1789694
110	0x3dd87c17	0.10570543
111	0xbd40c07a	-0.04705856
112	0xbd9718e7	-0.073777966
113	0x3dde9f05	0.10870174
114	0x3e5d0065	0.21582182
115	0xbd3ede9b	-0.046599012
116	0xbd7f936d	-0.062396456
117	0xbe5b9663	-0.21444087
118	0xbdacd9c3	-0.08439972
119	0x3d8d33fd	0.068946816
120	0xbd46cd1c	-0.04853545
121	0x3e3cfabd	0.18455024
122	0xbde96260	-0.11395717
123	0xbeba5cc8	-0.3639891
124	0xbd35af1e	-0.044356458
125	0xbf25e913	-0.6480877
126	0x3e01e45a	0.12684765
127	0x3d59456d	0.053044725
128	0xbd2596d7	-0.040427055
129	0x3e42d013	0.19024687
130	0xbc98226f	-0.018571107
131	0x3ed68e6e	0.4190554
132	0x3db380fd	0.08764837
133	0xbe64db7b	-0.2234935
134	0xbd5a1c84	-0.05324985
135	0x3eb6b354	0.35683692
136	0xbe498051	-0.19677855
137	0xbda77500	-0.08176613
138	0xbeb58402	-0.35452276
139	0x3e3db0f1	0.18524529
140	0x3d9acc79	0.07558531
141	0xbe29e3be	-0.16590783
142	0xba197a73	-0.0005854733
143	0x3e8e94de	0.27847952
144	0x3e706fe5	0.23480184
145	0xbf05eb19	-0.52311856
146	0x3dd15803	0.10221865
147	0xbe44bcbb	-0.1921262
148	0x3e73bc8e	0.23802397
149	0x3e001106	0.12506494
150	0x3ea62604	0.3245088
151	0x3e88fe03	0.26756296
152	0xbdd115ed	-0.1020926
153	0x3e7471dc	0.23871559
154	0x3dac064f	0.08399641
155	0x3e7daae3	0.2477222
156	0xbe50ead1	-0.20402075
157	0x3e06135c	0.13093323
158	0xbe98de75	-0.2985722
159	0x3e50ecde	0.20402858
160	0x3ec3f14b	0.3827003
161	0x3c696d14	0.014247198
162	0xbeb306d7	-0.34966156
163	0x3eaec110	0.3413167
164	0x3e801e9b	0.2502335
165	0x3e1f024e	0.15528223
166	0x3c8ff987	0.017575039
167	0x3e21d401	0.1580353

fc3.bias f4 [2]
0	0xbd35fb61	-0.044429187
1	0x3d75e48e	0.06003242
