src/models/sup-edit-4.onnx (onnx, 336968 bytes, 10 tensors)

conv1.weight f4 [6, 5, 5, 5]
0	0x3d2936b0	0.04131192
1	0x3d78e184	0.060761943
2	0x3c78a22c	0.015175384
3	0xbd160559	-0.036626194
4	0x3d51263d	0.051061857
5	0x3d128cb4	0.035778716
6	0xbdac02c1	-0.08398963
7	0x3b559747	0.003259139
8	0x3d0a5181	0.033769134
9	0xbd90199c	-0.070361346
10	0x3d05ed8d	0.03269725
11	0x3d8f2a1f	0.06990456
12	0xbc11597f	-0.008871435
13	0xbd8968b9	-0.067094274
14	0xbcb3b730	-0.021937937
15	0xbcba0b0a	-0.022710342
16	0x3d823129	0.06357033
17	0xbd8dc446	-0.06922202
18	0xbcbd3e9f	-0.02310115
19	0xbd21fec4	-0.039549604
20	0x3c150671	0.009095774
21	0xbd563724	-0.05229868
22	0xbda63306	-0.08115201
23	0xbb77d2e0	-0.00378149
24	0x3d8f28ca	0.06990202
25	0xbcfa2fee	-0.030540433
26	0xbc0ab3e8	-0.008465745
27	0xbd924742	-0.071424976
28	0x3dadfda7	0.08495646
29	0x3d983694	0.07432285
30	0x3ca2dfef	0.01988217
31	0xbc809f5b	-0.015700987
32	0x3db33dd5	0.08752028
33	0xbcc58cd7	-0.02411501
34	0x3d85798c	0.06517324
35	0xbdb6e1e8	-0.08929807
36	0x3d611eb0	0.054960907
37	0xbd4a9f45	-0.049468298
38	0xbd38e0c6	-0.045136236
39	0xbd87d176	-0.066317484
40	0xbd8f02e2	-0.06982972
41	0x3cc0ba52	0.023526344
42	0x39a8d2c8	0.000322005
43	0x3d4f5300	0.050616264
44	0xbd548944	-0.05188872
45	0xbd6754d0	-0.056477368
46	0x3b7c950a	0.0038540983
47	0x3beb7c12	0.007186421
48	0xbd021719	-0.03176031
49	0x3b3e28a6	0.0029015928
50	0x3c889aa6	0.016675305
51	0x3da7c874	0.0819253
52	0xbdb00c15	-0.085960545
53	0x3d1d1a2a	0.03835503
54	0xbd96bc03	-0.07360079
55	0xbb87cc1a	-0.004144204
56	0x3d052b19	0.032511804
57	0xbc4d1ded	-0.012519342
58	0xbaf65d24	-0.0018796069
59	0xbc7b904a	-0.015354225
60	0x3d51bd46	0.051205896
61	0xbd9a8625	-0.07545117
62	0x3d189023	0.037246834
63	0xbdb846b1	-0.08997858
64	0xba87e5d1	-0.0010368173
65	0xbd6902e7	-0.056887534
66	0xbdadfd7d	-0.08495615
67	0x3d7af8f2	0.06127257
68	0x3db18baa	0.08669217
69	0xbda32ef1	-0.07967938
70	0xbd044296	-0.032290064
71	0xbd31c38d	-0.043399382
72	0x3ba722df	0.0051005925
73	0x3d911e3f	0.07085847
74	0xbd58fb39	-0.05297396
75	0xbd75d4e3	-0.060017478
76	0xbd36d96a	-0.044640936
77	0x3d20d90b	0.03926949
78	0xbd8bf887	-0.06834512
79	0xbd8e4a86	-0.06947808
80	0xbd9b60fd	-0.075868584
81	0xbd90b629	-0.07065994
82	0xbd026482	-0.031834133
83	0x3da27aec	0.07933602
84	0x3cf7bc74	0.030241229
85	0x3cd072a8	0.025445297
86	0xbd1ef5d0	-0.038808644
87	0x3db25cab	0.08709081
88	0x3cdb180b	0.026744863
89	0x3d89e131	0.06732405
90	0x3d6822b0	0.056673706
91	0x3d8fb9c8	0.07017857
92	0x3b83e33c	0.004024891
93	0x3d92b4ae	0.07163368
94	0x3d4268ed	0.047463346
95	0x3d431f8f	0.04763752
96	0xbd5e2aeb	-0.05424015
97	0x3d921030	0.07131994
98	0x3c194523	0.009354862
99	0xbd6188d7	-0.05506214
100	0xbd426602	-0.047460563
101	0xbd6d3e10	-0.057920516
102	0xbd8be026	-0.06829862
103	0xbc69c1cf	-0.014267399
104	0x3be00cd9	0.006837469
105	0x3d927281	0.07150746
106	0x3d941ac4	0.07231668
107	0x3d462a1c	0.048380002
108	0xbd69f178	-0.05711505
109	0xbc96ac04	-0.01839257
110	0x3cc86716	0.024463218
111	0x3b9ae4f1	0.004726999
112	0x3d070c01	0.032970432
113	0xbcd2e926	-0.02574594
114	0x3d7f0912	0.06226451
115	0x3d6a2e6e	0.057173185
116	0x3cccbe74	0.024993159
117	0xbd9def40	-0.07711649
118	0xbd4dd24d	-0.050249387
119	0x3d518f09	0.0511618
120	0xbd24aef6	-0.04020592
121	0xbd738417	-0.059452143
122	0x3d034660	0.032049537
123	0x3b223f1b	0.0024756852
124	0xbd6906fc	-0.056891426
125	0x3dea67e8	0.114456
126	0x3d736c17	0.059429254
127	0x3db5fcae	0.088860855
128	0x3d579b32	0.05263824
129	0x3de05e9c	0.10955545
130	0x3d910dd1	0.070827134
131	0x3d22a25a	0.03970561
132	0x3de76485	0.112984695
133	0x3de73937	0.1129021
134	0x3e0f3a48	0.13987076
135	0x3d1516fb	0.03639887
136	0x3e0688c4	0.1313811
137	0x3e45e3fc	0.1932525
138	0x3d1f99b0	0.038964927
139	0x3de6ff84	0.112792045
140	0x3e0bbcb4	0.13646203
141	0x3c84c599	0.016207503
142	0x3de30c3b	0.11086317
143	0x3e04e41c	0.12977642
144	0x3c148663	0.009065243
145	0xbd37d46b	-0.044880312
146	0x3d3d335d	0.046191562
147	0x3d0ed6f1	0.034872953
148	0x3df4b427	0.11948424
149	0xbd861b27	-0.06548148
150	0x3e0aab5f	0.13541935
151	0x3d7efa19	0.06225023
152	0x3c5c4b0f	0.01344563
153	0xbcacf99a	-0.021115113
154	0x3e01820c	0.12647265
155	0xbc49b756	-0.012311777
156	0x3de6361b	0.112407885
157	0x3e072342	0.13197044
158	0x3d835f8f	0.06414711
159	0xbc287fbb	-0.01028436
160	0x3dcb475e	0.099257216
161	0x3dc462a5	0.095891275
162	0x3d895995	0.067065395
163	0x3e08d8f0	0.13364005
164	0x3dceb14d	0.10092411
165	0x3db9f49a	0.09079857
166	0x3be7872d	0.0070656748
167	0x3ddb16f4	0.10697737
168	0x3d6ca489	0.0577741
169	0x3d35b07c	0.04435776
170	0x3dc8922a	0.097935036
171	0xbc9ae5f6	-0.018908482
172	0x3d9b0fd8	0.07571381
173	0x3b01b8f1	0.0019794072
174	0xbd809ca3	-0.06279876
175	0x3d8e4da3	0.06948402
176	0x3e056f70	0.13030791
177	0x3ddb6d19	0.10714168
178	0x3cac0f41	0.021003367
179	0x3de09cbf	0.10967397
180	0x3e1a34f2	0.1505926
181	0x3d033cbd	0.032040346
182	0x3e3130d2	0.1730378
183	0x3dd8a862	0.105789915
184	0x3db0b241	0.08627749
185	0xbc216aa5	-0.009852086
186	0x3c3268c3	0.010889235
187	0x3dbe8552	0.093027726
188	0x3d8e7353	0.0695559
189	0xbb202ef9	-0.002444206
190	0x3dfcc9f2	0.123432055
191	0x3d64b002	0.055831917
192	0x3d189ee5	0.03726091
193	0x3cbac9ee	0.022801366
194	0x3cd0dfaf	0.025497286
195	0x3de0a4e1	0.10968948
196	0x3df44a10	0.11928189
197	0x3e05075a	0.12991086
198	0xbc056318	-0.008141302
199	0xbd64b30f	-0.055834826
200	0x3d1ecac6	0.0387676
201	0x3d0aa588	0.03384927
202	0x3e04553b	0.12923138
203	0x3d5b9802	0.053611763
204	0x3d848d5b	0.06472274
205	0x3b1811f6	0.0023204065
206	0x3e0416ba	0.12899294
207	0x3d576472	0.052586026
208	0x3e24839e	0.16065833
209	0x3df5f87a	0.12010284
210	0xbc882d8c	-0.016623281
211	0x3ccb5c89	0.024824398
212	0x3da92aa2	0.08260085
213	0x3dcbcecc	0.09951553
214	0x3c2f1701	0.010686637
215	0x3dc1b809	0.0945893
216	0x3e041a22	0.12900594
217	0x3de35c0f	0.11101543
218	0x3ca23291	0.019799503
219	0x3ddbad2c	0.10726389
220	0xbd0295d4	-0.03188117
221	0xbd36d26a	-0.04463426
222	0xbcbfde86	-0.023421537
223	0xbc27e28d	-0.010246885
224	0x3dcad594	0.09904018
225	0x3dc05a85	0.09392265
226	0x3df227f0	0.11824024
227	0x3e0aab8e	0.13542005
228	0x3df35b76	0.11882679
229	0x3d84720a	0.06467064
230	0x3dbcdc41	0.092216976
231	0x3d874a27	0.0660594
232	0x3e367c03	0.17820744
233	0x3e05a4a2	0.13051084
234	0x3c42a3b1	0.011879847
235	0xbbbbcdee	-0.005731336
236	0x3d2eecc2	0.04270626
237	0x3e3e30f2	0.18573359
238	0x3c8abdc6	0.016936194
239	0x3e0e8e1e	0.13921401
240	0xbd09a952	-0.033608742
241	0x3e0b1a98	0.13584363
242	0x3dcba3c1	0.09943343
243	0x3d6ef4ed	0.05833905
244	0xbc2573e9	-0.010098436
245	0xbccc7c5e	-0.024961647
246	0xbd11ae66	-0.03556671
247	0xbbfe5302	-0.00776136
248	0xbd332080	-0.043732166
249	0x3d877761	0.066145666
250	0xbd64cb7f	-0.05585813
251	0xbc8f73a8	-0.017511204
252	0x3d3c8b51	0.0460313
253	0x3da911fb	0.082553826
254	0xbd781f34	-0.060576633
255	0xbd246116	-0.04013165

conv1.bias f4 [6]
0	0x3c6afe82	0.014342906
1	0x3da72364	0.08161047
2	0xbe2f6c36	-0.17131123
3	0x3ca5d673	0.020243859
4	0x3cae3494	0.021265306
5	0x3c5d16fc	0.013494249

conv2.weight f4 [16, 6, 5, 5]
0	0x3d85cae0	0.06532836
1	0xbc6f2ba8	-0.014597811
2	0x3be5b11f	0.00700964
3	0xbcfed3fe	-0.031106945
4	0x3d5a4ac8	0.053293973
5	0x3d9f3b24	0.07774952
6	0x3b9c1c80	0.0047641397
7	0x3d96edf9	0.073696084
8	0xbd39def0	-0.045378625
9	0xbc1b2ccb	-0.009471129
10	0x3d414509	0.047184978
11	0x3d34e201	0.044160847
12	0xbd91f6b3	-0.07127132
13	0xbd39a306	-0.045321487
14	0xbd602021	-0.05471814
15	0xbd9c2709	-0.07624633
16	0x3da338a8	0.07969791
17	0x3d4f1d42	0.05056501
18	0x3d086c48	0.03330639
19	0xbda67edd	-0.08129666
20	0xbda67545	-0.08127836
21	0xbd14f758	-0.036368698
22	0x3d6751c5	0.056474466
23	0xbc88115c	-0.01660984
24	0x3d540c76	0.051769696
25	0x3e0d86ea	0.13820997
26	0x3dd68b8f	0.104758374
27	0x3dfb896d	0.12282071
28	0x3dd9965b	0.10624381
29	0xbbadd28f	-0.0053046416
30	0x3e20b687	0.15694629
31	0x3d568b34	0.05237885
32	0x3db7214d	0.089418985
33	0x3d003f5c	0.031310424
34	0x3df0f5a1	0.117656
35	0x3d123431	0.035694305
36	0x3c9acc72	0.018896315
37	0xbc70d97c	-0.01470029
38	0x3c839062	0.016060058
39	0x3d88889e	0.06666683
40	0xbe09baea	-0.13450208
41	0xbe13aca8	-0.14421332
42	0xbd952f55	-0.072844185
43	0x3c75b9a7	0.014997876
44	0xbdf101f7	-0.11767953
45	0xbe0b6b21	-0.13615085
46	0xbe33f9d5	-0.17575772
47	0xbd9ed557	-0.07755535
48	0xbdfdbae9	-0.12389166
49	0x3caf39e3	0.021389907
50	0x3d9d109e	0.07669185
51	0x3df0e5bf	0.117625706
52	0x3dc51a17	0.09624117
53	0x3df12e79	0.11776442
54	0xbd6544cf	-0.055973824
55	0x3d8e52c1	0.06949378
56	0x3d670306	0.056399368
57	0x3dc3e0d2	0.095643654
58	0x3cc8d926	0.024517607
59	0x3cb7c0ce	0.022430804
60	0xbdce7b5f	-0.10082125
61	0xbd807a51	-0.0627333
62	0xbdab546d	-0.08365712
63	0x3d50b709	0.050955806
64	0xbdd3fc5e	-0.103508696
65	0xbd115ddd	-0.035489906
66	0xbe01beab	-0.1267039
67	0xbccbf94d	-0.02489915
68	0xbd7245f9	-0.059148762
69	0xbd000aef	-0.031260427
70	0xbddc672e	-0.107618675
71	0xbd53d033	-0.051712226
72	0xbde489d0	-0.11159098
73	0xbd8d8425	-0.0690997
74	0x3d92ac70	0.07161796
75	0x3e86494c	0.26227796
76	0x3e8dacb7	0.27670833
77	0x3e581232	0.21100691
78	0x3dbf4b93	0.093405865
79	0x3e2d8839	0.16946496
80	0x3e399402	0.18122867
81	0x3e56be20	0.20970964
82	0x3e0767b4	0.13223153
83	0x3dc67ae7	0.096914105
84	0x3d4715c1	0.04860473
85	0xbcabe893	-0.020984923
86	0x3cfc7b65	0.030820558
87	0x3d29366f	0.041311678
88	0x3d001eab	0.031279247
89	0xbd570275	-0.052492578
90	0xbe89bdb7	-0.26902553
91	0xbe9425a7	-0.28934976
92	0xbe700aa6	-0.23441562
93	0xbe209e76	-0.15685448
94	0xbda787ed	-0.08180223
95	0xbe79ed98	-0.24407041
96	0xbe347445	-0.17622478
97	0xbdcc0681	-0.09962178
98	0xbe0107ac	-0.12600583
99	0xbcf062d7	-0.029344006
100	0xbdb9791d	-0.09056304
101	0x3c9d98b9	0.019237863
102	0xbce5b31d	-0.02803951
103	0xbc8539ba	-0.016262878
104	0x3c1c04a6	0.009522593
105	0x3d6c4110	0.057679236
106	0x3d199fb8	0.037505835
107	0x3d89ba25	0.067249574
108	0xbc00d2b8	-0.007862739
109	0xbd16f828	-0.036857754
110	0x3d845abb	0.06462618
111	0xbda06326	-0.07831411
112	0xbb944619	-0.004524958
113	0xbbd6e77c	-0.006558357
114	0xbc2ca41c	-0.010537174
115	0xbd434d4d	-0.04768114
116	0xbd808116	-0.06274621
117	0x3d2ed87f	0.042686936
118	0xbd3b7a2a	-0.0457708
119	0x3d907b34	0.07054749
120	0xbd8df16e	-0.06930815
121	0xbdb8cd89	-0.09023578
122	0xbd798a84	-0.060923114
123	0xbda3c52f	-0.07996594
124	0xbd9d7804	-0.07688907
125	0x3d5f5722	0.054526456
126	0xbd468e3a	-0.04847548
127	0x3cbc544e	0.022989418
128	0xbcd172a1	-0.025567355
129	0x3c4aa202	0.012367727
130	0xbb97a3ac	-0.0046276655
131	0xbc11a563	-0.008889529
132	0x3d2834ab	0.041065853
133	0xbca2f91c	-0.019894175
134	0xbda0f284	-0.07858756
135	0x3c6678e9	0.014066913
136	0xbd2a2dab	-0.04154746
137	0x3d446064	0.047943488
138	0xbda65ead	-0.08123527
139	0x3bf572c7	0.007490489
140	0xbce618b4	-0.028087951
141	0xbd7f5918	-0.062340826
142	0xbd1a5f24	-0.03768839
143	0xbcec1ee9	-0.028823333
144	0xbda6dc1b	-0.081474505
145	0x3cf8054d	0.030275965
146	0x3d8e7da2	0.06957556
147	0x3d14fa7d	0.036371697
148	0x3b3282e6	0.0027238666
149	0x3a423f74	0.0007409968
150	0xbd431742	-0.047629602
151	0x3ca489db	0.020085266
152	0xbd834822	-0.064102426
153	0x3d206c4e	0.039165787
154	0x3ca60209	0.020264642
155	0x3d352484	0.044224277
156	0x3d89e4a1	0.06733061
157	0x3da46e18	0.08028811
158	0x3cd1cf3f	0.025611518
159	0xbd94d7fe	-0.0726776
160	0x3d95c215	0.07312409
161	0x3d856d03	0.06514933
162	0xbc6dd933	-0.014517116
163	0x3cc7b19f	0.024376689
164	0xbd17ab9d	-0.037028898
165	0xbd75cdec	-0.060010836
166	0xbd80fe1a	-0.06298466
167	0xbc918dd8	-0.017767832
168	0xbcc5295e	-0.024067577
169	0x3d73f9af	0.05956429
170	0x3d2700a8	0.04077211
171	0xbd0f688f	-0.035011824
172	0x3b864f18	0.004098784
173	0x3d9345ff	0.07191085
174	0xbcf5e502	-0.030016426
175	0xbd8a1a22	-0.06743266
176	0xb90cf5dd	-0.00013443032
177	0x3ccc6d00	0.024954319
178	0x3d61b49b	0.05510388
179	0xbd2fd37d	-0.0429263
180	0x3b376073	0.0027981072
181	0x3dcc3864	0.09971693
182	0x3d53c945	0.051705617
183	0x3e0956e0	0.13412046
184	0x3dc1f28d	0.09470091
185	0xbd8856bc	-0.06657168
186	0xbcf4b5c1	-0.029871823
187	0x3c183323	0.009289536
188	0x3d8f991f	0.070116274
189	0x3dae8491	0.08521379
190	0x3c1d689f	0.009607463
191	0xbd814804	-0.06312564
192	0xbc06649f	-0.008202701
193	0xbd0f7ab0	-0.035029113
194	0x3c346a06	0.011011606
195	0xbe04fd2e	-0.12987205
196	0xbe0570eb	-0.13031356
197	0xbcc0dc7f	-0.02354264
198	0xbd63665d	-0.055517543
199	0xbde10e5b	-0.10989066
200	0x3dc3c50a	0.095590666
201	0xbcd9ce08	-0.026587501
202	0xbbe1fd86	-0.0068966774
203	0x3d7aef22	0.06126321
204	0x3cecb397	0.028894229
205	0x3d93ccc0	0.07216787
206	0xbd1d1028	-0.038345486
207	0x3d952950	0.0728327
208	0x3d634110	0.05548197
209	0xbd0a1ec1	-0.033720735
210	0xbd8a5e08	-0.06756216
211	0x3ddf3e4a	0.109005526
212	0xbb90e52c	-0.0044218507
213	0x3d3f7213	0.04673965
214	0xbd7cc734	-0.061713412
215	0x39146e90	0.00014155568
216	0xbdbff0c8	-0.09372097
217	0xbd8a045e	-0.06739114
218	0x3d00baab	0.03142802
219	0xbd648e08	-0.055799514
220	0x3c9da557	0.01924388
221	0xbd1ef153	-0.038804363
222	0xbe0caa46	-0.13736829
223	0xbd157a0f	-0.036493357
224	0xbdaaf3e8	-0.08347303
225	0x3da5e215	0.08099762
226	0x3d9dfc77	0.077141695
227	0x3e3a2dd3	0.18181543
228	0x3e188f17	0.14898334
229	0x3de75a03	0.11296465
230	0x3cdb94ce	0.026804354
231	0x3e1ac4fe	0.15114209
232	0x3e52f747	0.20602141
233	0x3e425da0	0.18981028
234	0x3d30a1f9	0.04312322
235	0x3d55f34c	0.05223398
236	0x3e1315d5	0.14363797
237	0x3d345ab0	0.0440318
238	0x3e12a705	0.14321525
239	0x3d9cc08f	0.07653915
240	0xbd33b276	-0.043871365
241	0xbd7a13bc	-0.061053976
242	0x3c1535b7	0.009107045
243	0xbd77e01f	-0.060516473
244	0xbe1af9df	-0.15134381
245	0xbe40dba2	-0.18833783
246	0xbe6c9280	-0.2310276
247	0xbe8272e0	-0.25478268
248	0xbe5ddaf9	-0.21665563
249	0xbe58cbb9	-0.21171464
250	0xbd9560e6	-0.072938725
251	0xbafeee00	-0.0019449592
252	0xbd24e6bb	-0.040259104
253	0x3d4bfd6a	0.04980222
254	0x3d757b52	0.05993206
255	0xbdb26c59	-0.08712072

conv2.bias f4 [16]
0	0x3cbd9062	0.023140136
1	0xbd8fc3b5	-0.0701975
2	0x3c863853	0.01638428
3	0x3e2ff6ad	0.17183943
4	0x3d5ae07b	0.053436738
5	0xbce57a3a	-0.028012384
6	0x3d8c1b12	0.06841101
7	0xbc790073	-0.015197861
8	0xbc8578b0	-0.0162929
9	0x3de54378	0.11194509
10	0x3d253ec5	0.040343065
11	0x3d71c777	0.059028115
12	0x3e2b82cf	0.16749118
13	0x3df380ad	0.11889777
14	0x3e21c8a3	0.15799193
15	0x3e348a8f	0.17630981

fc1.weight f4 [120, 584]
0	0x3cda602b	0.026657185
1	0xbd20ea54	-0.039285973
2	0x3ba284a5	0.00495966
3	0xbd003306	-0.03129866
4	0xbcc9994f	-0.024609236
5	0xbcd9fd68	-0.026610091
6	0x3cefb7ca	0.029262442
7	0x3cba61b0	0.02275166
8	0xbd64dc3e	-0.0558741
9	0xbcec8e1b	-0.028876355
10	0xbcc709c6	-0.024296653
11	0xbd05a761	-0.032630328
12	0xbd502fa7	-0.050826695
13	0xbcf89255	-0.030343214
14	0x3c2f3b0e	0.010695232
15	0x3cd31a51	0.025769385
16	0x3c3ee8a6	0.011652147
17	0xbc4a26dd	-0.012338367
18	0x3c3cd598	0.011525534
19	0xbd0798ad	-0.033104587
20	0xbceb6071	-0.02873251
21	0xbb912bb0	-0.004430257
22	0xbd682b51	-0.056681935
23	0xbbab869a	-0.0052345516
24	0x3d382d49	0.044965062
25	0x3d0b392a	0.033990063
26	0x3d4d0697	0.050055113
27	0x3cd02c4a	0.025411744
28	0xbd007d3c	-0.031369433
29	0x3c811c67	0.015760614
30	0xbd419b70	-0.047267377
31	0xbc092d2f	-0.008372589
32	0xbce6034a	-0.02807774
33	0xbc8ee09e	-0.01744109
34	0x3d0ed07a	0.034866787
35	0x38dc2555	0.00010497371
36	0x3ba63668	0.0050724037
37	0xbcd722ee	-0.026261773
38	0xbb0149de	-0.0019727866
39	0xbb7da9bd	-0.0038705908
40	0xbc9f0602	-0.019412044
41	0x3a8edad7	0.001089896
42	0xbb03f996	-0.0020137778
43	0x3bd576ed	0.006514421
44	0xbd0506aa	-0.03247706
45	0x3c75387b	0.014967079
46	0xbb635c63	-0.0034692518
47	0xbd31081a	-0.043220617
48	0x3c87a951	0.016560229
49	0xbcc94676	-0.024569731
50	0x3ce1e96a	0.02757712
51	0xbc8fc3e8	-0.01754947
52	0xbd06eb66	-0.032939337
53	0xbd8194ba	-0.063271955
54	0xbd0dad15	-0.034588892
55	0xbca5bc31	-0.020231338
56	0xbc9ed620	-0.019389212
57	0xbd115c98	-0.035488695
58	0xbd6bb26a	-0.057543196
59	0x3c5a599f	0.013327031
60	0xbbf7fc2a	-0.007567902
61	0x3c0df1bd	0.008663592
62	0xbd2d066e	-0.04224246
63	0xbb5c6fe6	-0.0033636033
64	0x3c78f66f	0.015195473
65	0x3d6b52db	0.057452064
66	0x3c679eb3	0.014136958
67	0xbd87a3dd	-0.06623051
68	0xbbe65a55	-0.0070298114
69	0xbd0e4491	-0.03473336
70	0x39a79e3c	0.00031970616
71	0x3bc64099	0.006050181
72	0x3b40ac11	0.0029399435
73	0x3c34cd19	0.011035227
74	0xbc44dc1b	-0.012015368
75	0x3d2fbb46	0.042903207
76	0x3d297d78	0.041379422
77	0xbd0df063	-0.03465308
78	0x3b85703b	0.004072217
79	0x3c14b1b2	0.009075569
80	0x3a777ff4	0.0009441369
81	0x3bd90c22	0.006623761
82	0x3c52eda7	0.012874044
83	0xbcd15162	-0.025551502
84	0x3ce1c876	0.027561408
85	0xbc679b1c	-0.014136102
86	0x3bb18235	0.005417133
87	0xbbc78939	-0.0060893563
88	0x3d093a33	0.03350277
89	0xbd1c48c9	-0.03815535
90	0x3ce8d3b4	0.02842126
91	0x3c09db6c	0.008414131
92	0x3cba07aa	0.022708733
93	0x3c09cabf	0.008410155
94	0x3d437121	0.04771531
95	0x3cbc727e	0.023003813
96	0x3cd1738f	0.025567798
97	0xbcd4471d	-0.025912816
98	0xbc4bc4c6	-0.012437051
99	0xbca8a861	-0.020588102
100	0x3c508db1	0.012729094
101	0x3c66ed7e	0.0140947085
102	0x3c1291e2	0.008945914
103	0xbc840732	-0.016116712
104	0x3ba6d0ea	0.0050908225
105	0x3ba46846	0.005017313
106	0x3cc575d1	0.02410403
107	0xbd07e322	-0.033175595
108	0x3d0c6ff6	0.03428646
109	0x3cbff7d7	0.023433609
110	0x3d85490e	0.06508075
111	0x3d260fb4	0.04054232
112	0x3c905207	0.017617239
113	0xbbf8d84a	-0.007594143
114	0xbc083ee5	-0.0083157765
115	0xbd07b889	-0.03313497
116	0x3c1bd349	0.0095108235
117	0xbd1965ab	-0.037450474
118	0xbc1ab459	-0.009442412
119	0x384cb49e	4.8805603e-05
120	0x3d3e6c9f	0.046490308
121	0xbcfdf9d3	-0.031002915
122	0x3cd71184	0.02625347
123	0x3d43d85e	0.047813766
124	0xbc9384f1	-0.018007727
125	0x3d6e84d8	0.05823216
126	0xbcf2b5c4	-0.029627688
127	0xbcc9d15b	-0.024635961
128	0xbc830af7	-0.01599644
129	0xbc034f55	-0.00801452
130	0x3d0f04c4	0.034916654
131	0xbaa13296	-0.0012298401
132	0xbcd0c334	-0.025483705
133	0x3b664f86	0.0035142615
134	0xbc7383b9	-0.014862948
135	0xbb902a3f	-0.0043995674
136	0x3d4ccd0f	0.050000247
137	0x3c117a42	0.008879246
138	0x3d228d3f	0.039685484
139	0xbc7aaa2b	-0.01529936
140	0xbca5b885	-0.020229587
141	0x3c0992f8	0.0083968565
142	0x3cc17488	0.023615137
143	0x3ca04264	0.019562908
144	0x3cadae89	0.021201389
145	0xbd3ed71c	-0.046591863
146	0xbc34d816	-0.011037847
147	0x3d035064	0.03205909
148	0xbd11abcb	-0.035564225
149	0xbd9bd837	-0.07609599
150	0x3c067b54	0.008208115
151	0xbc173257	-0.009228311
152	0xbc2dcfc6	-0.010608619
153	0xbc886c64	-0.016653247
154	0xbc96f305	-0.018426428
155	0xbbe0e565	-0.0068632835
156	0x3b361133	0.0027781248
157	0x3963b7b7	0.00021716846
158	0x3d3bad08	0.045819312
159	0xbc9a0087	-0.01879908
160	0x3d214fbb	0.039382678
161	0x3d913b41	0.0709138
162	0xbbfaa0cf	-0.0076485644
163	0x3bf57ca7	0.0074916664
164	0x3a12f83d	0.00056064484
165	0x3ce461ae	0.027878609
166	0x3d1969ea	0.037454523
167	0x3d163592	0.036672182
168	0x3d321f35	0.043486793
169	0x3d314b21	0.04328454
170	0xbc4080a7	-0.011749423
171	0x3c9d2226	0.019181322
172	0x3cfb82f7	0.030702097
173	0x3cf22af6	0.029561501
174	0x3d093f2c	0.03350751
175	0xbc3104f6	-0.010804405
176	0x3d5e1a3d	0.05422424
177	0x3c22bcf7	0.009932748
178	0xbd38c34b	-0.04510812
179	0xbbce8dbe	-0.006303518
180	0xbc82d1b2	-0.015969131
181	0x3cd5f319	0.026116895
182	0xbca6e96b	-0.020374974
183	0x3d3a961c	0.04555331
184	0xbc80520f	-0.015664129
185	0xbbdc3e9f	-0.006721332
186	0x3cff8fcf	0.031196503
187	0xbd0582b6	-0.03259536
188	0x3ce91cfc	0.028456204
189	0xbd100c29	-0.035167847
190	0x3cbc6d8c	0.023001455
191	0x3cf4ee22	0.029898707
192	0x3d2a5b7f	0.041591164
193	0xbc596d4c	-0.013270687
194	0xbbe36acb	-0.006940221
195	0xbc9648b1	-0.018345209
196	0x3d1ca423	0.03824247
197	0x3d224e0e	0.03962522
198	0x3b938fe8	0.004503239
199	0xbd1d54db	-0.038411003
200	0x3d331dfb	0.043729763
201	0x3cef6a70	0.029225558
202	0x3c8f9958	0.017529175
203	0x3d041350	0.03224498
204	0xbca5f664	-0.02025909
205	0xbc21dfb1	-0.009879992
206	0xbd03862d	-0.032110382
207	0x3c43c17f	0.0119479885
208	0xbc8cba32	-0.017178629
209	0x3b568646	0.0032733842
210	0x3d1ca7a8	0.038245827
211	0xbd020cff	-0.031750675
212	0xbd162944	-0.036660448
213	0xbc26a218	-0.010170482
214	0x3c8ef8c0	0.017452598
215	0xbcc6e6f8	-0.024280056
216	0x3d0b539a	0.034015276
217	0xbcd38cc1	-0.025823953
218	0x39b40863	0.00034338524
219	0x3d1ecb4d	0.0387681
220	0xbcb5c943	-0.022190696
221	0xbc37c0bb	-0.011215384
222	0x3bfb1c4a	0.0076632844
223	0xbc43ad54	-0.01194318
224	0xbcb709dc	-0.022343569
225	0x3b2dee09	0.0026539585
226	0xbd075ae7	-0.033045676
227	0xbb914d13	-0.004434237
228	0xba815f30	-0.0009870287
229	0xbb9c1b8f	-0.0047640274
230	0x3ca7d815	0.020488778
231	0xbce48a94	-0.02789811
232	0x3cdee613	0.027209317
233	0xbd0fa62f	-0.035070594
234	0xbd2ac753	-0.041693997
235	0xbcb7b102	-0.022423271
236	0xbc01b0d3	-0.007915693
237	0x3d44c355	0.048037846
238	0xbc9cb46e	-0.019129004
239	0x3c777420	0.01510337
240	0xbce86895	-0.028370181
241	0x3ae070ec	0.0017123497
242	0x3ccf7541	0.025324466
243	0x3d4e8f23	0.050429475
244	0xbacbf9a1	-0.0015562066
245	0xbce4ea94	-0.027943887
246	0xbcb63f39	-0.022246944
247	0xbc8088b1	-0.01569018
248	0xbccdfd13	-0.02514509
249	0xbc06e3f9	-0.008233064
250	0xbd21424e	-0.039369874
251	0x3bb8f5ff	0.0056445594
252	0x3a05e748	0.0005108011
253	0x3d186878	0.037209004
254	0xb8d013db	-9.921911e-05
255	0x3c7ccb9d	0.015429405

fc1.bias f4 [120]
0	0x3d57a7f2	0.0526504
1	0xbb2ca381	-0.0026342573
2	0xbc91b0e2	-0.01778454
3	0x3dbaa06c	0.09112629
4	0x3d0e58f6	0.03475281
5	0x3d3f0afc	0.046641335
6	0x3da4597a	0.08024879
7	0x3d22a5a3	0.039708745
8	0x3d481d20	0.0488559
9	0x3d2e7f36	0.042601787
10	0x3bb875e1	0.0056292866
11	0xbadfe002	-0.0017080309
12	0x3db631a5	0.08896188
13	0x3d94b2b3	0.07260647
14	0x3d72d73f	0.059287306
15	0x3ac58071	0.0015068186
16	0x3df2de79	0.118588395
17	0x3d95c098	0.07312125
18	0x3d9dcd3b	0.0770516
19	0x3c27f0c0	0.01025027
20	0xbbbcaa9f	-0.0057576443
21	0xbcf2b8b2	-0.029629085
22	0x3cfb191e	0.030651625
23	0x3c5cce39	0.013476902
24	0x3d84f0b0	0.0649122
25	0x3d650acf	0.05591851
26	0x3d79f355	0.061023075
27	0x3dc85015	0.097808994
28	0x3cf31a95	0.029675761
29	0xbc7e21ee	-0.015511019
30	0x3d34515e	0.04402291
31	0x3cf2235a	0.029557873
32	0xbd189cbc	-0.03725885
33	0x3c025f63	0.007957312
34	0x3b44dfe1	0.0030040669
35	0x3db10359	0.08643217
36	0x3d5e36d3	0.054251503
37	0x3dc2b55c	0.09507248
38	0x3de258e5	0.110521115
39	0x3d89c435	0.06726877
40	0xbd19d78d	-0.03755908
41	0x3d8c39f2	0.0684699
42	0x3da9e20d	0.08295069
43	0x3dc216d1	0.09477008
44	0x3d2c1827	0.04201522
45	0x3d32e62c	0.04367654
46	0x3c8c2060	0.017105281
47	0x3d8ca2cf	0.06866991
48	0x3e0295b3	0.12752418
49	0x3d21d22d	0.03950708
50	0x3d8d14fc	0.06888768
51	0x3dd5237a	0.10407157
52	0x3d9fc556	0.07801311
53	0x3d833b59	0.06407804
54	0x3df9c2c6	0.12195353
55	0xbcc461ff	-0.02397251
56	0x3d6f1c03	0.058376323
57	0x3e0348fc	0.1282081
58	0x3d14262e	0.036169223
59	0x3cef91ef	0.029244391
60	0x3da340b5	0.07971326
61	0x3b9f93ed	0.004869929
62	0x3ce9ce7a	0.028540839
63	0x3cc4fd4b	0.02404656
64	0x3d351cee	0.044217043
65	0x3de3a7bb	0.111159764
66	0x3d4769ba	0.048684813
67	0x3deabcc6	0.11461787
68	0x3d8363ac	0.06415495
69	0x3cf61518	0.030039355
70	0x3c111abf	0.008856474
71	0x3c29cd06	0.010363823
72	0x3d374ee4	0.04475297
73	0x3cf8df2a	0.03037985
74	0x3c9a3ce8	0.01882787
75	0xbc89f23b	-0.016839137
76	0x3d2ffd79	0.04296634
77	0x3d34d850	0.044151604
78	0x3b757313	0.0037452623
79	0x3db2d53f	0.0873208
80	0x3d86efbf	0.06588697
81	0x3c8eb4f0	0.017420262
82	0xbca88a32	-0.02057371
83	0x3d631e6e	0.055448942
84	0x3d3216bc	0.043478712
85	0x3d28db4f	0.041224774
86	0x3dae4d8f	0.08510887
87	0x3d87d751	0.06632865
88	0xbd3400fe	-0.04394626
89	0x3c9e56cf	0.019328503
90	0x3dec5397	0.11539381
91	0x3d709512	0.058735915
92	0x3d09c9ea	0.033639826
93	0x3dc01dfd	0.0938072
94	0x3c684305	0.014176135
95	0x3d887ec4	0.066648036
96	0xbca14914	-0.019688167
97	0xbd6117e8	-0.05495444
98	0xbb8f8a90	-0.0043805316
99	0xbc803722	-0.01565129
100	0x3d97d645	0.074139155
101	0x3cc1d371	0.023660393
102	0x3db9e601	0.09077073
103	0x3d3fed7a	0.046857335
104	0x3df79039	0.12088055
105	0x3d7e08c0	0.062020063
106	0x3bcdc4f9	0.0062795845
107	0xbba87011	-0.0051403125
108	0x3dba8329	0.09107048
109	0x3c2d7c30	0.010588691
110	0x3d68499b	0.05671082
111	0xbbf49d8f	-0.0074650715
112	0x3da1163a	0.078655675
113	0x3dbee8c8	0.09321743
114	0x3d1b38b0	0.03789586
115	0x3af5f39c	0.0018764618
116	0x3d82ccda	0.063867286
117	0x3df87083	0.12130835
118	0x3d037c49	0.03210095
119	0x3dc4ebbe	0.09615277

fc2.weight f4 [84, 120]
0	0x3bf8db93	0.0075945347
1	0xbc850a15	-0.016240159
2	0xbd609903	-0.054833423
3	0x3dab9f27	0.08379965
4	0x3d16af29	0.03678814
5	0xbd660a1f	-0.056161996
6	0x3d03504e	0.032059006
7	0xbd7ce41b	-0.061740976
8	0x3d864080	0.06555271
9	0xbb434429	-0.0029795265
10	0xbd94badf	-0.07262205
11	0xbc536c8a	-0.012904296
12	0xbc8cb47f	-0.017175911
13	0xbcd961a3	-0.026535815
14	0x3d2c0a01	0.042001728
15	0xbd6393fb	-0.055561047
16	0x3d81eec0	0.06344366
17	0xbba680bf	-0.0050812657
18	0x3d50d230	0.0509817
19	0x3dc092e8	0.0940302
20	0x3d856bc9	0.06514699
21	0xbd0fcea1	-0.035109166
22	0x3cd1c34c	0.02560582
23	0xbd81676d	-0.06318555
24	0x3dc60d6e	0.0967053
25	0x3d15f895	0.03661402
26	0xbc92ab51	-0.017903956
27	0xbde06b2a	-0.1095794
28	0xbd7ffc16	-0.062496267
29	0xbd744ebe	-0.059645407
30	0xbdb3007a	-0.08740325
31	0x3acd1010	0.0015645046
32	0xbdb323c8	-0.08747059
33	0xbde2b2e1	-0.11069275
34	0xbd9f1dd2	-0.0776936
35	0xbcf86026	-0.030319285
36	0x3d4ee1a3	0.050508153
37	0x3ccdcc07	0.025121702
38	0x3d636180	0.055512905
39	0x3cc25003	0.023719793
40	0x3d3a9ab7	0.045557704
41	0x3cb3a1d8	0.021927759
42	0xbd84054d	-0.064463235
43	0x3d055b2e	0.03255766
44	0xbd47d1df	-0.048784133
45	0xbd55e69a	-0.052221872
46	0xbdbd544a	-0.092445925
47	0xbd96acce	-0.07357179
48	0x3d986cb8	0.074426115
49	0x3c81cadc	0.015843801
50	0x3d1c7382	0.038196094
51	0xbd45f4b1	-0.04832906
52	0x3d142093	0.036163878
53	0x3d02c26a	0.03192369
54	0x3d6c50b2	0.057694145
55	0xbd0c2000	-0.034210205
56	0x3d844417	0.064582996
57	0xbd407479	-0.046986077
58	0x3db8cd0b	0.09023484
59	0x3d677a21	0.056512956
60	0xbcea111d	-0.028572613
61	0x3cf5bf3d	0.029998416
62	0xbd432903	-0.047646534
63	0xbd79f941	-0.061028723
64	0x3d6f6b37	0.058451857
65	0x3c5eaff3	0.013591754
66	0xbcf67c0a	-0.030088443
67	0xbc808de2	-0.015692655
68	0x3cd2200f	0.025650052
69	0xbc0de94f	-0.008661582
70	0x3d8b98d1	0.06816257
71	0x3d0aa386	0.033847354
72	0x3d6647f6	0.05622097
73	0xbcdde773	-0.027087903
74	0x3d0aff3e	0.033934824
75	0xbc7fd408	-0.015614517
76	0xbd262c94	-0.040569857
77	0xbcb3faec	-0.021970235
78	0x3c64a031	0.013954208
79	0x3b49118c	0.0030680625
80	0x3a64d8cb	0.00087298144
81	0x3d5e045d	0.05420338
82	0xbd9de37d	-0.077094056
83	0x3c88033a	0.016603101
84	0x3d0ee77f	0.03488874
85	0x3ce89826	0.028392863
86	0x3c9d836b	0.019227704
87	0xbd2ffa81	-0.04296351
88	0x3d9b63db	0.07587405
89	0x3d26b8b8	0.040703505
90	0x3d013ab2	0.031550117
91	0x3c5cd75e	0.013479082
92	0xbd78dbe9	-0.060756598
93	0x3d926500	0.071481705
94	0x3d1c7067	0.038193133
95	0xb9a6a5cb	-0.00031785513
96	0xbcb96c27	-0.022634579
97	0x3db909fa	0.09035106
98	0xbc35a4b3	-0.011086631
99	0xbc657526	-0.014004981
100	0xbd86cf6c	-0.06582531
101	0xbd6075a4	-0.05479969
102	0x3bff4acf	0.0077909003
103	0xbd54e04c	-0.05197172
104	0x3a707b09	0.0009173607
105	0x3cf2157c	0.02955126
106	0x39c983ba	0.00038435851
107	0x3d5a2d4e	0.053265862
108	0xbd80f4e9	-0.06296713
109	0x3db5a9b2	0.088702574
110	0xbd78a0df	-0.060700294
111	0x3c00e3a4	0.007866774
112	0x3d7405a9	0.05957571
113	0x3d70bbce	0.058772855
114	0x3bc1126d	0.005892089
115	0x3d1bf860	0.038078666
116	0x3da44fb7	0.08023017
117	0xbd2ae997	-0.041726675
118	0xbd377e91	-0.044798438
119	0xbd85080b	-0.06495675
120	0xbc9580d6	-0.01824991
121	0x3d9278c6	0.07151942
122	0x3dbab412	0.09116377
123	0xbd3a629c	-0.045504197
124	0xbd5a826d	-0.05334704
125	0xbb4c2bd4	-0.0031154053
126	0x3daf4265	0.085575856
127	0x3d4dd2bc	0.0502498
128	0xbdb20394	-0.08692089
129	0x3d78857b	0.060674172
130	0x3da79807	0.08183294
131	0xbc6f01a4	-0.0145877935
132	0xbd74de01	-0.059782032
133	0xbb26b1a1	-0.0025435465
134	0x3d4b80f5	0.04968353
135	0x3d885d9e	0.06658481
136	0x3db29b6c	0.087210506
137	0xbd826e37	-0.06368678
138	0x3bbf9cd3	0.0058475523
139	0x3d31dff6	0.043426476
140	0x3da6ea56	0.08150165
141	0xbd6c8237	-0.05774137
142	0xbd01de1c	-0.03170596
143	0xbd4f447e	-0.05060243
144	0xbdb3b448	-0.0877462
145	0x3928b774	0.0001609007
146	0xbd6e5045	-0.05818202
147	0xbc2eef32	-0.010677146
148	0x3cb6833f	0.02227938
149	0xbd63030c	-0.055422828
150	0x3c3db74b	0.011579345
151	0xbc15bd16	-0.00913932
152	0xbd182152	-0.03714115
153	0x3b92babb	0.0044778264
154	0xbd70ff4c	-0.05883722
155	0xbcee08c3	-0.029056912
156	0x3ce12a06	0.027485859
157	0x3d01d8f8	0.03170106
158	0xbd8093fe	-0.06278227
159	0x3c288e3e	0.010287819
160	0x3d1b5fe3	0.03793324
161	0xbd8d9e62	-0.06914975
162	0x3da0ba7c	0.07848069
163	0xbd7458cb	-0.059654992
164	0xbda360bd	-0.07977436
165	0x3d37ebe7	0.04490271
166	0x3dc18803	0.0944977
167	0x3d4ca15d	0.049958576
168	0xbd55b0e5	-0.052170653
169	0x3b8a8192	0.0042268718
170	0xbda8ab21	-0.08235765
171	0xbd99d600	-0.075115204
172	0x3cba460b	0.022738477
173	0xbd2628c9	-0.04056624
174	0x3d0846bf	0.033270594
175	0x3d07ecb8	0.033184737
176	0xbcf87696	-0.030329984
177	0x3d106c72	0.03525967
178	0xbdaa68b6	-0.08320753
179	0x3d31bb63	0.043391597
180	0xbdad634a	-0.084662035
181	0xbccb2d26	-0.024801802
182	0x3cd37d15	0.02581648
183	0xbbb005e7	-0.0053717974
184	0xbd3222ba	-0.04349015
185	0xbd953e0e	-0.072872266
186	0x3d207dab	0.039182346
187	0xbda9dd33	-0.082941435
188	0xbd8e4948	-0.06947571
189	0x3d050e2a	0.03248421
190	0xbbc83409	-0.0061097187
191	0xbc9149c7	-0.017735375
192	0x3d98038f	0.07422554
193	0xbc9e9bc8	-0.019361392
194	0x3d826872	0.063675776
195	0x3d217f7b	0.039428215
196	0x3cf29be1	0.029615344
197	0x3d9f2251	0.07770217
198	0x3cee6cf6	0.029104691
199	0x3cae616d	0.02128669
200	0xbd8a5f1b	-0.06756421
201	0x3d1038ad	0.0352103
202	0xbcbe6a59	-0.02324407
203	0x3c9ecebf	0.019385694
204	0x3d2eb34c	0.04265146
205	0x3d953baf	0.07286774
206	0xbd54afd6	-0.051925503
207	0x3cca885a	0.02472322
208	0x3da8ab4b	0.082357965
209	0x3bfee0ed	0.007778278
210	0xbc96ecce	-0.018423464
211	0xbc37e785	-0.011224632
212	0xbdb2aa7f	-0.08723926
213	0xbd88d8c3	-0.06681969
214	0x3db94127	0.0904563
215	0x3b693ea4	0.0035590315
216	0xbd279b82	-0.04091979
217	0xbcd3bf39	-0.025848018
218	0xbd0a2fe5	-0.033737082
219	0xbd8a12d6	-0.06741874
220	0xbd867121	-0.065645464
221	0x3b1185d0	0.0022205003
222	0xbbd6b385	-0.006552162
223	0x3c6b1ec6	0.014350599
224	0xbd946b61	-0.072470434
225	0xbd46cb12	-0.048533507
226	0x3c2b8195	0.0104679065
227	0x3dbd7572	0.092509165
228	0xbd3e4f47	-0.046462324
229	0x3d9f9f4a	0.07794054
230	0x3cf16180	0.029465437
231	0x3dac4ab3	0.08412685
232	0x3b061d91	0.00204644
233	0x3d16e701	0.036841396
234	0xbd87becd	-0.06628189
235	0x3da9750d	0.08274279
236	0xbda05fd0	-0.07830775
237	0x3d3a3664	0.045462027
238	0x3d8c428d	0.06848631
239	0xbc9d26d4	-0.019183554
240	0xbd3852c4	-0.045000806
241	0x3d4e778e	0.050406985
242	0x3d120f15	0.035658915
243	0xbd23ceb0	-0.039992034
244	0xbc9964b3	-0.018724775
245	0x3dbbe89c	0.09175226
246	0xbdb5cbca	-0.0887676
247	0xbd4ba856	-0.049721085
248	0xbcca50c9	-0.024696724
249	0x3d2fc40d	0.042911578
250	0x3d92ce60	0.07168269
251	0xbdc06edc	-0.09396145
252	0x3dc580b6	0.0964369
253	0x3c13daba	0.009024316
254	0x3d53d50f	0.05171686
255	0x3c04c56e	0.0081037115

fc2.bias f4 [84]
0	0xbd25f54c	-0.040517136
1	0xbd6356aa	-0.05550257
2	0x3dfe1cec	0.1240786
3	0x3c10a9bb	0.008829529
4	0x3de69c41	0.11260272
5	0x3e1b133e	0.15144059
6	0x3e694fbf	0.22784327
7	0x3da69893	0.0813457
8	0x3de6e9da	0.112750724
9	0xbcacdd4b	-0.021101614
10	0x3dbcc849	0.09217889
11	0xbd700903	-0.058602344
12	0x3ce81b75	0.028333405
13	0x3d37bec8	0.044859678
14	0xbc22f6d2	-0.009946542
15	0x3d20667d	0.03916024
16	0x3e43466b	0.19069831
17	0x3e0df94f	0.13864635
18	0x3e3a457c	0.18190569
19	0x3dc14d2a	0.09438546
20	0x3d3041d5	0.043031532
21	0x3e2999d8	0.16562593
22	0xbd4310c8	-0.047623426
23	0x3d3f5a45	0.046716947
24	0x3d619ee7	0.05508318
25	0x3da33610	0.07969296
26	0xbd6c08af	-0.05762547
27	0x3be8af04	0.0071009416
28	0x3e1f9ea1	0.15587856
29	0x3e05a4fd	0.1305122
30	0xbbb49fd4	-0.005512217
31	0xbd019b31	-0.031642143
32	0x3d2f6bfa	0.042827584
33	0x3d9bfe79	0.07616896
34	0xbcfdbfa2	-0.030975167
35	0xbd044434	-0.032291606
36	0xbba92eb2	-0.005163037
37	0xbc64d83a	-0.013967568
38	0x3d65ac14	0.05607231
39	0x3d459ccf	0.048245247
40	0xbd6e35ee	-0.0581569
41	0x3e9d50a5	0.3072559
42	0xbbb630fe	-0.0055600395
43	0x3d18e513	0.037327837
44	0x3d3a5cbd	0.0454986
45	0xbd8a2b7f	-0.067465775
46	0xbbc9e1a9	-0.006160934
47	0x3e57a8a2	0.21060422
48	0x3deb348b	0.11484631
49	0x3dd7c965	0.1053646
50	0xbbd4fdca	-0.0064999806
51	0x3e49e4f7	0.1971625
52	0xbc5a0b6c	-0.013308387
53	0xbcc8178a	-0.024425287
54	0x3db68f1c	0.08914015
55	0x3da26695	0.07929722
56	0xbcc301c0	-0.023804545
57	0x3e16b158	0.14716089
58	0x3dd46f79	0.10372824
59	0x3db3adac	0.0877336
60	0xbbe40dd7	-0.0069596577
61	0x3e7c4dfe	0.24639127
62	0x3d968349	0.073492594
63	0xbcb1746a	-0.021661956
64	0x3e026c6b	0.1273667
65	0x3e36b37b	0.17841904
66	0x3e0d439f	0.13795327
67	0x3d97f56e	0.07419859
68	0x3dd850a7	0.10562258
69	0x3e111392	0.14167622
70	0xbcf15eda	-0.029464174
71	0x3e6b70f2	0.22992304
72	0x3e4ef998	0.202124
73	0x3da8110d	0.08206377
74	0x3e3b7139	0.1830491
75	0x3c4f941f	0.012669592
76	0x3e4b85dd	0.19875284
77	0x3de5d3a3	0.11222007
78	0x3e927fe0	0.28613186
79	0x3e644358	0.22291315
80	0x3d1aeb95	0.037822325
81	0x3e381776	0.179777
82	0x3d8566b7	0.06513732
83	0xbd5879c5	-0.052850503

fc3.weight f4 [2, 84]
0	0xbd4a6dcc	-0.049421117
1	0x3b85a12a	0.00407805
2	0x3e12a87e	0.14322087
3	0x3c91e521	0.017809452
4	0xbe02ff33	-0.12792663
5	0x3e98ee6d	0.29869404
6	0xbda3dd57	-0.080012016
7	0xbd06a856	-0.03287538
8	0xbe6e2168	-0.23254931
9	0x3d9824ee	0.07428919
10	0x3ebaec30	0.36508322
11	0x3cd62b91	0.026143821
12	0xbe9b14e7	-0.30289385
13	0xbe4a362e	-0.1974723
14	0xbddc6292	-0.10760988
15	0x3e3772b6	0.17914852
16	0xbec85817	-0.39129707
17	0xbe8c7997	-0.27436516
18	0x3e6bcef5	0.23028167
19	0x3d7f5db0	0.062345207
20	0xbc97075f	-0.018436132
21	0x3e814059	0.25244406
22	0x3be90016	0.007110606
23	0x3eacec47	0.33774015
24	0x3e8b66ef	0.2722697
25	0x3e093443	0.13398843
26	0x3cf41d44	0.029799111
27	0x3ddd1325	0.10794667
28	0x3edd3339	0.43203142
29	0xbe8a5951	-0.27021268
30	0x3dd78866	0.10524063
31	0xbe3d248e	-0.18470976
32	0xbcb9abce	-0.02266493
33	0xbe5a3e82	-0.21312907
34	0x3e878191	0.2646604
35	0xbd8593e0	-0.065223455
36	0xbd04d936	-0.03243371
37	0xbe985377	-0.2975118
38	0xbd7d3301	-0.06181622
39	0xbe487444	-0.19575602
40	0x3ca2a3d2	0.019853506
41	0x3eebe09f	0.4606981
42	0xbea5a713	-0.3235403
43	0x3e4b4a03	0.19852452
44	0x3e588c1f	0.21147202
45	0x3e34a7bd	0.17642112
46	0xbe017cf1	-0.12645318
47	0x3d07d552	0.033162422
48	0xbe9ac6f4	-0.30229914
49	0xbddf3964	-0.10899618
50	0x3d8e8a3f	0.06959962
51	0x3e49201c	0.19641155
52	0x3d837464	0.06418684
53	0xbd06b998	-0.03289184
54	0x3be351c4	0.0069372375
55	0x3e14c0d8	0.14526689
56	0x3dbf7c74	0.093499094
57	0xbeddd088	-0.4332316
58	0x3e9b7b30	0.30367422
59	0x3e142f08	0.14471066
60	0xbdccd220	-0.10001016
61	0xbec21846	-0.37909144
62	0x3dd4283d	0.10359237
63	0xbe33ad75	-0.17546637
64	0x3bddc72d	0.0067681284
65	0xbe9224de	-0.28543752
66	0x3e2bca80	0.16776466
67	0xbe0f4087	-0.13989459
68	0x3ec4f176	0.3846547
69	0xbe867d1d	-0.2626733
70	0x3e1fdf97	0.15612637
71	0xbee6055b	-0.4492596
72	0xbeb2db07	-0.3493273
73	0x3e08185e	0.13290545
74	0xbe2cf08a	-0.16888633
75	0x3dfa69a9	0.12227184
76	0x3e626e1c	0.22112316
77	0x3e8cae93	0.2747694
78	0x3efefbfe	0.4980163
79	0x3e9e41ab	0.30909476
80	0xbe0d702c	-0.13812321
81	0xbe93cceb	-0.28867278
82	0xbd69137a	-0.05690334
83	0xbe2d552e	-0.16927025
84	0x3db0584e	0.08610593
85	0xbd901d2e	-0.070368156
86	0xbedd7d91	-0.43259862
87	0xbe39e042	-0.18151954
88	0x3e08e436	0.13368306
89	0x3d5202a3	0.051272046
90	0xbf056437	-0.5210604
91	0x3ea9a00e	0.33129925
92	0x3e228d82	0.15874293
93	0xbd21c73f	-0.039496657
94	0x3d925033	0.07144203
95	0x3cced113	0.025246179
96	0xbe409f01	-0.18810655
97	0x3b1c3fb8	0.002384169
98	0xbdcc51a0	-0.09976506
99	0xbd1193c6	-0.03554132
100	0x3db34c32	0.087547675
101	0x3d0be362	0.034152396
102	0x3dd44a72	0.10365762
103	0xbe766408	-0.24061596
104	0xbdc8e3e5	-0.098090924
105	0x3e8831f0	0.266006
106	0x3d80d7ee	0.06291185
107	0xbe0174cc	-0.1264221
108	0x3e840f59	0.2579296
109	0x3e37495c	0.17899078
110	0x3dd87f4e	0.105711564
111	0xbd40a371	-0.04703087
112	0xbd9725b3	-0.073802374
113	0x3dde8b7b	0.108664475
114	0x3e5cff9a	0.2158188
115	0xbd3ef050	-0.0466159
116	0xbd7f9628	-0.06239906
117	0xbe5b60fe	-0.21423718
118	0xbdac3909	-0.08409316
119	0x3d8d18bf	0.068894856
120	0xbd46defd	-0.048552502
121	0x3e3cf2ee	0.18452045
122	0xbde9593e	-0.11393975
123	0xbeba09eb	-0.36335692
124	0xbd35b528	-0.044362217
125	0xbf25c7d1	-0.6475802
126	0x3e0205cf	0.12697528
127	0x3d594ec9	0.05305365
128	0xbd264113	-0.040589403
129	0x3e437262	0.19086602
130	0xbc988f97	-0.018623156
131	0x3ed693f9	0.4190977
132	0x3db3f812	0.0878755
133	0xbe646cd5	-0.22307141
134	0xbd5a4970	-0.05329269
135	0x3eb6a467	0.35672304
136	0xbe497c93	-0.19676428
137	0xbda71af6	-0.08159439
138	0xbeb57207	-0.35438558
139	0x3e3daf95	0.1852401
140	0x3d9b18d6	0.075730965
141	0xbe294d48	-0.16533387
142	0xba3fa748	-0.00073109986
143	0x3e8e9a2e	0.27852005
144	0x3e706595	0.2347625
145	0xbf05cb00	-0.5226288
146	0x3dd16448	0.10224205
147	0xbe4420d3	-0.19153146
148	0x3e73c1fe	0.23804471
149	0x3e003571	0.12520386
150	0x3ea625d6	0.32450742
151	0x3e88f73b	0.26751122
152	0xbdd090f6	-0.10183899
153	0x3e747763	0.23873667
154	0x3dabf8c4	0.08397058
155	0x3e7d981b	0.24765055
156	0xbe50b07f	-0.20379828
157	0x3e061197	0.13092647
158	0xbe989e53	-0.29808292
159	0x3e50cfc3	0.20391755
160	0x3ec3e213	0.38258418
161	0x3c6dc453	0.014512139
162	0xbeb2dd32	-0.34934384
163	0x3eaeb232	0.34120327
164	0x3e801a94	0.25020278
165	0x3e1ee586	0.15517244
166	0x3c8ff987	0.017575039
167	0x3e21fbb3	0.15818672

fc3.bias f4 [2]
0	0xbd35f27a	-0.044420697
1	0x3d767770	0.0601725
