src/models/sup-edit-3.onnx (onnx, 336968 bytes, 10 tensors)

conv1.weight f4 [6, 5, 5, 5]
00000000: a53b 293d 30ed 783d b0d4 783c cff8 15bd
00000010: f03a 513d 018f 123d b9fd abbd 373d 563b
00000020: 4c5c 0a3d 0310 90bd 3ded 053d bf2d 8f3d
00000030: 6d3f 11bc 7063 89bd 6696 b3bc 9408 babc
00000040: 7d33 823d 28c2 8dbd 3d34 bdbc 08f8 21bd
00000050: f7fb 143c 0c35 56bd 7c33 a6bd 511f 78bb
00000060: 0528 8f3d 8426 fabc 1587 0abc 6741 92bd
00000070: ed03 ae3d 4b40 983d a3e3 a23c 1389 80bc
00000080: f842 b33d f57a c5bc a582 853d cbe0 b6bd
00000090: 9525 613d 8896 4abd 9dd5 38bd 9cc9 87bd
000000a0: d801 8fbd ddbf c03c 1194 ab39 5457 4f3d
000000b0: 8680 54bd 7057 67bd 389c 7c3b 0e61 eb3b
000000c0: 2d1b 02bd 7708 3e3b 7d99 883c 87ca a73d
000000d0: 7f07 b0bd 2022 1d3d 10b3 96bd 43c3 87bb
000000e0: 9c33 053d 1f03 4dbc 3495 f5ba d756 7bbc
000000f0: b0be 513d 6782 9abd c79b 183d af40 b8bd
00000100: 049e 85ba c902 69bd 4bfb adbd 8bfb 7a3d
00000110: a78c b13d c62b a3bd d144 04bd 7cbe 31bd
00000120: d207 a73b 461c 913d 48fc 58bd 3ed6 75bd
00000130: a8d5 36bd 89e1 203d c7f4 8bbd e242 8ebd
00000140: 6860 9bbd f5b1 90bd 6d5b 02bd 347f a23d
00000150: 6eda f73c 3874 d03c 81ee 1ebd ca64 b23d
00000160: 7133 db3c 1feb 893d 2323 683d 3cbc 8f3d
00000170: 57fc 833b 11b6 923d 816f 423d b51e 433d
00000180: 5328 5ebd 2b0d 923d 142d 193c d489 61bd
00000190: 3565 42bd 2f3c 6dbd 3bdd 8bbd a3ab 69bc
000001a0: b076 e03b 2374 923d 5f1f 943d 8435 463d
000001b0: aeea 69bd f590 96bc fa6f c83c 5526 9b3b
000001c0: 1a1c 073d 61d0 d2bc 521d 7f3d d42e 6a3d
000001d0: 07c7 cc3c 05ee 9dbd 3fd0 4dbd d094 513d
000001e0: 79b0 24bd 0880 73bd 5045 033d d5e6 213b
000001f0: 0707 69bd eecf e73d 14fb 6d3d fc4c b33d
00000200: 9953 523d c4e8 dd3d 7620 8e3d 3453 1c3d
00000210: ad3a e43d b01c e43d 41c7 0d3e 0ae3 0e3d
00000220: afd4 043e dd29 443e bfc0 183d cec9 e33d
00000230: 632c 0a3e 01e4 6d3c 6d82 df3d 0e1d 033e
00000240: 51af f23b c4b4 3dbd 63c2 363d 4933 083d
00000250: 8b4a f13d c574 89bd 2566 093e 2aa4 793d
00000260: e246 473c 1b55 b7bc 014c 003e 1a64 60bc
00000270: 8826 e33d 6d9a 053e 6e56 803d cf41 3fbc
00000280: 384a c83d 261b c13d 1005 863d a430 073e
00000290: 3e90 cb3d 52f4 b63d 45b5 b23b a9b5 d73d
000002a0: 28d1 653d a822 2f3d 7fbf c53d 853e a7bc
000002b0: 33df 973d 1f36 c039 3fdf 83bd 43f4 8b3d
000002c0: 0135 043e 08fd d83d f846 a23c fd44 de3d
000002d0: dae1 183e 2914 fb3c b2c0 2f3e b8c7 d53d
000002e0: 86f5 ad3d 2fd6 37bc 7fcf 193c 4661 bb3d
000002f0: bc4a 8b3d 5666 80bb 79f7 f93d 9574 5e3d
00000300: 7e2a 123d 6da1 ad3c b81b c43c 0af7 dd3d
00000310: 7457 f13d a97d 033e ce14 1fbc 5216 6bbd
00000320: 2d30 1a3d 99d4 053d e820 033e 9bb5 563d
00000330: b435 823d 45c2 8b3a 39b4 023e d0c0 513d
00000340: 3816 233e bc3e f33d 430e 93bc 8665 bf3c
00000350: 8d17 a63d 50b1 c83d 362a 173c 1100 bf3d
00000360: f698 023e 0a3c e03d 8a60 953c c78a d83d
00000370: 1eae 07bd b679 3cbd 58cc cbbc ae12 41bc
00000380: 3fa9 c73d 1c1b be3d 2fd4 ef3d af82 093e
00000390: 3203 f13d fa2a 823d 1662 ba3d aca3 843d
000003a0: 7022 353e 4146 043e 8f81 2d3c 476c e5bb
000003b0: bb41 293d debb 3c3e 2bb9 7d3c e21d 0d3e
000003c0: a4dd 0ebd abac 093e 7eab c83d 4bcf 683d
000003d0: 3bac 3dbc b36e d6bc 341d 17bd 96f3 15bc
000003e0: 5a29 39bd 2d68 843d 67b6 61bd a495 89bc
000003f0: 837b 3f3d 2f81 aa3d d92b 75bd efe6 21bd
0.041316647 0.060773075 0.015187427 -0.036614235 0.051081598 0.03578091 -0.08398003 0.0032690295
0.033779427 -0.07034304 0.03269695 0.06991147 -0.00886522 -0.06708419 -0.021922302 -0.022709168
0.06357477 -0.06921798 -0.023096198 -0.03954318 0.009093276 -0.052296683 -0.081152886 -0.0037860463
0.06990055 -0.030535944 -0.008455058 -0.07141381 0.084968425 0.07434138 0.019883936 -0.015690362
0.08753008 -0.024106482 0.06519059 -0.089295946 0.05496748 -0.049459964 -0.045125592 -0.06630251
-0.069827735 0.023528988 0.0003272598 0.050620392 -0.051880382 -0.05647987 0.0038545262 0.0071832007
-0.031764198 0.0028996745 0.016674751 0.08192926 -0.0859518 0.038362622 -0.07358372 -0.00414315
0.03251992 -0.012512951 -0.0018736483 -0.015340528 0.051207244 -0.075444035 0.037257936 -0.089967124
-0.0010194187 -0.05688742 -0.08495196 0.061275046 0.086694054 -0.079673335 -0.03229219 -0.04339455
0.005097368 0.07085471 -0.05297497 -0.06001877 -0.044637352 0.039277587 -0.06833797 -0.06946351
-0.075867474 -0.070651926 -0.03182547 0.07934418 0.030255523 0.025446042 -0.038801674 0.0871063
0.026757928 0.06734299 0.056674134 0.07018325 0.004027884 0.07163633 0.04746962 0.047636706
-0.054237675 0.07131418 0.009349126 -0.055063084 -0.0474598 -0.057918724 -0.06829306 -0.014262113
0.006850086 0.071510576 0.07232546 0.04839088 -0.057108574 -0.018379668 0.024467457 0.004734794
0.032985784 -0.025734128 0.06228382 0.057173565 0.024997247 -0.07711414 -0.050247427 0.05116731
-0.04020736 -0.059448272 0.032048523 0.0024704237 -0.056891467 0.11318956 0.058100775 0.08754918
0.051349256 0.10835412 0.06939785 0.038165286 0.11144004 0.11138284 0.1384554 0.03488449
0.12971757 0.19156595 0.037293192 0.111224756 0.13493495 0.014519692 0.109135486 0.12804052
0.0074061533 -0.04631497 0.044618975 0.033252034 0.11781796 -0.06711725 0.13417871 0.060947575
0.012162896 -0.022379449 0.12528993 -0.013695741 0.11091334 0.1304719 0.06266485 -0.011673405
0.09779781 0.09429006 0.06543934 0.13202149 0.099396214 0.08933319 0.005453738 0.10532696
0.05610767 0.04275766 0.096556656 -0.020415554 0.07415619 0.00036661417 -0.06439065 0.068336986
0.12910844 0.10595137 0.019809231 0.10853002 0.14929906 0.030649262 0.17163351 0.10438484
0.084940955 -0.011220499 0.00938785 0.09149413 0.06801364 -0.0039184494 0.12205405 0.0543104
0.035685055 0.021195138 0.023938999 0.108381346 0.117842585 0.12840904 -0.00970955 -0.057394333
0.0376436 0.032673452 0.12805521 0.052419286 0.06357899 0.0010662755 0.12764062 0.05120927
0.15926445 0.118772 -0.017951136 0.02336384 0.08109961 0.09799445 0.009226372 0.093261845
0.12753662 0.109489515 0.01823451 0.10573345 -0.033125035 -0.04601451 -0.024877712 -0.011784239
0.09749078 0.092825145 0.11710393 0.13428758 0.117681876 0.063558534 0.0910074 0.064765304
0.17688918 0.12917425 0.010589971 -0.007001433 0.04132245 0.1843104 0.015486042 0.1378093
-0.03487934 0.13444774 0.097983345 0.056838315 -0.0115767075 -0.026175832 -0.036893085 -0.009152314
-0.04520545 0.064651825 -0.055105593 -0.016794987 0.04674865 0.08325421 -0.05985627 -0.039526876

conv1.bias f4 [6]
00000000: 272a 6b3c 1d9a a23d a3f0 2cbe cbac 603c
00000010: d3c4 b23c 2d87 563c
0.014353312 0.07939551 -0.1688867 0.013713072 0.021822369 0.013093752

conv2.weight f4 [16, 6, 5, 5]
00000000: 85cb 853d 5e2b 6fbc 06b0 e53b 39d5 febc
00000010: 234b 5a3d 143d 9f3d 7733 9c3b 2cef 963d
00000020: addd 39bd 5326 1bbc 9147 413d 38e6 343d
00000030: 68f5 91bd d7a1 39bd b71f 60bd 5826 9cbd
00000040: 7539 a33d f81e 4f3d 6d6d 083d 1d7e a6bd
00000050: 3877 a6bd d8fa 14bd fe4f 673d 1512 88bc
00000060: 830c 543d 99ff 0a3e 8105 d23d 8353 f73d
00000070: 3e86 d53d 3527 e6bb 58c0 1d3e f563 4b3d
00000080: 0507 b23d 54b2 ed3c e8de ec3d ead8 063d
00000090: b343 843c 9655 8dbc 3bff 603c 5b45 843d
000000a0: 376b 0cbe 6995 16be eddb 9abd fa64 4b3c
000000b0: b9f6 f5bd daa8 0dbe 3cb9 36be bda1 a4bd
000000c0: 50a3 01be b8ac 993c b1e3 993d 3414 ee3d
000000d0: 9b6f c23d b1ba ee3d bc42 69bd 40f0 8a3d
000000e0: 65d5 603d 8707 c13d 699e be3c c318 af3c
000000f0: ebbe d1bd f6a0 83bd 7f47 aebd 4f58 4b3d
00000100: cf6b d6bd a5d3 17bd 6a84 03be 4ebb d9bc
00000110: 4da6 78bd 6e35 06bd 099e debd 748e 59bd
00000120: 508c e7bd fc60 90bd 4ccf 8f3d df16 833e
00000130: 04ca 8a3e 1cbb 523e ef27 b53d c82e 293e
00000140: f689 323e f61b 503e 1d55 013e d855 bb3d
00000150: b0c6 333d 18e8 e1bc bfa3 c63c 250b 103d
00000160: 5715 d23c 91e0 6bbd 64f2 8cbe 2fb3 97be
00000170: 2611 77be e52f 27be 7cf5 b3bd 3d89 7ebe
00000180: f863 3abe b9e1 d8bd 373b 07be 3b54 10bd
00000190: a479 b9bd 3ae3 9d3c 9562 e5bc eb83 85bc
000001a0: e11e 1b3c 5628 6c3d 4da8 193d 09b4 893d
000001b0: f2d3 01bc c126 17bd 3053 843d ee65 a0bd
000001c0: bde9 94bb 0025 d7bb 4a7e 2cbc 7831 43bd
000001d0: 587f 80bd 4dd3 2e3d 0057 3bbd 3f89 903d
000001e0: e0f2 8dbd d9f0 b8bd b0ea 79bd 18de a3bd
000001f0: 9796 9dbd 7656 5f3d 818f 46bd 0959 bc3c
00000200: 6a6e d1bc 38a2 4a3c bd89 97bb 02a6 11bc
00000210: 1b36 283d a8f3 a2bc daf1 a0bd ea7b 663c
00000220: 6031 2abd 3462 443d b95c a6bd c08d f53b
00000230: 8420 e6bc 9460 7fbd 495d 1abd 1415 ecbc
00000240: 7bd9 a6bd 62fe f73c 217c 8e3d f2fd 143d
00000250: 68cb 323b f30e 443a 8117 43bd 758b a43c
00000260: 1f48 83bd 526b 203d 7bfc a53c 7523 353d
00000270: 0ce5 893d 836e a43d 21d0 d13c 26d8 94bd
00000280: 10c1 953d e46c 853d 2ddb 6dbc efb0 c73c
00000290: 88ac 17bd 8ccf 75bd f0fd 80bd 188c 91bc
000002a0: 522a c5bc 01f8 733d 0afe 263d 3e69 0fbd
000002b0: 2d4f 863b b144 933d 3beb f5bc 1e65 94bd
000002c0: d772 b4bb dc80 9f3c 7af9 4c3d 2278 42bd
000002d0: 48e4 49bb 7837 bf3d 91f3 383d c90a 033e
000002e0: 5f73 b63d 0878 94bd 9652 14bd cb9b 353b
000002f0: d200 833d add7 a23d 69ec 853b d435 8dbd
00000300: aac2 68bc 08d9 26bd 9189 b93b 1ae7 09be
00000310: 9899 0abe a60f ecbc ad48 78bd a7fa eabd
00000320: b16c bd3d 708e f5bc cf80 28bc 5193 6e3d
00000330: 4d3f d63c d5ec 8c3d 6b16 2cbd 8fa5 8d3d
00000340: 01ac 553d e5b1 16bd 33fa 90bd e70f d83d
00000350: 30ec 01bc d968 323d 7382 84bd 3569 31bb
00000360: 1445 c6bd 156b 90bd a40a ea3c 54b4 6fbd
00000370: 55e1 8a3c 2045 29bd fb5d 0fbe 50a7 1fbd
00000380: b0d7 afbd a751 8c3d 2a5f 823d bc0e 2c3e
00000390: 4a85 0b3e 7ee4 cf3d 6037 523c fa3f 0b3e
000003a0: e701 433e e075 333e df43 f43c 4077 1d3d
000003b0: e1e8 033e e6f1 eb3c 500d 043e 70ae 813d
000003c0: ff6d 67bd e786 98bd aeea 9bbb f0c7 96bd
000003d0: 0a8e 27be adcc 4bbe 6532 78be ce94 88be
000003e0: f3bc 69be 8318 64be e75b 95bd 5802 00bb
000003f0: 591e 25bd 5883 4b3d ad51 753d fc5b b2bd
0.06532959 -0.014597742 0.007009509 -0.031107532 0.053294312 0.077753216 0.0047668773 0.07369837
-0.045377422 -0.009469586 0.04718739 0.044164866 -0.07126886 -0.045320358 -0.054717746 -0.07624501
0.079699434 0.050566643 0.03330748 -0.08129523 -0.08128208 -0.036372036 0.05647277 -0.016610185
0.051769745 0.13574065 0.10254956 0.120764755 0.10425995 -0.007023717 0.15405405 0.049655873
0.08692745 0.029015698 0.115659535 0.03292171 0.016145563 -0.017252725 0.013732727 0.06458541
-0.13712774 -0.14705433 -0.07561479 0.012414211 -0.12009949 -0.13833943 -0.17844099 -0.08038662
-0.12659955 0.018759117 0.07514132 0.11624947 0.09493943 0.11656702 -0.05694841 0.06784105
0.05489101 0.09425264 0.023268895 0.021374112 -0.10241493 -0.06427185 -0.085097305 0.049644765
-0.104697816 -0.037067074 -0.1284348 -0.026578572 -0.06070547 -0.0327658 -0.108699866 -0.05311437
-0.11306059 -0.07049748 0.070219606 0.25603387 0.2710725 0.20579189 0.08845507 0.16521752
0.1743544 0.20323166 0.12630124 0.09147233 0.043890655 -0.027576491 0.024248002 0.03516688
0.025644941 -0.05758721 -0.2752868 -0.29628894 -0.24127635 -0.16326864 -0.08787057 -0.2485704
-0.18202198 -0.10589928 -0.13206182 -0.03523658 -0.09056404 0.01927339 -0.02800111 -0.016298255
0.009467811 0.057655655 0.03751402 0.06723792 -0.007924067 -0.036902193 0.06461179 -0.078319415
-0.0045444653 -0.00656569 -0.0105281565 -0.0476546 -0.06274289 0.04268198 -0.045737267 0.070574276
-0.0693109 -0.09030313 -0.06101483 -0.080013454 -0.07694738 0.054525815 -0.0484767 0.022991674
-0.025565345 0.0123677775 -0.004624574 -0.008889677 0.041067224 -0.019891575 -0.078586295 0.014067629
-0.041550994 0.047945216 -0.08123154 0.0074937046 -0.028091677 -0.062347963 -0.03768662 -0.028818645
-0.0814695 0.030272666 0.069572695 0.036374994 0.0027281884 0.0007479034 -0.047629837 0.02008603
-0.064102404 0.03916485 0.020261994 0.044223268 0.0673314 0.08028891 0.025611939 -0.072677895
0.073122144 0.0651491 -0.014517588 0.02437636 -0.037029773 -0.060012385 -0.06298435 -0.017766997
-0.024068031 0.059562687 0.040769614 -0.035012476 0.004098794 0.07190836 -0.030019393 -0.07245849
-0.005506854 0.019470625 0.050042607 -0.04747785 -0.0030806232 0.09336752 0.045154158 0.12797083
0.08908724 -0.07249457 -0.036211573 0.0027711268 0.06396641 0.07951293 0.00408702 -0.068950325
-0.014206568 -0.04073432 0.005662151 -0.13467064 -0.13535154 -0.028816056 -0.060616184 -0.114735894
0.09249247 -0.029975146 -0.010284617 0.05824596 0.026153231 0.068811096 -0.042013567 0.069163434
0.05216599 -0.036790747 -0.07078972 0.10549908 -0.007929847 0.04355702 -0.06470194 -0.0027070765
-0.09681144 -0.07051674 0.028569527 -0.058521584 0.01695315 -0.04132569 -0.14000694 -0.03897792
-0.08586061 0.068515114 0.06365807 0.16802496 0.13625064 0.10151003 0.012830585 0.13598624
0.19043694 0.17525434 0.02981752 0.038443804 0.12881805 0.02880187 0.12895703 0.063320994
-0.056501385 -0.074476056 -0.0047582006 -0.07362354 -0.16362777 -0.19902296 -0.24237974 -0.2667603
-0.22825985 -0.22274975 -0.072929196 -0.0019532647 -0.040312145 0.049685806 0.059892345 -0.08708951

conv2.bias f4 [16]
00000000: 6523 b93c d3ad 93bd b5c0 6a3c cec8 2d3e
00000010: 80e0 503d 126e f1bc 3c63 873d 7300 79bc
00000020: 5b35 90bc e69d e03d 6244 1f3d 87c0 6c3d
00000030: e23e 2a3e 99e1 f13d 264a 1f3e f221 333e
0.022599885 -0.07210889 0.0143281715 0.16971132 0.05099535 -0.02947143 0.06610724 -0.015197861
-0.017603567 0.10967617 0.038883574 0.057800796 0.1662555 0.118106075 0.15555629 0.17493418

fc1.weight f4 [120, 584]
00000000: 870d d63c 9b6c 23bd 3ea6 8f3b a610 01bd
00000010: 0846 c8bc dd7e dabc 78ed df3c 9539 aa3c
00000020: 6425 6cbd c193 fcbc a389 d0bc d1f0 05bd
00000030: e68f 53bd 2cf4 01bd c5b2 123c 065c bf3c
00000040: 7f92 193c dd78 5fbc 8b25 2d3c c204 0cbd
00000050: 8795 f1bc e2f7 9ebb a006 6abd 9c3e c0bb
00000060: 45dc 343d 7003 063d 44a9 473d a0a3 cc3c
00000070: f1d2 00bd b142 803c 8475 44bd f405 14bc
00000080: 8029 ecbc 71b8 97bc 1973 0a3d 74c7 4aba
00000090: 0995 883b c071 dfbc ef8f 32bb 0783 8abb
000000a0: efea a0bc 0b1c 1a3a 7f96 7ebb 6d67 963b
000000b0: 2efc 0dbd cdbb 513c 1b9f 9abb d5b3 33bd
000000c0: cabb 7b3c fda5 d6bc 710e d23c dd22 9ebc
000000d0: 8af0 0cbd e719 84bd 57d1 11bd b5f6 acbc
000000e0: 1673 a2bc 6d8e 11bd 5e62 6dbd 304d 4a3c
000000f0: 98a6 0bbc 6ee5 f43b c2fb 2fbd 01a9 7fbb
00000100: 4739 6d3c 95f4 683d fa66 553c 8a86 89bd
00000110: dbae 08bc b6d5 13bd 3264 93ba 7512 923b
00000120: 2001 0b3b f133 273c def4 4bbc fd6c 2d3d
00000130: 7133 263d 9425 10bd ffbd 5f3b 3907 0b3c
00000140: 6578 1c3a d167 cc3b c0be 4a3c 9e07 d5bc
00000150: 37d2 dc3c 813b 6ebc 6ba9 a93b c985 d4bb
00000160: 7041 063d a059 1ebd c97b e43c c01e 063c
00000170: cfeb b83c f5d0 fd3b 31c0 3e3d 53b4 b73c
00000180: c914 ce3c b1ee d7bc 203e 54bc ed74 afbc
00000190: 5e28 413c a26a 5f3c 79a6 093c 3b38 88bc
000001a0: a9cb 943b 0ba0 8f3b e50a c13c 762d 09bd
000001b0: 44bc 0a3d 86df c13c 62c4 833d 048a 1f3d
000001c0: f4e5 8c3c 3ddf 0bbc dcf5 0ebc d40b 09bd
000001d0: ed38 163c 95d0 20bd ea3e 21bc 49b6 15ba
000001e0: 485a 3c3d 7501 01bd 138b d03c b0f1 3e3d
000001f0: 4b6e 8fbc 64af 6d3d 8d54 f5bc 1092 cabc
00000200: 71ae 8dbc 750d 13bc 8d25 103d 146f acba
00000210: 5cc0 d3bc b343 503b 71cd 80bc 017c b3bb
00000220: 8f00 4b3d 11f1 093c 229d 1f3d 3ad3 80bc
00000230: 8283 aabc d619 ec3b e6ef bc3c c448 9e3c
00000240: d158 a13c a8e7 43bd 2807 4fbc 559b f93c
00000250: 47cc 14bd 6a29 9dbd 1c5f f33b 4f22 22bc
00000260: 4417 35bc 89b8 8abc 54e9 96bc 36c6 eebb
00000270: ec32 fe3a d0a6 40ba cbe1 383d eed8 9bbc
00000280: 204b 213d 26df 8f3d 0d0c 0cbc dd55 d23b
00000290: fec7 3cba bd6c d83c 0b72 143d 677b 123d
000002a0: b8d8 2e3d a29c 2c3d 21c4 55bc 0bf0 913c
000002b0: 69e8 f33c e58b ed3c 9eec 053d f180 3bbc
000002c0: bf48 5c3d 4f3a 1a3c 941b 3abd 7d5a d3bb
000002d0: 8b13 84bc 5a0e d73c b075 a8bc bfe8 373d
000002e0: c9a4 81bc c26f f0bb c22a fd3c 0e59 06bd
000002f0: 1e4d e63c 2345 15bd 2b8c b93c 5d94 f03c
00000300: af5c 283d 7e03 61bc b8d3 fcbb 11de 9cbc
00000310: 0a46 1d3d 6ce3 203d def6 853b 1ce1 1dbd
00000320: 492d 303d 406d ec3c 8fae 913c eabc 023d
00000330: 7c8a a7bc c909 27bc 06a4 05bd e2a7 3a3c
00000340: 7dd4 8ebc 05de 3d3b fb61 1a3d f961 03bd
00000350: 269f 18bd d537 35bc 30f3 8a3c 7827 cabc
00000360: 837e 013d b8e4 ddbc 9d81 3dba c142 1a3d
00000370: 127c bdbc 5fe7 49bc 109b b63b 0b42 4cbc
00000380: 1961 b9bc 815a f93a 471d 0abd ab4e bfbb
00000390: 2759 3fbb 63ed acbb 8a74 a83c 328c e6bc
000003a0: 9e71 cd3c 0802 17bd 0900 31bd 8529 bcbc
000003b0: d8c1 05bc f6e5 413d 8262 b6bc 9cc3 5e3c
000003c0: aa9c f1bc 2d9e f939 33c9 c73c cde2 483d
000003d0: 9840 6ebb 0a05 ecbc fd7c c3bc 1d47 84bc
000003e0: ede8 d4bc 28b2 17bc 67e2 24bd 2c34 a33b
000003f0: 48e7 053a 7868 183d db13 d0b8 9dcb 7c3c
0.026129497 -0.039898496 0.0043838313 -0.031510018 -0.024447456 -0.026671821 0.027334914 0.02077941
-0.057652846 -0.030832173 -0.025456255 -0.032700364 -0.051650904 -0.031727 0.008953755 0.02335931
0.009373306 -0.013639656 0.010568033 -0.034184225 -0.029490246 -0.0048513273 -0.057135224 -0.0058668386
0.044155378 0.032718122 0.04874541 0.024980366 -0.03145117 0.015656801 -0.047963634 -0.009034622
-0.028828382 -0.018520566 0.033801172 -0.00077354093 0.004168157 -0.02727592 -0.0027246436 -0.0042270455
-0.019643275 0.00058788125 -0.0038847027 0.004589966 -0.034664325 0.012801123 -0.004718674 -0.043872673
0.015364597 -0.026202196 0.025641652 -0.019303733 -0.034409083 -0.06450253 -0.035600033 -0.021113733
-0.019830268 -0.03553622 -0.05795514 0.0123475045 -0.008523606 0.007473639 -0.042964704 -0.0039010646
0.014478988 0.056873877 0.01302504 -0.067151144 -0.00834247 -0.036092483 -0.001124507 0.0044577667
0.0021210387 0.010205255 -0.012448518 0.042340267 0.040576402 -0.035192087 0.0034140346 0.008485609
0.0005968868 0.006237962 0.01237458 -0.026004609 0.026955707 -0.014540554 0.005177667 -0.006485675
0.03277725 -0.03865969 0.027891057 0.008186042 0.02257338 0.007745857 0.046570007 0.022424852
0.025156396 -0.026358934 -0.012954265 -0.02141806 0.011789409 0.013636263 0.008401507 -0.016628375
0.0045408797 0.0043830923 0.023564765 -0.03349062 0.03387095 0.023666155 0.064339414 0.03894998
0.017199494 -0.008537111 -0.00872561 -0.033458546 0.009168846 -0.03926142 -0.00984166 -0.00057110615
0.045984536 -0.03149553 0.02545694 0.04661721 -0.017508646 0.058028594 -0.029947544 -0.024727851
-0.017295094 -0.008975376 0.03519206 -0.0013155662 -0.02584856 0.0031778633 -0.015722962 -0.005477429
0.04956108 0.008419291 0.038968213 -0.01572572 -0.020814661 0.0072052283 0.023063611 0.019321807
0.019695671 -0.047828346 -0.0126359835 0.030469576 -0.036327627 -0.07673915 0.0074271094 -0.009895875
-0.01105291 -0.016933696 -0.018421806 -0.007286812 0.0019393838 -0.0007349076 0.045137208 -0.019024339
0.039378285 0.07024984 -0.008547795 0.006418927 -0.0007201432 0.026419038 0.036241572 0.035762217
0.042687148 0.042141564 -0.013047249 0.017814657 0.029773908 0.028997371 0.03269636 -0.011444316
0.053780314 0.009413316 -0.045436457 -0.006449996 -0.0161226 0.02625196 -0.02056393 0.0448997
-0.015825646 -0.0073375413 0.030904178 -0.032799773 0.028112944 -0.036442887 0.022649845 0.02936762
0.041104015 -0.013733743 -0.0077156685 -0.019148858 0.038396873 0.039279386 0.0040882668 -0.03854476
0.043011937 0.028860688 0.017783431 0.031918444 -0.020451777 -0.010195204 -0.032627128 0.011392565
-0.017435307 0.0028971445 0.037691098 -0.032075856 -0.03726115 -0.011060675 0.016961664 -0.024677023
0.03161479 -0.0270866 -0.0007229092 0.037661318 -0.02313045 -0.01232323 0.005572684 -0.012466918
-0.022629308 0.0019024165 -0.033719327 -0.0058382354 -0.0029197426 -0.005277322 0.020563383 -0.028143022
0.025078591 -0.03686717 -0.043212924 -0.022969017 -0.008163892 0.04733845 -0.022263769 0.013596442
-0.029493649 0.0004761083 0.024387931 0.04904442 -0.003635442 -0.028810997 -0.02386331 -0.01614719
-0.025989974 -0.009258784 -0.040254977 0.0049805846 0.0005108011 0.037209004 -9.921911e-05 0.015429405

fc1.bias f4 [120]
00000000: fb90 553d 3a45 50bb e085 8dbc d0d1 ba3d
00000010: a24b 0f3d 84fb 3f3d 20c5 a33d 41a8 213d
00000020: 64b6 493d 2031 2c3d 3561 bb3b 33a4 06bb
00000030: 659e b63d 22e2 953d 0be3 763d 359a bc3a
00000040: a7d8 f43d 2c68 9a3d 1d98 9e3d 61c8 1f3c
00000050: da3c b1bb 8d49 fabc f5e0 fb3c e70f 583c
00000060: 9ce5 843d b24b 643d 2acb 773d e18a c93d
00000070: 1b55 f73c f957 7fbc 2029 3b3d 900a f23c
00000080: 092c 1abd b710 1b3c 5149 7a3b 630f b23d
00000090: 34d3 5c3d e7ef c33d e23b e43d 3ac3 883d
000000a0: 3624 1dbd 3197 8c3d 1c69 aa3d 0c41 c23d
000000b0: 2905 2c3d eb79 353d 6830 863c 63cf 8c3d
000000c0: 69e9 023e 357d 233d 2211 8e3d bde7 d43d
000000d0: 9025 a03d d9d3 833d 3550 fc3d 2a91 c4bc
000000e0: 3d3f 7a3d a9d8 033e ff3a 163d 6eb0 e93c
000000f0: 53e1 a13d dfc4 893b a0d2 e73c 3566 c23c
00000100: ab99 353d 9161 e53d 032d 4c3d 9a51 ec3d
00000110: 3124 813d 6347 f83c e7b3 fd3b 4e9c 2b3c
00000120: 4c25 323d f75f fd3c 479b 9d3c 36ec 83bc
00000130: 7bfd 353d 2a44 353d 7c90 983b ade7 b23d
00000140: 5edd 883d cd90 873c 869a a9bc 560e 663d
00000150: 3161 323d a78f 263d de23 ae3d a13d 873d
00000160: ebdd 34bd 4cec 9d3c 0792 ed3d 2547 773d
00000170: 3a0f 093d 63bb c13d 1f58 733c 9908 8d3d
00000180: cc15 9ebc 3bf8 60bd 7e2c 96bb b072 89bc
00000190: 563a 9b3d d11a bd3c 90c8 b93d bbda 463d
000001a0: 3def f23d e17a 803d 1ec7 a73b c22d a7bb
000001b0: 1846 bb3d a5a0 273c 6a00 6b3d 7b7b d2bb
000001c0: 06de a23d 6351 c03d 13f5 173d a44e c23a
000001d0: 4d14 813d d513 f83d 4f4b 053d ace2 c63d
0.052140217 -0.0031779543 -0.01727575 0.0912205 0.03498424 0.046870723 0.07996583 0.0394671
0.049246207 0.042039037 0.005718375 -0.0020544648 0.0891693 0.07318522 0.06027512 0.0014389219
0.11955386 0.075394005 0.07743857 0.009752364 -0.0054088654 -0.03055265 0.030746916 0.013187385
0.06489107 0.05573625 0.060496487 0.09840942 0.030191949 -0.015584939 0.045693517 0.029546052
-0.03763965 0.009464434 0.0038190673 0.08694341 0.053912356 0.09567242 0.11144234 0.066778615
-0.03836461 0.06864775 0.08320829 0.09485063 0.04199711 0.044305723 0.016380504 0.068754934
0.12784351 0.03991433 0.069368616 0.10395763 0.078196645 0.06436891 0.12319986 -0.023995
0.061095465 0.12875618 0.036677357 0.028526511 0.07904305 0.004204377 0.028298676 0.023730377
0.044336002 0.1120025 0.049847614 0.11539002 0.06305731 0.030307477 0.0077423933 0.010474278
0.0434926 0.030929549 0.019239081 -0.016103845 0.04443119 0.04425446 0.0046558958 0.08735595
0.066828474 0.016548539 -0.020703565 0.056166016 0.04354972 0.04066434 0.08502935 0.06603552
-0.04415695 0.019277714 0.11600118 0.060370583 0.033461787 0.09459569 0.014852553 0.068864055
-0.019297503 -0.05492423 -0.0045829406 -0.01677832 0.07579486 0.023084076 0.090714574 0.04854844
0.11862037 0.06273437 0.005120172 -0.0051018903 0.09144229 0.010231172 0.05737344 -0.0064234114
0.07952504 0.09390523 0.037098955 0.0014824462 0.063027 0.12113158 0.032542523 0.09711203

fc2.weight f4 [84, 120]
00000000: b6ad 073c ccda 81bc 8c20 61bd 380e a73d
00000010: 3c2c 163d c898 67bd 500e 003d 55f5 7cbd
00000020: 9e87 853d 0565 a7ba 164b 95bd e716 6fbc
00000030: c751 8bbc de25 e5bc bb42 2c3d 6a94 63bd
00000040: 14c0 743d a1ba a1bb ad1e 4f3d 4c68 c03d
00000050: 503f 853d feb3 0fbd 96a6 d03c 9725 82bd
00000060: 3565 c53d 06d7 193d 8b1a 9abc ea52 e0bd
00000070: f524 80bd bd15 74bd f1c2 b0bd 7c20 cb39
00000080: 60e2 b2bd 9a0e e3bd c124 9fbd 7274 fcbc
00000090: 27f2 4d3d c72e c83c 06b3 513d 77d1 c23c
000000a0: 9a23 3a3d 8ca9 b03c 2794 83bd afbf 0a3d
000000b0: 5d89 48bd 7dff 59bd 562f bebd 6ae1 95bd
000000c0: d889 973d 1f81 7a3c 6431 1b3d 2c31 46bd
000000d0: cff9 0e3d adec 083d 9882 663d c9ae 0cbd
000000e0: 44d4 833d a431 40bd 3913 b83d c62e 673d
000000f0: 657c e6bc 8b57 f83c 09dd 44bd b3d0 79bd
00000100: ed06 713d 35fa 503c d451 f7bc fea0 82bc
00000110: 8045 cf3c ce78 0fbc 05ff 8b3d c31e 093d
00000120: 6d8f 633d 27b1 dfbc 33bf 0c3d c1c0 83bc
00000130: 92f9 25bd 946a b3bc 61f5 5b3c 7819 803b
00000140: 1f1d 803a 626f 5d3d 48f9 9abd 0a5f 853c
00000150: 4f53 0f3d 960e d83c b8aa 8e3c 228a 30bd
00000160: 3afa 9a3d 5766 263d db5b 013d 5679 5d3c
00000170: 024f 7bbd 6ad4 913d c6a1 1b3d e9a2 39bb
00000180: 6a7c c7bc 3316 b93d c883 37bc f7ac 65bc
00000190: e2ad 86bd b287 61bd 3233 f83b 46e8 54bd
000001a0: 6cac 1e3b 4ae8 f83c ddbb 69b7 7a51 583d
000001b0: 59af 82bd 09e7 b43d 12fb 78bd 7402 e63b
000001c0: dcb1 6b3d 3d7a 703d 96e2 ed3b 168a 1d3d
000001d0: 250e a43d 08a3 34bd d3de 36bd f250 85bd
000001e0: aa89 a0bc fa38 933d 412d bb3d 2ec8 43bd
000001f0: 5f73 5abd e0a3 44bb 25f5 aa3d 3863 4e3d
00000200: 73a6 b5bd 2e1f 7c3d 9ff3 a73d 4a63 89bc
00000210: ea70 72bd 824a a1bb 4678 4d3d d851 883d
00000220: 4a9b a73d 6481 84bd 3a87 af3b 3fae 303d
00000230: ec61 a73d 67e3 6abd 5a9e 02bd 765c 4fbd
00000240: 231e b3bd 609d ddb9 ceb1 72bd 899b 27bc
00000250: 6abd b73c 2511 63bd 4854 3c3c 8e64 42bc
00000260: 98f1 17bd beeb 9d3b 3a92 70bd fcb4 ebbc
00000270: 41e0 de3c a5aa fb3c 1b01 90bd 55bb 163c
00000280: fa10 1c3d 1a0e 8ebd 078c a13d 3621 74bd
00000290: 5f34 a3bd d2f1 303d 2f7d c03d 7da8 473d
000002a0: 1018 56bd 7fe7 063b 2caf a8bd 8f02 99bd
000002b0: 8b6a ae3c 61f0 23bd 6c5d f93c d6ff 063d
000002c0: 0c15 f7bc 0706 113d e4f0 a8bd 737e 323d
000002d0: 1a3e acbd 2497 c6bc 6fa4 d43c 797f a7bb
000002e0: f096 32bd 2961 95bd 630d 223d af3f a9bd
000002f0: e492 8dbd a1f2 033d 6586 d4bb d6fd a3bc
00000300: 89c8 943d 8635 9dbc fc9b 823d c5a8 233d
00000310: ed37 e13c e78e 9f3d d21f f03c c9d3 b23c
00000320: b7c1 89bd b55e 113d 5898 bebc 4765 8f3c
00000330: d95c 313d fdf9 8f3d e539 5dbd 159b ca3c
00000340: 61b3 a73d 28b9 f63b dbb5 92bc 4382 31bc
00000350: 5038 b5bd 7055 89bd ca52 b93d 4e12 00bb
00000360: 9ed4 2fbd 66a5 d6bc 82ab 09bd 29f2 89bd
00000370: 8c81 86bd f6d7 cd3a 12d2 c5bb 0adc 743c
00000380: 4ce1 97bd cc2d 45bd a957 263c 60a9 bc3d
00000390: 5119 3ebd 2e75 9f3d 7ec6 f43c a768 a63d
000003a0: 95aa a0ba 3adb 183d f865 88bd b1a8 a93d
000003b0: 017e a0bd e29f 303d 9e98 8c3d bca4 9cbc
000003c0: e23a 3ebd 87f9 563d 2920 093d c9d5 18bd
000003d0: 4474 96bc a836 bc3d 01e6 b1bd ff45 42bd
000003e0: d6b3 b8bc c4bc 513d f4c4 953d 0829 c0bd
000003f0: 4ee2 cb3d 4b97 823a ef08 513d 4cc2 033c
0.008281162 -0.0158514 -0.05496268 0.08157009 0.03666328 -0.056542188 0.03126365 -0.061757404
0.065200076 -0.0012771195 -0.07289712 -0.014592863 -0.017006768 -0.027972158 0.042055827 -0.05556146
0.059753492 -0.004935578 0.050566364 0.09394893 0.065062165 -0.035083763 0.02547006 -0.06354826
0.09638444 0.037558578 -0.018811485 -0.109533146 -0.06257049 -0.059591044 -0.08630932 0.0003874338
-0.08734584 -0.110867694 -0.07770682 -0.030817244 0.050279763 0.024436368 0.05119612 0.023781521
0.04544411 0.021565221 -0.06424742 0.03387421 -0.048959125 -0.05322217 -0.09286372 -0.07318385
0.073993385 0.015289574 0.0378889 -0.048386738 0.034906205 0.033428837 0.056276888 -0.034346376
0.06436971 -0.04692234 0.089880414 0.05644109 -0.028135488 0.030315181 -0.048062358 -0.060990047
0.058844496 0.0127549665 -0.030190386 -0.015945908 0.025301695 -0.008756829 0.068357505 0.033476602
0.055556703 -0.027306153 0.03436203 -0.016083123 -0.040521212 -0.021901406 0.013425202 0.003909286
0.0009774304 0.0540613 -0.07567078 0.01628067 0.03499156 0.026374143 0.01741539 -0.043100484
0.07567258 0.040624943 0.03158174 0.013517698 -0.061354645 0.07120593 0.037996076 -0.0028325862
-0.024351317 0.09037437 -0.011200853 -0.014018289 -0.06576134 -0.05506105 0.0075744623 -0.051979326
0.0024211658 0.030384202 -1.3931623e-05 0.052812077 -0.06381101 0.08833129 -0.060786314 0.0070193354
0.057542667 0.058710326 0.007259677 0.038461767 0.0801051 -0.04410079 -0.044646095 -0.0650958
-0.019596893 0.07188602 0.09139491 -0.047798328 -0.053332683 -0.0030004904 0.08347539 0.05038759
-0.08869638 0.061553173 0.08200764 -0.016770978 -0.059189714 -0.004922212 0.05016353 0.066562355
0.08183916 -0.06469992 0.0053566964 0.043134924 0.08172974 -0.057345774 -0.031889297 -0.050625287
-0.087459825 -0.00042269658 -0.0592516 -0.010229954 0.022429187 -0.055436272 0.011494704 -0.011864794
-0.037095636 0.0048193624 -0.058733203 -0.028772824 0.027206542 0.030721018 -0.07031461 0.009199937
0.038102128 -0.069362834 0.07888036 -0.059601985 -0.07968973 0.043199368 0.09398877 0.048744667
-0.05226904 0.002058476 -0.082365364 -0.07471191 0.021291038 -0.040024165 0.030440055 0.032958828
-0.030161403 0.03540614 -0.08249071 0.043577623 -0.084102824 -0.024241991 0.025957314 -0.0051116315
-0.043600976 -0.072939225 0.039563548 -0.082641 -0.06912783 0.03221381 -0.0064857476 -0.0200185
0.072648115 -0.019190561 0.06377408 0.039955873 0.027492488 0.07790928 0.029312048 0.021829503
-0.06726401 0.03549071 -0.023266003 0.017504347 0.043301437 0.07030103 -0.05401029 0.024732152
0.08188511 0.0075293966 -0.017908981 -0.0108342795 -0.088486314 -0.06705749 0.09048994 -0.001954216
-0.042927377 -0.026201915 -0.03361083 -0.067356415 -0.06567678 0.001570462 -0.006037005 0.0149450395
-0.07416019 -0.04813938 0.010152736 0.09211993 -0.046410862 0.07786022 0.029879805 0.081254296
-0.0012257869 0.037318446 -0.06660074 0.082841285 -0.07836533 0.043121226 0.06865047 -0.01912152
-0.046442874 0.05248406 0.033477936 -0.037313256 -0.018365987 0.09190112 -0.08686448 -0.047430035
-0.02254669 0.05120541 0.073129565 -0.09382826 0.099552736 0.0009963302 0.05103391 0.008041929

fc2.bias f4 [84]
00000000: 5dc8 26bd 399f 65bd 51b3 023e 4d37 2a3c
00000010: 4fdc e43d a499 1d3e 754e 6e3e 1b9e a73d
00000020: 570a e73d d3ae 89bc 9218 bd3d 7638 6dbd
00000030: 3df5 da3c 19a9 443d 6fff 24bc 3579 1e3d
00000040: 9b7c 433e d53e 0f3e df04 3b3e b5de c43d
00000050: c7e3 2f3d 08c6 283e bc77 32bd ce6d 3f3d
00000060: 4bab 603d 0b54 a33d 589d 6dbd e380 e83b
00000070: 2063 1f3e d0bf 053e 75f8 ddbb ad3e ecbc
00000080: b1f5 2e3d ce08 9e3d 39b5 09bd 17c2 debc
00000090: 11ed c2bb aa0c 68bc 4f27 673d e040 573d
000000a0: ae5b 6abd 3965 9f3e ed22 babb b3c5 163d
000000b0: 72c3 3b3d f36d 8cbd 56ea 09bc 7f35 573e
000000c0: b816 ee3d b2dd e13d 10ae 9bbb f919 4d3e
000000d0: 16bf 5abc fa75 a8bc 4e79 b23d fde6 a13d
000000e0: fc66 c6bc 0e30 1a3e d97f d83d 3908 ae3d
000000f0: 1daa bfbb ab90 7c3e 29e7 943d 8629 adbc
00000100: a4de 013e b2f5 363e b05c 0d3e 9596 9a3d
00000110: 7cc6 d83d a5e4 123e d99c f4bc df98 6c3e
00000120: f353 4f3e ceee a73d 9131 3b3e 9af0 623c
00000130: aa62 4d3e e329 e23d b999 943e 87bb 633e
00000140: 823c 1c3d 6191 383e 4572 853d 24d1 65bd
-0.040718425 -0.05606005 0.12763716 0.010389161 0.11174833 0.1539064 0.23272116 0.08184453
0.11281269 -0.016806995 0.09233202 -0.057915173 0.026728267 0.048012827 -0.010070666 0.03868981
0.19090502 0.13988812 0.18263577 0.096127905 0.042941835 0.16481793 -0.04357122 0.046735577
0.054850858 0.07975014 -0.058011383 0.0070954426 0.15565157 0.13061452 -0.006774003 -0.02883848
0.04271478 0.07716523 -0.033620093 -0.027192159 -0.0059486707 -0.014163176 0.056433972 0.052552104
-0.05721634 0.31131914 -0.005680433 0.036809634 0.045840688 -0.06856909 -0.008417686 0.21016501
0.11625427 0.11028613 -0.0047509745 0.20029439 -0.0133512225 -0.020564068 0.08714543 0.07905386
-0.024219029 0.15057394 0.1057126 0.08497662 -0.0058491365 0.24664561 0.07270653 -0.021137964
0.12682587 0.17867163 0.13804889 0.075482525 0.10584733 0.14345033 -0.029859947 0.2310519
0.20246868 0.08199845 0.18280627 0.013851309 0.20057169 0.110431455 0.2902353 0.22239505
0.038143642 0.18024208 0.06515936 -0.056107655

fc3.weight f4 [2, 84]
00000000: 855d 45bd e161 3b3b b1b8 173e 7e6b a93c
00000010: 4058 04be e73a 9a3e 3945 9bbd bd44 08bd
00000020: 3248 70be e9c9 9c3d 2771 bc3e d17d e53c
00000030: 37bc 9abe 770c 47be 3ed8 dabd 1453 363e
00000040: 04f7 c7be f8c1 8abe 18f4 683e e006 823d
00000050: 8d8e 95bc 52e1 813e 248b 6a3c 846d ac3e
00000060: fa5c 8c3e b355 0a3e 78c3 f53c 5b8e d93d
00000070: a0e0 dd3e ba72 8bbe 5a34 d63d 59d5 38be
00000080: dc61 babc eb56 57be 9cc2 853e 70f7 88bd
00000090: 83bf 08bd 1f37 99be 6e48 84bd ae7f 40be
000000a0: 72bb a83c 25ad ee3e 9556 a6be c80b 4b3e
000000b0: 7d17 593e dad1 353e 9035 00be 9bca 063d
000000c0: 9aa5 9abe 3016 d0bd 8c19 8d3d 0e0e 4a3e
000000d0: 6aa3 7d3d 123b f2bc 1041 003c 109c 153e
000000e0: 487d c23d e700 dbbe 9d20 9c3e 7f09 133e
000000f0: 4d4b c9bd 1bae bfbe 5457 d43d 2bd1 2bbe
00000100: 2613 773b c9d8 93be 8d27 2d3e f804 0ebe
00000110: 4838 c63e dd25 87be a103 1e3e dc3d e8be
00000120: ffa4 b1be 540e 083e d608 2bbe 225e fa3d
00000130: 4e33 623e 4d95 8d3e eefc 003f 0fc9 9e3e
00000140: dfdb 0fbe 3916 95be 584f 69bd cddc 2abe
00000150: 045a b73d 4647 91bd 1dce d9be e06c 38be
00000160: fc0f 083e 6f6b 723d 63f8 febe 883a ab3e
00000170: 0e4d 233e 5f0e 2fbd d342 8b3d 7793 cf3c
00000180: 4ad5 3fbe c102 783b 664e c0bd 3901 21bd
00000190: 2cbb a63d a80a 193d 18ae de3d 144e 6fbe
000001a0: f77f c8bd cf7d 883e a85d 903d caa1 fcbd
000001b0: 91c0 833e b6bf 363e 2333 d73d ec5d 3dbd
000001c0: dd48 92bd d2cb dd3d 2f2c 603e afe0 19bd
000001d0: 5452 7fbd 0342 50be 304a bebd 8fba 963d
000001e0: 673a 3fbd 4781 3c3e d0bc e8bd 27e4 b3be
000001f0: 17b6 41bd 8659 24bf b9d8 f93d a970 503d
00000200: 960b 1fbd d8ef 313e 7689 8fbc 7163 d83e
00000210: e942 ab3d 1de6 58be 3eff 52bd c234 b83e
00000220: 872b 4abe 62e4 9fbd 0726 b0be 9712 3c3e
00000230: 3850 9d3d 19a3 25be 2053 46ba 3ff9 8b3e
00000240: 7cde 753e ca01 04bf e994 d73d 8fd6 35be
00000250: 05a2 723e 79a1 fc3d 7619 a43e 6f8f 893e
00000260: 154a dfbd 7637 743e 6722 a33d ebf0 7a3e
00000270: b44e 48be 4173 063e 56e6 95be b67a 573e
00000280: e332 c53e d640 543c 122a b1be e3e9 ae3e
00000290: df22 7e3e d332 1f3e 19fc 8f3c 2253 163e
-0.04818489 0.0028592276 0.14816548 0.02068114 -0.1292429 0.30123064 -0.075815625 -0.03326868
-0.2346504 0.07655699 0.36805078 0.028014096 -0.30221722 -0.19438349 -0.10685776 0.1780513
-0.39055645 -0.2710111 0.22749364 0.063489676 -0.01825645 0.25367218 0.0143154 0.33677304
0.27414685 0.13509254 0.030000433 0.10622855 0.43335438 -0.27235967 0.10459204 -0.18050136
-0.022751741 -0.2102925 0.26125038 -0.0668782 -0.033385765 -0.29924867 -0.06459127 -0.18798706
0.020597193 0.46616474 -0.32487932 0.19828713 0.21200366 0.17755833 -0.12520432 0.032908063
-0.3020447 -0.10160482 0.06889638 0.19731924 0.061923422 -0.029569183 0.007828012 0.14610314
0.09496552 -0.42774126 0.30493632 0.14359091 -0.098288156 -0.3743752 0.10368219 -0.1677901
0.0037700622 -0.2887633 0.16909619 -0.13869083 0.38714814 -0.26396075 0.15431072 -0.45359695
-0.34696195 0.13286716 -0.1670259 0.12224986 0.22089884 0.2765297 0.5038594 0.3101277
-0.14048718 -0.29118517 -0.056960434 -0.16685791 0.08952716 -0.070936725 -0.42540064 -0.18010283
0.13287348 0.059184488 -0.4979888 0.33443093 0.15947363 -0.042738315 0.06799855 0.025338871
-0.18733707 0.0037843438 -0.09389953 -0.039307807 0.08141169 0.03736368 0.108730495 -0.23369628
-0.09790032 0.26658484 0.070491135 -0.12335546 0.25732854 0.1784657 0.105078004 -0.04623215
-0.07142804 0.10829891 0.21891855 -0.03756779 -0.062334374 -0.20337681 -0.09291494 0.07359802
-0.046686556 0.1840869 -0.11364138 -0.35135004 -0.047292795 -0.641991 0.1219954 0.05088869
-0.03882941 0.1737665 -0.017521601 0.42263368 0.083623715 -0.21181531 -0.05151295 0.3597775
-0.19743167 -0.078072324 -0.34404013 0.18366466 0.07681316 -0.16175498 -0.0007565487 0.27338597
0.24010652 -0.5156523 0.10526449 -0.17757629 0.23694618 0.12335486 0.32050675 0.26867244
-0.10902802 0.23849282 0.07965546 0.24505965 -0.19561273 0.13129903 -0.29277295 0.21042904
0.38515386 0.012954911 -0.3460241 0.34162816 0.2481799 0.15546732 0.017576264 0.1468015

fc3.bias f4 [2]
00000000: 57ca 33bd e7b2 5d3d
-0.04389414 0.054125693
