src/models/sup-edit-2.onnx (onnx, 336968 bytes, 10 tensors)

conv1.weight f4 [6, 5, 5, 5]
0	0x3d293646	0.041311525
1	0x3d78e15f	0.060761806
2	0x3c78a1d2	0.0151753
3	0xbd16055c	-0.036626205
4	0x3d512697	0.051062193
5	0x3d128c69	0.035778437
6	0xbdac02d0	-0.08398974
7	0x3b55922a	0.0032588341
8	0x3d0a5121	0.033768777
9	0xbd90197c	-0.07036111
10	0x3d05ed13	0.032696795
11	0x3d8f29f7	0.06990426
12	0xbc115a33	-0.008871603
13	0xbd8968b9	-0.067094274
14	0xbcb3b704	-0.021937855
15	0xbcba0beb	-0.022710761
16	0x3d823118	0.0635702
17	0xbd8dc43a	-0.06922193
18	0xbcbd3eef	-0.023101298
19	0xbd21ff16	-0.03954991
20	0x3c1505a2	0.009095581
21	0xbd563714	-0.05229862
22	0xbda6331f	-0.08115219
23	0xbb77dcb2	-0.0037820754
24	0x3d8f2875	0.069901384
25	0xbcfa30b4	-0.030540802
26	0xbc0ab44a	-0.008465836
27	0xbd924751	-0.07142509
28	0x3dadfd9f	0.0849564
29	0x3d9836b6	0.0743231
30	0x3ca2df5d	0.019881899
31	0xbc809f96	-0.015701097
32	0x3db33da6	0.08751993
33	0xbcc58d7c	-0.024115317
34	0x3d8579b3	0.06517353
35	0xbdb6e21b	-0.08929845
36	0x3d611e50	0.05496055
37	0xbd4a9f85	-0.049468536
38	0xbd38e0d6	-0.045136295
39	0xbd87d16e	-0.066317424
40	0xbd8f0306	-0.069829985
41	0x3cc0ba50	0.02352634
42	0x39a8d773	0.0003220398
43	0x3d4f52ce	0.050616078
44	0xbd5489a2	-0.05188907
45	0xbd6754e8	-0.056477457
46	0x3b7c9621	0.0038541632
47	0x3beb7a0f	0.0071861814
48	0xbd0217af	-0.031760868
49	0x3b3e1de6	0.002900952
50	0x3c8899e3	0.016674941
51	0x3da7c866	0.0819252
52	0xbdb00c1d	-0.085960604
53	0x3d1d1a09	0.038354907
54	0xbd96bbe8	-0.07360059
55	0xbb87ce88	-0.0041444935
56	0x3d052aeb	0.032511633
57	0xbc4d1f5a	-0.012519682
58	0xbaf664c9	-0.0018798347
59	0xbc7b8f46	-0.015353983
60	0x3d51bceb	0.051205557
61	0xbd9a864c	-0.07545146
62	0x3d188fde	0.037246577
63	0xbdb846bc	-0.089978665
64	0xba87e278	-0.0010367176
65	0xbd69031b	-0.056887727
66	0xbdadfd78	-0.08495611
67	0x3d7af8ea	0.06127254
68	0x3db18b83	0.08669188
69	0xbda32f30	-0.07967985
70	0xbd0442a4	-0.032290116
71	0xbd31c37a	-0.04339931
72	0x3ba72033	0.005100274
73	0x3d911e02	0.07085802
74	0xbd58fbed	-0.05297463
75	0xbd75d54e	-0.060017876
76	0xbd36d97e	-0.04464101
77	0x3d20d8fd	0.039269436
78	0xbd8bf8a5	-0.068345346
79	0xbd8e4a7c	-0.069478005
80	0xbd9b6127	-0.0758689
81	0xbd90b647	-0.07066017
82	0xbd0264e4	-0.031834498
83	0x3da27aca	0.079335764
84	0x3cf7bcde	0.030241426
85	0x3cd07231	0.025445076
86	0xbd1ef625	-0.03880896
87	0x3db25c85	0.08709053
88	0x3cdb17e1	0.026744785
89	0x3d89e13c	0.06732413
90	0x3d682282	0.056673534
91	0x3d8fb9cf	0.07017862
92	0x3b83e2cf	0.0040248404
93	0x3d92b482	0.071633354
94	0x3d42685f	0.047462817
95	0x3d431f98	0.047637552
96	0xbd5e2ad8	-0.054240078
97	0x3d920ffa	0.071319535
98	0x3c194325	0.009354387
99	0xbd618993	-0.05506284
100	0xbd426671	-0.047460977
101	0xbd6d3e32	-0.057920642
102	0xbd8be029	-0.068298645
103	0xbc69c2b8	-0.014267616
104	0x3be00dc6	0.0068375794
105	0x3d927253	0.07150712
106	0x3d941aa6	0.07231645
107	0x3d4629b8	0.04837963
108	0xbd69f1b5	-0.057115275
109	0xbc96abba	-0.018392432
110	0x3cc866ac	0.02446302
111	0x3b9ae2b8	0.004726734
112	0x3d070bb6	0.032970153
113	0xbcd2e969	-0.025746064
114	0x3d7f092f	0.062264618
115	0x3d6a2e53	0.057173084
116	0x3cccbe91	0.024993213
117	0xbd9def54	-0.07711664
118	0xbd4dd2a4	-0.05024971
119	0x3d518e77	0.051161256
120	0xbd24aede	-0.04020583
121	0xbd738402	-0.059452064
122	0x3d034600	0.03204918
123	0x3b223717	0.0024752074
124	0xbd6907bc	-0.05689214
125	0x3dea6dab	0.11446699
126	0x3d737f4a	0.059447564
127	0x3db6095e	0.088885054
128	0x3d57af0f	0.052657183
129	0x3de06538	0.10956806
130	0x3d910ef1	0.07082928
131	0x3d22abaf	0.03971451
132	0x3de76c87	0.11299997
133	0x3de73ed4	0.112912804
134	0x3e0f3b70	0.13987517
135	0x3d1510fe	0.03639316
136	0x3e0688f4	0.13138181
137	0x3e45e5f8	0.19326007
138	0x3d1f9d94	0.038968638
139	0x3de6fe5a	0.112789825
140	0x3e0bbb9a	0.13645783
141	0x3c84ca91	0.016209872
142	0x3de3115d	0.11087296
143	0x3e04e5cd	0.12978287
144	0x3c148ad1	0.0090663
145	0xbd37d660	-0.04488218
146	0x3d3d38a1	0.046196584
147	0x3d0ee431	0.03488559
148	0x3df4b925	0.11949376
149	0xbd8618dd	-0.06547711
150	0x3e0aae81	0.1354313
151	0x3d7f0e0c	0.062269256
152	0x3c5cb1b7	0.013470105
153	0xbcacd1a3	-0.021096056
154	0x3e01855a	0.12648526
155	0xbc49abc3	-0.012309018
156	0x3de63af6	0.11241715
157	0x3e072740	0.13198566
158	0x3d836513	0.06415763
159	0xbc286e53	-0.01028021
160	0x3dcb4480	0.09925175
161	0x3dc462f5	0.09589187
162	0x3d895d6c	0.06707272
163	0x3e08d9c3	0.1336432
164	0x3dceafc4	0.100921184
165	0x3db9f25a	0.09079428
166	0x3be79768	0.0070676096
167	0x3ddb1bb3	0.106986426
168	0x3d6caa4b	0.05777959
169	0x3d35b06b	0.0443577
170	0x3dc890e7	0.09793263
171	0xbc9add4e	-0.018904354
172	0x3d9b15d3	0.07572522
173	0x3b0240cb	0.0019875045
174	0xbd809b22	-0.06279589
175	0x3d8e5466	0.069496915
176	0x3e05749c	0.13032764
177	0x3ddb7a21	0.107166536
178	0x3cac37cb	0.021022698
179	0x3de0a36f	0.109686725
180	0x3e1a35d7	0.15059601
181	0x3d0346e2	0.03205002
182	0x3e3134da	0.17305318
183	0x3dd8ade5	0.10580043
184	0x3db0b459	0.086281486
185	0xbc2180a2	-0.009857329
186	0x3c326bac	0.010889929
187	0x3dbe890e	0.09303485
188	0x3d8e74cd	0.06955872
189	0xbb2068ab	-0.002447645
190	0x3dfcc799	0.12342758
191	0x3d64b1a5	0.055833478
192	0x3d18a7bb	0.037269335
193	0x3cbad3ac	0.022806011
194	0x3cd0dd82	0.025496248
195	0x3de0a34b	0.10968646
196	0x3df44bc1	0.119285114
197	0x3e050a0e	0.12992117
198	0xbc0546ec	-0.008134585
199	0xbd64b194	-0.055833414
200	0x3d1ed947	0.03878143
201	0x3d0abaeb	0.033869665
202	0x3e045be4	0.12925678
203	0x3d5baca2	0.053631432
204	0x3d849436	0.064735815
205	0x3b185539	0.0023244156
206	0x3e04195b	0.12900297
207	0x3d5774cf	0.05260163
208	0x3e248667	0.16066895
209	0x3df5fa97	0.12010687
210	0xbc883812	-0.016628299
211	0x3ccb5e31	0.024825187
212	0x3da92e52	0.08260788
213	0x3dcbd024	0.09951809
214	0x3c2f072c	0.010682862
215	0x3dc1b597	0.09458464
216	0x3e041a75	0.12900718
217	0x3de3602f	0.1110233
218	0x3ca23ac9	0.019803422
219	0x3ddbac31	0.10726202
220	0xbd02999b	-0.03188477
221	0xbd36cfd8	-0.04463181
222	0xbcbfcb14	-0.023412265
223	0xbc27cbaf	-0.010241433
224	0x3dcad59f	0.09904026
225	0x3dc06236	0.09393732
226	0x3df23302	0.11826135
227	0x3e0ab25a	0.13544598
228	0x3df3660c	0.11884698
229	0x3d847910	0.06468403
230	0x3dbcdea8	0.09222156
231	0x3d874fa9	0.06606991
232	0x3e368025	0.17822321
233	0x3e05a776	0.13052163
234	0x3c42b558	0.011884056
235	0xbbbbf637	-0.005736138
236	0x3d2eedb9	0.04270718
237	0x3e3e32c9	0.1857406
238	0x3c8ac2d0	0.016938597
239	0x3e0e8d19	0.13921012
240	0xbd09ae81	-0.033613686
241	0x3e0b1ace	0.13584444
242	0x3dcba7b0	0.09944093
243	0x3d6ef869	0.05834237
244	0xbc257e6d	-0.010100943
245	0xbccc8541	-0.024965884
246	0xbd11ac9f	-0.035565015
247	0xbbfe0cee	-0.007753006
248	0xbd331bf1	-0.04372782
249	0x3d8776d4	0.066144615
250	0xbd64bfbc	-0.055846915
251	0xbc8f4f3a	-0.017493833
252	0x3d3ca354	0.0460542
253	0x3da91e4b	0.08257731
254	0xbd7806c1	-0.060553316
255	0xbd245859	-0.040123317

conv1.bias f4 [6]
0	0x3c6af9d8	0.014341794
1	0x3da72b87	0.08162599
2	0xbe2f6b5e	-0.17130801
3	0x3ca5aa73	0.020222878
4	0x3caeb4ee	0.021326508
5	0x3c5cf65e	0.013486473

conv2.weight f4 [16, 6, 5, 5]
0	0x3d85cadf	0.06532835
1	0xbc6f2bfc	-0.014597889
2	0x3be5b091	0.0070095737
3	0xbcfed417	-0.031106992
4	0x3d5a4ab3	0.053293895
5	0x3d9f3b2c	0.07774958
6	0x3b9c1d37	0.004764225
7	0x3d96ee00	0.07369614
8	0xbd39deee	-0.045378618
9	0xbc1b2cfe	-0.009471176
10	0x3d4144ec	0.04718487
11	0x3d34e1e9	0.044160757
12	0xbd91f6b8	-0.07127136
13	0xbd39a319	-0.045321558
14	0xbd602046	-0.05471828
15	0xbd9c2719	-0.07624645
16	0x3da33887	0.07969766
17	0x3d4f1d13	0.050564837
18	0x3d086c13	0.033306193
19	0xbda67ef2	-0.08129682
20	0xbda67571	-0.08127869
21	0xbd14f7b3	-0.036369037
22	0x3d675182	0.056474216
23	0xbc8811e9	-0.016610103
24	0x3d540c19	0.05176935
25	0x3e0d71c8	0.13812935
26	0x3dd65dd5	0.10467116
27	0x3dfb5720	0.12272477
28	0x3dd9699e	0.10615848
29	0xbbaf5840	-0.0053510964
30	0x3e20a006	0.15686044
31	0x3d5632fd	0.05229472
32	0x3db6f25c	0.08932945
33	0x3cffcef9	0.031226622
34	0x3df0d709	0.11759765
35	0x3d11dcda	0.03561101
36	0x3c9a3b6b	0.01882716
37	0xbc72098f	-0.014772787
38	0x3c82f231	0.015984626
39	0x3d8865f2	0.066600695
40	0xbe09d213	-0.13459043
41	0xbe13bedc	-0.14428276
42	0xbd95534e	-0.0729128
43	0x3c747bf2	0.014922129
44	0xbdf12ad8	-0.1177575
45	0xbe0b7e3d	-0.13622375
46	0xbe340895	-0.17581399
47	0xbd9ef550	-0.077616334
48	0xbdfde2b8	-0.12396759
49	0x3cae8a94	0.021306314
50	0x3d9cf989	0.076647826
51	0x3df0cb9c	0.117575854
52	0x3dc4fdb9	0.09618706
53	0x3df11874	0.11772242
54	0xbd655574	-0.055989698
55	0x3d8e3d90	0.06945336
56	0x3d66dac8	0.05636099
57	0x3dc3ca24	0.0956004
58	0x3cc88688	0.024478212
59	0x3cb78d8a	0.022406358
60	0xbdce9063	-0.10086133
61	0xbd808b93	-0.06276622
62	0xbdab67ce	-0.083694085
63	0x3d508eb7	0.050917353
64	0xbdd40e2f	-0.10354268
65	0xbd11895a	-0.03553138
66	0xbe01c78e	-0.1267378
67	0xbccc4858	-0.02493684
68	0xbd727315	-0.059191782
69	0xbd0038f3	-0.03130431
70	0xbddc7193	-0.1076385
71	0xbd53e16a	-0.051728643
72	0xbde497c2	-0.11161758
73	0xbd8d988c	-0.06913862
74	0x3d92963c	0.07157561
75	0x3e863037	0.2620866
76	0x3e8d91c3	0.2765027
77	0x3e57d69d	0.21077962
78	0x3dbee1b3	0.093203925
79	0x3e2d6b0a	0.16935363
80	0x3e3960f3	0.1810339
81	0x3e568dce	0.20952532
82	0x3e073363	0.13203196
83	0x3dc615f8	0.09672159
84	0x3d46857f	0.048467156
85	0xbcad8429	-0.021181183
86	0x3cfb2ea1	0.030661883
87	0x3d288764	0.041144744
88	0x3cfec76b	0.03110095
89	0xbd57ab80	-0.05265379
90	0xbe89d881	-0.26922992
91	0xbe943aa1	-0.2895098
92	0xbe7035aa	-0.23457971
93	0xbe20cf26	-0.15704021
94	0xbda7ece9	-0.08199484
95	0xbe7a1110	-0.24420571
96	0xbe348eb8	-0.17632568
97	0xbdcc4757	-0.099745445
98	0xbe01336f	-0.12617277
99	0xbcf1eec7	-0.029532803
100	0xbdb979f0	-0.09056461
101	0x3c9d989d	0.01923781
102	0xbce5b76b	-0.028041562
103	0xbc854a6e	-0.016270842
104	0x3c1bd3bf	0.009510933
105	0x3d6c3ce8	0.057675272
106	0x3d199cec	0.037503168
107	0x3d89b87c	0.06724641
108	0xbc00ee9f	-0.007869392
109	0xbd1701ac	-0.03686683
110	0x3d8457f4	0.06462088
111	0xbda0650d	-0.07831774
112	0xbb945c8b	-0.0045276335
113	0xbbd70884	-0.0065622944
114	0xbc2cbd77	-0.010543219
115	0xbd4353b7	-0.04768726
116	0xbd80830e	-0.06274997
117	0x3d2ed67c	0.042685017
118	0xbd3b7b78	-0.045772046
119	0x3d90798b	0.070544325
120	0xbd8df613	-0.069317006
121	0xbdb8d0e1	-0.090242155
122	0xbd798e0b	-0.06092648
123	0xbda3c652	-0.07996811
124	0xbd9d79fe	-0.07689284
125	0x3d5f5709	0.054526363
126	0xbd468e41	-0.048475508
127	0x3cbc548e	0.022989538
128	0xbcd17296	-0.025567334
129	0x3c4a9fb5	0.012367179
130	0xbb97a3e0	-0.0046276897
131	0xbc11a5e2	-0.008889647
132	0x3d2834a1	0.041065816
133	0xbca2f93c	-0.019894235
134	0xbda0f2d4	-0.07858816
135	0x3c6677a8	0.014066614
136	0xbd2a2e17	-0.04154786
137	0x3d44605c	0.047943458
138	0xbda65eba	-0.081235364
139	0x3bf56ef2	0.0074900324
140	0xbce61963	-0.028088277
141	0xbd7f5989	-0.062341247
142	0xbd1a5f1d	-0.037688363
143	0xbcec1eec	-0.028823338
144	0xbda6dc3c	-0.08147475
145	0x3cf80493	0.030275619
146	0x3d8e7d6d	0.06957517
147	0x3d14fa75	0.036371667
148	0x3b328240	0.002723828
149	0x3a42435c	0.000741055
150	0xbd431753	-0.047629666
151	0x3ca48a00	0.020085335
152	0xbd834819	-0.06410236
153	0x3d206c74	0.03916593
154	0x3ca60252	0.020264778
155	0x3d35245d	0.04422413
156	0x3d89e4a7	0.06733065
157	0x3da46e24	0.0802882
158	0x3cd1cf9c	0.025611691
159	0xbd94d7e2	-0.07267739
160	0x3d95c1ff	0.073123924
161	0x3d856d07	0.06514936
162	0xbc6dd8d5	-0.014517029
163	0x3cc7b1df	0.024376808
164	0xbd17ab68	-0.0370287
165	0xbd75ce0c	-0.060010955
166	0xbd80fe1b	-0.06298467
167	0xbc918dad	-0.017767752
168	0xbcc5291b	-0.024067452
169	0x3d73f9ca	0.05956439
170	0x3d2700b7	0.040772166
171	0xbd0f6856	-0.035011612
172	0x3b865196	0.0040990813
173	0x3d93462f	0.07191121
174	0xbcf5e479	-0.03001617
175	0xbd89bce8	-0.06725484
176	0x36d56d52	6.3606212e-06
177	0x3ccd3346	0.025048863
178	0x3d61f622	0.05516637
179	0xbd2fa5f1	-0.042882863
180	0x3b42854e	0.0029681507
181	0x3dcc7c57	0.099846534
182	0x3d541d06	0.05178549
183	0x3e096361	0.13416816
184	0x3dc2015d	0.09472916
185	0xbd8804a8	-0.06641513
186	0xbcf3cd94	-0.029761113
187	0x3c192585	0.009347324
188	0x3d8fa927	0.07014685
189	0x3dae909c	0.08523676
190	0x3c1fc390	0.009751216
191	0xbd8118e9	-0.06303579
192	0xbc05dabc	-0.008169826
193	0xbd0f6f45	-0.035018224
194	0x3c34b750	0.011030033
195	0xbe04d9b8	-0.12973678
196	0xbe055ba3	-0.13023238
197	0xbcc0a648	-0.02351679
198	0xbd635f90	-0.055511057
199	0xbde10482	-0.10987188
200	0x3dc3f5c3	0.0956836
201	0xbcd943e4	-0.02652163
202	0xbbe0d7ce	-0.0068616634
203	0x3d7b04cb	0.061283868
204	0x3cecc195	0.0289009
205	0x3d93fa00	0.07225418
206	0xbd1cd5ad	-0.038289715
207	0x3d95363f	0.07285737
208	0x3d634f1b	0.055495363
209	0xbd0a1c4f	-0.033718403
210	0xbd8a35df	-0.06748556
211	0x3ddf5319	0.109045215
212	0xbb90a1eb	-0.0044138334
213	0x3d3f739b	0.04674111
214	0xbd7cc575	-0.061711747
215	0x395ce7c8	0.0002106718
216	0xbdbfe222	-0.09369303
217	0xbd8a068b	-0.06739529
218	0x3d00b490	0.031422198
219	0xbd648a03	-0.05579568
220	0x3c9e31bf	0.01931083
221	0xbd1ed1b1	-0.038774196
222	0xbe0caa58	-0.13736856
223	0xbd157e32	-0.036497302
224	0xbdaaf0f3	-0.08346739
225	0x3da6bce4	0.08141497
226	0x3d9ea5c6	0.077464625
227	0x3e3a642a	0.18202272
228	0x3e18b147	0.14911376
229	0x3de785f3	0.11304846
230	0x3cdecff4	0.02719877
231	0x3e1b1139	0.15143289
232	0x3e532311	0.20618846
233	0x3e4276a6	0.18990573
234	0x3d30dcc6	0.043179296
235	0x3d576cff	0.05259418
236	0x3e13549c	0.14387745
237	0x3d34ca11	0.044138018
238	0x3e12b3f9	0.14326467
239	0x3d9cd6e9	0.07658178
240	0xbd3253d7	-0.043536987
241	0xbd7945e2	-0.06085766
242	0x3c161dd4	0.009162385
243	0xbd77d537	-0.060506072
244	0xbe1af00a	-0.1513063
245	0xbe4087da	-0.18801823
246	0xbe6c60bc	-0.23083776
247	0xbe826b86	-0.2547266
248	0xbe5dd86c	-0.2166459
249	0xbe58c199	-0.21167602
250	0xbd955f10	-0.07293522
251	0xbafdf116	-0.0019374217
252	0xbd24db59	-0.04024825
253	0x3d4c08c4	0.049813047
254	0x3d75888d	0.059944678
255	0xbdb26978	-0.08711523

conv2.bias f4 [16]
0	0x3cbd4549	0.023104327
1	0xbd8fabd2	-0.07015194
2	0x3c869610	0.016428977
3	0x3e300924	0.17190987
4	0x3d5a6714	0.05332096
5	0xbce51cfc	-0.027967922
6	0x3d8c4551	0.068491586
7	0xbc790073	-0.015197861
8	0xbc85ebda	-0.016347814
9	0x3de555e8	0.11198026
10	0x3d24e2b2	0.040255256
11	0x3d71c2ab	0.05902354
12	0x3e2b90e1	0.16754486
13	0x3df3621a	0.11883946
14	0x3e21d12c	0.15802449
15	0x3e347cb5	0.17625697

fc1.weight f4 [120, 584]
0	0x3cda61a2	0.026657883
1	0xbd20e564	-0.039281264
2	0x3ba2b558	0.0049654655
3	0xbd0041f7	-0.03131291
4	0xbcc9fb64	-0.024656005
5	0xbcda48a4	-0.026645966
6	0x3cef7a50	0.029233128
7	0x3cba3424	0.02272994
8	0xbd65168c	-0.055929706
9	0xbced7bea	-0.02898975
10	0xbcc80355	-0.024415651
11	0xbd060600	-0.032720566
12	0xbd505d61	-0.050870303
13	0xbcf92f2e	-0.030418005
14	0x3c2cbff4	0.010543812
15	0x3cd1e64d	0.025622511
16	0x3c3d6576	0.011559835
17	0xbc4b7b1b	-0.012419487
18	0x3c3c0a2e	0.011477036
19	0xbd080294	-0.033205584
20	0xbcec696b	-0.028858861
21	0xbb92b265	-0.0044768327
22	0xbd6821a9	-0.056672726
23	0xbbab9a0b	-0.005236869
24	0x3d381ae5	0.044947524
25	0x3d0b0df1	0.033948842
26	0x3d4ce8f4	0.05002685
27	0x3cd017b2	0.025401924
28	0xbd007d36	-0.03136941
29	0x3c8138b2	0.015774105
30	0xbd41cea2	-0.0473162
31	0xbc09e73f	-0.00841695
32	0xbce62453	-0.028093493
33	0xbc8f2820	-0.017475188
34	0x3d0e811e	0.034791104
35	0x385b83db	5.233647e-05
36	0x3ba5625a	0.005047125
37	0xbcd74682	-0.026278738
38	0xbb030788	-0.0019993503
39	0xbb80f0b5	-0.0039349445
40	0xbc9f875a	-0.01947372
41	0x3a880088	0.0010376135
42	0xbb082eff	-0.0020779965
43	0x3bd30796	0.0064401133
44	0xbd058e8d	-0.03260665
45	0x3c73350f	0.014844193
46	0xbb6a661a	-0.0035766424
47	0xbd3169c3	-0.043313753
48	0x3c86fda3	0.016478365
49	0xbcca70ae	-0.024711933
50	0x3ce09483	0.027414566
51	0xbc906f56	-0.017631214
52	0xbd0728d1	-0.03299791
53	0xbd81b542	-0.063334
54	0xbd0e0316	-0.03467091
55	0xbca6c28b	-0.020356437
56	0xbc9f5e7d	-0.019454235
57	0xbd1160c8	-0.03549269
58	0xbd6ba9c1	-0.057534937
59	0x3c59fe19	0.0133052105
60	0xbbf9fc45	-0.00762895
61	0x3c0d52fb	0.008625741
62	0xbd2d09f7	-0.04224583
63	0xbb5d6b92	-0.003378604
64	0x3c788e58	0.015170656
65	0x3d6b3b79	0.057429764
66	0x3c65faa1	0.014036805
67	0xbd87b860	-0.066269636
68	0xbbe79e59	-0.007068437
69	0xbd0eaaec	-0.034830973
70	0x39497a6c	0.0001921446
71	0x3bc35e83	0.0059621944
72	0x3b3cda94	0.0028816806
73	0x3c340166	0.010986662
74	0xbc4573ad	-0.012051505
75	0x3d2f9616	0.042867742
76	0x3d295756	0.041343056
77	0xbd0e24ef	-0.03470319
78	0x3b83bec8	0.0040205456
79	0x3c13f427	0.009030378
80	0x3a7360aa	0.00092841184
81	0x3bd88ea1	0.0066087996
82	0x3c523e33	0.012832212
83	0xbcd1c019	-0.025604295
84	0x3ce166ee	0.027514901
85	0xbc681be9	-0.014166811
86	0x3bb160b9	0.0054131416
87	0xbbc7df54	-0.006099621
88	0x3d08f739	0.033438895
89	0xbd1c7f4d	-0.03820734
90	0x3ce8880a	0.028385181
91	0x3c09a963	0.008402201
92	0x3cb9f6b8	0.022700652
93	0x3c0905af	0.0083631715
94	0x3d432200	0.047639847
95	0x3cbc02e7	0.022950603
96	0x3cd14979	0.02554773
97	0xbcd45610	-0.025919944
98	0xbc4c9597	-0.012486837
99	0xbca97656	-0.02068631
100	0x3c4f9cec	0.01267169
101	0x3c6649a8	0.014055647
102	0x3c124920	0.008928567
103	0xbc842c63	-0.016134446
104	0x3ba4417c	0.005012689
105	0x3ba17203	0.0049269213
106	0x3cc53271	0.024071904
107	0xbd07f0fb	-0.0331888
108	0x3d0c5340	0.03425908
109	0x3cbfa9f6	0.023396473
110	0x3d851423	0.064979814
111	0x3d256acc	0.040385053
112	0x3c8fa854	0.01753632
113	0xbbfb3c01	-0.007667065
114	0xbc08aacc	-0.008341502
115	0xbd07c808	-0.03314975
116	0x3c1991d7	0.00937315
117	0xbd1a2c6d	-0.037640024
118	0xbc1b6efc	-0.00948691
119	0xb70b9323	-8.319304e-06
120	0x3d3e48d6	0.04645618
121	0xbcfe67b7	-0.031055314
122	0x3cd5a04c	0.026077412
123	0x3d435bc3	0.047694933
124	0xbc93d3f3	-0.018045401
125	0x3d6e43b9	0.058170054
126	0xbcf32849	-0.029682295
127	0xbccb12ae	-0.02478918
128	0xbc840d16	-0.016119521
129	0xbc03e0fb	-0.008049245
130	0x3d0ec0c3	0.0348518
131	0xbaae13a2	-0.0013280998
132	0xbcd1997e	-0.025585886
133	0x3b576757	0.0032867992
134	0xbc74b182	-0.014934899
135	0xbb904b3c	-0.0044035
136	0x3d4c5eef	0.049895223
137	0x3c0f0068	0.008728124
138	0x3d21f8d2	0.039543934
139	0xbc7defe6	-0.015499091
140	0xbca66651	-0.02031246
141	0x3c09c589	0.008408912
142	0x3cc0adcf	0.023520378
143	0x3c9ed4c0	0.019388556
144	0x3cad3d81	0.021147491
145	0xbd3f2484	-0.046665683
146	0xbc364adb	-0.011126245
147	0x3d030f69	0.03199712
148	0xbd11cbb8	-0.035594672
149	0xbd9bf12d	-0.0761436
150	0x3c061bbc	0.008185323
151	0xbc179146	-0.0092509445
152	0xbc2e5dda	-0.010642493
153	0xbc88a569	-0.016680436
154	0xbc970d2e	-0.018438902
155	0xbbe21fd5	-0.0069007673
156	0x3b3492ff	0.0027553437
157	0x3963d7a2	0.00021728736
158	0x3d3ba36f	0.04581016
159	0xbc9a1872	-0.018810485
160	0x3d2124b4	0.039341643
161	0x3d912047	0.070862345
162	0xbbfbfc1b	-0.0076899654
163	0x3bf4dbb4	0.0074724797
164	0x3a1246ef	0.0005580028
165	0x3ce3f1ba	0.027825225
166	0x3d18f4e9	0.03734294
167	0x3d15dfba	0.036590315
168	0x3d31eb47	0.04343727
169	0x3d310a2d	0.043222595
170	0xbc41425d	-0.011795607
171	0x3c9c7332	0.019097898
172	0x3cfa93f7	0.030588133
173	0x3cf18f99	0.029487418
174	0x3d091c00	0.03347397
175	0xbc31f83b	-0.010862405
176	0x3d5df0b0	0.054184616
177	0x3c226952	0.009912806
178	0xbd38e9c1	-0.0451448
179	0xbbcfcc4d	-0.006341493
180	0xbc82e8f2	-0.015980218
181	0x3cd5d86a	0.02610417
182	0xbca75791	-0.020427497
183	0x3d3a32c1	0.04545856
184	0xbc80a4cf	-0.015703587
185	0xbbdd9284	-0.006761851
186	0x3cff73a1	0.031183066
187	0xbd05962f	-0.03261393
188	0x3ce83413	0.028345143
189	0xbd1091de	-0.03529536
190	0x3cbc2747	0.022967948
191	0x3cf4a035	0.029861549
192	0x3d2a442a	0.041568913
193	0xbc5a7353	-0.0133331595
194	0xbbe7dd50	-0.007075943
195	0xbc96e5b4	-0.018420078
196	0x3d1c8789	0.038215194
197	0x3d222c39	0.039592955
198	0x3b922a11	0.004460581
199	0xbd1dcef6	-0.03852745
200	0x3d32d33b	0.043658476
201	0x3cef4de9	0.029211955
202	0x3c8f5882	0.017498259
203	0x3d03df6c	0.032195494
204	0xbca68a99	-0.02032976
205	0xbc23f757	-0.010007701
206	0xbd03a2ec	-0.032137796
207	0x3c43c594	0.011948962
208	0xbc8d36cf	-0.017238049
209	0x3b50fa37	0.003188742
210	0x3d1c3f9a	0.038146593
211	0xbd027bdd	-0.031856406
212	0xbd16519a	-0.036698915
213	0xbc269f2b	-0.010169785
214	0x3c8e65fb	0.017382612
215	0xbcc7d02c	-0.024391256
216	0x3d0ad9e3	0.0338992
217	0xbcd40a6e	-0.02588388
218	0x39a30a98	0.00031097676
219	0x3d1eadf2	0.038740106
220	0xbcb63a1a	-0.022244502
221	0xbc3a340d	-0.011364949
222	0x3bf8809a	0.00758369
223	0xbc4446e8	-0.011979796
224	0xbcb73313	-0.022363221
225	0x3b2d928c	0.0026485054
226	0xbd07bfbc	-0.033141837
227	0xbb969d56	-0.0045963926
228	0xba8861aa	-0.0010405083
229	0xbb9c79a0	-0.004775241
230	0x3ca7c14b	0.020477911
231	0xbce4be76	-0.02792285
232	0x3cdd6553	0.027025854
233	0xbd10287f	-0.03519487
234	0xbd2ae923	-0.041726243
235	0xbcb79cdc	-0.022413664
236	0xbc02148e	-0.007939471
237	0x3d43f757	0.047843304
238	0xbc9e4737	-0.019321067
239	0x3c761bc9	0.015021273
240	0xbce8a158	-0.028397247
241	0x3adf28c9	0.0017025705
242	0x3cce4e4a	0.025183816
243	0x3d4d58a8	0.050133377
244	0xbadd9f07	-0.0016908356
245	0xbce528d4	-0.02797357
246	0xbcb68655	-0.022280851
247	0xbc80d8a0	-0.015728295
248	0xbccf899f	-0.025334178
249	0xbc09bde7	-0.008407093
250	0xbd217f99	-0.039428327
251	0x3bb8f17f	0.005644023
252	0x3a05e748	0.0005108011
253	0x3d186878	0.037209004
254	0xb8d013db	-9.921911e-05
255	0x3c7ccb9d	0.015429405

fc1.bias f4 [120]
0	0x3d5784a1	0.05261672
1	0xbb2f1e84	-0.002672107
2	0xbc923c14	-0.017850913
3	0x3dba6fba	0.091033414
4	0x3d0e3093	0.034714293
5	0x3d3f49c9	0.046701226
6	0x3da40658	0.080090225
7	0x3d22b1bf	0.039720293
8	0x3d483925	0.048882622
9	0x3d2e5a00	0.0425663
10	0x3bb53025	0.005529421
11	0xbae7f50e	-0.0017696933
12	0x3db610e8	0.08889943
13	0x3d94f4c6	0.07273249
14	0x3d732229	0.05935875
15	0x3ac56594	0.001506018
16	0x3df2f4b8	0.11863083
17	0x3d9635fb	0.07334515
18	0x3d9da6b7	0.07697814
19	0x3c27ff82	0.010253789
20	0xbbbc39b0	-0.0057441816
21	0xbcf3a052	-0.029739533
22	0x3cfab4c6	0.030603778
23	0x3c5df8a5	0.013548051
24	0x3d84d71f	0.064863436
25	0x3d64c54e	0.055852227
26	0x3d79ac4e	0.06095534
27	0x3dc85d48	0.09783417
28	0x3cf3e352	0.02977148
29	0xbc7e437a	-0.015519017
30	0x3d3447b1	0.044013683
31	0x3cf21739	0.029552089
32	0xbd18d5e3	-0.037313353
33	0x3c036f4c	0.008022141
34	0x3b482c8e	0.0030544135
35	0x3db12184	0.08648971
36	0x3d5e3a61	0.054254893
37	0x3dc2c62c	0.095104545
38	0x3de24762	0.110487714
39	0x3d89b43e	0.067238316
40	0xbd19b7d9	-0.037528846
41	0x3d8c56f7	0.06852525
42	0x3da9e764	0.082960874
43	0x3dc23c14	0.09484115
44	0x3d2bba12	0.041925497
45	0x3d32708d	0.043564368
46	0x3c8c27e0	0.017108858
47	0x3d8c8d00	0.06862831
48	0x3e029eb8	0.12755859
49	0x3d21cb4b	0.039500516
50	0x3d8d3131	0.06894148
51	0x3dd52e19	0.10409183
52	0x3d9f942a	0.07791932
53	0x3d835c0b	0.0641404
54	0x3df9ea23	0.12202861
55	0xbcc40380	-0.02392745
56	0x3d6f1fe2	0.058380015
57	0x3e03419f	0.12818001
58	0x3d1426b5	0.036169726
59	0x3cef83a0	0.029237568
60	0x3da33d8c	0.079707235
61	0x3b9f2c44	0.004857572
62	0x3ce91aee	0.028455224
63	0x3cc3f2a2	0.023919407
64	0x3d34cf7f	0.044143196
65	0x3de3acd8	0.11116952
66	0x3d4782d6	0.04870876
67	0x3deae96d	0.11470304
68	0x3d82d3e6	0.06388073
69	0x3cf66821	0.03007895
70	0x3c110835	0.008852054
71	0x3c298726	0.010347163
72	0x3d36d9d7	0.044641342
73	0x3cf8bb1f	0.030362664
74	0x3c9a3312	0.01882318
75	0xbc89322f	-0.016747562
76	0x3d304bcc	0.043041036
77	0x3d34caa2	0.04413856
78	0x3b7bcdd4	0.0038422244
79	0x3db2d505	0.087320365
80	0x3d870b8b	0.065939985
81	0x3c8e9105	0.017403135
82	0xbca91c5b	-0.020643404
83	0x3d63923a	0.055559374
84	0x3d321509	0.043477092
85	0x3d285652	0.041097946
86	0x3dae6095	0.08514515
87	0x3d87bc17	0.06627672
88	0xbd343af4	-0.044001535
89	0x3c9e279a	0.019305993
90	0x3dec8abe	0.115499005
91	0x3d70da22	0.058801778
92	0x3d099cc5	0.033596773
93	0x3dc03d0e	0.09386645
94	0x3c691091	0.014225141
95	0x3d88be89	0.06676967
96	0xbca14eaa	-0.01969083
97	0xbd60e12f	-0.05490225
98	0xbb8f1747	-0.0043667885
99	0xbc8015ec	-0.015635453
100	0x3d97f5f6	0.0741996
101	0x3cc13a76	0.023587447
102	0x3db9e8b4	0.09077588
103	0x3d406cc2	0.04697872
104	0x3df757d6	0.120773
105	0x3d7e233a	0.062045313
106	0x3bcd0fb1	0.006257974
107	0xbba977d4	-0.0051717553
108	0x3dbac09e	0.0911877
109	0x3c2d15c6	0.010564273
110	0x3d681ed3	0.05667002
111	0xbbf12a96	-0.007359813
112	0x3da100a5	0.07861451
113	0x3dbefcba	0.093255475
114	0x3d1b0ccd	0.037854005
115	0x3afa20d0	0.0019083265
116	0x3d829279	0.06375594
117	0x3df84d25	0.12124089
118	0x3d033208	0.032030135
119	0x3dc52e5b	0.09627982

fc2.weight f4 [84, 120]
0	0x3bfcabef	0.007710926
1	0xbc8451ed	-0.016152347
2	0xbd60a0b9	-0.054840777
3	0x3dab676d	0.08369336
4	0x3d16b4f8	0.03679368
5	0xbd65fb9a	-0.05614815
6	0x3d038117	0.03210553
7	0xbd7cd40e	-0.06172567
8	0x3d867207	0.06564718
9	0xbb2ca2fb	-0.002634226
10	0xbd94bea2	-0.07262923
11	0xbc557144	-0.013027493
12	0xbc8bb3df	-0.017053543
13	0xbcd9b1eb	-0.026574096
14	0x3d2c4219	0.042055223
15	0xbd639204	-0.055559173
16	0x3d817452	0.063210145
17	0xbba252d8	-0.0049537234
18	0x3d510c07	0.05103686
19	0x3dc08e66	0.0940216
20	0x3d857931	0.06517256
21	0xbd0f7df2	-0.03503222
22	0x3cd1f467	0.025629235
23	0xbd81877b	-0.06324669
24	0x3dc612d7	0.09671562
25	0x3d165bd7	0.03670868
26	0xbc9371da	-0.017998625
27	0xbde0556b	-0.10953792
28	0xbd7ffd28	-0.062497288
29	0xbd744e04	-0.059644714
30	0xbdb2a7e0	-0.08723426
31	0x3ac13504	0.0014740531
32	0xbdb304a4	-0.087411195
33	0xbde2aaa7	-0.110677056
34	0xbd9efe3c	-0.07763335
35	0xbcf89b16	-0.030347388
36	0x3d4ee0f4	0.0505075
37	0x3ccd6545	0.025072703
38	0x3d62f3cd	0.055408288
39	0x3cc46c3a	0.023977388
40	0x3d3ab528	0.04558292
41	0x3cb3a99c	0.021931462
42	0xbd83cbf5	-0.06435386
43	0x3d06403a	0.032776095
44	0xbd47cd7d	-0.048779953
45	0xbd562dd8	-0.052289814
46	0xbdbd684f	-0.09248411
47	0xbd966e01	-0.073452
48	0x3d98590b	0.074388586
49	0x3c81eabc	0.015859
50	0x3d1c6d11	0.03818995
51	0xbd45a535	-0.048253257
52	0x3d138e18	0.036024183
53	0x3d03ec29	0.03220764
54	0x3d6d2a47	0.057901647
55	0xbd0c4220	-0.03424275
56	0x3d844757	0.064589195
57	0xbd401004	-0.046890274
58	0x3db8ea68	0.090290844
59	0x3d678067	0.05651894
60	0xbce8beb0	-0.02841124
61	0x3cf6d9a1	0.03013307
62	0xbd42fc69	-0.047604
63	0xbd79ea21	-0.0610143
64	0x3d6fcc86	0.058544658
65	0x3c5e1497	0.013554714
66	0xbcf63007	-0.030052198
67	0xbc802a65	-0.015645215
68	0x3cd24a25	0.02567012
69	0xbc0d2767	-0.008615351
70	0x3d8b96ef	0.06815898
71	0x3d0af4f0	0.033924997
72	0x3d663a65	0.056208033
73	0xbcdd8de8	-0.027045205
74	0x3d0b5331	0.034014884
75	0xbc800436	-0.015627008
76	0xbd2585ef	-0.040410932
77	0xbcb3c09c	-0.02194243
78	0x3c63ff6f	0.013915881
79	0x3b5627ed	0.0032677606
80	0x3a699df3	0.0008911781
81	0x3d5e18dd	0.05422293
82	0xbd9d7521	-0.07688356
83	0x3c88ad15	0.016684094
84	0x3d0f4b51	0.034983937
85	0x3ce7491a	0.0282331
86	0x3c9c5dd4	0.01908771
87	0xbd2ffe3c	-0.042967066
88	0x3d9b7442	0.07590534
89	0x3d26c063	0.040710818
90	0x3d0193b1	0.03163499
91	0x3c5d873a	0.01352101
92	0xbd78fd07	-0.06078818
93	0x3d9273d2	0.07150997
94	0x3d1c6634	0.038183406
95	0xb9685403	-0.00022156541
96	0xbcba0dda	-0.022711683
97	0x3db94138	0.090456426
98	0xbc359714	-0.011083383
99	0xbc65555b	-0.013997401
100	0xbd86ca2e	-0.065815315
101	0xbd605ffd	-0.05477904
102	0x3c0016a8	0.007817902
103	0xbd5490ae	-0.05189579
104	0x3a9a7271	0.0011783374
105	0x3cf35e3f	0.029708026
106	0x39c50eea	0.0003758588
107	0x3d5a0d00	0.053235054
108	0xbd810e65	-0.06301574
109	0x3db59de3	0.08868005
110	0xbd788c98	-0.060680956
111	0x3c021c9b	0.00794139
112	0x3d739a99	0.059473608
113	0x3d70e262	0.058809645
114	0x3bc653ad	0.0060524554
115	0x3d1caf6f	0.038253244
116	0x3da46f6a	0.08029063
117	0xbd2b8e08	-0.0418835
118	0xbd375b2c	-0.044764683
119	0xbd84f7d3	-0.06492581
120	0xbc962fb6	-0.018333297
121	0x3d928c18	0.07155627
122	0x3dbac9d9	0.09120531
123	0xbd3ac393	-0.04559667
124	0xbd5a821f	-0.05334675
125	0xbb491cab	-0.0030687253
126	0x3daf0d0a	0.08547409
127	0x3d4dd763	0.050254237
128	0xbdb23600	-0.08701706
129	0x3d78c275	0.060732324
130	0x3da79dbf	0.081843846
131	0xbc70b5a7	-0.014691747
132	0xbd749e63	-0.05972136
133	0xbb2aea00	-0.0026079416
134	0x3d4bbc61	0.0497402
135	0x3d885d84	0.06658462
136	0x3db24e0c	0.087062925
137	0xbd829e4c	-0.06377849
138	0x3bc19b18	0.005908381
139	0x3d31d6cd	0.04341774
140	0x3da6ef94	0.08151165
141	0xbd6c5671	-0.057699624
142	0xbd01dc6b	-0.031704348
143	0xbd4f1b23	-0.05056299
144	0xbdb39dfc	-0.087703675
145	0x3928ecec	0.00016109989
146	0xbd6ea8c7	-0.058266427
147	0xbc2dde29	-0.010612049
148	0x3cb6bf0b	0.022307893
149	0xbd630259	-0.05542216
150	0x3c3dd36b	0.0115860505
151	0xbc181ee2	-0.009284707
152	0xbd180fcd	-0.037124444
153	0x3b940416	0.0045170886
154	0xbd70e94e	-0.058816247
155	0xbced99a6	-0.02900393
156	0x3ce12cbf	0.027487157
157	0x3d01911b	0.031632524
158	0xbd81320d	-0.063083746
159	0x3c2783bd	0.01022428
160	0x3d1b9e19	0.03799257
161	0xbd8da1be	-0.069156155
162	0x3da0cfa5	0.07852105
163	0xbd743efd	-0.059630383
164	0xbda35534	-0.079752356
165	0x3d376cfa	0.044781663
166	0x3dc18f57	0.09451168
167	0x3d4ca65c	0.04996334
168	0xbd559bf0	-0.052150667
169	0x3b8864f8	0.004162427
170	0xbda8a4f2	-0.08234586
171	0xbd99bc2e	-0.075065956
172	0x3cb9dcd1	0.022688301
173	0xbd25e7ec	-0.04050438
174	0x3d07d7a3	0.03316463
175	0x3d07ee0a	0.033185996
176	0xbcf87696	-0.030329984
177	0x3d107a81	0.03527308
178	0xbdaa29ac	-0.083087295
179	0x3d31d590	0.04341656
180	0xbdad510d	-0.08462725
181	0xbccac677	-0.024752839
182	0x3cd3f39f	0.025873004
183	0xbbae6755	-0.0053223767
184	0xbd3225d8	-0.04349312
185	0xbd95198b	-0.072802626
186	0x3d20b4ee	0.039235048
187	0xbda9c48e	-0.08289443
188	0xbd8e20fd	-0.06939886
189	0x3d050bc3	0.03248192
190	0xbbc83927	-0.0061103287
191	0xbc927f5c	-0.017882995
192	0x3d97f543	0.07419827
193	0xbc9e324f	-0.019311098
194	0x3d8269dd	0.06367848
195	0x3d22123d	0.039568175
196	0x3cf1e3e9	0.029527621
197	0x3d9f269d	0.07771037
198	0x3ceed440	0.029153943
199	0x3caea399	0.021318244
200	0xbd8a4550	-0.067515016
201	0x3d10519b	0.035234075
202	0xbcbe49cb	-0.023228547
203	0x3c9d91f2	0.019234631
204	0x3d2f133f	0.042742964
205	0x3d950692	0.07276644
206	0xbd55060e	-0.052007727
207	0x3ccaa14a	0.024735112
208	0x3da8bbda	0.08238955
209	0x3bffbca7	0.0078044715
210	0xbc962760	-0.018329322
211	0xbc36e5f6	-0.011163225
212	0xbdb2d731	-0.08732451
213	0xbd88d5ea	-0.06681426
214	0x3db94c85	0.09047798
215	0x3b5dd1d7	0.0033846998
216	0xbd27a4e0	-0.04092872
217	0xbcd3d9ed	-0.025860751
218	0xbd0a2811	-0.033729617
219	0xbd8a0c6d	-0.06740651
220	0xbd866864	-0.0656288
221	0x3b0cc84b	0.0021481689
222	0xbbd42171	-0.006473713
223	0x3c6c5ad7	0.014425955
224	0xbd94bab8	-0.07262176
225	0xbd4699ee	-0.048486643
226	0x3c2a724e	0.010403229
227	0x3dbd8be2	0.09255196
228	0xbd3df446	-0.046375535
229	0x3d9fca3b	0.07802244
230	0x3cf1dd60	0.029524505
231	0x3dac15f6	0.08402626
232	0x3b01369e	0.0019716392
233	0x3d173064	0.036911383
234	0xbd87b821	-0.06626917
235	0x3da97507	0.08274274
236	0xbda04e7f	-0.07827472
237	0x3d3a1470	0.045429647
238	0x3d8c4acb	0.06850203
239	0xbc9c9bfd	-0.01911735
240	0xbd37f155	-0.044907887
241	0x3d4e5962	0.05037821
242	0x3d11e998	0.035623163
243	0xbd2369c7	-0.0398958
244	0xbc9abafe	-0.018887993
245	0x3dbbea6c	0.09175572
246	0xbdb58d2c	-0.08864817
247	0xbd4baba0	-0.04972422
248	0xbcc9fda7	-0.024657084
249	0x3d2fefe4	0.042953387
250	0x3d92950b	0.07157334
251	0xbdc03a91	-0.09386171
252	0x3dc539a5	0.096301354
253	0x3c1278c2	0.008939924
254	0x3d53e238	0.05172941
255	0x3c0442ce	0.008072568

fc2.bias f4 [84]
0	0xbd25d3d6	-0.040485226
1	0xbd635bca	-0.05550746
2	0x3dfe1e00	0.12408066
3	0x3c155b10	0.009115949
4	0x3de645d7	0.1124379
5	0x3e1b512a	0.1516768
6	0x3e6992b3	0.22809868
7	0x3da69938	0.08134693
8	0x3de6a42a	0.112617806
9	0xbca8c7a9	-0.020603018
10	0x3dbd31db	0.09238025
11	0xbd6fedd3	-0.058576416
12	0x3ce3b74a	0.02779736
13	0x3d381f82	0.044951923
14	0xbc23e730	-0.01000385
15	0x3d1f3117	0.038865175
16	0x3e4345f0	0.19069648
17	0x3e0dcaf8	0.13846958
18	0x3e3a6082	0.18200877
19	0x3dc197f5	0.09452812
20	0x3d303d06	0.043026946
21	0x3e297fa7	0.16552602
22	0xbd41a55b	-0.047276836
23	0x3d3eecf6	0.046612702
24	0x3d614ca1	0.05500472
25	0x3da2f761	0.0795734
26	0xbd6c2094	-0.057648256
27	0x3be90424	0.0071110893
28	0x3e1f4a6d	0.15555735
29	0x3e058ae6	0.13041267
30	0xbbbebfe8	-0.005821217
31	0xbd0159d1	-0.031579796
32	0x3d2f5bca	0.042812146
33	0x3d9bd3cd	0.07608757
34	0xbd007cf3	-0.03136916
35	0xbd029f23	-0.031890046
36	0xbbaba80d	-0.005238539
37	0xbc6512f7	-0.013981572
38	0x3d65a35a	0.056063987
39	0x3d469f29	0.04849163
40	0xbd6e1816	-0.05812844
41	0x3e9d4b3b	0.3072146
42	0xbbb9c800	-0.005669594
43	0x3d18d812	0.037315436
44	0x3d3accb6	0.045605384
45	0xbd8a561b	-0.067547046
46	0xbbd42ede	-0.0064753136
47	0x3e577d11	0.21043803
48	0x3deba6cb	0.115064226
49	0x3dd8e6fd	0.105909325
50	0xbbcecd06	-0.006311062
51	0x3e4a348a	0.19746605
52	0xbc5c0415	-0.013428708
53	0xbcc60b9b	-0.024175456
54	0x3db59d1f	0.08867859
55	0x3da26fc7	0.07931476
56	0xbcc29900	-0.023754597
57	0x3e171ff6	0.14758286
58	0x3dd4c595	0.10389248
59	0x3db2bd52	0.08727516
60	0xbbe199db	-0.006884796
61	0x3e7c47b8	0.24636734
62	0x3d961bd5	0.07329527
63	0xbcb0929c	-0.021554284
64	0x3e025d2c	0.12730855
65	0x3e36ac99	0.17839278
66	0x3e0d4ede	0.13799617
67	0x3d983e11	0.07433713
68	0x3dd85241	0.10562564
69	0x3e11434e	0.14185831
70	0xbcf0b115	-0.029381314
71	0x3e6b6c13	0.22990446
72	0x3e4f0608	0.20217144
73	0x3da7f87e	0.08201693
74	0x3e3b66bf	0.18300913
75	0x3c4e04ef	0.012574418
76	0x3e4bc725	0.19900186
77	0x3de5264a	0.11188944
78	0x3e928a39	0.2862108
79	0x3e640407	0.22267161
80	0x3d1ae868	0.037819296
81	0x3e38235e	0.17982242
82	0x3d8566b7	0.06513732
83	0xbd597a32	-0.05309505

fc3.weight f4 [2, 84]
0	0xbd4a9353	-0.049456906
1	0x3b848a3a	0.004044798
2	0x3e12b4f8	0.14326847
3	0x3c92d3ac	0.017923199
4	0xbe030d52	-0.1279805
5	0x3e98f4bc	0.29874218
6	0xbda3b018	-0.079925716
7	0xbd0742f1	-0.033022825
8	0xbe6e199f	-0.23251961
9	0x3d983eb1	0.074338324
10	0x3ebaf0d6	0.36511868
11	0x3cd63545	0.026148448
12	0xbe9b1a3b	-0.3029345
13	0xbe4a4cbf	-0.19755839
14	0xbddc5b97	-0.10759657
15	0x3e376e85	0.17913254
16	0xbec84f7d	-0.39123145
17	0xbe8c767a	-0.2743414
18	0x3e6bb563	0.23018412
19	0x3d7faaf9	0.06241891
20	0xbc970bdb	-0.01843827
21	0x3e81406c	0.25244462
22	0x3be91be0	0.0071139187
23	0x3eaceb03	0.3377305
24	0x3e8b625c	0.2722348
25	0x3e0930ab	0.13397472
26	0x3cf41249	0.029793875
27	0x3ddcede3	0.10787561
28	0x3edd3fe2	0.432128
29	0xbe8a5b3b	-0.27022728
30	0x3dd77417	0.10520189
31	0xbe3d1fad	-0.18469115
32	0xbcb9ad83	-0.022665745
33	0xbe5a2c94	-0.21306068
34	0x3e878630	0.26469564
35	0xbd85a9f6	-0.06526558
36	0xbd051847	-0.032493856
37	0xbe985daa	-0.2975896
38	0xbd7d188d	-0.06179099
39	0xbe487d28	-0.19578993
40	0x3ca29d10	0.019850284
41	0x3eebe34a	0.46071845
42	0xbea5b23b	-0.32362542
43	0x3e4b483f	0.19851778
44	0x3e589c08	0.21153271
45	0x3e34b145	0.17645748
46	0xbe016a5b	-0.12638228
47	0x3d078df9	0.03309438
48	0xbe9acf9d	-0.3023652
49	0xbddf1112	-0.10891928
50	0x3d8e8e79	0.06960768
51	0x3e491c45	0.1963969
52	0x3d83a7ca	0.064284876
53	0xbd06a8fb	-0.032875996
54	0x3be50059	0.006988567
55	0x3e14c11f	0.14526795
56	0x3dbf7fa4	0.093505174
57	0xbeddd83e	-0.43329042
58	0x3e9b7f5c	0.30370605
59	0x3e141cd1	0.14464118
60	0xbdccf1b2	-0.10007037
61	0xbec20753	-0.37896213
62	0x3dd3fe7b	0.10351273
63	0xbe33a4f4	-0.17543393
64	0x3bd93b94	0.0066294167
65	0xbe923527	-0.28556177
66	0x3e2ba723	0.16762976
67	0xbe0f6370	-0.14002776
68	0x3ec4fab2	0.38472515
69	0xbe868c65	-0.26278988
70	0x3e1fe728	0.15615523
71	0xbee60c89	-0.4493144
72	0xbeb2d486	-0.34927768
73	0x3e081431	0.13288952
74	0xbe2cd7c1	-0.16879179
75	0x3dfa6c99	0.122277446
76	0x3e626d84	0.2211209
77	0x3e8caf68	0.27477574
78	0x3eff01d1	0.49806073
79	0x3e9e407b	0.3090857
80	0xbe0d813f	-0.13818835
81	0xbe93d350	-0.28872156
82	0xbd69137a	-0.05690334
83	0xbe2d44d4	-0.16920787
84	0x3db04d5a	0.08608504
85	0xbd90339d	-0.070410945
86	0xbeddf2d7	-0.43349335
87	0xbe3ab5b6	-0.1823338
88	0x3e08ea8e	0.13370726
89	0x3d531006	0.051528953
90	0xbf0576bb	-0.52134293
91	0x3ea9aeef	0.33141276
92	0x3e2277ca	0.15866008
93	0xbd23a3fa	-0.039951302
94	0x3d92a7f2	0.07160939
95	0x3ccea99b	0.025227359
96	0xbe40abe7	-0.18815576
97	0x3b1c6c1a	0.0023868144
98	0xbdcc7495	-0.09983174
99	0xbd117ec3	-0.03552128
100	0x3db22692	0.08698763
101	0x3d0aec29	0.033916626
102	0x3dd4aba1	0.10384298
103	0xbe76a1c2	-0.24085143
104	0xbdc8e65c	-0.098095626
105	0x3e883992	0.26606423
106	0x3d80040a	0.062507704
107	0xbe016919	-0.12637748
108	0x3e84284b	0.2581199
109	0x3e374a34	0.178994
110	0x3dd87a92	0.105702534
111	0xbd40b032	-0.047043033
112	0xbd971688	-0.07377344
113	0x3ddebf03	0.10876276
114	0x3e5d10b9	0.2158841
115	0xbd3edc53	-0.046596836
116	0xbd7f92ba	-0.06239579
117	0xbe5bb3f7	-0.2145537
118	0xbdad283a	-0.08454938
119	0x3d8d40de	0.06897138
120	0xbd4688fe	-0.04847049
121	0x3e3d0e45	0.18462475
122	0xbde96448	-0.1139608
123	0xbeba8377	-0.36428425
124	0xbd35b11c	-0.044358358
125	0xbf25fc4d	-0.64838105
126	0x3e01e70e	0.12685797
127	0x3d593cf0	0.05303663
128	0xbd255206	-0.040361427
129	0x3e428a5d	0.18998094
130	0xbc97c51e	-0.01852661
131	0x3ed69830	0.41912985
132	0x3db34673	0.087536715
133	0xbe651655	-0.223718
134	0xbd59f35c	-0.0532106
135	0x3eb6c019	0.35693434
136	0xbe49893a	-0.19681254
137	0xbda790c5	-0.081819095
138	0xbeb58f45	-0.35460868
139	0x3e3db154	0.18524677
140	0x3d9ab75e	0.07554506
141	0xbe2a2f9e	-0.16619727
142	0xba06a1f2	-0.0005135826
143	0x3e8e9a19	0.27851942
144	0x3e708b40	0.2349062
145	0xbf05fcaa	-0.5233866
146	0x3dd1774f	0.102278344
147	0xbe450aa2	-0.19242337
148	0x3e73c4a2	0.23805478
149	0x3e00135e	0.12507388
150	0x3ea62e08	0.32456994
151	0x3e8909cf	0.26765296
152	0xbdd16336	-0.10224001
153	0x3e747946	0.23874387
154	0x3dac0a3e	0.08400391
155	0x3e7db66e	0.24776623
156	0xbe5107a5	-0.20413072
157	0x3e06142a	0.1309363
158	0xbe98fd6d	-0.2988085
159	0x3e50fcce	0.20408937
160	0x3ec3fd0a	0.3827899
161	0x3c6867ed	0.014184934
162	0xbeb3212e	-0.34986252
163	0x3eaecc25	0.34140125
164	0x3e8027b5	0.25030294
165	0x3e1f1b40	0.15537739
166	0x3c8ff987	0.017575039
167	0x3e21bb2f	0.15794061

fc3.bias f4 [2]
0	0xbd35fdcb	-0.04443149
1	0x3d75b63e	0.059988253
