src/models/train-on-expert+self.onnx (onnx, 336927 bytes, 10 tensors)

conv1.weight f4 [6, 5, 5, 5]
000000 a2 be 94 3b ae 34 be 3d 0d 83 9d 3d 9d ac a9 3c
       0.0045393268 0.092873916 0.076910116 0.020712191
000010 e8 69 0f 3e 0c 73 ed 3d 29 97 3c 3e c9 a5 14 3e
       0.14005244 0.11594209 0.18417038 0.14516367
000020 16 83 c5 3d 49 4e a4 3c 39 74 31 3d 96 55 1b 3e
       0.09644143 0.02005686 0.04332373 0.15169367
000030 82 04 64 3e a9 3c 14 3e 0d c3 1a 3e 27 0a c8 3d
       0.22267345 0.14476265 0.15113468 0.097675614
000040 70 64 17 3e 7a 3a 27 3e c3 7e ef 3d bd 31 17 3e
       0.14784408 0.16330901 0.116941 0.14765067
000050 af 1f 0f 3e 2b d2 0b 3e 4f 51 cb 3d f6 85 2a 3e
       0.1397693 0.13654391 0.09927618 0.16652665
000060 32 00 27 3e ec 10 3d bd fc 8d 58 bb 83 94 da 3d
       0.16308668 -0.046158716 -0.0033043614 0.106728576
000070 f7 a6 8e 3d 1d 15 b7 3d ee c3 1c 3d df 45 29 3e
       0.0696544 0.08939574 0.03827279 0.1653056
000080 47 24 2a 3e 15 ea 1b 3e 5a 93 a8 3b 47 d2 19 3e
       0.16615401 0.15226014 0.005144519 0.1502162
000090 68 ae 93 3d 72 e7 a2 3d 4d c9 82 3d af 08 eb 3d
       0.07211 0.07954301 0.06386051 0.11476266
0000a0 cd 72 4c 3d 6f 58 9f 3d c5 11 5a 3e 67 71 17 3e
       0.04991417 0.07780539 0.21295841 0.14789353
0000b0 5a e0 27 3e fc 77 1b 3e 62 03 12 3e f9 fd 5c 3e
       0.16394177 0.15182489 0.14259103 0.21581258
0000c0 35 20 dd 3d f1 3e 29 3d 01 68 b0 3d 87 4a f3 3c
       0.10797159 0.04131979 0.08613587 0.029698623
0000d0 52 b2 dd 3c 12 a0 b9 3d 3a c2 92 3c 0f ab 1d 3e
       0.027062569 0.09063734 0.01791488 0.15397285
0000e0 00 eb f4 3d 9f d7 93 3d 24 e8 13 3e 66 4e e6 3d
       0.11958885 0.07218861 0.14444023 0.11245422
0000f0 e7 30 b7 3c bc 00 d5 3d 9e 28 0e 3e cf fa 6f 3d
       0.022362186 0.10400531 0.13882682 0.0585888
000100 97 eb 1d 3e bb ac ce 3d e2 14 6b 3e 7b 80 0d 3e
       0.15421902 0.100915395 0.22957185 0.13818543
000110 d6 2a fd 3d 2e 91 90 3d 1a 18 e5 3d c9 4f 4a 3e
       0.12361686 0.07058941 0.11186238 0.19756998
000120 1e 94 30 3e fb 9d 11 3e 88 4c c9 3d b4 bc 77 3d
       0.17244002 0.14220421 0.0982905 0.060482696
000130 7c ae 09 3e ca c8 fd 3d 38 d3 41 3d 87 c4 fb 3d
       0.13445467 0.12391813 0.047320575 0.12293344
000140 0a ff d9 3d d5 9b 50 3e a0 9d e5 3d ad 85 26 3e
       0.10644348 0.20371945 0.11211705 0.16261931
000150 2c 8f 95 3d b9 f4 02 3e 8c 5d 32 3e d2 0c 51 3e
       0.073026985 0.12788667 0.17418498 0.20415047
000160 6b 17 3c 3e 8f 34 bf 3c ad e4 cb 3d 42 8d 12 3e
       0.18368308 0.023340492 0.09955726 0.14311698
000170 78 79 7a 3e 9d 3c c1 3d e5 37 a7 3d 0c c0 38 3e
       0.24460399 0.09435389 0.08164958 0.1804201
000180 45 21 30 3e a2 88 a1 3d 9d 3a 04 3e 87 87 b8 3d
       0.17200191 0.07887389 0.12912984 0.09010225
000190 d9 8c 2a 3d 76 36 0f 3e 5e bd 09 3e 4c 8a 12 3e
       0.04163823 0.13985619 0.13451144 0.14310569
0001a0 97 2c 89 3d 76 dc 83 3d 12 08 16 3d 8a 43 2c 3e
       0.06697958 0.06438534 0.03662879 0.16822639
0001b0 5b 3c 86 3d 09 5f f5 3c 08 12 42 3e 98 7c 12 3e
       0.06554481 0.029952543 0.18952191 0.14305341
0001c0 85 92 4e 3e 06 1d 12 3e 6d c4 36 3e 3b 57 cc 3d
       0.2017308 0.14268884 0.17848368 0.099775754
0001d0 1c 45 20 3e f3 ae 5f 3e 5d 4a 85 3d c1 ed 9d 3d
       0.15651363 0.21844082 0.06508324 0.077113636
0001e0 9b 80 9e 3d 02 09 21 3e 05 58 66 3e 56 3b 51 3e
       0.07739373 0.15726092 0.22494514 0.20432791
0001f0 14 4e 34 3d 86 f0 89 bd fc 72 b8 3d 3a d8 6d 3d
       0.044019774 -0.06735329 0.090063065 0.058067538
000200 f1 80 5e 3d 07 c9 09 bb 3d 62 c8 bd d7 9e 30 3d
       0.054322187 -0.0021024363 -0.097843625 0.04312023
000210 2c 73 0c 3d 9d bb 02 3d 4f 16 61 3d 90 be 58 3c
       0.034289524 0.031917203 0.054952916 0.013229027
000220 39 17 b8 bd 59 94 ed 3b fb f0 e1 bc 03 09 43 bc
       -0.08988804 0.0072503504 -0.027580729 -0.011904004
000230 e2 76 8c bd 6b 01 ca bd f3 c9 81 3d 98 dc 67 3d
       -0.068586126 -0.09863552 0.06337347 0.05660686
000240 ec 31 96 bc 63 c0 f8 bd c5 0c 00 be 6a d4 21 bd
       -0.018334351 -0.1214607 -0.12504871 -0.039509214
000250 a8 78 ab bd 3e 1a f4 b9 d5 ce 50 3d b7 3c 0e 3c
       -0.08372623 -0.0004655886 0.0509785 0.008681468
000260 74 59 aa 3d 5f 38 2d 3d fa 55 64 3c 17 a1 01 bd
       0.08317843 0.042290088 0.013936514 -0.031647768
000270 95 e4 b3 3c 7c 4a 80 3d fb 0d 49 bd af e8 be bc
       0.021959582 0.06264207 -0.0490856 -0.023304312
000280 37 a3 69 3b ca 8c 7a bc 78 53 ab bc ed 7e 22 3d
       0.0035650262 -0.015292356 -0.020913824 0.039671827
000290 2a d7 3d 3d 55 dd 2d 3d 3a 80 cd bc f7 7e c0 b9
       0.046347775 0.042447407 -0.025085557 -0.0003671569
0002a0 d4 f6 3d bd 29 22 55 bd 40 6d b9 bd 45 43 ed bd
       -0.04637797 -0.05203453 -0.09054041 -0.11585096
0002b0 9b 82 08 3c e3 4c 40 3d ea bd 94 bd 5f 1d ac 3d
       0.00833192 0.046948325 -0.07262786 0.084040396
0002c0 da ef 29 3d 18 01 96 3d 7b c2 b3 3d 08 91 04 bd
       0.041488506 0.07324427 0.087773286 -0.032364875
0002d0 b0 b6 bc bd d6 0c 05 bd f9 3a dc bc ca 00 3e bd
       -0.092145324 -0.032482944 -0.02688359 -0.04638747
0002e0 3b 71 61 3d 6e f9 e9 ba 93 da 88 3b 30 43 f1 3c
       0.055039626 -0.0017850825 0.0041764467 0.029450983
0002f0 fe 79 ff bc a8 3a 9a 3d ad 23 77 bd ac 62 c6 bd
       -0.0311861 0.07530719 -0.060336757 -0.09686789
000300 92 8d 87 bd a7 93 26 bc 77 e9 a1 bd 90 13 e4 bd
       -0.06618799 -0.010167039 -0.07905858 -0.11136544
000310 40 b4 d5 bd ba 9e 37 bd b3 df 65 3d 1d 64 10 bb
       -0.104347706 -0.044829108 0.05612154 -0.0022032328
000320 0c 37 9e bd d6 55 9d bc e0 09 9a bc 9a d9 45 3d
       -0.07725343 -0.019205969 -0.018803537 0.048303224
000330 b0 4f ef 3d 75 70 3f 3d ad cb 21 bb 86 92 13 3d
       0.11685121 0.046738107 -0.002468805 0.036028408
000340 59 0a cf bc f5 8a 57 3d 82 fa bc bd 7d cd 8e bc
       -0.025273489 0.052622754 -0.09227468 -0.017431969
000350 6c 89 aa bb 6a 51 b6 3d 27 25 cb 3d b0 ee 1b 3d
       -0.0052043702 0.08902247 0.099191956 0.038069427
000360 07 54 ab bd cf 14 92 bc f4 25 af bd 25 d8 c5 3c
       -0.08365636 -0.017832188 -0.08552161 0.024150917
000370 79 b1 ab bd db 8f 52 bd 26 0a c5 bd b9 77 2c 3d
       -0.083834596 -0.051406723 -0.09621076 0.042106364
000380 c7 c4 3c bd 8a 26 86 3d 56 a4 52 bd c1 79 01 3d
       -0.0460861 0.065503195 -0.051426254 0.031610254
000390 77 56 e0 3c c9 a8 81 3d 47 b4 e2 bb 3c 4b 9b bb
       0.02738498 0.06331021 -0.0069184634 -0.0047391932
0003a0 26 6e 70 3d 10 f6 a7 bc 8a b7 c6 3d fa 39 d7 bd
       0.058698796 -0.020503074 0.09702976 -0.10509105
0003b0 cf ab 87 3d 18 cb 8a 3c 65 cb 12 bd 5a 1c 8f bc
       0.06624567 0.016942546 -0.035838503 -0.017469574
0003c0 a3 8d 81 bb d8 b2 8f 3b cf fc e9 3c 73 1e a6 bd
       -0.003953652 0.0043853335 0.028562931 -0.081112765
0003d0 9e 0b bc 3d 65 94 81 bc cc ae e5 bd 63 4f 23 bd
       0.09181903 -0.01581783 -0.112149805 -0.03987063
0003e0 b7 42 04 bd 73 cb 7a 3d 0a 87 89 bd 4b 13 2b bd
       -0.032290187 0.06122918 -0.0671521 -0.041766446
0003f0 c2 0c 3a bd e0 e2 85 3d e6 7f d6 3c 6e c1 93 3d
       -0.045422323 0.065374136 0.026184034 0.07214628

conv1.bias f4 [6]
000000 15 f6 11 bf 02 f1 59 3e f3 4b bc 3d 97 ed 8b 3e
       -0.57016116 0.21283343 0.09194174 0.27329704
000010 f0 17 b0 bd c8 e1 12 3d
       -0.08598316 0.035859853

conv2.weight f4 [16, 6, 5, 5]
000000 95 96 39 be 7d 53 64 be 6d bb 29 bd 73 57 2b be
       -0.18123849 -0.22297473 -0.04143851 -0.16732578
000010 61 82 94 bd 8d 82 c0 bd 4b 7a 50 3b ab 49 ec 3c
       -0.0725143 -0.093999006 0.0031811174 0.028843721
000020 52 ae eb 3d 1a b2 7a 3d 3d 6e f7 3c e0 73 00 3d
       0.11507858 0.061205007 0.030203933 0.031360507
000030 5c ab 31 3e 78 7a 67 3e 87 99 f3 3d 12 14 c6 bd
       0.17350525 0.22605312 0.118945174 -0.09671797
000040 5e 47 43 3e 62 4e 6a 3e 7a e3 62 3e 76 a6 06 3e
       0.19070193 0.22881463 0.22157088 0.13149437
000050 db e3 bd bd 90 f6 06 3e 43 df 33 3e 70 06 b7 3d
       -0.092719756 0.13179994 0.17565636 0.08936775
000060 c1 af a7 bd c3 8d 0e 3d cc c1 ad bc 60 bb 02 3b
       -0.08187819 0.034803163 -0.021210574 0.001994811
000070 4c be bf bd a0 55 0a 3d 0b 95 0b 3d 33 18 c0 3c
       -0.09362468 0.033773065 0.034077685 0.02344904
000080 2c 0b f9 bd 18 e8 60 bd f8 3d b4 bc 67 bd 39 bb
       -0.12160334 -0.05490884 -0.022002205 -0.0028341652
000090 e9 5a bb bd ca 94 bb bd 96 1d 5d bc d8 3c 6c 3c
       -0.09148199 -0.09159239 -0.013495823 0.014418803
0000a0 cb 4e 77 3c 04 81 92 bd 20 8a 05 be e3 ec 6a 3c
       0.015094469 -0.07153514 -0.13040972 0.014338705
0000b0 8d 59 e0 bc ae dc 07 bd fc 4d 06 bd c6 e8 3d bd
       -0.027386451 -0.03316944 -0.032789215 -0.04636457
0000c0 fb 93 c0 bd 77 21 19 bd d0 b2 df 3c 9a dc c7 3c
       -0.09403225 -0.03738543 0.027306944 0.024397183
0000d0 36 31 7e bb 8c b7 dc 3b 8c f3 c4 bd f9 f9 76 bd
       -0.0038786656 0.0067357477 -0.096167654 -0.060296986
0000e0 1a 18 3e 3d c0 bc 57 3c b8 6f dc bc 85 be 30 3d
       0.046409704 0.01316756 -0.02690874 0.043150444
0000f0 1e c5 85 3c 85 99 70 3d a6 05 90 bd a9 59 d2 bd
       0.016329344 0.058740158 -0.07032327 -0.102710076
000100 29 b3 35 3c 4f 54 82 3d cf 87 58 3c 2e ef e1 3c
       0.011090078 0.06363737 0.013215973 0.02757987
000110 55 95 78 3d 8f 06 4b 3d 8e 5e 4c bd c9 25 d0 bc
       0.06068929 0.0495668 -0.049894862 -0.025408642
000120 d6 bc a1 3b ca 53 c3 bc 2b 2f 05 bd 81 58 3f bd
       0.004935841 -0.023843665 -0.032515686 -0.046715263
000130 98 6e a2 3c 55 c1 74 bd ee db 65 3c 3a eb db bd
       0.019828126 -0.05975469 0.014029486 -0.10738225
000140 d6 27 5f bd d1 73 96 bd 79 2d da bd 14 95 68 3c
       -0.05448135 -0.07346309 -0.106532045 0.014195699
000150 d0 52 f2 bd 8d 4b b4 3c 56 75 8f bd 33 09 cc bd
       -0.118322015 0.022008682 -0.07004802 -0.09962692
000160 e5 24 96 bd 06 c2 bc bd b5 22 e4 bd e9 29 24 bc
       -0.07331256 -0.092166945 -0.11139432 -0.010019758
000170 00 16 41 bd 73 f2 ef 3c 2e bb 03 3d 3d a9 2d bb
       -0.04714012 0.029290413 0.03216093 -0.002649858
000180 0a 96 15 bd b6 0b d1 bd 14 35 cd bc c7 6f 8e bd
       -0.03652004 -0.10207312 -0.025049724 -0.069549136
000190 12 a2 9f 3d 35 f8 21 bd 4d b1 64 3c 78 b5 4b 3d
       0.07794584 -0.03954335 0.013958287 0.04973361
0001a0 be 10 3f 3b 2c 78 df bc 17 ba 16 bd dd af 7a bd
       0.0029154266 -0.027278982 -0.036798563 -0.061202873
0001b0 7a a7 1c bd 1e ab 03 bd 90 be 73 bd a1 7e 61 bd
       -0.038245656 -0.032145612 -0.059507906 -0.055052403
0001c0 6a 42 06 bd ed 9d 86 bd 56 37 0e 3d a4 85 57 bc
       -0.03277818 -0.06573091 0.03472074 -0.013154421
0001d0 b5 fb 25 3d 6a 54 82 3d de c9 a3 bd 85 44 9d 3d
       0.04052325 0.06363757 -0.079974875 0.07679085
0001e0 ce 42 64 bd 64 45 a7 bd 4f 38 50 3d de d4 90 3d
       -0.055727772 -0.08167532 0.05083495 0.07071851
0001f0 41 9c 7a bd c8 e8 28 bd a1 cc 8b bd fc 9a c8 3c
       -0.06118417 -0.041237622 -0.06826139 0.024487965
000200 e5 74 c5 bd 4f 37 ae 3b 49 ee fc 3b 04 4f 8b bd
       -0.096414365 0.005316652 0.0077188355 -0.068021804
000210 5d 31 12 3d b6 5b a3 bd 4a 85 8b ba aa 3c 83 bd
       0.035691608 -0.07976477 -0.0010644582 -0.06408055
000220 6a e2 24 bd 3e 5a d4 bc 38 d3 22 3d 7a e2 92 3d
       -0.040254988 -0.025921937 0.039752215 0.07172103
000230 42 c8 8d bd 99 2f cf 3c f1 33 cb 3d 50 27 51 bd
       -0.06922962 0.025291251 0.099220164 -0.051062882
000240 27 8c a1 3d 8f 46 d5 bd 9b b9 7b 3d a7 4e 28 bb
       0.0788806 -0.104138486 0.061456304 -0.0025681646
000250 b8 71 06 bd ac 9b 6d 3d a0 c6 2b 3c 85 19 05 3e
       -0.032823294 0.05800979 0.010484368 0.12998016
000260 53 db 8b bc 3b 9e 4b 3d d8 c9 65 3d 47 66 ef 3d
       -0.017072355 0.049711447 0.056100696 0.1168943
000270 b3 33 a9 bb f7 ea ee bb 46 99 1d be ea 16 23 be
       -0.0051636337 -0.0072911936 -0.153905 -0.1592671
000280 2c c2 32 3e f9 68 a3 3c 2a 8a 2e bd c4 36 e1 bd
       0.17456883 0.019947516 -0.042612232 -0.10996774
000290 d8 87 66 be af ce e9 3d 74 fe 2c 3e 83 cc 4f 3d
       -0.22512758 0.11416375 0.16893941 0.050732147
0002a0 ef 43 60 be 47 e4 87 be 42 49 53 3e 20 fe e9 3d
       -0.21900915 -0.2654135 0.20633414 0.114254236
0002b0 d1 00 49 3d d5 37 ba bd cc e9 c8 bd 71 6c 34 3d
       0.049073044 -0.0909268 -0.09810218 0.04404873
0002c0 ff 90 12 bd 3e ff 5d 3d da 8a 3b 3d c0 d2 a3 3d
       -0.03578281 0.054198496 0.045786716 0.07999182
0002d0 d9 1f 25 3c 04 34 a5 3d f0 cf 3f 3d 09 15 c2 3d
       0.010078394 0.08066562 0.046829164 0.094766684
0002e0 a6 4f a7 3c 55 52 39 3c b9 20 53 bd 5e fb c7 3b
       0.020423722 0.011311133 -0.05154488 0.0061029634
0002f0 f6 d2 b9 3d fc be d4 3d 34 95 11 bd 85 ba 59 bd
       0.09073441 0.1038799 -0.03554268 -0.053156395
000300 53 c4 53 3d e5 58 b4 3d 6c c8 0d bc c3 ec 99 3c
       0.0517009 0.08806018 -0.008653741 0.018789655
000310 5b 69 ab bb 72 97 7b bd 0e ff 3a 3d 0d ae e7 bc
       -0.005231065 -0.061423726 0.045653395 -0.028281236
000320 ca d8 0b 3d 85 d8 8a bb 6c f3 98 bc 84 83 13 3d
       0.034142293 -0.004237237 -0.01867076 0.036014095
000330 bb fe 0d 3b f4 c1 1f bd 3f ae 83 3c df 47 9f 3d
       0.0021666724 -0.039003327 0.016074298 0.0777738
000340 4c da 55 3d 3f 8f be 3d ef 58 76 3d f3 cf a2 3c
       0.052210137 0.09304666 0.060143407 0.019874549
000350 63 ef 9f 3c c0 ac 97 bd 66 9f 90 3d 44 c3 39 3c
       0.019523328 -0.07405996 0.07061653 0.011338059
000360 df f2 f1 3c 5b 74 60 bd e3 6e 45 3d 25 cc 47 bd
       0.029534755 -0.054798465 0.048201453 -0.04877867
000370 ca 55 cc bc 67 4d 69 3d ff 30 88 3c 66 db 87 bd
       -0.024943251 0.056958582 0.016624926 -0.06633644
000380 ef 0a 9b bd 76 ff a3 bc 16 15 1e 3d d0 27 b5 3c
       -0.07570445 -0.020019274 0.038594328 0.02211371
000390 e5 99 87 3c 66 41 69 3b a2 ca 7e bd 6c 5f 1f bb
       0.016552875 0.003559196 -0.062204964 -0.002431835
0003a0 2b 5a 18 3c aa b1 53 bc ea 85 5d bd 8d c4 d0 bc
       0.0092988415 -0.012920776 -0.05408279 -0.025484348
0003b0 45 0e 44 3d 7c 13 9a 3c 11 b9 0e 3d e3 2a a4 3b
       0.04786517 0.018808119 0.03484446 0.0050099953
0003c0 bb 96 c0 bc 82 8c 93 3d e8 9c f1 bb 01 a4 50 3d
       -0.023509374 0.07204534 -0.007373441 0.050937656
0003d0 a5 43 c2 3d d6 a8 14 3d da 8f 87 3c 47 da 53 3d
       0.094855584 0.036293827 0.016548086 0.051721837
0003e0 81 0b 7d 3d 9f 14 d6 3d 93 cd 92 bd 83 8f 7d 3d
       0.06177855 0.10453152 -0.071681164 0.06190444
0003f0 c1 a8 9e 3d 52 32 82 3d 38 62 07 3d e7 05 8a 3d
       0.07747031 0.06357254 0.033052653 0.06739407

conv2.bias f4 [16]
000000 3b 66 2f be a7 1d 94 3d 52 cb 8e bd d0 a0 4a 3c
       -0.17128842 0.07232218 -0.06972374 0.012367442
000010 5d 2b c3 bb 7f 76 9b bd a9 fa 13 be 7c 84 58 39
       -0.005956097 -0.07590961 -0.14451088 0.0002064872
000020 4a cb 86 bb c9 2d 58 3b 6a 69 a2 bd c1 f4 8d bc
       -0.0041135894 0.0032986274 -0.079302624 -0.017328622
000030 60 b9 c4 3a 4a 80 e4 bc 89 43 39 3c d4 ec d1 3c
       0.0015008859 -0.027893204 0.011307606 0.025625624

fc1.weight f4 [120, 584]
000000 7e 0a 86 3c 25 7c f4 3b dd 46 20 3c 89 f2 03 3d
       0.016362425 0.0074610882 0.00978252 0.03221372
000010 0b 97 47 bd 56 67 57 3c 42 23 08 3d 84 3a 82 3c
       -0.04872803 0.013147196 0.03323675 0.015897043
000020 e3 6d dd 3c 2c cf fa 3c 23 b8 20 bc 39 23 f3 ba
       0.027029937 0.030616365 -0.009809527 -0.0018549926
000030 94 92 07 3d 4f 96 8e bc fa 04 8f 3c 92 03 dc ba
       0.033098772 -0.017405657 0.017458428 -0.0016785732
000040 e8 39 5d bb 91 28 c9 3c 7c f0 8c 3c a3 4d 2e bc
       -0.0033756439 0.024555476 0.017204516 -0.010638627
000050 07 91 0c 3b 75 db a8 bc c6 53 0d 3a 1b a0 d5 3b
       0.0021448748 -0.020612458 0.00053912064 0.00651933
000060 c3 c8 14 3d 75 ee 87 3c e2 51 14 bc ca a0 0d 3b
       0.036324274 0.016593197 -0.0090527255 0.002161073
000070 28 31 5f 3d 64 1a 1a 3d 7d 78 aa 3b e1 6b 8e bc
       0.05449024 0.037622824 0.0052023516 -0.017385425
000080 cb 03 2a 3d 8d af b3 3d 1a 1f b9 3c bd 21 5e 3d
       0.041507524 0.08773718 0.022597838 0.054231394
000090 a6 03 8d bb 36 29 c3 bc b1 26 ca bc 52 d6 3e 3d
       -0.0043034134 -0.023823362 -0.024676653 0.04659111
0000a0 41 78 4b 3d 14 3c d1 3c 0b 85 ce 3c 16 de 17 bd
       0.04967523 0.025541343 0.025209924 -0.037077032
0000b0 3d 80 2d bc f9 3f f7 bc b0 09 31 3d 79 fc 17 bd
       -0.010589656 -0.030181872 0.04322213 -0.03710601
0000c0 43 33 03 3b a5 fe 40 3c 23 3b 15 3b a3 13 18 bd
       0.0020019568 0.011779462 0.0022770844 -0.037128102
0000d0 97 08 32 bc 8b 0f e5 bc 3f f6 d9 3c 2a e5 48 bc
       -0.010866306 -0.027961513 0.026606677 -0.012261668
0000e0 91 5c bb bb 6c 8b be 3b 26 de 06 3d e7 5b e9 3c
       -0.005717822 0.00581496 0.0329267 0.028486205
0000f0 1d 09 a1 3c 57 49 86 3c 85 90 86 bb d3 74 fa bc
       0.019657666 0.016392393 -0.0041065835 -0.030573284
000100 1b 06 8d 3c 5b 37 40 bd d6 fb e9 bc d2 38 21 3d
       0.017214825 -0.04692779 -0.028562468 0.03936083
000110 40 78 58 bc 72 f7 c8 3c 97 53 9a 3c 3d 9b 9a bc
       -0.013212264 0.024532054 0.018838687 -0.018872852
000120 e1 9f ba bc 56 de 9b 3c 71 6f c0 bc 67 b2 91 3b
       -0.022781314 0.019026916 -0.02349064 0.004446316
000130 3f c8 ab bc 94 22 0c bc a1 6f a4 3a 19 07 e9 bc
       -0.020969508 -0.008553166 0.0012545475 -0.028445767
000140 44 64 8e bc 17 a4 77 bc 8c 7f 9a bb b8 a5 75 bd
       -0.017381795 -0.015114806 -0.004714912 -0.059972495
000150 48 e5 ab bc d4 e3 11 3a 67 0e 43 b8 cc fd ea 3c
       -0.020983353 0.000556526 -4.6505036e-05 0.028685473
000160 dc 3b a2 b8 94 f0 c8 b9 6f b0 ae bc 94 73 07 3d
       -7.735912e-05 -0.00038326217 -0.021324364 0.03306921
000170 16 c4 80 bd 8b 25 4e bd 26 30 fb 3c 4e b3 e3 bc
       -0.062874004 -0.050328773 0.030662607 -0.02779546
000180 8b 57 d2 3c 8f 95 ac bc 2f 40 75 bc 1d a1 9f 3c
       0.02567651 -0.021067409 -0.014968916 0.019486004
000190 b5 6b 18 bc 7e 23 84 bb 97 98 2a 3d 72 78 60 3c
       -0.009303023 -0.0040325513 0.041649427 0.013700591
0001a0 d8 97 cc 3b f2 f8 e1 3c 54 9e 94 3d b1 70 1b bd
       0.006243687 0.027584527 0.07256761 -0.037949268
0001b0 32 be 15 bd 56 bc 89 bc 90 f9 9f 3c b4 dd fa 3c
       -0.036558338 -0.016813438 0.01952818 0.030623294
0001c0 a0 b9 cd 3c dc 24 41 bc 4c 60 64 3c 80 d9 de ba
       0.025112927 -0.011788573 0.013938975 -0.0017002076
0001d0 91 51 29 bd 23 0e 06 bd 4c d4 c7 bc de 70 b0 bc
       -0.041337553 -0.032728326 -0.024393223 -0.021538194
0001e0 70 f8 f3 3b 42 86 99 3c 39 b5 a8 bc 78 d1 f2 3b
       0.0074453875 0.018740777 -0.020594226 0.0074102245
0001f0 12 66 9a 3c 47 41 e5 bc 80 9a fd 3c 5a f8 24 bd
       0.018847499 -0.027985228 0.03095746 -0.04027591
000200 68 2f b3 3b 95 1a 87 bc 94 f2 83 bc d6 83 c3 bc
       0.0054682977 -0.016492167 -0.016106881 -0.023866575
000210 40 ba 65 3b 04 40 ee bc 68 62 c2 3b 10 99 b3 3b
       0.003505364 -0.02908326 0.005932141 0.005480893
000220 b0 f2 4f 3c b8 1a e8 bb ae 11 04 bd a0 44 fa 3b
       0.012692139 -0.0070832632 -0.032243423 0.0076375753
000230 31 d1 19 bd ea dd 6d bc 93 9f a5 bc be 4d a2 3c
       -0.037553016 -0.0145182405 -0.020217692 0.019812461
000240 b8 ef c8 bc 70 0f 1b bd 45 3b 1a 3d 9b e2 dc 3c
       -0.02452837 -0.03785652 0.03765418 0.026963523
000250 a4 63 84 3a 16 27 48 bc 48 24 0d 3d 1c a7 fb 3c
       0.0010100496 -0.01221635 0.03445843 0.030719332
000260 e6 af 06 3d 10 00 d6 bc 64 43 41 bc f8 45 6c bc
       0.032882594 -0.026123077 -0.011795852 -0.014420979
000270 37 ad 92 3c c8 8b f1 3c 31 4a aa bc 30 28 ba bc
       0.01790486 0.029485598 -0.02078733 -0.022724241
000280 9c 4b f3 bc 35 07 0e 3c 1b 66 d3 bb 58 24 f4 bb
       -0.02969914 0.0086687105 -0.006451381 -0.0074506216
000290 fc 73 03 bd 0f 41 ff 3c 20 f9 e1 3b 71 1f 15 bd
       -0.032093033 0.031158952 0.006896153 -0.036406938
0002a0 f7 e6 04 bd 04 3d f3 bc 6d a6 a0 3b 09 95 a4 bc
       -0.032446828 -0.02969218 0.004902652 -0.020090597
0002b0 00 80 59 3b de 95 23 bd 14 3e d7 3c 24 e4 de 3c
       0.0033187866 -0.039937846 0.026274718 0.027208395
0002c0 0c 85 a9 bc 9e 77 1e 3d f0 41 e8 3b 34 42 f5 3c
       -0.020693325 0.038688295 0.0070879385 0.029938795
0002d0 d5 a2 d5 bb f7 4a 1d 3d 7f aa b4 3c 4f ee 7b bc
       -0.006519655 0.03840157 0.022053955 -0.015376641
0002e0 28 57 42 bb d8 6a a1 bc f6 89 85 bc 1e e8 b5 3c
       -0.0029654 -0.019704267 -0.016301136 0.022205409
0002f0 f0 e6 b6 3c 23 5a 96 3c de dd 5c 3b c9 41 27 bd
       0.022326916 0.018353527 0.003370158 -0.040834222
000300 12 aa f8 3c 84 ff ee 3c b7 fc f9 3c c6 3b c3 bc
       0.030354533 0.029174574 0.030516012 -0.023832213
000310 9a ff f3 3b 03 bc 1e bc 8a 98 44 bb e8 50 cc bc
       0.0074462416 -0.00968838 -0.0029998147 -0.024940923
000320 ce cf 18 bc 5d cb 91 bc 3b a2 ab 3c b5 8f cb bc
       -0.009326888 -0.017797166 0.020951381 -0.024848798
000330 d8 d8 20 3b 01 0a 65 ba fb 5c 12 3d 33 09 66 bc
       0.0024543311 -0.00087371474 0.035733204 -0.014040279
000340 70 6f 16 b9 68 40 ec bc bd 72 a6 bc 6e 97 bb 3b
       -0.00014346628 -0.028839305 -0.020318383 0.005724839
000350 ef 68 52 3c 26 e9 1f bd 59 33 79 bc e0 f8 0d 3d
       0.012842401 -0.039040707 -0.015209996 0.034661174
000360 01 76 56 bd 6d 0b c8 3b 69 9d 34 3c aa d6 a6 bc
       -0.05235863 0.0061048777 0.011023858 -0.020366032
000370 b9 bf 46 bd e6 67 54 bb a8 a7 13 bd c2 8a 9b 3b
       -0.048522685 -0.003241056 -0.03604856 0.004746766
000380 c1 a0 38 3c 69 a0 79 bc 52 5e 04 bd 52 b6 09 bd
       0.0112687955 -0.015235999 -0.032316513 -0.03362114
000390 c5 a0 24 bd 2a a7 4c bb 84 28 29 3b 58 98 fb 3c
       -0.040192384 -0.0031227567 0.0025811503 0.030712292
0003a0 55 52 4e bd 5f 2e 54 3c 03 32 1f bc 26 46 41 bd
       -0.050371487 0.012950509 -0.009716514 -0.04718604
0003b0 c3 64 22 bd 87 a4 f1 bc dc 6b f6 bc 6b bc 9e 3c
       -0.039646875 -0.029497398 -0.030080728 0.019376954
0003c0 fc 9f ec bc 18 b1 c4 bb dd ae c0 bc b9 39 82 3d
       -0.02888488 -0.0060025565 -0.023520881 0.06358666
0003d0 47 12 e9 3c 4b 48 f9 3c 1c 9d ec bc 6c 65 a0 bc
       0.028451098 0.03042998 -0.02888351 -0.019579612
0003e0 c7 70 d8 ba 0b ad 31 3d 5b a8 1d 3b ec 1b 25 bc
       -0.0016513102 0.043377917 0.0024056647 -0.010077458
0003f0 41 f4 2b bc 16 54 fc 3c d9 7c c2 bb e2 f5 37 bb
       -0.010495246 0.030801814 -0.005935293 -0.0028070142

fc1.bias f4 [120]
000000 45 aa 0c bd ed 8e d2 bc ab 75 93 3c fa 3e 7f bb
       -0.03434207 -0.025702918 0.018000444 -0.003894745
000010 21 0b 12 3b 1c a4 12 bc 51 63 2b 3c 01 45 43 3d
       0.0022284465 -0.00895026 0.010460691 0.04767323
000020 53 c0 e2 bc 55 9c 20 bb c9 82 49 3d 0e db 89 3c
       -0.027679598 -0.0024507244 0.049196992 0.016828086
000030 6e a8 fc 3c ce 82 38 3c 74 b1 d7 bc 8c cd a4 3c
       0.030842032 0.011261655 -0.026329733 0.020117544
000040 07 4e aa bc c5 44 c0 3c c4 e9 5b bc 05 5e dd 3c
       -0.02078916 0.023470292 -0.013422433 0.027022371
000050 24 26 58 3c 93 a1 31 bc 28 90 c4 bc ee 44 dd bc
       0.013192687 -0.010841745 -0.02399452 -0.027010407
000060 52 0f 36 3d c4 43 10 bc 5a a4 ca 3c e3 ab d9 bc
       0.044448204 -0.008805219 0.024736572 -0.02657122
000070 67 92 ee 3c e2 6f 19 3c e1 4b 04 3d 2d fa dc bb
       0.029122544 0.009365054 0.032298926 -0.0067436905
000080 a5 5e 0b 3d 31 5d 9b 3c b6 24 83 bc ff 07 4c 3c
       0.034025807 0.018965336 -0.016008716 0.012453078
000090 d8 e8 5e bc 49 37 e3 bc 13 e9 25 3d 37 f0 e6 3b
       -0.013605319 -0.027736323 0.04050548 0.007047679
0000a0 68 08 2d bb fb 82 dd 3c 47 97 e4 3c 63 0d e8 3c
       -0.0026402716 0.027039995 0.027904166 0.028326696
0000b0 ec 44 98 bc 72 87 44 3d 35 21 8c 3c d8 58 c0 3c
       -0.018587552 0.047980733 0.017105678 0.023479864
0000c0 f1 07 a1 bc 1e 09 f9 3c c4 df 45 bc f1 b0 d5 bc
       -0.019657107 0.030399855 -0.012077276 -0.026085349
0000d0 3e a4 8f bc f3 de 0e bd a6 7c f0 3c 9a 44 01 3d
       -0.017534371 -0.03488059 0.029356312 0.031559564
0000e0 0f 2b 01 bd 21 90 a7 bc 30 23 f2 3b 1b 8b 5c 3c
       -0.031535204 -0.020454468 0.0073894486 0.0134609
0000f0 55 7a 97 3c b0 5f ad 3c 86 57 13 bd ed 11 d1 b9
       0.01849095 0.021163791 -0.03597214 -0.00039876942
000100 f7 5a 66 bc 30 6b 94 3a 4b ad 13 bd 74 de 65 3a
       -0.014059774 0.0011323448 -0.036053937 0.0008768805
000110 9b 3e 57 3b 93 12 fd 3b 90 09 d4 3c 83 f8 e3 bc
       0.0032843712 0.0077231615 0.025883466 -0.02782846
000120 e8 a6 07 bd 8e 75 30 bb 28 87 c2 3c 2b bf a6 3c
       -0.03311816 -0.0026925537 0.023746088 0.020354828
000130 85 46 41 3d c4 c3 a3 3c f1 ce 41 3c bb 46 f9 3a
       0.047186393 0.01999081 0.011829124 0.0019018272
000140 7f aa 8e bb c9 76 27 bb ea 69 69 bb 33 91 23 3d
       -0.004353821 -0.002555298 -0.0035616108 0.039933395
000150 ea f6 b6 bc 54 43 30 3d a2 1c bc 3c 2e 3d 5c 3c
       -0.022334535 0.04303296 0.022962872 0.013442321
000160 6e 11 67 3b ee 56 bc 39 23 c6 3b 3d 13 47 d5 bc
       0.0035258192 0.00035922922 0.045843255 -0.026034867
000170 e6 f3 1e bc c0 9e 35 bd 04 7a e4 bc 3a 84 0a 3d
       -0.009701705 -0.04434085 -0.027890213 0.033817507
000180 9c 7d 98 bc d9 66 e2 bc a0 7e 5a 3c 85 9d 49 bc
       -0.018614583 -0.027636932 0.013335854 -0.012305622
000190 6c 9a 11 3c d0 36 01 3c cb f9 d5 3c 4e 93 39 3c
       0.008886915 0.0078866035 0.026120087 0.011326624
0001a0 d3 00 18 bd 40 d5 61 3c d8 0f 5e 3c 1e bc c6 bb
       -0.03711016 0.013783753 0.013553582 -0.006064906
0001b0 12 2a 1d 3d d4 4b 63 bc 88 f2 cf 3c 30 1f cf 39
       0.0383702 -0.013873059 0.025384203 0.00039505353
0001c0 57 90 e5 bc bf 76 b7 3b 13 91 d3 bc 06 65 e2 bc
       -0.028022928 0.0055988724 -0.025826013 -0.027636062
0001d0 25 91 49 3d a1 92 46 3d 92 10 84 ba 0e e4 0f 3d
       0.049210686 0.04847968 -0.0010075739 0.0351296

fc2.weight f4 [84, 120]
000000 07 55 2b 3d c2 72 84 bd 41 1d 95 bc cc c4 15 bd
       0.041829135 -0.06467201 -0.018202426 -0.036564633
000010 e9 4e 3a 3d 15 da b8 3d 60 7e 07 bd 59 4a 6c bd
       0.04548541 0.09025971 -0.033079505 -0.05768809
000020 a5 f7 96 bc 62 20 9a 3c 15 82 b2 bd 59 48 a5 bd
       -0.018428633 0.01881427 -0.087162174 -0.0807044
000030 14 20 b3 bd 17 15 14 bd 52 0f 86 3d 2b b7 41 3d
       -0.08746353 -0.036152925 0.06545891 0.047293823
000040 19 58 85 3c 48 d0 dc 3c 69 ed 34 3d 48 58 71 3d
       0.01627736 0.026954785 0.044171724 0.058922082
000050 80 47 2e bd 64 3b 4a 3d 88 e3 87 3d 81 71 59 bc
       -0.042548656 0.049373046 0.06635195 -0.01327169
000060 e4 b7 02 bd b6 aa 8f 3d 80 7e eb 3a ae b2 30 3c
       -0.031913653 0.070149824 0.0017966777 0.010784788
000070 20 90 44 3d 32 4d 10 3b df 91 14 3c 10 ee 20 3c
       0.04798901 0.0022018668 0.0090679815 0.0098223835
000080 91 0c 2d bd 44 14 04 3d 32 c0 91 bd d0 1e dc bc
       -0.042248312 0.03224589 -0.071167365 -0.026870161
000090 f4 bc cc 3c c8 90 6a 3c dd 9b df bd ba c1 20 3d
       0.024992444 0.014316745 -0.109184004 0.039247252
0000a0 42 45 23 3c 77 83 5d 3c a0 fa 4d bd 82 93 3d 3d
       0.009965243 0.013520113 -0.050287843 0.046283253
0000b0 ad 7e 69 3d a1 72 0a 3d dc 24 bc bd d2 42 30 3d
       0.057005573 0.033800725 -0.09186718 0.043032475
0000c0 ca 9e 89 ba e5 90 28 bc 66 7a 95 3c c3 db 85 bc
       -0.0010499593 -0.010288452 0.01824684 -0.016340142
0000d0 23 e6 8c bd 6f aa 93 3d d6 96 89 bd 6c 7f cf 3d
       -0.068798326 0.07210242 -0.06718223 0.10131726
0000e0 07 46 4c 3d 92 f0 5e bd ad b1 09 3d 5c 7d b5 bc
       0.04987147 -0.054428644 0.03361671 -0.022154503
0000f0 98 ce 6f bc 31 74 47 3d 3a a3 ba 3d 0a 22 8b bd
       -0.014636658 0.048694793 0.09113164 -0.06793602
000100 ed 2f b3 bd 70 18 77 3d c1 5f a7 3d a7 4c f3 3c
       -0.087493755 0.06032604 0.081725605 0.029699637
000110 81 fa 96 3d d6 9b b2 3d 9b e6 f2 3c c1 c9 9f bd
       0.073719986 0.087211296 0.029650977 -0.078021534
000120 77 21 b2 3c 73 38 fc 3d db 4a da 3d a6 9b dc 3c
       0.021744473 0.12315454 0.10658809 0.026929688
000130 2d 5f 90 bd 48 6f d6 bd 85 19 52 bd 0f 08 8d 3d
       -0.07049403 -0.10470444 -0.05129387 0.06886303
000140 4f c9 28 bd be 60 95 3d 3e d8 c8 3d 51 e1 f7 bc
       -0.041207608 0.07293843 0.0980687 -0.030258806
000150 60 05 d9 bc 3c 58 65 3d 69 64 51 3d 96 ce 73 bc
       -0.02649182 0.05599235 0.05112115 -0.014880797
000160 28 49 26 3c ec 87 7d 3d ec 7f 8c 3d 49 13 8e 3d
       0.010149278 0.061897203 0.06860337 0.06937272
000170 de f3 27 3d 5e 73 6a 3a a9 16 c8 3b 11 5a 14 3d
       0.041004054 0.00089435827 0.006106217 0.036218707
000180 65 1f 0c 3d 25 7d 05 3d 03 41 21 3d ed 7f 21 3d
       0.034209628 0.03259005 0.03936864 0.03942864
000190 ae 00 d7 3b c8 0a aa bd b6 fa ae bb 8a c4 8e 3d
       0.0065613603 -0.083028376 -0.0053399457 0.069710806
0001a0 47 c0 8d 3d 0f e6 4f bd 0b a1 a3 bd 2b c2 02 3d
       0.069214396 -0.05075651 -0.07989701 0.031923454
0001b0 df 5b 9a bd 3e c8 a4 bc 89 fc 92 bb 9b bb ae bd
       -0.07537054 -0.020115014 -0.004485671 -0.08531877
0001c0 68 5d c2 3c df 4b 9b 3d e8 05 29 3b 5c 12 67 3d
       0.02372618 0.07582831 0.0025790874 0.056413993
0001d0 87 13 c9 3d 79 ca fa bb 2b 4a 4d 3d 04 10 28 3d
       0.09818178 -0.007653531 0.05011956 0.0410309
0001e0 12 77 fd 3c 4f d0 b6 bd 50 44 49 bd a8 5f c8 3d
       0.030940566 -0.089264505 -0.049137414 0.0978387
0001f0 f0 81 c3 3d eb df 94 3c 91 d1 46 bd 79 31 7f bc
       0.09546268 0.018173179 -0.0485397 -0.01557576
000200 b0 95 62 bd c5 d5 34 3d 22 b8 e7 3d 6a 3e 80 bd
       -0.055318534 0.04414918 0.113144174 -0.062619045
000210 42 1c 21 bd c4 04 ae 3d 7e c4 98 3c 33 a9 8c bd
       -0.03933359 0.08497003 0.018648382 -0.0686821
000220 10 50 be 3d f8 94 ae 3d a9 c6 35 3d 52 b7 80 3d
       0.092926145 0.08524507 0.04437891 0.062849656
000230 e5 85 88 bd 29 f2 15 3d ce a3 40 bd 56 52 3a bc
       -0.06666163 0.036607895 -0.047031216 -0.0113721695
000240 60 95 c5 bd 69 08 b0 3d 7e f4 23 3c 43 b9 15 3d
       -0.09647632 0.08595354 0.010007022 0.036553632
000250 97 4b f9 3c 32 c8 8f bd 92 08 01 be 40 a5 d6 bd
       0.030431552 -0.07020606 -0.12600926 -0.10480738
000260 aa f2 e7 3a 1a 9a 16 3d d9 a9 48 bd 95 6c 84 3d
       0.0017696221 0.036768056 -0.048990104 0.06466023
000270 d4 11 9e bd 8a b2 40 bd 8b 5a 9f 3d 97 74 d3 bd
       -0.07718244 -0.047045268 0.077809416 -0.10324972
000280 3e 33 b9 bd 4a 4d 6a 3d cc 86 bd 3c a1 0c a8 3d
       -0.09042977 0.057202615 0.023135565 0.08205534
000290 6c eb db 3d 2c d8 f5 3c 26 18 d5 3d d9 e4 82 3d
       0.107382625 0.030010305 0.104049966 0.063913055
0002a0 0f c1 b1 bd dd 24 84 3d a5 71 0b 3d 66 a4 d6 bd
       -0.08679401 0.064523436 0.034043927 -0.10480575
0002b0 55 eb bc bd 24 ce a3 3d 34 eb 7d bc af d7 b8 3c
       -0.092245735 0.079983026 -0.015497971 0.022563783
0002c0 ae 7d 7d bd 6b 3e 80 bd eb b9 a7 3d 3b 84 82 3d
       -0.061887436 -0.06261905 0.08189758 0.06372877
0002d0 0b 47 38 3d c1 75 87 bc 22 46 56 bd bb bb 95 3d
       0.044989627 -0.016535642 -0.052312978 0.07311197
0002e0 12 33 21 3d 7d 59 87 bd e5 77 34 3d 00 29 ec 3d
       0.039355345 -0.066088654 0.044059653 0.11531258
0002f0 81 7d 8b 3c 10 63 03 3d 63 1b 9e 39 97 64 09 bd
       0.017027618 0.032076895 0.00030156513 -0.033543196
000300 b8 a2 fc 3d a1 a7 54 bd ae 1b 90 bc b6 e2 2d 3d
       0.12335724 -0.051917676 -0.017591324 0.042452537
000310 a9 b3 92 bd 27 41 4e 3c 75 1a 6e bd c2 0a 8d 3d
       -0.07163174 0.012588776 -0.0581307 0.068868175
000320 de 49 7f bd 86 30 33 bd c4 4a ac 3d b0 75 fb 3c
       -0.062326305 -0.043747447 0.08412698 0.030695766
000330 53 3a 4c bd 68 a3 a3 bd bd cd 95 bc 2d 26 ee 3c
       -0.04986031 -0.07990152 -0.01828658 0.029070938
000340 98 58 b9 3d 80 50 83 3d 58 bb 41 3d 53 cf 59 3d
       0.09050101 0.064118385 0.047297806 0.053176235
000350 98 89 7d bd 68 08 6a bd 54 8e 03 3c e4 10 db bd
       -0.061898798 -0.057136923 0.008029539 -0.10696581
000360 3e ba 91 bb 2c a2 77 3d 7a a4 fc bc b5 d7 af 3d
       -0.0044472506 0.060457394 -0.030840147 0.08586065
000370 1a 2c f6 bc 43 3b d0 bc 47 9e 9f 3d ff 8c 7f bd
       -0.030050326 -0.025418883 0.07793861 -0.062390324
000380 b9 5a ba bd 32 65 66 bd d3 20 8f bc 11 df 82 bb
       -0.09099335 -0.05624885 -0.017471706 -0.0039938767
000390 4c f8 7e 3d ca ea 9c 3d ac 34 c7 3d 4d fc 43 bd
       0.062248513 0.0766197 0.09726843 -0.047848035
0003a0 03 2e 84 bd e8 32 7a 3d 60 0a 51 3d f8 96 eb 3c
       -0.064540885 0.061083704 0.051035285 0.028758511
0003b0 b2 62 f6 bc a0 4b f6 bd 53 5a 6c bb 2a 82 8b 3d
       -0.030076358 -0.12026143 -0.003606458 0.06811936
0003c0 4c d9 b9 3d b9 c0 92 3b 0f 87 a3 3d ff 3a 42 3d
       0.09074649 0.0044785407 0.07984745 0.047419544
0003d0 c4 cd ed bc d0 c4 68 3d e0 6e e0 bc 36 ca 9c bb
       -0.02902878 0.05682832 -0.02739662 -0.0047848476
0003e0 24 72 99 bd ac 12 89 3d cd 47 67 bc cf ea b3 3d
       -0.07492474 0.066930145 -0.01411624 0.087850206
0003f0 3b 43 80 3d 9b 8f 0b bd d5 69 03 bd e1 49 23 bc
       0.06262823 -0.0340725 -0.03208335 -0.009966345

fc2.bias f4 [84]
000000 44 74 74 3d 6f 20 90 3d e9 3b 8d bd 29 2c df bc
       0.059681192 0.07037436 -0.068961926 -0.027242737
000010 13 b8 91 3d 0e e6 64 bd 3b f6 bb 3d 2f 39 3c bd
       0.071151875 -0.05588346 0.09177824 -0.045952972
000020 d6 91 a4 3d a7 d3 8b bc c0 ff 98 bd a3 10 d6 b9
       0.080356285 -0.017068697 -0.074706554 -0.00040829656
000030 38 30 8f bd d0 6a 12 3d eb e5 fc 3c 3d b2 35 bd
       -0.06991619 0.035746396 0.030871352 -0.044359434
000040 16 4a a0 bd ca 8d 97 3c bf 41 05 3d d3 00 c4 3d
       -0.07826631 0.018500227 0.032533403 0.0957047
000050 ee 70 6a 3d 7c 01 8d 3d 40 f2 95 bd dc f1 ee 3b
       0.057236604 0.06885049 -0.07321596 0.0072920155
000060 0a 85 e9 3c 69 3a c0 3c dd f3 b7 bd 92 5a 9d bc
       0.02850582 0.023465352 -0.0898206 -0.019208226
000070 9a 34 05 3d 18 e9 92 bd 45 c3 b8 bd db d7 0a 3d
       0.032520868 -0.07173365 -0.0902162 0.033897262
000080 8a e2 f2 3b 23 71 09 3c 1f a9 6d bc e0 c4 a4 3d
       0.0074122595 0.00838879 -0.014505654 0.080453634
000090 98 90 3f 3c bd 1c 58 bc ef f6 39 3c b9 05 25 bb
       0.011692189 -0.0131904455 0.011350377 -0.0025180413
0000a0 8b 67 43 3d 67 cf 9c bd 79 ef ec 3d 02 14 b3 3c
       0.04770617 -0.07656746 0.11569113 0.021860126
0000b0 49 d2 93 bd 3b af f1 3b a4 6c a7 3c a6 f9 2e bd
       -0.07217843 0.0073756254 0.020437546 -0.042718552
0000c0 da db 68 3d 26 47 01 3e c3 2a 25 bd 46 ad e1 bb
       0.05685029 0.12624797 -0.040323984 -0.006887111
0000d0 39 70 50 bd 1d c3 5a bd 51 c8 5f 3d 6c 21 a8 3c
       -0.050888274 -0.05340873 0.054634396 0.02052375
0000e0 61 f9 4a 3d f3 1e 41 bd f0 2a 52 bd 97 3c 8b 3d
       0.049554233 -0.047148656 -0.05131048 0.06798666
0000f0 2f 91 be 3b eb 49 d7 bc a1 58 65 bd 07 e7 75 3d
       0.005815647 -0.026280364 -0.055992726 0.060034778
000100 2e e5 d8 3d 17 4c b9 3b 21 60 e6 3d 56 73 19 bd
       0.105905876 0.0056548226 0.11248804 -0.03746351
000110 e5 6c 70 bc d2 2a a9 3b cc 3d 80 bc 54 e2 52 3d
       -0.0146744 0.0051625753 -0.015654467 0.051485375
000120 33 8b 07 bd f5 e0 91 3d 20 12 ea 3d 8a 6b 88 bd
       -0.033091735 0.07122985 0.11429238 -0.066611364
000130 54 e3 d0 bc 07 d7 ac 3c ab 20 3c 3d 2d a4 17 bc
       -0.025499023 0.021098627 0.045929592 -0.009255451
000140 d9 e5 8a 3c 6d 02 8a 3d c4 c0 44 3c 02 36 53 3d
       0.016955303 0.06738744 0.0120088495 0.051565178

fc3.weight f4 [2, 84]
000000 c8 56 6b 3e 90 e1 89 be e5 cb b2 3d 88 f5 00 3e
       0.22982323 -0.26929903 0.08730296 0.12593663
000010 7f 12 9d 3e dc 7b 22 bd 9e 46 77 be 25 73 8c bd
       0.30678174 -0.039668903 -0.24148032 -0.068578996
000020 59 40 86 bd 48 af 01 be c6 5e b9 bd f2 bb 6d 3d
       -0.06555242 -0.1266452 -0.0905128 0.058040567
000030 b4 44 bc bc 07 ae 8b be 64 e2 b5 3c 94 d2 e2 3d
       -0.022981979 -0.2728121 0.022202678 0.11075321
000040 cb ce 36 3e 82 19 12 be fe be 29 be a0 ac e7 bd
       0.17852323 -0.14267543 -0.16576764 -0.113122225
000050 63 0d 84 be df dd 07 3e 5a 1a 60 be 80 b9 00 be
       -0.25791463 0.13268231 -0.21885052 -0.12570763
000060 13 85 f6 bd f4 80 2f 3d f9 a9 e8 3d d7 98 10 be
       -0.12037101 0.04284759 0.11360545 -0.14120804
000070 7c 9a 28 3e a8 e9 14 bd a9 da ca bd 59 e9 00 3d
       0.16465181 -0.036355644 -0.09904987 0.031472538
000080 a3 5f 32 be 3a 1b 7d 3e 3d c8 00 be cc f8 93 3e
       -0.17419295 0.24717417 -0.12576385 0.28900754
000090 3a ab 3b be 97 f7 5d 3d 6d dc 98 3d 0d 32 fd bd
       -0.18327036 0.0541912 0.07463918 -0.12363062
0000a0 60 2c be 3d 9a b0 53 3e db c7 7c 3e 1a ac 88 3c
       0.092858076 0.20672837 0.24685614 0.016683627
0000b0 1b a9 9f 3d 41 b8 1b 3d dd 55 a8 be fd 0b c0 bc
       0.07795926 0.038017515 -0.32878008 -0.023443216
0000c0 1d 69 a6 bd 5f 76 b1 3e d3 fa db bd dd 52 17 be
       -0.081255175 0.34660622 -0.107412 -0.14777704
0000d0 e0 d6 7d be 17 7f 0d 3e be 2f 5a 3e ef af a9 bc
       -0.24789 0.13818012 0.21307275 -0.020713774
0000e0 14 0a c8 be 3c 94 19 3d f3 ea 93 be 81 4f 88 be
       -0.3907019 0.037494883 -0.2889019 -0.26623157
0000f0 10 f9 cc 3d ab 65 0b be c2 bf f1 bd c6 14 fd bd
       0.100084424 -0.13613002 -0.11804153 -0.12357478
000100 2c bd 75 3e b8 45 b8 3e 9e dd 65 3e 23 7e ab 3e
       0.23997945 0.3599069 0.22447821 0.33494672
000110 a9 36 00 be 9b a2 81 be 86 26 11 3e 4a ac 03 be
       -0.12520851 -0.2531937 0.14174852 -0.12858692
000120 79 73 b8 3c b9 37 27 3d 90 17 a6 3d ca 1a b2 bd
       0.022516 0.040824626 0.08109963 -0.08696516
000130 81 74 61 bd f3 b4 fa 3d 2a 33 1e 3e ba 36 d6 3d
       -0.055042747 0.122415446 0.15449205 0.10459657
000140 7d a1 f8 bd 4b d4 0c 3e c0 ba 9e 3e d6 ed 80 bc
       -0.121401764 0.13752858 0.31001854 -0.015738409
000150 00 b2 53 bb 51 f8 87 bd 29 c4 41 3d 9d 5e a1 3d
       -0.0032302141 -0.066391595 0.047306214 0.07879374
000160 94 1f 38 be 64 e2 e6 bd d6 69 bd bd 60 1b fb 3d
       -0.17980796 -0.11273649 -0.09248702 0.12261081
000170 9b d8 be bd bf 70 14 be f0 7f f5 3d c8 16 e5 3d
       -0.09318658 -0.14496134 0.11987293 0.11185986
000180 20 b4 28 bd 2d d7 37 3e 94 d5 e2 3d 90 ca cd 3c
       -0.041187406 0.17953177 0.11075893 0.025121003
000190 3a e7 24 bd 1d e5 95 3d f8 dd 2c 3e 92 19 65 3e
       -0.040259577 0.073190905 0.1688155 0.22373036
0001a0 ac 48 84 3e d5 08 a4 3e c7 40 8a bd f0 2c 31 3e
       0.25836694 0.32037988 -0.067506365 0.17302299
0001b0 94 c9 44 3e a4 4c fa 3d 17 fd ab 3d 5d a7 4f be
       0.19217521 0.12221649 0.083978824 -0.20278688
0001c0 31 80 53 3e 2e c2 53 3d 67 af f0 3d 04 bd 57 3d
       0.2065437 0.051698856 0.11752205 0.052670494
0001d0 da 46 9a 3e e7 63 81 3e 5a 79 12 3e cd e2 9c be
       0.3013218 0.25271532 0.14304104 -0.30641785
0001e0 e1 11 52 bd 86 7b eb 3d bf 6a 6f 3e 40 00 46 be
       -0.051286582 0.114981696 0.23380564 -0.19336033
0001f0 20 0d 02 bf 18 78 a0 bd 5e 0d 6e be 93 c1 49 3c
       -0.5080128 -0.07835406 -0.23247287 0.012314218
000200 bf 66 29 3d 3b 94 b1 3e 16 43 59 be 62 ea ab 3e
       0.041357752 0.34683403 -0.21216998 0.33577257
000210 e8 61 31 3e fb c1 16 be 1d fb 3b be 07 74 23 be
       0.17322505 -0.14722435 -0.18357511 -0.1596223
000220 95 4d 29 bd 8d b3 78 3e 92 e8 39 3e f6 fa 7f be
       -0.041333754 0.24287243 0.18155125 -0.24998078
000230 cd f9 d4 3d f4 ab 8f 3d 57 69 1d 3e fb 2f 9b be
       0.10399208 0.07015219 0.15372215 -0.30310044
000240 74 23 8e ba 6b 2f 0f 3e 35 dc af 3c cc 66 24 be
       -0.0010844306 0.13982932 0.021467308 -0.16054839
000250 d2 a7 81 bd 99 98 d6 3e e2 eb 44 3d 79 73 a4 3e
       -0.06330837 0.41913298 0.048076518 0.3211935
000260 3e 9a de 3d a5 6b 38 3d f1 84 f0 bd f8 05 4a 3e
       0.10869263 0.045024533 -0.117441066 0.1972884
000270 6a 4e 16 bc 21 65 46 be b5 fc 55 be 05 74 e2 3d
       -0.009173969 -0.19374515 -0.20897181 0.11057285
000280 24 56 88 be c8 6e 99 be 24 a7 05 be d0 46 b3 3d
       -0.2662822 -0.29967332 -0.1305204 0.08753741
000290 10 e2 d6 3d 73 64 d3 3e c5 db 53 bb cb 87 68 3d
       0.10492337 0.41287574 -0.0032327038 0.056770127

fc3.bias f4 [2]
000000 58 a7 89 3e 70 3e 23 37
       0.26885486 9.7300945e-06
