src/models/train-on-expert+self-2.onnx (onnx, 336927 bytes, 10 tensors)

conv1.weight f4 [6, 5, 5, 5]
00000000: fd14 e33d e81c 053e 67f0 e73d f29e ec3d
00000010: db43 ed3d 63b8 c63d e6cc 913d 1824 a83d
00000020: 6c79 1f3e 5e98 09bc 58e7 0c3e a34f 4b3d
00000030: 4939 0d3e 8bf6 a93d 7f83 353e d4f3 613c
00000040: 5469 d93d c056 0a3e eab6 213e 992b 203e
00000050: 0c67 1abd 0c9b d03d d43b a53d 27a8 033d
00000060: 38a5 eaba 8d59 a9bc 40b3 033e 99ee 1f3e
00000070: bc05 8f3d b05e c53c 9e9a 4bba 832d a13c
00000080: 9474 463e 69b1 053e 202c 323d 8a90 f43d
00000090: fbea f73d 987a ff3d c61b e83c b5a1 fb3d
000000a0: ac3b 0b3e 13b2 d23c 9595 473e 988f c93d
000000b0: 9f95 8c3d 2c9c 053e 5bd6 ab3d 8ed4 283e
000000c0: cb15 263e 3e6f 313d a013 3fbd ddb1 623b
000000d0: 4f13 513d a9d1 2d3e 8c86 d63d 018e 5f3d
000000e0: 27a5 263e acf5 2b3d 34cc 3e3e 46d8 bcbb
000000f0: 103d 043c d3f8 d83c a7ce 5a3e b7f9 513e
00000100: aaf2 653d 42e2 f33d 5e86 ae3c dd20 3e3e
00000110: 329c e23d b6e1 e93d f411 9a3c d5f5 1b3e
00000120: 1bb6 363e a9da 3a3e 50d7 823c 6527 17bd
00000130: 8471 b5b6 0015 a63d d3bb 8e3c b485 fc3d
00000140: 1b3e adbc 23d6 293c c701 033e b2a5 f23d
00000150: c030 293e 5f6d d43d 7308 403e 2f53 083e
00000160: c7d8 123d 97cf 1e3e bf67 493d b6f5 1f3e
00000170: 98b0 363e 9961 b73d 6e97 ea3d 7fc4 ea3d
00000180: 73a6 9c3d 40b9 bc3d 28cb 483e 207a 2a3e
00000190: 3573 6a3c 4bf5 123e fe2c 133e 1cad b93d
000001a0: c660 193d 5df1 8e3c 67a1 403d d8f6 663d
000001b0: b505 853d 4712 d33d fc0c 4a3d 70f4 3b3e
000001c0: 3559 3e3e 8f53 973d 5ca1 263e c269 c73d
000001d0: 4e3a c03d 1631 fd3d 92c3 1e3e 3c84 a63d
000001e0: e321 9f3d 15b8 ba3d d988 9c3d f927 4e3d
000001f0: 950a 273e 99a7 9bbc 009c 633c 1063 87bd
00000200: 712d af3d fbc4 a6bd 903e a6bd f1a6 9e3d
00000210: ea3d babb dba1 053d 4325 ea3c e8ee 493d
00000220: f6dc 8bbb 1c95 b9bd 2624 363d 4025 27bd
00000230: 8e35 3fbc 8819 88bd 834f 583b 880e 99bd
00000240: 92f5 c03c f998 e4bc d8f2 1abc 5d12 bb3c
00000250: 1c13 bebd 4e00 8dbd c88d 89bd 5e8c 96bd
00000260: 39af 68bd 5f08 ea3c 61ec fa3c 8c6a a93d
00000270: 27e4 84bc 36c9 b23d b31a 9f3d 262e 4d3d
00000280: bcab 893c beb8 643d 1c78 a63d 75f6 ac3c
00000290: 7b9e b9bd f2ec f9bc fdf1 883d 8cc5 3dbd
000002a0: 01dd f73c 9d67 07bd 0904 b4bc d413 aa3d
000002b0: 8a54 cdbb 1b78 41ba 475b d5bc d18f be3d
000002c0: 7cf7 af3a 6c0c 99bd efcb 243c 659e 81bd
000002d0: b299 663d 880c 673d 1ff9 27bc ef19 41bd
000002e0: fad1 493c 112d b63d d5fe b13d 80cf bcbd
000002f0: 4ae3 05bd 2fbd a93c 23ae 473b a592 cc3a
00000300: c976 96bd b459 85bd 81ce 12bc 802e 47bd
00000310: aa4d d43c 037a 86bd d43c 723d ae96 2b3d
00000320: 1540 283d 4a03 bbbc 8f93 8b3c 7599 133d
00000330: 8954 27bd 0f49 67bc 7370 18bd 01e2 9dbd
00000340: 0e7b eebc 50de 353d 7ec7 bc3d 480c 803d
00000350: 9fe5 b1bd eede ac3d 8437 713d 0791 ac3d
00000360: 0170 ad3b 970c 513d 9a09 bbbc 4b68 883c
00000370: 0b03 2abd 55d5 b13b 3613 11bd a8a5 d5bc
00000380: 8b61 15bc 8ffd 6c3d 1641 8ebd 960b 0dbd
00000390: dd6d 6839 c1b2 6e3d 467c b63d cbc2 81bd
000003a0: a3dd 38bd c7f7 803d d514 dc3b e178 3ebd
000003b0: 4e5a 8e3d d3f9 6e3d ad1a 43bc e71e b6bd
000003c0: 7dc7 9a3d 4a75 583d 36d0 05bc 0924 a5bc
000003d0: f3d0 de3b e238 9d3d 19e3 34bd 6bee 893d
000003e0: 6f7d 933c 237a 353c ee30 0bba f3b4 023d
000003f0: 4fd9 913d 03f3 a6bd 338e 983a 966f 7dbb
0.110879876 0.12999308 0.1132515 0.11553754 0.11585208 0.09703138 0.071191594 0.08210009
0.15573663 -0.008398144 0.13760126 0.049636494 0.13791384 0.082989775 0.17725943 0.013791043
0.10615793 0.13509655 0.15792432 0.15641631 -0.03769593 0.10185823 0.08068052 0.032142784
-0.0017902022 -0.020672584 0.12861347 0.15618362 0.069835156 0.024093002 -0.0007766875 0.019675022
0.19380409 0.13055958 0.043499112 0.11941631 0.12105366 0.12474555 0.028333556 0.122867025
0.13596982 0.025719678 0.19490655 0.098418415 0.068644755 0.13047856 0.083904944 0.16487333
0.16219251 0.04331898 -0.046649575 0.0034590878 0.051043805 0.1697451 0.104748815 0.054578785
0.16273938 0.041982338 0.18632585 -0.0057630865 0.008071199 0.026485836 0.21367894 0.20505415
0.056139626 0.1190839 0.021304306 0.18567224 0.11064948 0.11420004 0.018807389 0.15230496
0.17842905 0.18247475 0.01597181 -0.036902804 -5.4074353e-06 0.08109474 0.017423546 0.12330189
-0.021147778 0.010365996 0.12793647 0.1184801 0.16522503 0.103724234 0.18753223 0.13312982
0.035851266 0.15508877 0.049171206 0.15621075 0.17840803 0.08954162 0.11454664 0.1146326
0.07648935 0.09215021 0.19608748 0.1664815 0.014309694 0.14351384 0.14372632 0.09066221
0.037445806 0.017449075 0.047028925 0.056387752 0.06495229 0.103062205 0.04932879 0.18354964
0.18588717 0.073889844 0.16272491 0.097369686 0.09386121 0.12362878 0.15504292 0.081306905
0.07770135 0.09117142 0.07643289 0.05033109 0.1631263 -0.019000815 0.013892174 -0.066106915
0.08553589 -0.0814304 -0.081174016 0.07746685 -0.0056836503 0.03262506 0.02858222 0.049300104
-0.004268284 -0.090616435 0.044468068 -0.04080701 -0.011670483 -0.06645495 0.0033006377 -0.07473475
0.023554597 -0.027904974 -0.0094573125 0.022835905 -0.092809886 -0.06884824 -0.06716496 -0.07350992
-0.05680773 0.028568445 0.030630292 0.08272275 -0.016222073 0.08729784 0.07768764 0.05009284
0.016805522 0.055840246 0.08128378 0.021113614 -0.09063431 -0.030508492 0.066867806 -0.046330974
0.03025675 -0.033057798 -0.02197458 0.08304563 -0.0062661814 -0.0007380263 -0.026044501 0.093047746
0.0013425197 -0.074730724 0.010058387 -0.063290395 0.05629892 0.056408435 -0.010252266 -0.047143873
0.012318129 0.088953145 0.086911835 -0.09219265 -0.032687463 0.020720093 0.0030468784 0.0015607668
-0.07346875 -0.0651125 -0.008960367 -0.04862833 0.02591594 -0.06566241 0.05914004 0.041891746
0.04107674 -0.022828717 0.017038135 0.03603502 -0.040852103 -0.01411654 -0.037216615 -0.077091224
-0.029111411 0.044401467 0.092177376 0.062523425 -0.08686375 0.08440958 0.058890834 0.08426099
0.005292893 0.051037397 -0.022831727 0.016651293 -0.04150681 0.0054270425 -0.03541871 -0.026079968
-0.009117494 0.057859 -0.06946008 -0.034434877 0.00022166171 0.05827594 0.08910422 -0.06335982
-0.045133244 0.0629726 0.0067163506 -0.046501998 0.06950818 0.05834372 -0.0119082155 -0.08892613
0.075575806 0.05284623 -0.008167317 -0.020158784 0.006799811 0.07676865 -0.04416189 0.06734928
0.018004147 0.011076483 -0.000530972 0.031910848 0.071215264 -0.081518196 0.0011639058 -0.0038671247

conv1.bias f4 [6]
00000000: 0ccb 23be 0688 663d dcad bb3c 7585 f5bd
00000010: 634f afbd 8ef4 003c
-0.15995425 0.056282066 0.022910051 -0.119883455 -0.08560064 0.007870806

conv2.weight f4 [16, 6, 5, 5]
00000000: ce07 0bbe 3de9 e8bc a29a 02bd 33df 8b3b
00000010: bf4d 893d 0678 99bd 8763 f93c 3613 833c
00000020: 7ca4 1e3d 1b7f d83d bb6f 833b 86d2 b33b
00000030: e6e5 ae3c 582a c43d 2d8e 563d d7c7 b8bc
00000040: 1203 943d a7e4 e13b d214 293d de37 183d
00000050: 0599 e7bc 3651 7c3d 1064 25bc 92c3 99bd
00000060: 56ab 8e3d cf20 d9b9 cfe4 1bbd 449c d03b
00000070: c9e8 cd3c d611 9e3b 80f2 9e3a 5fe6 dd3c
00000080: bcc4 4f3d a0aa d83b abf8 98bc 3fd8 31bd
00000090: 4bc6 92bd 2e63 303d 5744 54bd 82eb 863d
000000a0: c7b8 6fbd 1778 25bd 253f 94bc c45c b9bb
000000b0: 754a ebbc 9cab 64bd 93b4 a2bd 4623 8abd
000000c0: e735 cfbc ccfa 9fbd fee9 76bd 8733 99bd
000000d0: 713e 08bc 5db4 3a3c 9dce a8bc f155 933d
000000e0: 9460 723d 4e61 843c a527 81bd 49f9 a33d
000000f0: 8981 323d 86c1 e9bc b443 863d 963b 36bb
00000100: 9048 67bd 959c 07bc d442 f5bb 5837 fe3c
00000110: 23e4 65bd e5b0 4fbd 7925 a9bc 4351 4cbd
00000120: 17e8 8c3b f866 8e3d 3fb7 3b3d 56f7 42bc
00000130: a61b c5bd 6cec 843d fba6 fc3b e0e5 87bd
00000140: bb91 90bd 4219 6d3c a261 283c e4fd d3bc
00000150: 54c0 b93d 9a8e 59bd ab85 8bbd 74d0 90bc
00000160: a5cf cf3d 3038 d83d 0aaa 8f3d ce01 a3bc
00000170: 7787 1fbd 2514 6ebc bce0 adbb fbbc b6bc
00000180: 7876 89bd 335f ef3c 8ad3 cebc 8cd7 483d
00000190: 690e 66bd 13f9 0ebd 100d 74bd 9f17 3cbd
000001a0: 49c8 e33c 3953 8f3d 034a 8fbc bada 093d
000001b0: 4751 593d 9aa2 da3b 7174 253d dde2 103d
000001c0: 2312 65bb cca2 603d dcdf 8bbd 8b1b 44bd
000001d0: dc33 923d 2fa4 6f3d 1000 9dbd 9e4b 883d
000001e0: 4c2a 98bd a29b 82bd a4a0 213d 4b09 78bc
000001f0: c795 7bbd bae5 adbd 3117 1a3c a41b 043d
00000200: 2c30 083d 83ed 973d ce92 61bd 7031 b83c
00000210: a485 103d 80c4 1e3d 291f ac3c 2bb3 a8bb
00000220: 15c2 7b3c 23b2 67bd 9876 d0bb f333 383d
00000230: d40e 25bd b05c f6ba 1fb8 ba3c 0245 08bd
00000240: 9b9f a73d 759f 7dbd 18df 183d b673 a9bd
00000250: 7f2b 61bd b8cc 0d3c 4c66 07bd bc9a 8abd
00000260: 3298 49bd ee06 d9bb e05f 473d 7215 8bbd
00000270: 2101 94bd c031 37bc 2411 a3bd a282 1d3d
00000280: ba15 6ebc fd54 9f3d 9970 d6bb ce20 dbbc
00000290: d4db 17bd 444f f2bc d528 c7bb 5a53 8cbd
000002a0: ff6a 283d e623 82bd ddfb 13bd 0fd2 f3bb
000002b0: 82ee 393d 20d1 533d d10a 53bd 74ca 293d
000002c0: 059b 90bd c399 4d3d 800f 3c3a 83da 9f3d
000002d0: fefd 623d d760 6b3d bcd0 933d 391f 51bd
000002e0: 1151 403d 859b 0f3d 519c 8f3c 3bb5 003d
000002f0: 9b4d 26bd bb8e 8f3d d2b8 4a3d d245 49bb
00000300: 6083 a33d c3b8 8dbd 0068 a1bd b4e4 5dbc
00000310: ac4b 3b3d 0689 3d3d 3682 013c 41e7 f5bb
00000320: 9e36 81bd 6971 273d c030 0d3d 1c5a 203d
00000330: ee5c a3bc 2f84 653d e8e5 5bbd 0128 573d
00000340: c932 923d 8a0b 6a3c ec6d 1f3c a5e1 09bd
00000350: c61b 7a3d fb40 5ebd 0bbc 81bc 2ff9 163c
00000360: 7f1e 6c3b a553 4c3c 0da4 9b3b 3cde 6fbc
00000370: 27af 953d 681b ae3c 5ca8 8cbd 9d45 89bc
00000380: 3fa7 28bd 0040 38bd af6a 40bd 7284 433d
00000390: 62a5 a7bd 8648 fb3c b71d ebbb afcf a9ba
000003a0: fd3e acba 36d0 71bd f439 94bc e23c 87bc
000003b0: 673a 943a 27f6 9cbd 918c ac3c 21b1 9a3d
000003c0: a9c8 04bd a698 92bd 4b53 973c c5f0 b13c
000003d0: 4c01 8b3d 4189 8bbd af5c 863b 9884 823d
000003e0: 05e1 d33c d00b 89bd c794 87bd a71e dabc
000003f0: 3952 10bd d05c 1f3d 1b9e 1abd b88d 22bc
-0.13577196 -0.02843153 -0.03188575 0.004268551 0.06704282 -0.07493596 0.030442966 0.016000371
0.038731083 0.105711184 0.004011122 0.005487743 0.021349858 0.09578389 0.052381683 -0.022556229
0.07227148 0.0068937126 0.04127962 0.037162654 -0.028271208 0.061600886 -0.010094658 -0.07508005
0.069662735 -0.0004141391 -0.038060006 0.0063662846 0.025135415 0.0048239036 0.0012126714 0.027087389
0.05072473 0.006612137 -0.018673262 -0.04341912 -0.07166728 0.043063335 -0.051822986 0.06587888
-0.058525827 -0.04039773 -0.018096516 -0.0056568105 -0.028722027 -0.055827722 -0.07944598 -0.06745009
-0.025294257 -0.078115076 -0.060281746 -0.07480531 -0.008315668 0.011395541 -0.020606333 0.071941264
0.059174135 0.01615968 -0.0630639 0.08006532 0.043580566 -0.028534662 0.06555882 -0.0027806512
-0.056465685 -0.008277078 -0.007484773 0.03103225 -0.05612577 -0.05070581 -0.020647751 -0.049882185
0.004300128 0.069532335 0.045829054 -0.01189979 -0.09624414 0.064904064 0.0077103353 -0.06635642
-0.07059046 0.014471354 0.010277184 -0.0258779 0.09069887 -0.05311451 -0.068126045 -0.017677523
0.10147027 0.10557592 0.07014854 -0.019898321 -0.03894755 -0.01453117 -0.0053063314 -0.02230691
-0.06712049 0.0292202 -0.025247354 0.049033687 -0.056166086 -0.034905504 -0.05958277 -0.045920964
0.027805464 0.06998295 -0.017491346 0.03365586 0.053056028 0.0066722156 0.04039425 0.035372604
-0.0034953437 0.054842755 -0.06829807 -0.04787783 0.07138798 0.058506187 -0.076660275 0.06655048
-0.074299425 -0.06377341 0.03945984 -0.015138934 -0.061422136 -0.084910825 0.009404943 0.032252923
0.033249065 0.07418349 -0.055071644 0.022484511 0.0352837 0.038761616 0.021010952 -0.0051483116
0.015366097 -0.05656637 -0.0063617937 0.044971418 -0.040297344 -0.0018795934 0.022792874 -0.033268936
0.08184739 -0.06191965 0.037322134 -0.08274023 -0.05497312 0.008654766 -0.033056542 -0.067677945
-0.04921741 -0.0066231405 0.048675418 -0.067912 -0.07226778 -0.011181295 -0.07962254 0.03845466
-0.014531547 0.07779882 -0.0065441844 -0.026749041 -0.03707488 -0.029578812 -0.0060778656 -0.068518355
0.041117664 -0.06354503 -0.036128867 -0.0074408124 0.045393474 0.05171311 -0.051523987 0.04145284
-0.07060818 0.050195467 0.00071739405 0.0780535 0.055418007 0.0574654 0.07217547 -0.051055167
0.04695231 0.035060424 0.017530592 0.031422835 -0.040601354 0.070096456 0.049492665 -0.0030711782
0.07984042 -0.06920006 -0.078811646 -0.013543297 0.045726463 0.046273254 0.00790458 -0.0075043743
-0.063092455 0.04087964 0.03447032 0.039148435 -0.019941773 0.056034263 -0.053686053 0.052528385
0.07138593 0.014284978 0.009730797 -0.033662457 0.061061643 -0.05426119 -0.015836736 0.009214683
0.003602892 0.012471114 0.004749781 -0.014640387 0.07308798 0.021253303 -0.068680495 -0.016756827
-0.041175123 -0.04498291 -0.04697674 0.04773373 -0.08185841 0.03067423 -0.007175173 -0.0012955571
-0.001314133 -0.059036456 -0.01809404 -0.016508523 0.0011308909 -0.07664137 0.021063121 0.07553316
-0.032417927 -0.07158022 0.018472334 0.021721253 0.06787357 -0.068132885 0.004100404 0.063729465
0.025864134 -0.06691706 -0.06620174 -0.026625944 -0.035234664 0.038906872 -0.037748437 -0.009921484

conv2.bias f4 [16]
00000000: 9eaa 403d 415c 7a3d c28d 72bc c000 1d3c
00000010: 80c3 493d 5d47 3abc 800f 793d 486b 043c
00000020: bee5 f9bc f10d f83c 3c3f c63d 9887 82bd
00000030: 4645 bcbd 8379 febc 61c0 95bd 7561 ff3c
0.047037713 0.061123136 -0.0148043055 0.009582698 0.04925871 -0.011369553 0.060805798 0.0080822185
-0.030505057 0.030280085 0.0968003 -0.06373519 -0.091929 -0.0310638 -0.07312084 0.0311744

fc1.weight f4 [120, 584]
00000000: d8bf 12bc d9f9 8cbc c744 6d3b 62c2 27bc
00000010: b7b5 b03b 0966 c03c 7d50 ac3c 7cc7 eabc
00000020: 5195 bbbc 332c 09bc 4bc7 16bd bd56 2c3d
00000030: 239e 6ebc 5e59 08bd c086 1ebd a3e5 6d3c
00000040: a471 5d3c fbe1 11bd 3c68 f9bc 1a84 673c
00000050: 0787 fb3c 2e25 243d dec6 9dbc 86fa dc3c
00000060: 073b 903c 8e91 11ba 7733 f33c 198c 363d
00000070: 2521 9f3c ac55 4a3d bb90 f8bc 5075 be3c
00000080: 7f94 173d dd08 9bbc 6dd2 d33c a33a 88bc
00000090: dcad f73c 3cb7 143d 5085 c0bc 9356 10bd
000000a0: a8f0 623c 0f98 a7bc c44c 033d ba83 1d3d
000000b0: 51c9 883c 55c8 98bc 67c3 0f3c 7d1b cebc
000000c0: a28e 3bbc de15 67bc a064 873b 7337 233d
000000d0: 337f 8ebc eaf2 a2bc 7e3f 0e3d de1d a9bc
000000e0: 0985 b8bc edb0 153d ec81 df3b 7f44 b53c
000000f0: 7fca 9fbc d108 a839 556d 143d 922e b2bc
00000100: dc8a 3bbc 494d b33c 8db8 b93b 119f d43c
00000110: 7769 29bc a05b f6bc 8bc9 f63c 08c6 ce3c
00000120: a0bd ba3c 2645 9db9 7cda c93c dcc3 45bd
00000130: 3217 b83c 772b 503b 6b84 1b3d b47b 7fbc
00000140: 1660 d23c 01ef be3c 3c7d 2f3d b29d d1bc
00000150: ca40 23bd 34d1 aa3c 2efe 16bc 2c78 a3bc
00000160: 7a8c 1a3d 47cc 76bc 3d7c 3c3b ca2e 54bc
00000170: bb8a cb3c 5957 9fbb d49c af3c 722c bfbc
00000180: 600d 073c c3a2 b13a a1c2 ffbc af25 14bd
00000190: 2e72 abbc 0492 8c3c a2a2 083c 1af9 febc
000001a0: 1489 ebbc 941e 863c c5c1 a13c 4cdd bb3c
000001b0: e88a 9e3c b029 16bc 68a9 bbbb 6641 273d
000001c0: 69ef 19bd d076 04bd 3e1c 61bc 6550 27bd
000001d0: 3505 96bc 7e1d 143d 7e4a 0d3d 800b 853b
000001e0: 1470 913c 78c6 b73b 9cce 15bc d0dc 02bd
000001f0: acd9 103c 89ba 16bd 7ea2 8bbc 1e5f 9d3c
00000200: c8a6 0a3d 9548 b1bc 5240 6dbc b0ad 833c
00000210: 5e77 5bbc 767d 85bc 74da 07bc 9878 4f3c
00000220: 74f2 b63c b45a ba3c 40a4 8ebb 860e e9bc
00000230: e88e 81bc 98d4 e33c a8b4 563c 3c80 ef3c
00000240: dde8 35bd 900d c5bb 2225 d53a 5f49 c3bb
00000250: ac55 a4bc 4a0c cf3c 1691 a83b 29d3 e3bc
00000260: c1fd 98ba e3d7 bcbb a469 43bd 62d7 023d
00000270: 66d6 c23c bd41 db3c a22c 3b3d b350 343d
00000280: 5752 be3a db56 7cbc fa65 163d a08f 5ebc
00000290: 2d42 15bc c286 033d b101 42bc baec 6f3c
000002a0: 86ee 093d ddad 94bb 0cba 9f3c 5e95 043d
000002b0: 353c 37bd c6bf e73b 6446 b3bc e182 6eb9
000002c0: f588 e9bc 64a1 233c 8233 b03c 6445 c3bc
000002d0: 8b76 803b 7fc4 c8bc 6f03 fb3c e750 d03c
000002e0: 4214 173d 0a9b 1a3d 90d1 c8bc c035 80bc
000002f0: c441 273c f2a4 d43c 74f8 4cbc 0563 633c
00000300: 7069 3ebd c148 1abd afff 86bc e1f7 a3bc
00000310: f464 0e3d 4005 babc 078b e63c 68ad d83c
00000320: e6fb 0abd 3087 e73c aee6 cebc 258d 1b3c
00000330: 7449 353b a2a6 103d dce3 c23c 361f c33c
00000340: 27aa e3bc 6d3a 363d 49ff 9ebb dd40 1abd
00000350: fe22 8f3c d3a4 843b 58eb 7fbc 3676 443c
00000360: ba27 abbc 7471 fcbc 3950 78bc d59a 5dbc
00000370: fc83 90bd 23b9 093d 81ad 6d3b 4127 253d
00000380: 9a82 193c 33cd dfbc bc3c 58bd 1022 a43a
00000390: 4bb9 a8bc 4c08 2f3c 8fa7 22bc c8e0 1fbd
000003a0: 25cf 5abd 8925 903c 66fb 74bb 712e 6b3d
000003b0: 443d 0c3b 3286 a23c 77de dcbc e4b8 7cbb
000003c0: 2ae4 74bc 3990 d9bc 06cd 8b3a e084 533d
000003d0: 557d 4dbb 7aff 05bc 3860 a33c e429 323d
000003e0: c61f a5bc 2d21 8d3c 2fa4 5dbc 475f 41bd
000003f0: 0a8c ad3c 864d acbc 0823 eebb bc3c 233c
-0.008956872 -0.01720898 0.0036204325 -0.010239216 0.005392756 0.023486154 0.021034474 -0.028659575
-0.022898348 -0.008372354 -0.036811154 0.042074908 -0.01456407 -0.033288352 -0.038702726 0.014520082
0.013515864 -0.035615902 -0.03044521 0.014130617 0.030704034 0.04007452 -0.019259866 0.026974928
0.017606271 -0.00055530004 0.029687626 0.0445672 0.019424984 0.04939811 -0.03034245 0.023249298
0.03700685 -0.018925125 0.025857175 -0.016629523 0.03023427 0.03630756 -0.023501068 -0.035238814
0.013851322 -0.02045825 0.03205563 0.038455702 0.016697558 -0.018650213 0.008774615 -0.025159592
-0.0114475805 -0.014104335 0.0041318685 0.039847802 -0.017394638 -0.019891221 0.03472852 -0.020644125
-0.022524374 0.036545683 0.006820908 0.022127388 -0.019505737 0.00032050026 0.03623708 -0.021750722
-0.011446681 0.021887438 0.005667752 0.025954755 -0.010340086 -0.030072987 0.0301254 0.025240913
0.022795498 -0.00029996893 0.024640314 -0.04828249 0.022471998 0.0031764188 0.03796808 -0.015593458
0.025680583 0.023307325 0.042844042 -0.02558789 -0.03985671 0.020851709 -0.009215875 -0.019954763
0.037731625 -0.015063352 0.0028760575 -0.0129506085 0.024846425 -0.0048627076 0.021437086 -0.023336623
0.008242935 0.0013552535 -0.031220736 -0.03616875 -0.020928469 0.01715947 0.008339556 -0.03112464
-0.028751887 0.016372003 0.019745717 0.022932671 0.019353345 -0.0091652125 -0.005726982 0.040833853
-0.037581835 -0.03233987 -0.013739644 -0.040848155 -0.01831303 0.03616094 0.03449487 0.004060209
0.017753638 0.005608376 -0.009143498 -0.031948864 0.0088409595 -0.036798988 -0.017045256 0.019210394
0.03385046 -0.021641055 -0.014480667 0.016074032 -0.013395159 -0.016295176 -0.008291829 0.012663029
0.022332408 0.022748329 -0.004353076 -0.028449308 -0.015815213 0.027811334 0.013104595 0.029235952
-0.04441153 -0.0060135797 0.0016261677 -0.0059596743 -0.020060383 0.025274415 0.0051442487 -0.02781065
-0.0011672304 -0.0057630404 -0.04770817 0.031943686 0.023783874 0.026764745 0.045696862 0.044022273
0.0014520389 -0.015401567 0.036718346 -0.013584048 -0.009110016 0.032110937 -0.011841224 0.014643842
0.03367474 -0.0045373277 0.019497894 0.03236901 -0.044735152 0.0070724217 -0.02188415 -0.00022746205
-0.028507689 0.009987209 0.021508936 -0.023836799 0.0039203814 -0.02450776 0.030641286 0.025429202
0.036884554 0.037745513 -0.02451399 -0.01565063 0.010208551 0.025957558 -0.012510408 0.013878589
-0.04648727 -0.03766704 -0.016479341 -0.020015659 0.034764245 -0.022707582 0.028142465 0.026449874
-0.033931635 0.028262705 -0.025256481 0.009494101 0.002766219 0.035315163 0.023790292 0.023818593
-0.027791096 0.044489313 -0.0048522097 -0.037659515 0.01747274 0.004047969 -0.015620075 0.011991074
-0.020892967 -0.030815817 -0.015155845 -0.013525684 -0.07056424 0.033623826 0.0036266746 0.04032064
0.009369517 -0.027319526 -0.052792296 0.0012522358 -0.020596167 0.0106831305 -0.009927644 -0.039032727
-0.053420205 0.017596023 -0.003738129 0.057417337 0.0021398822 0.01983938 -0.026961548 -0.0038562352
-0.014946977 -0.026558029 0.001066596 0.05164039 -0.0031355221 -0.008178586 0.019943342 0.04349698
-0.020156752 0.017227734 -0.013527914 -0.047210004 0.02118494 -0.02103306 -0.0072673596 0.009963211

fc1.bias f4 [120]
00000000: 1627 ffbb 1a8d 8f3b a576 283c 0845 94bc
00000010: f03a 1c3b a6ec 3a3d ad34 7fbc 6cf7 0c3d
00000020: 55a7 753c 8fc0 0f3b 0e86 efbc 241c 02bd
00000030: 1cbc ac3d bab7 b7b9 33d4 b73b b6f8 49bc
00000040: 44d4 a43c 54da 043d fab2 483c c049 ea3b
00000050: dfab d63c 466d 1e3d f806 b7bc 4897 29bd
00000060: 10a8 21bc 8a3b 98ba 05da b5bb 62ab bc3c
00000070: 8d35 11bc 8cbe eebc a129 0a3d 41c5 013c
00000080: 3140 dfbc 0fcc 933c f2a4 053d a340 4e3d
00000090: 58ac 5e3d cbbb 2f3d bf99 b5bb edf2 013d
000000a0: 4ee8 eebc d282 87bc 4e4c efbc dae7 08bd
000000b0: 4cbc 173d d893 0fbd 5bf7 ecbc e640 6d3c
000000c0: 915b 0b3d 2579 a73c be30 13bb 0492 01bc
000000d0: 204f 503d fa0e 1b3d 22d6 0dbd aa57 3a3d
000000e0: 6683 ef3b e81e 05bb fd8a 1fbd c158 8c3c
000000f0: 8035 4cbc 6d09 1bbd 9b74 ccbc 4f27 f1b9
00000100: ce3a 4dbc 8b6b 7c3a 76cd 823c 9d9e 973c
00000110: 8fae 7bbc 817c d1bc 2aa1 cd3c 7282 45bc
00000120: 8c4f 23bc b07d f13b d14a 9cbc 1ddd 5cbc
00000130: 813c 293d 9ce2 993a 049f 19bc 2683 8ebc
00000140: c90a be3b 4df0 c7bc a47c 0e3d 9159 93bc
00000150: 851b 8f3c 082d 7bbc 1198 9fbb b4bf 3b3d
00000160: 5e4f 373c 9a74 a5bc 8e55 b5bb 3cd0 363d
00000170: b882 59bc fe5a fb3c 59e9 a9bc e232 42bc
00000180: bdbf c8bc 8c4b ed3c cb00 cbbc c143 9ebb
00000190: 5522 cebc e7f4 033d 1192 c1bc fcf2 763c
000001a0: 96ea abbc 201e 3f3b 0fe2 89bc a030 c53c
000001b0: bfad 0a3d cb77 08bd 2e90 aebc 4333 363d
000001c0: 8595 963c b65b 1e3d 0b55 dfbc 3947 44bc
000001d0: 14cc 0f3d 5736 bbbc 98fc d83a a926 16bd
-0.007786642 0.0043808343 0.010282193 -0.018099323 0.002383884 0.04563584 -0.015576524 0.034415647
0.014993508 0.0021934842 -0.029238727 -0.03176512 0.084343165 -0.00035041367 0.005610013 -0.012327364
0.020120747 0.032434776 0.012249703 0.007149905 0.026205001 0.03867843 -0.02234219 -0.04140404
-0.009866729 -0.0011614424 -0.0055496716 0.02303094 -0.008862865 -0.029143594 0.033731107 0.007920564
-0.027252289 0.018041639 0.032628007 0.05035461 0.05436358 0.042903703 -0.0055420096 0.031725813
-0.029163506 -0.016541872 -0.02921119 -0.033424236 0.03704481 -0.035053104 -0.028926542 0.014480805
0.03402287 0.020443508 -0.0022459473 -0.007908348 0.05085671 0.03785608 -0.03462804 0.04549376
0.007309365 -0.002031261 -0.03895091 0.017132165 -0.012463927 -0.037850786 -0.024957946 -0.0004599639
-0.012526227 0.0009629062 0.015967112 0.01850825 -0.015361442 -0.025572063 0.025101263 -0.012055026
-0.009967696 0.0073697194 -0.019078644 -0.013480452 0.041317467 0.0011740508 -0.009376291 -0.01739652
0.0057996255 -0.024406577 0.034786835 -0.017987045 0.017469177 -0.0153305605 -0.0048704227 0.04583712
0.011188356 -0.020197202 -0.0055338806 0.04463218 -0.013275795 0.030683037 -0.020741152 -0.011852952
-0.02450549 0.028966688 -0.024780652 -0.0048298542 -0.025162855 0.03221598 -0.02362922 0.01507258
-0.020985883 0.0029162243 -0.016831426 0.024071038 0.033857103 -0.03331737 -0.021308985 0.04448248
0.018381843 0.03866168 -0.027262231 -0.011979871 0.035106733 -0.02285306 0.0016554771 -0.036657963

fc2.weight f4 [84, 120]
00000000: 82b8 a6bd ea1c 963d b01b b1bd 0bec bcbd
00000010: fa93 463d 09f6 523d f4e8 7f3d 4510 473d
00000020: beba 473c f79d b9bc 976d 483b 133f 973c
00000030: fa84 44bd 7c20 083d 5fca ae3d 0698 35bd
00000040: 603e e63b 6ace bdbc b89c 18bd 86c8 23bd
00000050: 1c8f 2abc 1f23 8b3c 1b8d 2fbd 41d9 3dbd
00000060: aa2e a83d 74d8 c53d 1b16 2dbd 14f0 07bd
00000070: e3c6 18bd c670 9a3d 41d4 103c 82c7 be3d
00000080: 29a0 9ebd 600b 463d 3fd9 cfbd 68be ef3c
00000090: bac3 a5bd 5aa1 9cbd a199 e83d 93f7 683d
000000a0: b438 db3d 0f38 13bd 6add dcbc fe76 afbc
000000b0: 5a7a 693d aa8f c1bc 32d0 f33c d891 75bd
000000c0: 2b76 2f3d 87fe 48bd b370 4cbd 810d e23d
000000d0: f1c5 e0bc 3bb7 e4ba e9a0 73bd dfa8 a3bd
000000e0: d7e1 853c 6beb c13c d2ba 40bd 1a05 253c
000000f0: 3d05 a0bc b2a0 b5bb 9b0b 1fbd 3e1b aa3d
00000100: 8d43 a93d 9ca0 46bd 5e25 4f3d d117 823d
00000110: 60ce 9b3d 6403 c6bd 1f15 533d bab2 d03d
00000120: 2196 da3d ea81 d43d af8b 3ebd 36ca 44bd
00000130: b3b0 fa3c ec61 21bd 1cc7 f9bc 8c71 8d3c
00000140: 9352 94bd 2d7b 86bb 645d 9c3d a0b6 8fbd
00000150: 8f2b 58bd a717 fabb df02 53bd ae9b adbb
00000160: 7e97 b7bd 5f44 0d3d 61be 613d 61b5 8ebd
00000170: c1f6 333d 3a14 f0bd 699a 843d 7940 9abc
00000180: ba81 a53d 4775 97bd 176c 4d3d da18 9f3b
00000190: e740 aa3d 58a9 11bd d5f2 163d fc8a a9bc
000001a0: c8db a63d cf14 323d 1ec2 4ebd a291 823d
000001b0: 17d6 613d 17ee bf3d 3696 39bd 056c 62bd
000001c0: 09d2 9e3d 5da3 c0bc bcb0 6e3d 8673 4a3d
000001d0: 55c3 94ba 3b13 77bd b58c c0bd 2711 b13b
000001e0: 9671 a0bd e208 d23d 5de8 0bbb 4621 6abc
000001f0: 1b4b 55bd 6b2d 0d3d 9195 88bd f7bb a03d
00000200: 72db 953d c3bf 613d c3c4 68bd c7e9 5dbd
00000210: 47bc 473d e2a3 fd3b eaf5 7c3d d199 8e3d
00000220: 609a 00bd dd57 55bd 938a 8fbd 3d43 96bd
00000230: 18f3 793c 6762 553d 7e6a ae3d f818 bdbd
00000240: 51c2 9c3d 5937 fc3c 5b67 b8bd 89bd f8bc
00000250: d997 3f3d 6f90 c3ba 4fa7 403d 6ef4 a73d
00000260: 8203 893c f07c 713d bf92 6b3d 872f ed3c
00000270: ae5f 8b3d 6a3d 263d 6aaf f7bd 7c08 d8bd
00000280: 2fd9 333c 4b94 f83c 72ad e2bd 5883 a8bc
00000290: f932 863d 83e5 3b3d 7223 55bc c745 533d
000002a0: cd54 ca3b 9cca 96bd bf96 75bd 5321 863d
000002b0: 7648 aa3d 6ddd 2ebd e0a7 bc3c c6a7 a13d
000002c0: d7c0 e23d a8d1 acbd ea17 c6bc 03c9 0dbc
000002d0: 1e06 0c3d 0eb6 1e3d b784 553d d8bb 803d
000002e0: fd9c 123d 4b15 22bd 1e5f dfbd fad9 123d
000002f0: 80f4 72bc 7a9c a33d 0072 36bd 9664 5c3d
00000300: f955 06bd c29a 52bd 1006 f3bb fde1 f6bc
00000310: e155 513d e39a aa3d 8bab 4f3d 8f57 87bd
00000320: 3ea9 333b f194 af3d 1908 a3bd 4358 d13d
00000330: ad4d 8f3d 2a6f 3fbd f1f7 853c baed 313d
00000340: 191c 8c3d 43f4 8fbb 9cd2 b23b 809c 98bd
00000350: f7da 283d 2ab1 a33d 9dc8 d1bc 7e08 603d
00000360: a559 493d 8de2 e0bd 90a4 90bd 1189 933d
00000370: 8043 343c 9b16 4abd d440 d8bc 4bce e93b
00000380: 7576 073d 3c89 a8bc 29d7 91bd 0dcf 2ebd
00000390: 2363 c63c 52d4 5cbb 1128 81ba 422f ccbd
000003a0: 1cfe 293d 9dd3 7b3d 42b8 6e3d ced0 933d
000003b0: 19a1 a23d f6d9 7b3d ae8b 023d 689c 32bd
000003c0: 4a13 cdbc ff9c 0a3e 3351 0b3d cc45 1d3d
000003d0: b5ca b4bd 257a 9f3d c396 cc3d 9f90 453d
000003e0: a01b 243d 3289 8cbd 5920 a33c 7a67 bd3c
000003f0: 7ff6 9d3d 4e7d 4a3c cff6 d13d 3250 84bc
-0.08140661 0.07329734 -0.08647859 -0.09224709 0.048480965 0.05150417 0.06247802 0.0485995
0.012190519 -0.022658331 0.0030582899 0.018462693 -0.04797838 0.033234105 0.08534693 -0.044334434
0.0070264786 -0.023169715 -0.037258834 -0.039986156 -0.0104100965 0.01698452 -0.042859178 -0.046349768
0.082120255 0.09660426 -0.04225741 -0.03318794 -0.03729905 0.07541041 0.008839668 0.09315397
-0.07745392 0.04835069 -0.10148858 0.029265597 -0.080939725 -0.07647963 0.113574274 0.05687673
0.10704175 -0.035942134 -0.026961047 -0.021419045 0.05700145 -0.023628075 0.029762361 -0.05995354
0.042837303 -0.04907086 -0.049912166 0.11037732 -0.027438136 -0.0017449626 -0.059479628 -0.07991194
0.01634304 0.023671826 -0.047053166 0.010072017 -0.019533748 -0.005542838 -0.038829427 0.08305977
0.082648374 -0.048493013 0.050572746 0.06352199 0.07607722 -0.096686155 0.051533815 0.101903394
0.10673166 0.10376342 -0.04651993 -0.048044406 0.030601835 -0.039400026 -0.03049045 0.017266057
-0.07242312 -0.004104039 0.07635 -0.07017255 -0.052775916 -0.007632214 -0.05151641 -0.0052980995
-0.08964442 0.034489032 0.0551132 -0.06968189 0.043936495 -0.11722608 0.06474764 -0.018829571
0.08081384 -0.07395416 0.05015191 0.0048552575 0.083131604 -0.03556189 0.036852676 -0.020696156
0.08147389 0.043476876 -0.050478093 0.063754335 0.055135813 0.09371584 -0.045309268 -0.055278797
0.07754905 -0.023515398 0.058274016 0.049426578 -0.0011349717 -0.060321074 -0.09401838 0.005403656
-0.07834165 0.102556005 -0.0021348216 -0.01429016 -0.05207358 0.034467142 -0.066691525 0.078483514
0.073172465 0.05511452 -0.05682827 -0.054178026 0.04876354 0.0077404836 0.06175796 0.06962932
-0.031397223 -0.052085746 -0.07008853 -0.073370434 0.015255712 0.052095797 0.085164055 -0.09233278
0.076542504 0.03078811 -0.090040885 -0.030363815 0.046775673 -0.0014920364 0.047034558 0.08200918
0.016725305 0.05895704 0.057512995 0.028953327 0.06805359 0.040585913 -0.120940045 -0.10548493
0.010977074 0.03034415 -0.11068238 -0.020570442 0.06552691 0.045873176 -0.013008939 0.051580217
0.00617466 -0.073628634 -0.059958216 0.06549325 0.08314602 -0.042691637 0.023029268 0.07893328
0.110719375 -0.08438426 -0.024181325 -0.008653882 0.03418552 0.03874784 0.05212852 0.06285828
0.035794247 -0.039571088 -0.10906814 0.03585241 -0.014828801 0.0798883 -0.044542313 0.053806864
-0.032796834 -0.05141712 -0.007416494 -0.030137056 0.05110729 0.083303235 0.050700705 -0.06608497
0.0027414109 0.0857333 -0.07960529 0.10221913 0.06997237 -0.046736874 0.01635358 0.043439604
0.06841297 -0.004393132 0.0054572355 -0.07451725 0.041224446 0.07992776 -0.025608355 0.0546956
0.049157757 -0.10980711 -0.07062638 0.07203878 0.011002421 -0.049337965 -0.0263981 0.0071351877
0.033071954 -0.020573251 -0.07121117 -0.042677928 0.024217194 -0.0033695889 -0.000985386 -0.09969951
0.041502103 0.061481107 0.05828119 0.07217561 0.07940883 0.06148716 0.03187149 -0.043606192
-0.025033612 0.13536452 0.034012984 0.03839664 -0.08827726 0.07786969 0.09989693 0.048233625
0.040065408 -0.068621054 0.019912886 0.02312063 0.07713031 0.0123589765 0.10252153 -0.016151521

fc2.bias f4 [84]
00000000: f7cc 1c3d f361 9bbd 5c2b e8bc f2d3 95bd
00000010: 53f4 ae3d 8aed 7a3d 2497 423d 59bb c73d
00000020: f465 bc3d 996b e33b 8b68 03bd e273 98bc
00000030: 7cfe 36bd 8446 4bbd c44b f7bc 6eb3 c43d
00000040: acff c83c 4288 b63c 8867 b1bd 25a8 783d
00000050: 18ac a8b9 6ba0 613d 648e 64bd 5354 b63d
00000060: e7d5 043e 3392 413c 9399 aa3d 5703 bc3d
00000070: 99c1 24bd fdcd 573d 5440 283d d079 b73c
00000080: 6ecb d53b 9c5c 38bd cf3b 2d3d eaf7 2b3d
00000090: ce4d a23b 2ace e9bc 9c6c ad3d 064d 1dbb
000000a0: 7e59 233b 6d87 ab3d 65e8 d33b 8ea1 dcbc
000000b0: 23ae 2cbd c4b5 b9bb 6085 5c3d 279a 92bd
000000c0: 3813 943d a2f5 9b3d 45f2 83bd 443f c53b
000000d0: f92a c0bd c1dd 5c3d 83ef eeb8 758a b43d
000000e0: 96bf ec3c d2d2 27bc e7b6 80bd 1560 eb3c
000000f0: 95cb 6d3d d07f 4e3d 6efb a23d 8857 d83d
00000100: 985c a53d ae5e 1cbd 418f 8d3d be95 2dbd
00000110: 895b cabb a45f 0f3d 62eb a93d 9d44 593d
00000120: 56cd 06ba 8090 d83d 9626 46bd b5ad bbbd
00000130: febc 99bd 532f 53bd 4658 483d 51bc c53c
00000140: e993 1c3d 59df 803d 7ad3 553d bf7d 873d
0.038281407 -0.07587042 -0.028340988 -0.07315816 0.08542695 0.06126169 0.04750742 0.097525306
0.091991335 0.006940317 -0.03208212 -0.018609945 -0.04467629 -0.049627796 -0.030187495 0.09604536
0.024535976 0.02228177 -0.08662325 0.06070723 -0.00032171677 0.055084627 -0.055799857 0.08902802
0.12972222 0.011814642 0.08330073 0.091803245 -0.04022369 0.05268668 0.041076973 0.022396952
0.006524495 -0.045010194 0.042293366 0.041984476 0.0049531227 -0.02854069 0.08467981 -0.0024002208
0.0024925168 0.0837544 0.0064669126 -0.026932504 -0.042158257 -0.00566742 0.053838134 -0.071583085
0.07230228 0.0761521 -0.064426936 0.0060195047 -0.093831964 0.05392242 -0.00011393337 0.08815471
0.028899949 -0.010243135 -0.06284886 0.028732339 0.05805548 0.05041486 0.07958113 0.1056357
0.080743015 -0.03817623 0.06912089 -0.042379133 -0.0061754626 0.03500332 0.08296849 0.05304395
-0.0005142292 0.10574436 -0.048376642 -0.09163991 -0.075067505 -0.051558804 0.04891231 0.024137648
0.038226996 0.062926 0.052203633 0.06615781

fc3.weight f4 [2, 84]
00000000: edaa cbbd a00b 80be d14d 4cbe e6ff 97be
00000010: c8c1 aabd 1e50 85bc b77a 9b3d 6960 d7bd
00000020: d783 79be 9e11 e2bc a69f c7bd e339 443e
00000030: 4291 8fbd 05e4 fd3c e4fc 42be b034 34be
00000040: 6ec2 b93d 0de8 ccbc 101c 313d f8d5 0cbe
00000050: a52f 183d ec65 463c 9352 6e3e 8804 e13d
00000060: f840 6ebe 9009 443e aace 433d 1bb1 02be
00000070: cf4e 623e fe06 273e 6b1f 8e3c 0026 0b3e
00000080: 278b d3bd 50f5 8a3e d891 91bd de27 943d
00000090: b2e9 6d3e 76fa fb3c 2311 0a3c 2a78 7cbe
000000a0: 86ee 0fbd 77b7 38bd ee99 493d 752d b03e
000000b0: 9021 933d 7390 b03c 5976 553e 3f90 803e
000000c0: 49c0 993e f2b5 a6bd d5de 033d 8e0d a2be
000000d0: 33e0 93bd 7444 bf3d 6e5f 3ebe a497 71bd
000000e0: 2b6d 813e 454c 3d3d 2f2e 53be d72f 0fbe
000000f0: d791 463e c344 48be beb7 493e a0ea 7b3d
00000100: da15 c73d 11a9 0dbe 98ef 1dbe f68e 18be
00000110: 786e 603c 0386 423e 8d62 573d 2869 1d3e
00000120: 6075 3c3e 6935 813e d7d7 0dbb 51e3 f03d
00000130: 0d5e 48bd 3356 05be b5bb 183e 9423 e7bd
00000140: ecc1 aa3d 3a11 41be 511c 0cbd 9593 e1bd
00000150: 3093 6d3e 793a 17be f8ba 7cbe 46ee 583e
00000160: b200 083e 5411 c2be 0ffa 77be 03ea 79be
00000170: b612 933c 462e 3cbe d3c5 063d 4bef 4cbb
00000180: 46b9 6cbe 0a1e d83b 144a 293e 6dfe 1c3e
00000190: 889b 9bbd fcdc f6bc fccc 7bbd b2f2 b0be
000001a0: 40a9 62be ae33 233d 4373 353e c434 9fbe
000001b0: 4c08 b3be a97c a6bd 6a2b 5f3d 4320 84bd
000001c0: e0a2 69ba d864 263e 0a6c 463d 7926 123e
000001d0: 26df 0b3e b962 fbbd 2fbb 233e c4d3 41be
000001e0: 0e57 b1bd 62eb 4ebd 47b3 2a3e 9664 0e3e
000001f0: d2e3 ebbd a2fb d93b 207e 56be 0a60 933e
00000200: f699 643d 9669 933d b5c4 38be 94c9 97bc
00000210: d218 013d c965 283e 61c6 1abd 772b cf3d
00000220: bf73 29bd aa19 4a3e 0a7f 2c3e 81dc e1bd
00000230: d18e 323e d513 20bd 0192 f7bd d7e9 bebe
00000240: f3e8 6e3e 1cdf cd3d 9f16 0bbe 219f 54be
00000250: 46b4 4bbe fa6d b0bd 0a22 36be 8cf7 663e
00000260: ac7b dcbd c287 01bd 34f5 b5bd 493c 78bd
00000270: bf93 683e ad06 863e 8893 723d 8d62 023e
00000280: 5844 b3bd da93 323d a324 2a3e 6071 70be
00000290: 9228 b3bc 86eb 333a a58e 15be a575 833e
-0.09944711 -0.2500887 -0.1995156 -0.29687423 -0.08337742 -0.016273554 0.075917654 -0.10516436
-0.24366699 -0.027596291 -0.097472474 0.19162707 -0.070101276 0.030992517 -0.19041783 -0.17598224
0.09070288 -0.025012994 0.043239653 -0.13753498 0.037154812 0.012109261 0.23273687 0.109871924
-0.23266971 0.19144273 0.047804512 -0.12762873 0.22100376 0.16311261 0.017348966 0.13588715
-0.103292756 0.27140284 -0.071078956 0.072341666 0.23233679 0.030759078 0.008426937 -0.24655214
-0.035139583 -0.04509684 0.049219064 0.3440968 0.07184136 0.021553254 0.20845927 0.2511005
0.30029514 -0.08140172 0.03219493 -0.31650966 -0.07220497 0.09339228 -0.18591091 -0.058982506
0.252786 0.046215314 -0.20623086 -0.13983093 0.19391571 -0.1955748 0.19698998 0.061503053
0.09720965 -0.13834025 -0.15423429 -0.14898285 0.013698213 0.18996434 0.05258422 0.15372145
0.1840415 0.2523606 -0.0021643543 0.11762107 -0.04891782 -0.13021164 0.14915355 -0.11286083
0.08337769 -0.18854228 -0.034206692 -0.11014477 0.23200679 -0.147684 -0.24680698 0.21184644
0.13281515 -0.37903845 -0.24216484 -0.24405675 0.017953258 -0.18377027 0.032903504 -0.003127056
-0.23117551 0.006595378 0.16532165 0.1533143 -0.075980246 -0.03013467 -0.061474785 -0.34560162
-0.22134876 0.039844207 0.1771975 -0.31094944 -0.34967268 -0.08129246 0.054484762 -0.06451466
-0.0008912515 0.16249406 0.048442878 0.14272489 0.13659343 -0.12274689 0.15989374 -0.18928438
-0.086591825 -0.050517447 0.16669951 0.13905558 -0.11518063 0.0066523114 -0.2094655 0.2878421
0.05581089 0.07197873 -0.18043788 -0.018528737 0.03151781 0.16445078 -0.037786845 0.10115712
-0.04137015 0.19736353 0.16845337 -0.11028386 0.17437293 -0.039081413 -0.12088395 -0.3728778
0.2333105 0.1005232 -0.13582848 -0.20763828 -0.19892988 -0.08614726 -0.17786422 0.22555369
-0.10765776 -0.03162361 -0.088846594 -0.060604367 0.2271261 0.26176968 0.059222728 0.12732907
-0.0875327 0.043598033 0.16615538 -0.23480749 -0.021869931 0.0006863404 -0.14605196 0.25675693

fc3.bias f4 [2]
00000000: d733 d63d 5010 31be
0.104591064 -0.17291379
