src/models/train-on-expert+self-augment.onnx (onnx, 336927 bytes, 10 tensors)

conv1.weight f4 [6, 5, 5, 5]
0	0x3b8076cf	0.003920413
1	0x3c8208f6	0.015873414
2	0xbd2b6206	-0.04184153
3	0x3dac640b	0.08417519
4	0xbc023dc1	-0.007949294
5	0x3cfa8578	0.030581221
6	0xbd5064ba	-0.05087731
7	0xbcead098	-0.028663918
8	0xbdb3ebfd	-0.087852456
9	0xbdb27a5e	-0.08714746
10	0x3d931e8b	0.0718356
11	0xbdb03eb8	-0.08605713
12	0xbc866a52	-0.01640812
13	0xbd69295e	-0.056924216
14	0xbd1a77bd	-0.037711848
15	0xbcf3af69	-0.029746728
16	0x3d3e6fc5	0.04649331
17	0xbd16fcf5	-0.036862332
18	0x3b13a25a	0.002252719
19	0x3d0f4dce	0.03498631
20	0xbd088675	-0.033331353
21	0xbd3aab42	-0.04557348
22	0x3d1c9a40	0.03823304
23	0x3d9c181d	0.07621787
24	0xbd8ee787	-0.06977754
25	0x3d1b9f03	0.037993442
26	0xbc40409e	-0.011734156
27	0xbd0ddb58	-0.03463301
28	0xbcd2a14a	-0.025711674
29	0x3d3052b4	0.04304762
30	0xbd7da6fc	-0.061926827
31	0xbd760a09	-0.060068164
32	0xbd1d6d3a	-0.038434245
33	0x3bb231cb	0.0054380647
34	0x3cca551e	0.02469879
35	0xbccc7ce8	-0.024961904
36	0x3b0ec280	0.0021783412
37	0x3d590b19	0.0529891
38	0x3bc2d92a	0.005946298
39	0x3db35a05	0.08757404
40	0x3b91e3cd	0.004452205
41	0x3d928636	0.07154505
42	0xbc95b446	-0.018274438
43	0x3c8b34cc	0.016992949
44	0xbd517b48	-0.05114296
45	0xbcc07d83	-0.023497349
46	0xbd90ef89	-0.07076938
47	0x3d796c42	0.06089426
48	0x3bdf1938	0.006808426
49	0xbd75d8e0	-0.06002128
50	0x3c18c462	0.009324165
51	0xbd9c3774	-0.07627764
52	0xbd74ea60	-0.05979383
53	0xbd621a76	-0.055201016
54	0x3cf22987	0.029560817
55	0x3c8573a3	0.016290491
56	0x3d89351b	0.06699582
57	0xbc1d8ed5	-0.009616573
58	0x3d20f6f5	0.039298017
59	0xbbb4222e	-0.0054972386
60	0xbd800101	-0.062501915
61	0xbd8e7f78	-0.069579065
62	0x3cebbe79	0.028777348
63	0x3d28caea	0.04120914
64	0xbd459303	-0.048235904
65	0xbd191413	-0.03737266
66	0xbd5cd631	-0.053915206
67	0xbd146e58	-0.036238045
68	0xbd3512a5	-0.044207234
69	0xbd862eac	-0.06551871
70	0x398ce0e4	0.00026870437
71	0xbd812172	-0.06305207
72	0xbb914d7b	-0.004434285
73	0xbc838b91	-0.016057761
74	0xbd86973d	-0.06571815
75	0xbc97771b	-0.018489411
76	0xbd0972da	-0.033556797
77	0x3dade888	0.084916174
78	0xbccf97e4	-0.025340982
79	0xbcb74081	-0.022369625
80	0x3cc127ff	0.023578642
81	0xbd82fb29	-0.06395561
82	0x3d88f034	0.0668644
83	0xbd8681c1	-0.06567717
84	0x3d1d222d	0.03836267
85	0xbcec5a8c	-0.02885177
86	0x3d9ef4cf	0.07761537
87	0xbd970238	-0.0737347
88	0x3da7239d	0.081610896
89	0xbc6d8d0b	-0.014498959
90	0xb9b68ba2	-0.0003481778
91	0x3d10ee0a	0.03538326
92	0xbc7a7bbf	-0.015288292
93	0xbd9d03f4	-0.076667696
94	0xbdb16865	-0.0866249
95	0x3d99613b	0.07489248
96	0x3d0772d9	0.03306851
97	0x3da195d0	0.078899026
98	0xbd2c0a1b	-0.042001825
99	0x3d7aff7e	0.061278813
100	0xbc6b87e6	-0.014375662
101	0x3d773b44	0.060359254
102	0x3d545409	0.051837955
103	0x3da6c38f	0.081427686
104	0xbbc1e117	-0.0059167254
105	0x3ce759b4	0.028241016
106	0x3cbc3978	0.022976622
107	0xbdaa1489	-0.08304698
108	0x3d801f65	0.06255988
109	0x3d6fcdb4	0.058545783
110	0x3c3f48fe	0.011675118
111	0xbdb4aa2c	-0.0882152
112	0xbda4b075	-0.08041469
113	0x3d9f3de1	0.07775474
114	0xbc88815e	-0.01666325
115	0x3cb34d95	0.02188758
116	0xbcf3aa6a	-0.029744346
117	0xbd0aef25	-0.033919472
118	0xbd77b68c	-0.060476825
119	0xbbce51cd	-0.0062963725
120	0xbd61aa0b	-0.055093806
121	0xbcb190ef	-0.021675555
122	0x3c15695e	0.00911936
123	0xbd9dd807	-0.077072196
124	0x3d4c3fd1	0.049865548
125	0x3d7ae8ae	0.061257057
126	0xbc8e7690	-0.01739052
127	0xbd28ed37	-0.04124185
128	0xbd8f8c9b	-0.0700924
129	0xbd926700	-0.07148552
130	0xbb623d6c	-0.0034521474
131	0x3c0f5d93	0.008750337
132	0xbc281ff5	-0.010261525
133	0x3cc3404e	0.023834374
134	0x3d1ab192	0.037767
135	0x3d0a0ddd	0.033704627
136	0x3d484959	0.048898075
137	0xbd0bf9da	-0.034173824
138	0xbbcd73ed	-0.006269923
139	0xbcf5bd00	-0.029997349
140	0x3d048b66	0.032359503
141	0xbd662378	-0.05618617
142	0x3cf5fbdf	0.030027328
143	0x3d80578c	0.06266698
144	0xbd0898b5	-0.033348758
145	0xbd95bd4e	-0.07311498
146	0xbdad17b9	-0.0845179
147	0x3d40a8bb	0.047035914
148	0xbd1ec3ff	-0.038761135
149	0xbdafd146	-0.085848376
150	0x3dc76827	0.09736662
151	0xbd4a9abc	-0.049463972
152	0x3d9f1dcf	0.077693574
153	0x3d53c588	0.051702052
154	0x3c09abff	0.0084028235
155	0xbd1dc651	-0.038519207
156	0x3d8b3ec1	0.06799079
157	0xbd2e73c4	-0.04259087
158	0xbc16fc49	-0.009215423
159	0xbda9b857	-0.08287113
160	0xbce75d1e	-0.028242644
161	0x3da0b140	0.07846308
162	0x3d120b6b	0.03565542
163	0x3dad843b	0.084724866
164	0x3c6a0e92	0.0142857
165	0xbd9b112c	-0.07571635
166	0x3d10bb22	0.035334714
167	0x3db43ffb	0.08801266
168	0xbda0c1b4	-0.07849446
169	0xbd8198e4	-0.0632799
170	0xbd52b224	-0.05143942
171	0x3d9dc538	0.07703632
172	0xbda094be	-0.0784087
173	0xbc87cdd1	-0.016577633
174	0x3d8561ec	0.06512818
175	0x3d98602c	0.07440218
176	0xbd913714	-0.070905834
177	0x3d4d55c1	0.05013061
178	0x3c5b1e51	0.013373927
179	0x3d0b3a6d	0.033991266
180	0x3c9815b7	0.018565042
181	0x3c81b835	0.015834907
182	0xbd6ab8c4	-0.057305112
183	0xbd7daec3	-0.061934244
184	0xbd422d66	-0.047406577
185	0xbcd659f2	-0.026165936
186	0x3db119ab	0.08647474
187	0x3d2ada83	0.041712295
188	0x3db8d90a	0.09025772
189	0xbcae2f03	-0.021262651
190	0xbcd2ef2d	-0.025748814
191	0x3dbee9bb	0.09321924
192	0x3d666bb9	0.056255076
193	0x3c9ebe8d	0.019377971
194	0xbc4bea30	-0.012445971
195	0x3c60d869	0.013723471
196	0xbd859eb5	-0.065244116
197	0xbd02e4ae	-0.031956367
198	0x3d083929	0.033257637
199	0x3c7e7493	0.015530723
200	0x3ca8eba4	0.020620175
201	0xbc09ca94	-0.008410115
202	0xbd80860f	-0.0627557
203	0xbd893124	-0.06698826
204	0xbd949300	-0.072546005
205	0x3dad8bea	0.08473952
206	0x3db25bb4	0.08708897
207	0xbb946b21	-0.0045293723
208	0xbd3eaa1e	-0.046548955
209	0x3d73b34a	0.059497155
210	0xbd6059a2	-0.05477298
211	0xbd533b24	-0.051570073
212	0x3d4d8039	0.05017111
213	0x3d7e87af	0.062141117
214	0x3d940158	0.07226819
215	0x3d727251	0.059191052
216	0x3da7fcbd	0.08202503
217	0xbd926805	-0.071487464
218	0x3d9b09ed	0.075702526
219	0xbd0c5517	-0.034260835
220	0xbc02dfa1	-0.007987888
221	0x38fa3498	0.00011930725
222	0x3cbba8c5	0.022907624
223	0xbd4e5ce7	-0.050381567
224	0xbd1bf89b	-0.038078886
225	0x3d12f904	0.03588201
226	0x3d0d6555	0.034520466
227	0xbd9a6bac	-0.07540068
228	0xbca7a0b8	-0.020462379
229	0xbd4496e8	-0.047995478
230	0x3ca84b9f	0.020543871
231	0x3ca4730e	0.020074394
232	0xbd56e34b	-0.052462857
233	0x3da1f98b	0.07908925
234	0x3d638785	0.055549163
235	0x3d7de31a	0.06198416
236	0xbd8cc4b7	-0.06873458
237	0xbc01c406	-0.007920271
238	0xbc94f79f	-0.018184481
239	0xbd6982e6	-0.0570096
240	0x3be2d2ab	0.0069220862
241	0x3d76dbf4	0.060268357
242	0x3daa3c9d	0.08312342
243	0x3cff002e	0.031128015
244	0x3d9ac5f2	0.07557286
245	0x3d8885d1	0.066661485
246	0x3d584d61	0.05280817
247	0x3d75c146	0.059998773
248	0xbd94cec2	-0.072659984
249	0xbdb7dedc	-0.08978054
250	0x3a038f69	0.0005018623
251	0x3d6b5312	0.05745227
252	0xbcc80d79	-0.024420487
253	0x3cc931dc	0.024559908
254	0x3e04db06	0.12974176
255	0xbc97bc4a	-0.0185224

conv1.bias f4 [6]
0	0x3cab78ed	0.020931685
1	0x3d03fd41	0.032223944
2	0xbdf470eb	-0.119356
3	0xbbc89af0	-0.0061219856
4	0xbd98d150	-0.07461798
5	0xbba10877	-0.004914339

conv2.weight f4 [16, 6, 5, 5]
0	0xbd94dccb	-0.072686754
1	0x3cc64d72	0.02420685
2	0xbd011168	-0.03151074
3	0xbca4495b	-0.02005451
4	0xbd392aae	-0.04520672
5	0x3b638cde	0.0034721415
6	0xbd7074d7	-0.058705177
7	0x3b562fca	0.0032682293
8	0x3ca3a33b	0.019975295
9	0x3d149494	0.036274508
10	0x3d8ba9b2	0.06819476
11	0xbd523ce9	-0.05132762
12	0xbd4a8d83	-0.049451362
13	0xbcbab3f5	-0.022790888
14	0x3c69656c	0.014245372
15	0x3bbb07ab	0.005707701
16	0xbd76fd96	-0.060300432
17	0x3d2d22c2	0.042269476
18	0xbd8e6510	-0.0695287
19	0xbd991cd9	-0.074762054
20	0xbd9c76d8	-0.07639855
21	0xbd8e95a6	-0.06962137
22	0xbd86e1bc	-0.06586024
23	0x3bd524b2	0.0065046186
24	0xbd9a4860	-0.07533336
25	0x3d6bc3c7	0.057559755
26	0xbd6f4f80	-0.058425426
27	0x3c3c2a71	0.011484728
28	0xbd4c98ad	-0.04995029
29	0x3d0d5fcb	0.034515183
30	0xbc85cd06	-0.016333114
31	0xbb45113a	-0.0030070082
32	0x3d63a56f	0.05557769
33	0x3d11fec0	0.03564334
34	0x3d7c6859	0.06162295
35	0x3d7f8e2d	0.06239145
36	0xbd899718	-0.06718272
37	0xbd4cb5d1	-0.04997808
38	0xbd909091	-0.07058824
39	0xbd5796be	-0.052633993
40	0xbbf88be5	-0.007585036
41	0xbca46910	-0.020069629
42	0x3d97217f	0.07379436
43	0x3d53ff15	0.051756937
44	0xbc22ad10	-0.009928957
45	0x39b42cbf	0.00034365614
46	0xbc19433a	-0.009354407
47	0xbd29f615	-0.041494448
48	0xbc91540f	-0.017740278
49	0x3ab72523	0.001397286
50	0x3d95b34f	0.07309591
51	0x3d50614e	0.050874047
52	0x3cc73654	0.024317898
53	0xbd2f7398	-0.04283485
54	0x3d6643f0	0.056217134
55	0x3cdcbe76	0.026946288
56	0xbccbd989	-0.024884002
57	0xbd623f16	-0.055235945
58	0xbd83bb72	-0.06432237
59	0xbd469901	-0.04848576
60	0x3c8590e9	0.01630445
61	0x3c9ff768	0.019527152
62	0xbd125845	-0.03572871
63	0xbd85e46c	-0.06537709
64	0x3b95affd	0.0045680986
65	0xbd0bd7f1	-0.034141485
66	0xbd363694	-0.044485644
67	0x3d8a4425	0.06751279
68	0xbd8a9af9	-0.0676784
69	0x3d155947	0.036462095
70	0xbd86a45b	-0.06574317
71	0x3c595928	0.013265885
72	0xba065f96	-0.0005125938
73	0x3d1c86a8	0.038214356
74	0x3da1b137	0.07895129
75	0x3c83494b	0.01602616
76	0x3d52298e	0.05130916
77	0x3d8befc6	0.068328425
78	0x3d40bf6a	0.047057547
79	0x3d34c4ce	0.044133
80	0xbd4c0814	-0.04981239
81	0xbcd8722b	-0.026421627
82	0xbd85d63e	-0.06535004
83	0x3d076956	0.03305944
84	0x3c87c538	0.016573533
85	0x3cba9680	0.022776842
86	0x3c336e31	0.010951565
87	0xbd9163f9	-0.070991464
88	0xbc1b5551	-0.00948079
89	0x3d203910	0.03911692
90	0x3d76e8f2	0.060280748
91	0x3cd91fa4	0.026504345
92	0x3d0019ed	0.031274725
93	0x3cb34c5f	0.021887003
94	0x3cd24ed5	0.025672356
95	0xbc8acd94	-0.01694373
96	0xbcbf422d	-0.023346985
97	0xbafae1bc	-0.001914076
98	0x3a8382b0	0.0010033455
99	0x3c0cedf4	0.008601654
100	0x3db06a11	0.086139806
101	0xbd70156a	-0.058614172
102	0x3ca47bf8	0.020078644
103	0x3d8a4f3d	0.06753395
104	0xbd9bd2e4	-0.076085836
105	0xbce508ca	-0.027958293
106	0x3c9599b3	0.018261766
107	0xbd4260ab	-0.04745547
108	0xbc95b2bc	-0.018273704
109	0xbc0bf4cb	-0.00854225
110	0x3d209d16	0.03921231
111	0x3c849ab6	0.016187053
112	0xbc90e676	-0.017688017
113	0xbc80cf8f	-0.015723972
114	0x3ce13554	0.02749125
115	0x3cf2ebfb	0.02965354
116	0xbd4cc59a	-0.049993135
117	0xbdb03a63	-0.086048864
118	0x3c087d52	0.00833066
119	0xbd323de4	-0.043516055
120	0x3d59c967	0.053170588
121	0x3da9e54e	0.082956895
122	0x3d7c7b5a	0.061641075
123	0x3ba2ce97	0.004968475
124	0xbd80b21b	-0.06283971
125	0xbca87bdf	-0.020566879
126	0xbc104940	-0.008806527
127	0x3da18eda	0.07888575
128	0x3da8921c	0.08230993
129	0xbc9f6810	-0.0194588
130	0x3d71e07f	0.059051987
131	0xbd9398cb	-0.07206877
132	0x3d7c2de6	0.06156721
133	0xbdad388f	-0.08458053
134	0xbd8d4332	-0.06897582
135	0x3cf13921	0.029446186
136	0x3d5fd6b2	0.05464811
137	0x3d0eba4f	0.034845646
138	0xbda1dd3c	-0.07903525
139	0x3cf834bd	0.030298585
140	0xbd00169e	-0.03127157
141	0x3d64c0b9	0.055847857
142	0x3c19e262	0.009392353
143	0x3c07ce2c	0.008288901
144	0xbd21678c	-0.03940539
145	0x3c2fb780	0.010724902
146	0xbd34eed9	-0.044173095
147	0x3d39240f	0.045200404
148	0x3cfcf516	0.030878585
149	0xbd0036bf	-0.03130221
150	0x3cd85a78	0.026410326
151	0x3d3c3583	0.04594947
152	0xbd9c2480	-0.07624149
153	0x3d523073	0.051315736
154	0x3d8c8d03	0.06862833
155	0xbd707920	-0.058709264
156	0x3d9ef0c8	0.07760769
157	0x3d215963	0.039391886
158	0xbb4211e9	-0.0029612726
159	0xbd33ee1a	-0.043928243
160	0x3d632f6b	0.055465143
161	0x3cd43715	0.025905171
162	0x3da61fce	0.08111535
163	0x3d9b51f7	0.07583993
164	0x3c593df7	0.0132594025
165	0xbcb7a8f9	-0.02241944
166	0xbd9936d9	-0.074811645
167	0xbc0f932e	-0.008763118
168	0xbd6f4767	-0.058417704
169	0x3d233d8a	0.03985361
170	0xbd17f90a	-0.037102737
171	0xbd8c0df7	-0.06838601
172	0xbbd40cf4	-0.0064712707
173	0x3d8f851e	0.07007812
174	0x3cd930be	0.0265125
175	0xbd6be52c	-0.057591602
176	0xbd500e8f	-0.050795134
177	0xbd589813	-0.052879404
178	0x3d36f7e0	0.044669986
179	0xbc236d48	-0.009974785
180	0x3bff4440	0.0077901185
181	0x3cab57a6	0.020915817
182	0x3d8e7c76	0.06957333
183	0xbccf8c6b	-0.025335511
184	0xbb10bcc7	-0.0022085176
185	0x3d1c8030	0.038208187
186	0xbd4cf8c7	-0.05004194
187	0xbc1b8a71	-0.009493456
188	0x3ca84803	0.02054215
189	0x3c8d25e4	0.017229982
190	0xbb342719	-0.0027489124
191	0xbd18f960	-0.037347198
192	0xbd9ca491	-0.07648576
193	0xbd9131fb	-0.07089611
194	0x3da83884	0.082139045
195	0xbb44e367	-0.003004277
196	0xbd918218	-0.071048915
197	0xbd595b0d	-0.05306535
198	0x3ca404e6	0.020021867
199	0xbd98a575	-0.074534334
200	0xbd717eb2	-0.058958717
201	0xbd5463cc	-0.051852986
202	0x3d9cb8cf	0.07652437
203	0x3d9ceb7c	0.076621026
204	0xbc492832	-0.01227765
205	0xbdc6a7c5	-0.09699968
206	0x3b27365b	0.0025514576
207	0x3d5c0d9f	0.053723928
208	0x3c790eb0	0.015201256
209	0x3d8d4597	0.06898039
210	0xbdddd61e	-0.10831855
211	0xbdd087f7	-0.10182183
212	0xbd80fc43	-0.06298115
213	0x3da7d21e	0.081943735
214	0x3c86af83	0.016441112
215	0xbd4bf5c2	-0.04979492
216	0xbda2ab23	-0.07942798
217	0x3d28483a	0.041084506
218	0x3ccd2b10	0.025044948
219	0x3da32996	0.07966916
220	0x3b6835e0	0.0035432503
221	0x3cfec4bc	0.03109967
222	0xbd43bfd4	-0.047790363
223	0x39a7e98c	0.00032026728
224	0x3df581c1	0.11987639
225	0xbd8eeb90	-0.06978524
226	0x3cedd1a0	0.029030621
227	0xbd85285b	-0.06501838
228	0xbbf07380	-0.0073379874
229	0xbcd3724c	-0.025811337
230	0xbc74ff8e	-0.014953507
231	0x3d2423ec	0.04007332
232	0x3d29b08e	0.04142814
233	0xbd8e84aa	-0.069588974
234	0x3da349c4	0.07973054
235	0xbd0966f6	-0.033545457
236	0xbc254c25	-0.010088955
237	0xbd852cfc	-0.06502721
238	0xbd87c168	-0.06628686
239	0xbd0f68c9	-0.03501204
240	0xbd3f4322	-0.046694882
241	0xbd8f45bd	-0.069957234
242	0xbd0836ef	-0.033255514
243	0xbd24742c	-0.040149853
244	0xbd809340	-0.06278086
245	0xbd95901c	-0.07302877
246	0xbd22905c	-0.039688453
247	0xbd590465	-0.052982707
248	0x3d2ab42b	0.041675728
249	0xbd819af8	-0.06328386
250	0x3c9358f6	0.017986756
251	0xbcfdc8bf	-0.030979512
252	0x3d2ec987	0.04267266
253	0xbbdce1e0	-0.0067407936
254	0xbd3405db	-0.043950897
255	0xbde23d46	-0.11046843

conv2.bias f4 [16]
0	0xbd836367	-0.06415444
1	0xbcc626b5	-0.024188379
2	0x3c901d35	0.017592052
3	0x3de31afa	0.1108913
4	0xbd89ca80	-0.06728077
5	0x3d0ae31e	0.033908002
6	0x3da365ed	0.07978425
7	0xbc8b0819	-0.016971635
8	0x3c02d6f7	0.007985822
9	0xbc8da4dc	-0.017290525
10	0x3c93eabd	0.018056268
11	0x39263a80	0.00015852787
12	0x3ded0fd9	0.11575288
13	0xbd7a037d	-0.061038483
14	0xbd7dd22c	-0.061968014
15	0x3d8224d4	0.06354681

fc1.weight f4 [120, 584]
0	0xbced6fc3	-0.028983956
1	0xbcf5b09f	-0.029991446
2	0x3ca2efe9	0.019889789
3	0x3c7ca5ee	0.01542042
4	0x3d24cc94	0.040234163
5	0x3ca09606	0.019602787
6	0x3cec751a	0.028864432
7	0xbcdd91eb	-0.027047118
8	0x3bd9cf8c	0.006647056
9	0xbba8bc3a	-0.0051493915
10	0x3ad76f73	0.0016436413
11	0xbd2d8bf5	-0.0423698
12	0xbc979f0e	-0.01850846
13	0xbd1dc7b3	-0.038520526
14	0x3c4ea1e3	0.012611839
15	0xbc663f81	-0.014053226
16	0x3c759214	0.014988441
17	0xbb783233	-0.0037871718
18	0xbc11fcd5	-0.0089103775
19	0x3d100ab4	0.035166457
20	0x3d0eec1d	0.034893144
21	0x3ca4e41e	0.020128306
22	0xbc8a6f45	-0.01689876
23	0x3d01b92c	0.031670734
24	0x3c0091ec	0.0078472905
25	0xbca3a4cd	-0.019976044
26	0xbd222b6d	-0.039592195
27	0x3cb4de27	0.022078587
28	0xbcf56595	-0.029955665
29	0xbd21dc27	-0.039516594
30	0xbc803c94	-0.015653886
31	0x3b9eb54d	0.00484339
32	0xbceee8de	-0.029163774
33	0xbc131955	-0.008978208
34	0x3cf8d790	0.030376226
35	0xbca3c5d6	-0.019991796
36	0x3c531d29	0.01288537
37	0x3c9693df	0.018381057
38	0xbd158e2c	-0.03651254
39	0x3d1f8bee	0.038951807
40	0xbbbd2d7e	-0.0057732454
41	0x3c9c78c3	0.019100552
42	0xbc6092eb	-0.013706903
43	0xbc86271e	-0.016376074
44	0xbcd0051d	-0.025393063
45	0x3b14bb4c	0.0022694645
46	0xbce0f222	-0.027459208
47	0xbcf4d373	-0.029885983
48	0x3c6ff3f8	0.014645569
49	0x3ca6f11f	0.020378647
50	0x3cf53fc2	0.029937629
51	0xbcbc9e52	-0.023024712
52	0x3ce8c048	0.028412
53	0x3c831b17	0.016004128
54	0xbd3c4fde	-0.045974605
55	0xbc964cdd	-0.018347198
56	0xbca2a977	-0.019856198
57	0xbc13ffad	-0.009033126
58	0xbd27211f	-0.04080307
59	0x3ca828ed	0.020527327
60	0xbb526ccf	-0.0032108312
61	0xbbd99b5f	-0.006640836
62	0x3c876213	0.016526258
63	0x3d0ee780	0.034888744
64	0xbbd67ba2	-0.0065455
65	0xbceb82dd	-0.028748924
66	0x3caa810d	0.02081349
67	0x3d3da638	0.046301097
68	0xbb6975e7	-0.0035623254
69	0x3d095ead	0.033537555
70	0x3c046146	0.008079832
71	0xbc7ca58c	-0.015420329
72	0xbc1f8c20	-0.009737998
73	0x3ce12d60	0.027487457
74	0xbc75b8cf	-0.014997675
75	0x3d27c036	0.04095479
76	0x3d1b91a1	0.03798068
77	0x3cc6439d	0.024202162
78	0x3c916664	0.017749019
79	0xbd25eca7	-0.040508892
80	0x3c96c708	0.018405452
81	0xbd31984d	-0.043358136
82	0x3ceefbcf	0.029172806
83	0xbcfc13a2	-0.03077108
84	0xbd17274a	-0.036902703
85	0xbbcf5537	-0.006327297
86	0xbceb1437	-0.028696163
87	0x3c5732cf	0.013134672
88	0xbd17b143	-0.037034284
89	0x39e5426c	0.00043727772
90	0xbd1ee4cd	-0.03879242
91	0x3c3ba571	0.0114530185
92	0x3ccf842b	0.025331577
93	0xbd332584	-0.04373695
94	0xbc4e68b8	-0.012598209
95	0x3c2afacf	0.010435774
96	0xbcb9a6c2	-0.022662524
97	0x3cf2a641	0.029620292
98	0x3d28ed28	0.041241795
99	0x3ae96b89	0.0017808537
100	0xbbc91789	-0.006136839
101	0x3cbdc0f5	0.023163298
102	0xbd6530a0	-0.055954576
103	0xbccd9cd1	-0.02509919
104	0xbc16522b	-0.009174864
105	0xbc071c2d	-0.008246464
106	0xbc710904	-0.014711622
107	0x3d6e7379	0.058215592
108	0xbc724d45	-0.01478893
109	0x3d432827	0.047645714
110	0x3d3a7ccb	0.045529168
111	0xbd0da74b	-0.03458337
112	0x3c73e38f	0.014885797
113	0x3d02752a	0.031850018
114	0xbd36c0c4	-0.04461743
115	0x3d285e6e	0.04110568
116	0xbcad53c3	-0.021158105
117	0x3b088092	0.0020828587
118	0x3b88b93b	0.004172472
119	0xbd2ef2dc	-0.042712077
120	0x3ccc6a9d	0.02495318
121	0xbb4955b6	-0.0030721254
122	0x3d34f139	0.04417536
123	0xbbb3a543	-0.005482347
124	0xbcb0bc3c	-0.021574132
125	0xbd0c1000	-0.034194946
126	0xbc20dc56	-0.009818157
127	0x3c2f6345	0.01070482
128	0x3ce113f6	0.027475338
129	0x3b46513d	0.0030260824
130	0x3cf8bf5a	0.030364681
131	0x3ba96ece	0.0051706797
132	0x3d273238	0.040819377
133	0xbc607f74	-0.013702262
134	0xbc86fd29	-0.016478138
135	0x3d10e04c	0.035370156
136	0x3abea1e4	0.0014544097
137	0x3b6020e2	0.0034199287
138	0x3d0ea4ea	0.034825243
139	0xbcf9037f	-0.030397175
140	0x3ac993aa	0.001537909
141	0x3c29206c	0.010322671
142	0xbcdca694	-0.0269349
143	0xbc80a6e3	-0.015704578
144	0xbd0a52e0	-0.033770442
145	0x3c505dfc	0.01271772
146	0x3d03cd14	0.032178
147	0x3ad8c220	0.0016537346
148	0xbcd6d642	-0.026225213
149	0xbcbedaca	-0.023297686
150	0xbc1cbcac	-0.009566467
151	0x3d1ce398	0.038302988
152	0x3c19953c	0.009373959
153	0xbbf19360	-0.007372305
154	0xbc707932	-0.014677333
155	0xbc3c2748	-0.011483975
156	0x3bf65e78	0.007518586
157	0x3d02427a	0.03180168
158	0xbca9a9cd	-0.02071085
159	0x3cf5c984	0.030003317
160	0xbcb4fcab	-0.022093138
161	0x3be4cb70	0.0069822595
162	0xbc500d1e	-0.01269844
163	0x3cccc408	0.024995819
164	0x3c71e5cc	0.0147642605
165	0x3d058658	0.032598823
166	0xbd24a942	-0.04020048
167	0x3c556ad0	0.013025954
168	0xba0bc9c0	-0.00053324923
169	0x3ba42d00	0.005010247
170	0x3c665cec	0.01406024
171	0xbcb1394d	-0.021633768
172	0x3ccd55a0	0.025065243
173	0xbb9d2828	-0.0047960468
174	0x3d20d332	0.03926391
175	0xbcab791b	-0.020931771
176	0xbd167b97	-0.03673896
177	0x3ccedf20	0.025252879
178	0xbc9c343d	-0.019067878
179	0x3bd8c9f8	0.0066158734
180	0x3d1b621d	0.037935365
181	0x3cbca6e0	0.023028791
182	0x3ce5ec85	0.028066883
183	0xbcaa344b	-0.020776888
184	0xbca2ce37	-0.019873722
185	0xbcaa3333	-0.020776367
186	0xbd250b70	-0.04029411
187	0x3b1ac135	0.0023613696
188	0x3d23bd2d	0.039975334
189	0xbcecf860	-0.028927028
190	0xbd03bd11	-0.03216273
191	0xbc550c3e	-0.013003407
192	0x3cc12358	0.023576424
193	0xbc1bbfdb	-0.009506191
194	0xbcbe112e	-0.023201551
195	0x3c0ace25	0.008472
196	0x3ceae978	0.02867578
197	0x3c52d382	0.01286781
198	0xbbba0eee	-0.0056780493
199	0x3ca81d44	0.020521767
200	0xbd1c6002	-0.038177498
201	0xbcfb72b4	-0.030694343
202	0x3c879b02	0.016553406
203	0xbc9a18d2	-0.018810663
204	0xbd292b0a	-0.04130081
205	0x3c7bb902	0.0153639335
206	0x3d14d225	0.036333222
207	0xbd10d972	-0.035363622
208	0xbc3a3d14	-0.011367101
209	0xbb19fc31	-0.0023496265
210	0x3ce5c798	0.028049275
211	0x3d0204dc	0.031742916
212	0x3c6fce56	0.014636597
213	0xbd089b44	-0.033351198
214	0x3cfb2206	0.030655872
215	0xbcdc0fe2	-0.026863042
216	0xbbbd12ce	-0.005770064
217	0x3cc77e73	0.024352288
218	0xbd0bd8b7	-0.034142222
219	0xbc2dcecc	-0.010608386
220	0xbc7c8124	-0.015411649
221	0x3d1e6400	0.038669586
222	0xbd198135	-0.037476737
223	0xbcb2104e	-0.02173629
224	0xbb8012ad	-0.0039084763
225	0x3cec6f44	0.02886165
226	0xbce1426a	-0.027497489
227	0x3cb71c63	0.022352403
228	0xbc9d6927	-0.01921518
229	0x3d2625ea	0.0405635
230	0x3c73413a	0.014847094
231	0x3d2442d6	0.040102802
232	0xbd121e85	-0.035673637
233	0x3d186b99	0.037211988
234	0xbc701806	-0.014654165
235	0x3c2cf708	0.010556944
236	0xbb9b7813	-0.0047445386
237	0x3c3bc19b	0.011459733
238	0x3d01027e	0.031496517
239	0x3d181988	0.037133723
240	0xbb177b18	-0.002311414
241	0x3c3fcf24	0.011707101
242	0xbc975d2b	-0.018477043
243	0x3d08d595	0.033406813
244	0x3c8fd70e	0.0175586
245	0x3c6dbf98	0.014511012
246	0x3d2b4a9d	0.041819204
247	0x3be96de7	0.007123697
248	0xbb0fabbc	-0.002192243
249	0x3d2d0cc2	0.042248495
250	0xbce14c35	-0.027502159
251	0xbc9a6602	-0.01884747
252	0x3d01a0f4	0.031647637
253	0xbace10a2	-0.001572151
254	0x3c508cad	0.012728852
255	0xbd3e311c	-0.046433553

fc1.bias f4 [120]
0	0x3c420c05	0.011843686
1	0x3d2429c1	0.040078882
2	0x3cf2bdba	0.029631484
3	0xbcd448c8	-0.025913611
4	0x3d791705	0.06081297
5	0xbd13b9ac	-0.036065742
6	0x3d475925	0.048669
7	0x3d4c73aa	0.049914993
8	0xbb3b43ba	-0.0028574304
9	0xbb8265b1	-0.0039794077
10	0x3c7a3daa	0.015273491
11	0xbcc75fcc	-0.024337672
12	0x3bed0c37	0.007234122
13	0x3d520714	0.05127628
14	0x3d57bdc5	0.052671213
15	0xbce01482	-0.027353529
16	0xbc988fb3	-0.018623209
17	0x3c4e2386	0.012581712
18	0x3d13bf57	0.036071148
19	0x3d60e0c4	0.054901853
20	0x3cb783fa	0.022401799
21	0x3cbebb5a	0.023282696
22	0xb97e1ad4	-0.00024233322
23	0xba86d5b6	-0.001028708
24	0xbd0918fa	-0.033471085
25	0x3c98476e	0.018588748
26	0x3b83cb29	0.0040220213
27	0x3d48211a	0.048859693
28	0x3ccbd7e9	0.024883227
29	0xbcf9ccc4	-0.030493148
30	0x3d2e4f4c	0.042556092
31	0x3b79fca9	0.0038144982
32	0x3c0f1dc8	0.008735128
33	0xbd0b9a4f	-0.034082707
34	0xbcad324d	-0.02114215
35	0x3cc6d6a1	0.024272265
36	0x3d2274dc	0.039662227
37	0x3d1aa1b3	0.037751865
38	0x3bcd40f1	0.006263845
39	0xbceed40c	-0.029153846
40	0x3d4021f4	0.04690738
41	0x3ab944f1	0.0014134926
42	0x3d672840	0.05643487
43	0xbbcae256	-0.006191532
44	0x3d976f9d	0.073943354
45	0xbd0bbf66	-0.03411808
46	0x3d17ad5f	0.037030574
47	0x3d509b8c	0.05092959
48	0x3d11077a	0.03540752
49	0x3d301de8	0.04299727
50	0x3c137df6	0.009002199
51	0x3b9934e9	0.004675497
52	0x3bbbc8b1	0.0057307114
53	0x3d485fc3	0.04891945
54	0x3c981d4e	0.018568661
55	0x3c90959f	0.01764947
56	0xbbb3f782	-0.0054921517
57	0xbd517cc6	-0.051144384
58	0x395fd420	0.0002134596
59	0xbb90ce6b	-0.004419138
60	0x3c1b48b9	0.009477788
61	0xbc7b9b99	-0.015356922
62	0xbb9dc552	-0.004814782
63	0x3c92e880	0.01793313
64	0xbc2d3efc	-0.010574099
65	0x3b5a322a	0.003329406
66	0xbd12e663	-0.035864245
67	0x3d48bd27	0.049008515
68	0x3d013e10	0.031553328
69	0x3c3def9e	0.011592774
70	0x3c84c5cf	0.016207604
71	0x3c8dc932	0.017307851
72	0x3ce58372	0.02801678
73	0xbcf24b95	-0.029577056
74	0x3cce0584	0.025149114
75	0xbcf4e899	-0.029896067
76	0x3d371b85	0.04470398
77	0x3cf3d969	0.029766755
78	0x3d2c1e32	0.042020984
79	0xbcaeff89	-0.021362083
80	0x3d4d6535	0.050145347
81	0xbc6d67a8	-0.014490046
82	0x39b32e90	0.00034176232
83	0x3d35dfc9	0.04440287
84	0x3b8b953c	0.0042597335
85	0x3d133c3c	0.035946116
86	0x3cef55d9	0.02921574
87	0x3d00b228	0.031419903
88	0x3d00f8e2	0.031487353
89	0x3d3ea22c	0.046541378
90	0x3c234353	0.009964782
91	0x3ca33ee3	0.019927448
92	0x3d61f257	0.055162754
93	0x3c3b8f99	0.011447811
94	0x3c8244cb	0.015901944
95	0x3d6e8b96	0.05823859
96	0x3cdf6898	0.027271554
97	0xbcec5263	-0.028847879
98	0x3bad2708	0.005284194
99	0x3d3ce837	0.046119895
100	0x3a16a8c1	0.0005747192
101	0x3d558842	0.0521319
102	0xbc3e3284	-0.011608724
103	0xba3f3434	-0.00072938506
104	0xbd0ab19c	-0.033860788
105	0xbd204ba8	-0.03913465
106	0x3cc25319	0.023721265
107	0x3d6fd94e	0.058556847
108	0xbc57beb7	-0.013168029
109	0x3c230cfc	0.009951826
110	0x3d5958d2	0.05306322
111	0x3bddd28c	0.006769484
112	0xbc4ed2c6	-0.0126234945
113	0x3d51c726	0.051215313
114	0xbc8095d3	-0.015696442
115	0x3d97d0b9	0.074128576
116	0x3bc197d6	0.005907993
117	0xbc81d506	-0.015848648
118	0x3c0a19fa	0.008429045
119	0x3b16cf44	0.0023011724

fc2.weight f4 [84, 120]
0	0xbb855a1d	-0.00406958
1	0xbd905ae1	-0.07048584
2	0x3d9a6b9a	0.075400546
3	0xbd89313f	-0.06698846
4	0xbc117142	-0.0088771
5	0xbc83afd3	-0.01607505
6	0xbd26b4c8	-0.04069975
7	0x3d76b69d	0.060232747
8	0xbdb54656	-0.08851306
9	0x3c85e973	0.016346669
10	0x3cad7853	0.02117554
11	0xbca4c592	-0.02011374
12	0xbd73ad7a	-0.059491612
13	0x3cb53cef	0.022123782
14	0xbd5864d1	-0.05283052
15	0xbcee6078	-0.029098734
16	0xbc8bc8a9	-0.017063456
17	0x3daa3187	0.08310228
18	0xbd2b1170	-0.041764677
19	0xbcd5d72b	-0.026103577
20	0xbdc11c8b	-0.09429272
21	0x3c821bde	0.015882429
22	0x3cd9fee5	0.026610801
23	0x3d2562d6	0.04037746
24	0xbd8f4364	-0.069952756
25	0x3ba9c9ed	0.005181542
26	0xbcd046c7	-0.025424374
27	0xbca68711	-0.020328077
28	0x3d267762	0.040641196
29	0x3c7e056d	0.015504223
30	0xbc9a8400	-0.01886177
31	0xbcb037f7	-0.021511061
32	0x3d6be254	0.05758889
33	0xbcd54f05	-0.026038656
34	0xbd36dc7f	-0.044643875
35	0x3d6d6fc6	0.057967924
36	0x3d7a5e9c	0.061125383
37	0x3d4adc24	0.04952635
38	0x3c125b37	0.00893288
39	0x3cea23b8	0.028581485
40	0x3d057ea8	0.032591492
41	0x3ca6356a	0.020289142
42	0x3d6d5f4b	0.057952207
43	0xbc25c7bc	-0.010118421
44	0xbda0c5ff	-0.07850265
45	0xbcbad66f	-0.022807328
46	0x3d93d84c	0.0721899
47	0xbcf1e097	-0.029526038
48	0xbca65e8f	-0.02030876
49	0xbdbd0502	-0.09229471
50	0xbd521528	-0.051289707
51	0xbc9c85ef	-0.019106833
52	0xbd93a212	-0.07208647
53	0xbc9fbf21	-0.019500317
54	0x3db61c43	0.08892109
55	0x3c882fb0	0.016624302
56	0x3ca39197	0.019966884
57	0x3d80bf72	0.06286515
58	0xbda0e899	-0.078568645
59	0x3d38fa2b	0.045160454
60	0x3db15c48	0.086601794
61	0x3d824dfb	0.0636253
62	0x3d8cfa9b	0.06883737
63	0x3c66c3aa	0.014084736
64	0xbd41b185	-0.047288436
65	0x3ba45501	0.005015016
66	0xbce04128	-0.027374819
67	0x3d273a96	0.040827356
68	0x3d898ce3	0.06716325
69	0x3d1cf024	0.038314953
70	0x3cf27fa2	0.029601876
71	0xbd8afdec	-0.06786713
72	0x3d6aabd2	0.057292767
73	0x3d9dde90	0.07708466
74	0x3d0a1c52	0.033718415
75	0x3c2b8499	0.010468625
76	0xbd97020b	-0.073734365
77	0xbd72cdec	-0.059278414
78	0xb9c5a0f9	-0.00037694702
79	0x3cc7b4d9	0.024378227
80	0x3b0ea3de	0.0021765153
81	0x3ca55978	0.020184264
82	0x3c999acf	0.018750576
83	0xbcb133cf	-0.02163115
84	0xbd7b7b92	-0.061397143
85	0xbd8411dd	-0.0644872
86	0x3c4ed006	0.012622839
87	0x3c50dd0c	0.012748014
88	0x3c97876d	0.018497193
89	0xbd6e81de	-0.05822932
90	0x3d55cc25	0.05219664
91	0xbc78e2de	-0.015190808
92	0xbd7f610c	-0.06234841
93	0xbd8a8eab	-0.06765493
94	0x3db38933	0.08766403
95	0xbd3140a9	-0.043274555
96	0xbd3c03d7	-0.0459021
97	0xbd9886c7	-0.07447582
98	0x3d712a3f	0.05887818
99	0x3ce99650	0.028514057
100	0x3bcc8e4b	0.0062425486
101	0xbbe3655d	-0.0069395737
102	0x3c4f3d0b	0.012648831
103	0x3c9b39d6	0.018948477
104	0x3d65c558	0.056096405
105	0xbcdc165b	-0.026866129
106	0x3cf721b2	0.030167434
107	0xbb3c263f	-0.002870932
108	0x3ce154e9	0.027506309
109	0xba142e3a	-0.000565264
110	0x3da36b8c	0.07979497
111	0x3d5e7a23	0.054315697
112	0xbd7e784f	-0.062126454
113	0x3d14b325	0.036303658
114	0x3d882eb9	0.06649537
115	0xbc44ad20	-0.012004167
116	0x3cba7172	0.022759173
117	0xbd241d01	-0.040066723
118	0xbc842fa2	-0.016135994
119	0xbcc31ca9	-0.023817377
120	0xbd83ef6b	-0.0644215
121	0xbc3a6d35	-0.011378576
122	0x3d91aa11	0.07112516
123	0xbc19e000	-0.009391785
124	0xbd3a2808	-0.045448333
125	0x3d20daa9	0.03927103
126	0x3c230729	0.009950438
127	0x3bc21d88	0.0059239306
128	0x3db7eec4	0.08981088
129	0xbd81732a	-0.06320794
130	0x3ce7e495	0.028307239
131	0xbc7b1ccc	-0.01532669
132	0xbce7254b	-0.028216025
133	0xbce2774f	-0.027644781
134	0x3d4c6b88	0.049907237
135	0xbda4c571	-0.080454715
136	0xbcda2a0f	-0.026631383
137	0xbd7d8434	-0.061893657
138	0xbd4eaa73	-0.05045552
139	0x3bfa9d5b	0.0076481528
140	0x3d09078c	0.033454463
141	0x3d9f62dc	0.07782528
142	0xbd1af2eb	-0.03782932
143	0xbd884fdb	-0.06655856
144	0x3c069947	0.008215255
145	0x3daf0e63	0.08547666
146	0x3daa74d5	0.08323065
147	0xbccd9f87	-0.025100483
148	0xbd1a493c	-0.037667498
149	0x3c8c73c7	0.01714505
150	0x3c5a938d	0.013340843
151	0xbc80ca23	-0.015721386
152	0x3d79b542	0.060963877
153	0xbd77bfc2	-0.06048561
154	0xbdb89d70	-0.09014404
155	0xbdaa202b	-0.08306917
156	0x39ba9497	0.00035587393
157	0x3d965ffd	0.07342527
158	0xbd9f4261	-0.07776333
159	0xbcb4c5fd	-0.022067064
160	0x3da72e90	0.08163178
161	0x3d7f4035	0.062317092
162	0x3d904bac	0.07045683
163	0xbdc65656	-0.09684436
164	0x3cdf4ffd	0.027259821
165	0xbbbf294f	-0.005833782
166	0xbc2216d1	-0.009893135
167	0xbc3a32ab	-0.011364619
168	0x3cc213f6	0.023691159
169	0x3cca0bf1	0.024663897
170	0x3d70ac5d	0.05875813
171	0x3c8073d6	0.015680235
172	0xbbc54597	-0.0060202586
173	0x3d984b22	0.074362054
174	0x3d931f9a	0.07183762
175	0xbd8a0634	-0.067394644
176	0x3d2abfc5	0.041686792
177	0x3d76ba2c	0.06023614
178	0xbddb1c38	-0.10698742
179	0xbd0159de	-0.031579845
180	0xbd7ac449	-0.06122235
181	0x3b5fb25b	0.0034133408
182	0xbd7d2538	-0.061803073
183	0x3d737535	0.05943795
184	0x3d1d49f5	0.03840061
185	0x3ddcd94f	0.10783636
186	0xb7bf7a7a	-2.2826007e-05
187	0x3d5d812e	0.054078273
188	0x3b10e412	0.0022108597
189	0xbd20119e	-0.0390793
190	0x3d3cb956	0.046075188
191	0xbd3e4a71	-0.04645771
192	0xbb09da1b	-0.0021034542
193	0xbc842873	-0.016132569
194	0x3db157d4	0.0865933
195	0x3cbc0462	0.022951309
196	0x3d2e3343	0.042529356
197	0x3dc45a2b	0.09587511
198	0xbca2f25f	-0.019890962
199	0xbd7283b4	-0.059207633
200	0x3ce47be7	0.027891112
201	0x3c9c8236	0.019105058
202	0x3dc79dad	0.09746871
203	0x3d802dbf	0.062587254
204	0xbd16371c	-0.03667365
205	0x3d3c271e	0.045935743
206	0x3de7e830	0.11323583
207	0xbbcd7e8d	-0.0062711895
208	0x3d8d54f7	0.069009714
209	0x3d6fd041	0.058548216
210	0x3de12414	0.109932095
211	0x3d36ffa9	0.04467741
212	0xbb8e2430	-0.00433781
213	0x3ce65c42	0.028120164
214	0x3b1dc84c	0.0024075685
215	0x3b6a4617	0.0035747343
216	0xbd9fb872	-0.07798852
217	0xbcab5bb5	-0.020917753
218	0xbb471fa2	-0.0030383845
219	0xbd4ac475	-0.049503762
220	0x3c7ce744	0.015435997
221	0x3d6ab056	0.057297073
222	0x3d4d68ad	0.050148655
223	0x3d568816	0.052375875
224	0x3d0330a7	0.03202882
225	0xbd719f4a	-0.0589898
226	0x3dcf27f7	0.101150446
227	0xbb7ec58b	-0.003887507
228	0x3cfd0f71	0.030891152
229	0x3d9bb7f9	0.076034494
230	0x3dbec902	0.09315683
231	0x3d3e14a7	0.046406414
232	0x3bbe09a0	0.0057994872
233	0xbbc73401	-0.0060791974
234	0x3dd4118a	0.10354908
235	0x3db2e677	0.08735364
236	0xbd46b17e	-0.048509113
237	0x3cc735d7	0.024317665
238	0x3d7318fa	0.05934999
239	0xbd321800	-0.04347992
240	0xbd2e6ae1	-0.042582396
241	0xbd94cfcd	-0.07266197
242	0xbcd69e3d	-0.0261985
243	0xbc0ad159	-0.008472764
244	0x3d8c5f32	0.068540946
245	0x3db69818	0.08915728
246	0x3dc34e77	0.0953645
247	0x3d93bd39	0.07213826
248	0x3cb879b4	0.02251897
249	0xbb912219	-0.0044291136
250	0x3db02259	0.08600301
251	0xbcf3d170	-0.029762954
252	0xbd14efea	-0.036361612
253	0xbdb7966c	-0.089642376
254	0x3dc0b7ed	0.09410081
255	0xbd31482b	-0.043281715

fc2.bias f4 [84]
0	0x3cd697a0	0.026195347
1	0x3da3c9d6	0.079974815
2	0x3b8d280a	0.0043077515
3	0xbd02953b	-0.0318806
4	0xbd8bba82	-0.06822683
5	0x3d3fca72	0.046823926
6	0xbd414cc7	-0.04719236
7	0xbd13188e	-0.03591209
8	0xbd866b42	-0.065634266
9	0xbd0d2cd0	-0.034466565
10	0x3d151383	0.03639556
11	0x3d14b745	0.036307592
12	0xbdc6bac9	-0.09703595
13	0x3d1e9cef	0.038723882
14	0x3e06d2c2	0.13166335
15	0x3d829f41	0.063780315
16	0xbc208dd2	-0.009799438
17	0xbd8bea12	-0.06831755
18	0x3d1ac951	0.037789647
19	0x3c293ffb	0.010330196
20	0x3d5777f9	0.05260465
21	0x3be253a7	0.006906945
22	0x3c0eae05	0.008708482
23	0xbd92ad38	-0.07161945
24	0xbcd27f8f	-0.02569559
25	0xbd1da3ef	-0.038486417
26	0xbdb96759	-0.09052915
27	0xbd60e8ee	-0.05490964
28	0x3d9fb6af	0.07798516
29	0x3dbcfd1c	0.09227964
30	0x3db93462	0.09043194
31	0x3d49375a	0.049125053
32	0xbcdab7fa	-0.026699055
33	0x3dc520ce	0.096253976
34	0xbd9e6cd7	-0.07735603
35	0xbda2a77f	-0.079421036
36	0xbd01bce2	-0.031674273
37	0xbd68e9ac	-0.056863472
38	0xbd93e4aa	-0.072213486
39	0xbc13c1d0	-0.0090183765
40	0xbcf3fb9b	-0.02978306
41	0x3d10f47a	0.0353894
42	0xbd8c40ce	-0.06848298
43	0x3e00d158	0.12579858
44	0xbcee8bfe	-0.029119488
45	0xbcd07306	-0.025445472
46	0x3da8dc44	0.08245137
47	0x3dd7606a	0.105164364
48	0x3d9439ef	0.072376125
49	0xbcedfcce	-0.02905121
50	0x3c7e6d8e	0.01552905
51	0x3d4ed8fe	0.05049991
52	0x3d758d74	0.059949353
53	0x3b3d91f5	0.0028926108
54	0xbd7b330c	-0.06132798
55	0xbc1ae360	-0.0094536245
56	0x3c8b3d30	0.01699695
57	0x3dd171f8	0.10226816
58	0xbda7f2b2	-0.08200587
59	0xbcef2187	-0.029190792
60	0xbd508e17	-0.050916757
61	0x3d27bfe1	0.040954474
62	0xbd80fc1f	-0.06298088
63	0xbd98eee2	-0.07467438
64	0x3d5a6f96	0.053329073
65	0x3d6b9273	0.05751271
66	0x3d73335a	0.059375145
67	0x3df55115	0.11978356
68	0x3dcbd6e7	0.09953099
69	0xbd1ba7ce	-0.038001828
70	0xbd07c2c8	-0.033144742
71	0x3da9066d	0.08253179
72	0x3cf7824e	0.030213501
73	0xbc9e5b9c	-0.019330792
74	0xbcfaf303	-0.030633455
75	0x3da74ad1	0.08168567
76	0x3dd49015	0.10379044
77	0x3c50875e	0.012727587
78	0x3ccf6e9f	0.025321303
79	0xbd3d7636	-0.046255313
80	0x3de8af99	0.113616176
81	0xbdd13bcb	-0.10216483
82	0xbca68c08	-0.020330444
83	0xbcff6e2b	-0.031180462

fc3.weight f4 [2, 84]
0	0xbd22ff54	-0.03979428
1	0xbe7aa5c1	-0.24477293
2	0x3ecb4b25	0.39705768
3	0x3e01938f	0.12653945
4	0x3dcf3a00	0.101184845
5	0x3e94f6c6	0.29094523
6	0xbe22fec0	-0.15917492
7	0xbd6275f4	-0.05528827
8	0x3dbb6cbb	0.09151598
9	0xbdb97d5e	-0.09057115
10	0x3d514728	0.05109325
11	0xbd88728d	-0.06662474
12	0x3e4cb3e3	0.19990496
13	0x3e65ca7f	0.22440527
14	0xbe1de86c	-0.15420693
15	0xbe86da8f	-0.26338622
16	0xbe5279e3	-0.20554309
17	0x3dc79bbc	0.09746501
18	0xbe887cac	-0.26657617
19	0x3e7c088c	0.24612635
20	0x3e599624	0.2124868
21	0xbe72d989	-0.23715796
22	0x3d20ecb4	0.039288238
23	0x3cbdcbdf	0.023168502
24	0x3d2f7f7b	0.042846184
25	0xbe2088fc	-0.15677255
26	0xbdc17ddd	-0.09447835
27	0x3e0a90dd	0.13531823
28	0x3d9b6182	0.075869575
29	0x3f13c9ce	0.57729805
30	0xbe0d41e9	-0.13794674
31	0x3da70fa4	0.0815728
32	0xbd578c06	-0.05262377
33	0x3ed31bd6	0.41232175
34	0x3d4c9440	0.04994607
35	0xbd393b5f	-0.045222636
36	0x3e39a1c0	0.18128109
37	0x3e5111ae	0.204169
38	0xbdda8c20	-0.10671258
39	0xbea8b21e	-0.32948393
40	0x3e292a3e	0.1652002
41	0xbe851c28	-0.25998044
42	0x3d0b367a	0.0339875
43	0xbe876760	-0.26446056
44	0x3ec3672e	0.38164657
45	0x3d14dd44	0.036343828
46	0xbd0cf6e1	-0.03441513
47	0x3e5a8f5c	0.2134375
48	0x3cb753a4	0.02237875
49	0x3c9fa979	0.01948999
50	0x3e0f0b27	0.13969098
51	0xbebef818	-0.37298656
52	0xbe500f89	-0.20318426
53	0x3e96a03b	0.2941912
54	0x3d6727cb	0.056434434
55	0x3d1a6517	0.037694063
56	0x3d9d9483	0.07694342
57	0x3e1115f6	0.14168534
58	0x3d34290b	0.043984454
59	0x3bc23c82	0.0059276232
60	0x3dc4504d	0.09585629
61	0x3e71d390	0.23615861
62	0x3dc6f656	0.097149536
63	0xbddf704d	-0.109100915
64	0xbd885294	-0.066563755
65	0xbeb43b46	-0.35201472
66	0x3d2fec64	0.04295005
67	0xbec2529a	-0.37953645
68	0x3e4c5a83	0.19956402
69	0xbdd93dcc	-0.1060749
70	0x3ebdf88b	0.37103686
71	0xbd015c93	-0.031582426
72	0xbe0e5263	-0.13898616
73	0xbd72b0fc	-0.059250817
74	0x3da01c43	0.078178905
75	0xbe3dd320	-0.18537569
76	0xbd7de33b	-0.061984282
77	0xbe486bf9	-0.19572438
78	0xbe008b10	-0.12553048
79	0xbe1d993d	-0.15390487
80	0xbea65a57	-0.324908
81	0x3e37cc27	0.17948972
82	0x3d90611b	0.070497714
83	0xbdbe7139	-0.09298939
84	0xbdf0eab0	-0.11763513
85	0x3c194f93	0.009357351
86	0xbdb8f396	-0.09030835
87	0x3cf5c21b	0.029999783
88	0x3dd6a5c8	0.10480839
89	0xbeca8c68	-0.39560246
90	0xbe11dbcc	-0.14244002
91	0x3d52bf86	0.051452182
92	0x3c8ef055	0.017448584
93	0xbed07cad	-0.4072012
94	0x3d80f5f1	0.062969096
95	0xbe6aa395	-0.22913964
96	0xbe1149a6	-0.14188251
97	0xbdb930bf	-0.09042501
98	0xbf0345b3	-0.5127823
99	0xbe84ad05	-0.25913253
100	0x3df1e15d	0.11810563
101	0xbe110daa	-0.14165369
102	0xbe93bb08	-0.2885363
103	0x3ecc2c2a	0.39877445
104	0x3db8ebe8	0.090293705
105	0x3e9e64d8	0.30936313
106	0x3cd0e7c9	0.025501149
107	0x3df3e675	0.119091906
108	0x3d3801a1	0.04492343
109	0xba2a90f1	-0.00065065833
110	0x3d57ee2f	0.052717384
111	0xbd8afeb1	-0.0678686
112	0x3ddf3f7c	0.109007806
113	0x3e5ac829	0.21365418
114	0xbd4e322b	-0.050340813
115	0xbdb79e0a	-0.089656904
116	0xbeab5b3e	-0.3346805
117	0x3dce9502	0.10087015
118	0x3d16cf0f	0.03681856
119	0xbdd13eb4	-0.10217038
120	0x3deda53a	0.1160378
121	0x3d8c3edb	0.06847926
122	0xbe1c6740	-0.15273762
123	0x3ec4e840	0.38458443
124	0xbdb34fc8	-0.087554514
125	0x3e4711ac	0.19440335
126	0xbe1f9bf9	-0.15586843
127	0x3e67e6a4	0.22646576
128	0xbd83eb06	-0.064413115
129	0x3ea9c8de	0.33161062
130	0x3e93db7b	0.28878388
131	0xbe854635	-0.26030126
132	0xbd6e2a6c	-0.058145925
133	0x3edfc469	0.43704537
134	0xbd111df0	-0.03542894
135	0x3e116fdc	0.14202827
136	0x3dcea057	0.10089176
137	0xbd3753a8	-0.044757515
138	0xbe0b702d	-0.1361701
139	0x3dea06e6	0.11427097
140	0x3e7eb56f	0.24873899
141	0xbe12b290	-0.14325929
142	0xbc0883ea	-0.008332232
143	0x3de2e463	0.110787176
144	0x3da2cc75	0.07949153
145	0x3e9f660a	0.31132537
146	0xbc240ce4	-0.010012839
147	0x3e13f5ef	0.14449285
148	0xbe894ced	-0.26816502
149	0x3c505822	0.012716325
150	0xbb071226	-0.0020610183
151	0x3dafdeb2	0.08587398
152	0xbe51bb3e	-0.20481583
153	0xbe19025c	-0.14942306
154	0xba317c3c	-0.00067705265
155	0x3ebb8ee9	0.3663247
156	0x3e4e73dd	0.20161386
157	0x3caf3770	0.02138874
158	0xbdd944bd	-0.10608814
159	0x3e3962ee	0.18104145
160	0x3e151ec0	0.14562511
161	0xbdc4bed8	-0.09606713
162	0xbdaabb9e	-0.083365664
163	0xbdc4097a	-0.0957212
164	0xbeeca260	-0.46217632
165	0x3dcb24a3	0.09919097
166	0xbe14c413	-0.14527921
167	0x3dc6d46e	0.097084865

fc3.bias f4 [2]
0	0x3bd104a1	0.0063787256
1	0xbd848ba2	-0.06471945
